DI_LYAP_m-fwd_d-1_s-0.005_seed4.pt (torch, 21631 bytes, 7 tensors)

W.0 f4 [64, 3]
0.6007078 0.0647023 -0.6236515 -0.90034324 -0.763565 -0.43603116 1.1111981 0.5535294
0.05597046 0.11974717 -0.20299858 -0.42930928 0.23288423 -0.010077059 -0.26217288 0.8371689
0.36692125 -0.28795797 -0.74198306 -0.6664347 -0.021973873 0.31283188 0.105690405 -0.13073787
1.0076267 0.09211364 -0.059482083 0.68408775 0.5792311 -0.21164909 0.99947256 0.49005297
-0.21180242 0.82788646 0.6307474 -0.24232838 0.29725042 0.4051398 0.38943177 0.689265
0.19795464 0.24611408 0.034508564 -0.38530388 -0.31381983 0.9681394 0.39651886 -0.20289138
0.31426087 0.5885241 -0.35301298 0.8672116 0.39191258 -0.49978906 -0.06367936 0.15274683
0.18576935 1.0026002 0.10048992 -0.0017389941 0.12271904 0.32324278 -0.58796644 0.9093914
0.09983648 0.045726627 -0.2603579 -0.43578506 -0.08095901 0.6066491 0.08158781 -0.6134018
-0.7866889 -0.35941893 -0.38079774 1.0286665 0.3748854 0.09850517 -0.63756377 -0.5453321
0.0039450997 1.0433152 0.31778926 -0.42777178 0.28663307 0.016041452 -0.17483437 -0.25218734
-0.4739282 -0.58011377 0.7079741 0.30607805 0.19883153 0.90850735 0.5904688 -0.21245834
-0.060007278 0.2621205 0.47560143 -0.826093 -0.34084657 0.26815486 0.10020437 -0.04037653
-0.5083648 -0.38568532 -0.648474 -0.28311792 -0.5243776 -0.17332518 0.047683932 -0.4607799
-0.5156928 -0.15077758 0.57288533 0.3885151 -0.016669987 0.31849793 0.2202305 0.16327728
-0.36994147 -0.34846598 0.04725371 0.5843045 0.3728102 -0.14061803 0.47177076 0.33321878
-0.08449531 -0.15257002 -0.08643745 0.22403108 -0.44842958 -0.14944822 0.0023891435 0.47774422
0.50673145 -0.0808905 -0.07430362 -0.14438722 -0.08910967 -0.30136287 -0.60390854 0.031228205
0.82857126 0.2841761 -0.009819691 0.45769945 0.19322747 0.08957937 0.25824982 0.20646416
-0.5440847 -0.46877486 -0.25877798 -0.30675325 0.058181945 0.4550733 0.02628789 -0.40690967
-0.12423098 -0.3656931 0.06537484 0.04931313 -0.6034222 0.27364385 0.29198396 0.39118555
-0.6425486 -0.6429241 0.4159975 0.83893913 0.46768048 -0.14251891 0.38427812 0.043151975
-0.19708028 -0.4637115 -0.32607454 0.3417439 -0.100996464 -0.060856514 -0.6618977 -0.8075515
-0.29903093 -0.15883727 -0.27035958 -0.10613234 0.003360817 -0.82544804 -0.19102219 0.047207747
00000000: fdc7 193f a482 843d a0a7 1fbf e57c 66bf
00000010: ff78 43bf 7a3f dfbe bd3b 8e3f 1ab4 0d3f
00000020: 4841 653d 013e f53d dcde 4fbe 6dce dbbe
00000030: 3479 6e3e 401a 25bc 863b 86be b350 563f
00000040: 1add bb3e 3a6f 93be 9af2 3dbf 779b 2abf
00000050: 8d02 b4bc 802b a03e 3674 d83d 26e0 05be
00000060: e9f9 803f 13a6 bc3d 7ca3 73bd 6020 2f3f
00000070: 7d48 143f 8aba 58be 6fdd 7f3f 39e8 fa3e
00000080: bce2 58be 5ef0 533f a978 213f ee24 78be
00000090: 3531 983e 7c6e cf3e 9a63 c73e ac73 303f
000000a0: 9fb4 4a3e 5405 7c3e da58 0d3d 8d46 c5be
000000b0: feac a0be fcd7 773f 8504 cb3e c2c2 4fbe
000000c0: cde6 a03e 84a9 163f 1ebe b4be 9401 5e3f
000000d0: c4a8 c83e 5ae4 ffbe 536a 82bd aa69 1c3e
000000e0: 523a 3e3e 3455 803f a9cd cd3d f6ee e3ba
000000f0: 1f54 fb3d 1480 a53e f884 16bf e0cd 683f
00000100: 1277 cc3d d84b 3b3d a14d 85be 381f dfbe
00000110: d6cd a5bd 5b4d 1b3f 8217 a73d e607 1dbf
00000120: 7264 49bf c205 b8be ecf7 c2be 58ab 833f
00000130: fbf0 bf3e 14bd c93d 6137 23bf e29a 0bbf
00000140: e545 813b 5a8b 853f 46b5 a23e e704 dbbe
00000150: 92c1 923e 5d69 833c c807 33be b31e 81be
00000160: b8a6 f2be 5682 14bf ca3d 353f 43b6 9c3e
00000170: 7e9a 4b3e f093 683f f728 173f ae8e 59be
00000180: 31ca 75bd a834 863e 0882 f33e d57a 53bf
00000190: 7183 aebe 984b 893e f337 cd3d dc61 25bd
000001a0: 3224 02bf 8c78 c5be 6402 26bf d5f4 90be
000001b0: 9c3d 06bf 287c 31be 3a50 433d 58eb ebbe
000001c0: 7104 04bf 7065 1abe 9da8 123f 74eb c63e
000001d0: 7f8f 88bc 2912 a33e 1b84 613e 2932 273e
000001e0: f868 bdbe 226a b2be 1b8d 413d fb94 153f
000001f0: fbe0 be3e 2cfe 0fbe f08b f13e a79b aa3e
00000200: e10b adbd 513b 1cbe 1e06 b1bd 6768 653e
00000210: 9098 e5be f408 19be 2d93 1c3b e49a f43e
00000220: 27b9 013f eba9 a5bd 7f2c 98bd 3eda 13be
00000230: 217f b6bd 3c4c 9abe c099 1abf 4bd2 ff3c
00000240: 3f1d 543f 887f 913e c5e2 20bc 9557 ea3e
00000250: 6cdd 453e 6475 b73d 5239 843e 576b 533e
00000260: 2349 0bbf 4203 f0be 8c7e 84be c30e 9dbe
00000270: 3150 6e3d 5eff e83e b359 d73c 7756 d0be
00000280: d06c febd 203c bbbe 3ee3 853d 91fc 493d
00000290: e179 1abf 0c1b 8c3e ec7e 953e 7949 c83e
000002a0: 117e 24bf ac96 24bf a0fd d43e b7c4 563f
000002b0: d173 ef3e 7af0 11be 1ac0 c43e 20c0 303d
000002c0: 6acf 49be 986b edbe 3ef3 a6be 0ef9 ae3e
000002d0: 3cd7 cebd ae44 79bd 2172 29bf b2bb 4ebf
000002e0: 951a 99be 3da6 22be 926c 8abe ea5b d9bd
000002f0: 2741 5c3b 9050 53bf 529b 43be e95c 413d

W.1 f4 [64, 3]
0.018182177 -0.49320176 0.015617098 -0.15503797 -0.052774914 -0.10781949 -0.17074934 -0.5993686
0.26675332 -0.043909732 0.07586227 0.15286057 -0.33097622 -0.04501125 -0.95375776 0.48991016
0.34887308 0.22865456 -0.26764074 -0.055782713 -0.41846922 1.0032985 0.19761117 0.01384364
-0.22743383 -0.16795951 -0.1582917 1.0309324 0.6102463 -0.4669958 -0.9604284 -0.23408347
-0.03107424 0.23221795 0.27374023 -0.5279178 0.44470963 0.3825037 -0.16600877 0.37830642
0.11398124 0.20839237 0.4586315 0.014530057 -0.47088298 -0.8867445 -0.25391394 0.2865576
0.13207552 0.25057513 -0.21668686 0.7346134 0.29098386 0.2960328 -0.87356806 -0.14219649
-0.49070048 -0.37493452 -0.30733216 -0.031332288 -0.9657729 -0.20397365 -0.5678106 1.9852156e-05
0.1662853 -0.012411202 -0.6848062 -0.2902397 0.32175028 0.6027273 0.16887768 0.3709719
0.00050014624 -0.10620019 0.114299625 -0.49846593 -0.48776942 0.25284258 -0.52103806 -0.075149894
-0.19043411 -0.008859114 -0.06400651 -0.21819769 0.7852905 0.1294593 0.10214899 -0.007636787
-0.16130158 0.27836064 -0.0016051485 0.042401552 0.011120298 -1.0384927 -0.6962735 -0.24319623
0.43612117 0.39747113 -0.2233839 -0.034147836 -0.18598388 0.048240006 0.9386414 0.3603113
-0.23267429 0.781248 0.18220103 -0.47784445 0.9371329 0.63271606 0.012991257 0.066559374
-0.03605601 -0.2628878 0.46510538 0.12472924 0.09995783 -0.9423394 -0.27291006 -0.49802533
0.40779105 0.15410194 -0.38242838 -0.39983898 -0.6172783 0.14453556 -0.20231357 -0.18950514
0.17749222 -0.622911 -0.49989304 -0.52389735 -0.04367093 0.13986571 0.03528431 -0.9216937
-0.1405726 -0.15972023 0.5682616 0.3205805 0.40405193 0.89140004 0.27960998 0.13369574
-0.81770885 -0.32622963 -0.29436696 0.6249956 0.14482446 0.02429789 -0.8897189 -0.701444
-0.21160531 -0.24936268 -0.567675 0.15053806 -0.30251512 -0.34071574 0.335102 0.17172742
0.24057008 -0.06575352 -0.908011 -0.28006402 0.10725474 0.037370205 0.47648785 -0.19602974
-0.71759623 -0.5803592 -0.50075984 -0.042780373 0.11172549 0.33014193 0.71844006 0.49450377
-0.4199243 0.047701754 0.5244126 0.06735453 0.86417466 0.28023073 -0.011414116 0.24344845
0.53369147 -0.103129305 -0.0023915553 0.16672549 -0.44295308 0.63765186 0.6145355 -0.20603062
00000000: caf2 943c f184 fcbe dbde 7f3c 46c2 1ebe
00000010: 822a 58bd 77d0 dcbd ead8 2ebe 3870 19bf
00000020: e493 883e b1da 33bd ae5d 9b3d 7b87 1c3e
00000030: b775 a9be b75d 38bd 7829 74bf 81d5 fa3e
00000040: 7e9f b23e 6c24 6a3e 3508 89be 6a7c 64bd
00000050: 9941 d6be 166c 803f 955a 4a3e 6fd0 623c
00000060: 6ae4 68be 94fd 2bbe 3817 22be 98f5 833f
00000070: 1a39 1c3f 131a efbe a3de 75bf 94b3 6fbe
00000080: 688f febc 8bca 6d3e ae27 8c3e 9f25 07bf
00000090: fbb0 e33e 86d7 c33e 34fe 29be 61b1 c13e
000000a0: ff6e e93d cf64 553e bfd1 ea3e 7a0f 6e3c
000000b0: 9317 f1be b001 63bf 0201 82be aeb7 923e
000000c0: ce3e 073e 624b 803e 29e3 5dbe a00f 3c3f
000000d0: d6fb 943e 9c91 973e 28a2 5fbf f59b 11be
000000e0: 183d fbbe 6bf7 bfbe a45a 9dbe 4956 00bd
000000f0: e53c 77bf 78de 50be 095c 11bf 2e88 a637
00000100: b246 2a3e 5b58 4bbc 764f 2fbf 4c9a 94be
00000110: 74bc a43e 564c 1a3f 45ee 2c3e 07f0 bd3e
00000120: 3f1c 033a 7c7f d9bd ec15 ea3d ed36 ffbe
00000130: eabc f9be 9574 813e c062 05bf 30e8 99bd
00000140: 2901 43be d125 11bc d815 83bd 376f 5fbe
00000150: cc08 493f fb90 043e 7d33 d13d 033e fabb
00000160: 3e2c 25be 4985 8e3e d963 d2ba 40ad 2d3d
00000170: e931 363c 54ed 84bf fb3e 32bf 6f08 79be
00000180: 464b df3e 5681 cb3e c0be 64be 9ade 0bbd
00000190: 8f72 3ebe 5097 453d ce4a 703f b97a b83e
000001a0: 2b42 6ebe deff 473f e892 3a3e 07a8 f4be
000001b0: f1e7 6f3f aef9 213f 48d9 543c 4850 883d
000001c0: 77af 13bd 3b99 86be 4b22 ee3e 0b72 ff3d
000001d0: b1b6 cc3d 283d 71bf deba 8bbe 2dfd febe
000001e0: fdc9 d03e e6cc 1d3e a7cd c3be b2b7 ccbe
000001f0: f305 1ebf 2101 143e 4a2b 4fbe a30d 42be
00000200: 85c0 353e 1877 1fbf fbf1 ffbe 231e 06bf
00000210: 4ae0 32bd f538 0f3e 4886 103d 1ef4 6bbf
00000220: 43f2 0fbe b38d 23be 9879 113f 2123 a43e
00000230: e5df ce3e cb32 643f 0a29 8f3e 89e7 083e
00000240: 5e55 51bf 9207 a7be 44b7 96be b6ff 1f3f
00000250: dd4c 143e 5e0c c73c 9ec4 63bf d591 33bf
00000260: 10af 58be ee58 7fbe 2653 11bf a626 1a3e
00000270: 43e3 9abe 4b72 aebe 7d92 ab3e 50d9 2f3e
00000280: 0158 763e c8a9 86bd 6973 68bf 8d64 8fbe
00000290: 60a8 db3d 8011 193d 37f6 f33e 05bc 48be
000002a0: 63b4 37bf 6c92 14bf cc31 00bf 793a 2fbd
000002b0: 55d0 e43d 5d08 a93e b0eb 373f 992f fd3e
000002c0: 5100 d7be ea62 433d e73f 063f 2cf1 893d
000002d0: 8d3a 5d3f 677a 8f3e 4602 3bbc 8d4a 793e
000002e0: 01a0 083f 7535 d3bd a4bb 1cbb 16ba 2a3e
000002f0: bfca e2be 273d 233f 3352 1d3f b1f9 52be

W.2 f4 [1, 3]
-0.50799584 -0.038287845 -1.4310641
00000000: 040c 02bf b7d3 1cbd 1c2d b7bf

U.0 f4 [64, 64]
-0.041401133 0.13040642 0.14965239 0.025550907 -0.066499375 -0.027716605 0.09500766 0.05645537
-0.1621605 -0.006218398 0.1262026 0.010846672 0.043107294 -0.30317596 -0.08495238 0.017042484
-0.11827906 0.08223471 -0.04329331 -0.021794543 -0.07052385 -0.061465703 0.06260816 -0.13023818
0.050984472 -0.060963698 0.018219896 0.059983224 -0.1432586 -0.07423107 -0.1578854 -0.032595675
-0.080979615 0.13725643 -0.051157277 0.14255941 0.10518106 0.0968082 0.07388161 -0.3578232
-0.110495806 -0.05137098 -0.085602425 -0.015507407 0.032376837 0.011998615 -0.11796707 0.02945811
-0.19538143 -0.36212412 -0.19180945 0.106819466 0.08904394 0.07291216 0.08522776 -0.08231594
-0.03371768 0.08751299 0.0921437 0.010357953 0.033025198 -0.004674487 0.009892144 0.010192435
-0.25899062 0.08179039 0.18497816 0.03614043 -0.10756435 -0.071704656 0.091944315 -0.03393117
-0.276991 0.105205335 0.12255808 0.14430171 -0.009117107 -0.03792359 0.07314456 0.04840841
-0.004439595 0.000930843 -0.03394097 -0.27851093 -0.16435546 -0.30206463 -0.10079455 -0.26498696
-0.05050095 0.14349206 0.022721127 0.08698816 -0.10500309 -0.028988143 0.011971768 0.004345454
-0.12016984 0.07420638 -0.1562251 -0.10283389 -0.057120956 -0.077306375 0.11468102 -0.15067893
0.0036874723 0.015941633 0.045357052 -0.041119397 -0.17443313 -0.047783278 -0.13935028 -0.123783424
-0.046648134 -0.025027143 0.028454166 -0.015425823 0.08857387 -0.049446452 -0.19683605 -0.066811346
0.0716512 0.1435976 -0.35597992 -0.08103049 -0.13130169 -0.07151553 -0.19301295 0.02029931
-0.00083454145 0.1995424 -0.11104967 -0.11829571 -0.04741 -0.17773461 0.0033519752 -0.14762115
-0.11453435 0.0016463631 0.058517862 0.027866054 -0.120858565 -0.15371719 0.02539468 -0.2187068
-0.09536977 -0.1507494 0.03205242 0.0037193666 -0.14118208 -0.034909215 0.04515657 0.033534914
-0.002892837 -0.41176537 0.1414541 -0.20875256 0.08426136 0.062610604 -0.24701811 0.060467854
-0.06670796 -0.036882848 0.025107076 0.12391559 0.039555624 0.11416269 -0.27476603 -0.14398295
0.056286924 -0.20410337 -0.1388652 -0.055240724 0.021152988 -0.1337947 -0.09673705 0.066511
-0.33728355 -0.13630457 -0.15839854 0.05199456 -0.1297644 -0.0007866099 0.029718623 -0.4053882
0.06913985 -0.07683878 0.05053908 0.10122562 -0.11111196 0.07972072 -0.14743012 -0.0014305708
-0.03480339 0.12161538 0.014804197 0.024934305 -0.49953076 0.10658957 0.004258429 -0.07321266
-0.17740731 0.049471553 0.067243256 0.024284173 0.066060215 0.023097338 0.020748805 0.08166416
-0.13912992 0.023203079 0.0065821223 0.011488867 -0.025892854 -0.11861397 0.07740869 -0.049119968
0.0018526061 -0.09609706 0.1764849 0.06672418 -0.16052252 -0.032049708 -0.011254971 0.1392263
-0.06310361 0.013194495 -0.063790224 -0.0043536993 -0.063561246 0.06548077 -0.11816828 0.011248809
0.063479014 0.084367 -0.014104149 -0.095643364 0.008588159 -0.1202485 -0.015541377 0.11467686
-0.08890626 0.047389682 -0.04207759 -0.0797283 -0.148621 -0.014840405 -0.079723924 0.049515594
0.12033931 -0.028920012 -0.14095779 -0.112564415 -0.15594815 0.048106518 -0.15202111 -0.011532743
00000000: 3c94 29bd 4389 053e 7a3e 193e 2350 d13c
00000010: d330 88bd ef0d e3bc 6093 c23d bf3d 673d
00000020: 670d 26be b4c3 cbbb 413b 013e 3db6 313c
00000030: 4691 303d e139 9bbe 83fb adbd ae9c 8b3c
00000040: 4b3c f2bd ac6a a83d 5354 31bd 788a b2bc
00000050: cf6e 90bd 76c3 7bbd b538 803d 285d 05be
00000060: 18d5 503d 12b5 79bd e441 953c f8b0 753d
00000070: 62b2 12be 7606 98bd b6ac 21be 0b83 05bd
00000080: a4d8 a5bd f38c 0c3e 4b8a 51bd 18fb 113e
00000090: 2b69 d73d 6143 c63d 3e4f 973d 9a34 b7be
000000a0: a04b e2bd 606a 52bd 5350 afbd c712 7ebc
000000b0: 939d 043d d795 443c b898 f1bd 2252 f13c
000000c0: 1212 48be 5568 b9be b269 44be 2ac4 da3d
000000d0: ab5c b63d f852 953d e48b ae3d 4295 a8bd
000000e0: 8d1b 0abd 033a b33d d6b5 bc3d 67b4 293c
000000f0: 6e45 073d 702c 99bb a912 223c 2cfe 263c
00000100: 6b9a 84be b881 a73d ea6a 3d3e fd07 143d
00000110: b34a dcbd e4d9 92bd 4d4d bc3d 69fb 0abd
00000120: c4d1 8dbe e575 d73d bbff fa3d d4c3 133e
00000130: eb5f 15bc c455 1bbd d1cc 953d e647 463d
00000140: 067a 91bb d103 743a b005 0bbd fc98 8ebe
00000150: cc4c 28be 37a8 9abe 5f6d cebd 5fac 87be
00000160: 16da 4ebd 95ef 123e a821 ba3c d926 b23d
00000170: dc0b d7bd 8b78 edbc 3c25 443c 4f64 8e3b
00000180: 9b1b f6bd 84f9 973d 79f9 1fbe 939a d2bd
00000190: aaf7 69bd ce52 9ebd e2dd ea3d 944b 1abe
000001a0: 85a9 713b 0798 823c 51c8 393d d06c 28bd
000001b0: 999e 32be 66b8 43bd d7b1 0ebe 2a82 fdbd
000001c0: 1d12 3fbd b905 cdbc b618 e93c 97bc 7cbc
000001d0: 3866 b53d 5d88 4abd 648f 49be 63d4 88bd
000001e0: ddbd 923d 400b 133e 0043 b6be 50f3 a5bd
000001f0: f373 06be bc76 92bd 30a5 45be bd4a a63c
00000200: 21c5 5aba d854 4c3e 026e e3bd 0545 f2bd
00000210: fd30 42bd 1000 36be d0ac 5b3b 002a 17be
00000220: fc90 eabd c7ca d73a 6db0 6f3d 5a47 e43c
00000230: b284 f7bd 0a68 1dbe 8108 d03c adf4 5fbe
00000240: 3a51 c3bd 0d5e 1abe 6649 033d 9ec0 733b
00000250: 0992 10be f7fc 0ebd 18f6 383d e85b 093d
00000260: c095 3dbb e9d2 d2be 58d9 103e 3bc3 55be
00000270: 3891 ac3d fd39 803d 51f2 7cbe 24ad 773d
00000280: 2f9e 88bd 7812 17bd 5bad cd3c 75c7 fd3d
00000290: 1405 223d 21ce e93d 22ae 8cbe 4470 13be
000002a0: 1e8d 663d 7900 51be ae32 0ebe 1944 62bd
000002b0: 0849 ad3c 7a01 09be 131e c6bd eb36 883d
000002c0: 6eb0 acbe 6d93 0bbe 3a33 22be 3ff8 543d
000002d0: f5e0 04be 7f34 4eba 7874 f33c 0b8f cfbe
000002e0: 3299 8d3d a65d 9dbd 1102 4f3d 614f cf3d
000002f0: ab8e e3bd 9e44 a33d ecf7 16be fe81 bbba
00000300: 008e 0ebd 7c11 f93d 4d8d 723c 0743 cc3c
00000310: 7fc2 ffbe a24b da3d 4b8a 8b3b 85f0 95bd
00000320: 43aa 35be afa2 4a3d d5b6 893d 9aef c63c
00000330: 944a 873d a136 bd3c 66f9 a93c 8a3f a73d
00000340: 1378 0ebe 6214 be3c d8ae d73b cd3b 3c3c
00000350: 401d d4bc e2eb f2bd 7288 9e3d 0532 49bd
00000360: 25d3 f23a 89ce c4bd 75b8 343e b0a6 883d
00000370: 0460 24be 8e46 03bd c566 38bc 5791 0e3e
00000380: 773c 81bd b92d 583c 73a4 82bd 7aa9 8ebb
00000390: 662c 82bd c81a 863d 3602 f2bd ed4c 383c
000003a0: 4901 823d 9bc8 ac3d 1715 67bc abe0 c3bd
000003b0: 5ab5 0c3c d844 f6bd 42a1 7ebc b4db ea3d
000003c0: 7c14 b6bd af1b 423d 8d59 2cbd 9748 a3bd
000003d0: 1a30 18be 2c25 73bc 4c46 a3bd ddd0 4a3d
000003e0: 7574 f63d a9e9 ecbc 3d57 10be 2c88 e6bd
000003f0: dfb0 1fbe 570b 453d 6cab 1bbe d5f3 3cbc

U.1 f4 [1, 64]
-0.05385451 -0.072577894 0.029501067 -0.07172862 -0.3061318 -0.07498649 -0.036424894 0.020508947
-0.066789754 0.03251176 0.10544378 0.025598027 0.021234468 -0.0341384 -0.3673585 -0.05022858
-0.029705958 -0.095913105 0.123510025 -0.108259656 0.04526536 0.040251248 -0.09343241 -0.08393516
-0.07246641 0.09624153 0.024228109 -0.07315112 -0.07480747 -0.036142536 -0.16329217 0.21449196
0.026420334 -0.026058454 -0.06709286 -0.083365925 0.11989131 -0.088321485 0.007693783 0.14332022
-0.12523699 0.08855824 0.026136247 0.009289793 0.03032633 0.074763134 -0.1218 -0.032152686
-0.0037427356 -0.11044647 0.022954525 0.10107525 0.029703503 0.029761953 -0.032358337 -0.013488303
0.13268223 -0.071577005 0.0027868706 -0.13226129 -0.111163095 -0.08954116 -0.1366745 0.09759931
00000000: 8c96 5cbd b8a3 94bd 39ac f13c 74e6 92bd
00000010: 4fbd 9cbe 8492 99bd 4532 15bd 6102 a83c
00000020: 11c9 88bd 0d2b 053d e9f2 d73d f4b2 d13c
00000030: e8f3 ad3c b5d4 0bbd 6a16 bcbe 7cbc 4dbd
00000040: e959 f3bc 176e c4bd d3f2 fc3d 3db7 ddbd
00000050: 2c68 393d 7ede 243d 7e59 bfbd 32e6 abbd
00000060: 4569 94bd 471a c53d 077a c63c 41d0 95bd
00000070: a934 99bd 320a 14bd 1036 27be c8a3 5b3e
00000080: 756f d83c 8a78 d5bc fb67 89bd c1bb aabd
00000090: 9389 f53d e5e1 b4bd 211c fc3b 89c2 123e
000000a0: 203e 00be 065e b53d af1b d63c 3734 183c
000000b0: ec6e f83c 6a1d 993d 4772 f9bd 89b2 03bd
000000c0: af48 75bb c231 e2bd 210b bc3c 8a00 cf3d
000000d0: c354 f33c 57cf f33c 2d8a 04bd 0bfe 5cbc
000000e0: dadd 073e f796 92bd eea3 363b 816f 07be
000000f0: 7aa9 e3bd 5b61 b7bd 66f4 0bbe 26e2 c73d

bias.0 f4 [64]
0.00710034 -0.4553426 0.17938715 -0.3697499 0.01566831 -0.05503093 -0.31970558 0.35210165
-0.26311138 0.08521878 0.24286984 -0.21177925 -0.012086527 -0.06596456 -0.0873229 -0.28078285
0.36059183 0.337418 -0.109114505 0.17006944 0.2792316 -0.39639083 0.37272105 -0.12142053
0.38552594 0.30247578 0.24737947 0.38141325 -0.56588906 0.23807988 0.22828168 0.2161886
0.12614505 0.24293813 -0.017144738 0.347948 -0.18704695 0.4737385 0.26477048 0.22065051
0.017768404 -0.43165004 -0.49168286 -0.2968636 -0.13991162 -0.08925836 -0.08658045 0.050023183
-0.31276515 -0.43376723 -0.40257397 -0.40507415 -0.52567714 -0.5031272 -0.39089078 -0.115310974
-0.17075424 0.4363685 -0.24487531 0.19870006 0.33304632 -0.47380766 -0.46611285 -0.25064698
00000000: f8a9 e83b aa22 e9be 44b1 373e dc4f bdbe
00000010: d45a 803c 1d68 61bd 73b0 a3be ab46 b43e
00000020: 89b6 86be 2f87 ae3d dfb2 783e a9dc 58be
00000030: 9206 46bc 6d18 87bd 59d6 b2bd c5c2 8fbe
00000040: 7e9f b83e 0dc2 ac3e 6d77 dfbd af26 2e3e
00000050: 72f7 8e3e bdf3 cabe 4bd5 be3e 54ab f8bd
00000060: a863 c53e 1bde 9a3e 0b51 7d3e 9948 c33e
00000070: 1bde 10bf 36cb 733e acc2 693e 8b60 5d3e
00000080: 2b2c 013e c6c4 783e 1f73 8cbc 3e26 b23e
00000090: 3c89 3fbe da8d f23e ff8f 873e 35f2 613e
000000a0: 0b8f 913c 3c01 ddbe dbbd fbbe 81fe 97be
000000b0: fe44 0fbe 16cd b6bd 1751 b1bd 1ce5 4c3d
000000c0: c122 a0be bd16 debe 2d1e cebe e165 cfbe
000000d0: c792 06bf f2cc 00bf d622 c8be 2928 ecbd
000000e0: 33da 2ebe b16b df3e 98c0 7abe 0778 4b3e
000000f0: 0c85 aa3e eb96 f2be 58a6 eebe cd54 80be

bias.1 f4 [64]
0.40388903 -0.34888014 -0.1660268 0.2034859 -0.7546053 -0.52451485 -0.05877728 0.07664973
0.19216937 -0.1561804 -0.31720856 -0.5787258 0.22352129 0.050249755 -0.3288295 0.4259072
-0.30513626 -0.59864134 -0.13729292 -0.51097816 0.40783197 0.13674843 -0.38141835 -0.4038331
0.07474711 -0.3102435 0.22525276 -0.26136103 -0.6520379 0.25942054 -0.3719614 -0.027074324
-0.4303279 -0.5455254 -0.047219697 0.3655108 -0.5690489 0.20887884 -0.13570383 0.35807216
-0.56366915 -0.52950823 0.2447508 -0.41437957 0.28519613 -0.49847293 -0.09803298 0.41884983
-0.53334045 -0.48021248 -0.29703987 0.0393382 -0.53179985 0.4765023 -0.48241046 0.509335
0.16906105 -0.1531897 0.47646803 -0.2716814 0.38233948 -0.25793108 -0.37489903 -0.26664522
00000000: 8bca ce3e 6ba0 b2be ee02 2abe 9c5e 503e
00000010: d02d 41bf 9b46 06bf 72c0 70bd 89fa 9c3d
00000020: 0cc8 443e c1ed 1fbe 2969 a2be 6027 14bf
00000030: c4e2 643e b0d2 4d3d 575c a8be 8210 da3e
00000040: d23a 9cbe 8f40 19bf 8496 0cbe 77cf 02bf
00000050: 5acf d03e c807 0c3e 4449 c3be 36c3 cebe
00000060: 0315 993d 3cd8 9ebe a9a8 663e 1dd1 85be
00000070: f5eb 26bf c5d2 843e ba71 bebe f9ca ddbc
00000080: f053 dcbe 8da7 0bbf 7169 41bd 3b24 bb3e
00000090: 30ad 11bf 56e4 553e f2f5 0abe 3c55 b73e
000000a0: 9f4c 10bf da8d 07bf f49f 7a3e 8f29 d4be
000000b0: 3a05 923e d837 ffbe 84c5 c8bd 7c73 d63e
000000c0: 0089 08bf 69de f5be 9c15 98be 1821 213d
000000d0: 0924 08bf 1cf8 f33e 81fe f6be c763 023f
000000e0: 571e 2d3e c3dd 1cbe 9ef3 f33e d319 8bbe
000000f0: 00c2 c33e 8b0f 84be c4f2 bfbe b985 88be
