DI_LYAP_m-fwd_d-1_s-0.005_seed4.pt (torch, 21631 bytes, 7 tensors)

W.0 f4 [64, 3]
0.6007092 0.064701274 -0.6236508 -0.90034395 -0.76356584 -0.43603197 1.1111982 0.5535287
0.055971876 0.119746916 -0.20299953 -0.42930967 0.2328861 -0.010077751 -0.2621733 0.83716995
0.36692008 -0.2879569 -0.7419832 -0.6664354 -0.021975541 0.31283322 0.10568968 -0.13073713
1.0076288 0.09211314 -0.059480768 0.6840883 0.5792301 -0.21164799 0.99947363 0.49005216
-0.21180105 0.8278872 0.63074666 -0.2423274 0.2972515 0.4051394 0.3894321 0.6892661
0.19795437 0.24611464 0.034508254 -0.3853049 -0.31382072 0.9681403 0.39651802 -0.20289028
0.31426147 0.58852327 -0.35301197 0.8672127 0.39191136 -0.49978837 -0.06367831 0.15274633
0.18576954 1.0026022 0.100489475 -0.0017379544 0.12271995 0.3232415 -0.58796626 0.90939283
0.099836044 0.045727707 -0.26035812 -0.43578577 -0.08096048 0.60665053 0.08158668 -0.6134011
-0.7866895 -0.35942015 -0.3807991 1.0286685 0.3748849 0.09850631 -0.637564 -0.54533285
0.003943576 1.043316 0.31778842 -0.42777067 0.28663513 0.016040986 -0.1748342 -0.2521877
-0.47392935 -0.58011425 0.7079749 0.3060775 0.1988323 0.9085078 0.5904681 -0.21245712
-0.060006093 0.26212013 0.4756011 -0.82609296 -0.34084696 0.26815325 0.100204945 -0.040377557
-0.50836504 -0.38568547 -0.64847493 -0.28311908 -0.5243776 -0.1733257 0.047681917 -0.46078
-0.51569325 -0.15077898 0.57288647 0.38851434 -0.016668921 0.31849897 0.22022994 0.16327782
-0.3699416 -0.3484665 0.04725218 0.5843049 0.37280914 -0.14061703 0.47177157 0.33321804
-0.08449423 -0.1525694 -0.0864378 0.22402863 -0.4484293 -0.1494488 0.0023872345 0.4777448
0.50673026 -0.08088933 -0.07430347 -0.14438789 -0.089111045 -0.3013632 -0.6039088 0.03122677
0.8285722 0.28417554 -0.009818438 0.45770034 0.19322696 0.08958027 0.25825086 0.20646286
-0.54408437 -0.46877506 -0.2587789 -0.30675402 0.05818263 0.4550726 0.02628889 -0.40690956
-0.12423195 -0.3656939 0.06537578 0.049311936 -0.6034221 0.2736448 0.2919836 0.3911857
-0.642549 -0.6429242 0.41599658 0.8389399 0.46767962 -0.14251754 0.3842796 0.04315139
-0.19707972 -0.46371186 -0.3260751 0.3417422 -0.10099593 -0.060857706 -0.6618977 -0.8075517
-0.29903188 -0.15883893 -0.27035952 -0.106132925 0.003359213 -0.8254483 -0.19102266 0.047205444
00000000: 14c8 193f 1a82 843d 94a7 1fbf f17c 66bf
00000010: 0d79 43bf 953f dfbe be3b 8e3f 0fb4 0d3f
00000020: c442 653d df3d f53d 1cdf 4fbe 7ace dbbe
00000030: b279 6e3e 271d 25bc 943b 86be c550 563f
00000040: f3dc bb3e 166f 93be 9cf2 3dbf 839b 2abf
00000050: 0d06 b4bc ad2b a03e d573 d83d f4df 05be
00000060: fbf9 803f d0a5 bc3d 1ba2 73bd 6920 2f3f
00000070: 6d48 143f 40ba 58be 81dd 7f3f 1ee8 fa3e
00000080: 60e2 58be 6af0 533f 9d78 213f ad24 78be
00000090: 5931 983e 6e6e cf3e a563 c73e be73 303f
000000a0: 8db4 4a3e 7a05 7c3e 8758 0d3d af46 c5be
000000b0: 1cad a0be 0bd8 773f 6904 cb3e 78c2 4fbe
000000c0: e1e6 a03e 76a9 163f fcbd b4be a701 5e3f
000000d0: 9ba8 c83e 43e4 ffbe c669 82bd 8969 1c3e
000000e0: 5f3a 3e3e 4555 803f 6dcd cd3d 13cc e3ba
000000f0: 9954 fb3d e97f a53e f584 16bf f8cd 683f
00000100: d776 cc3d fa4c 3b3d a94d 85be 501f dfbe
00000110: 9cce a5bd 734d 1b3f eb16 a73d db07 1dbf
00000120: 7c64 49bf eb05 b8be 1af8 c2be 69ab 833f
00000130: eaf0 bf3e adbd c93d 6537 23bf ef9a 0bbf
00000140: 1d39 813b 618b 853f 2ab5 a23e c204 dbbe
00000150: d7c1 923e 6368 833c bd07 33be bf1e 81be
00000160: dea6 f2be 5e82 14bf d83d 353f 31b6 9c3e
00000170: b29a 4b3e f893 683f eb28 173f 5c8e 59be
00000180: f3c8 75bd 9c34 863e fd81 f33e d47a 53bf
00000190: 7e83 aebe 624b 893e 4038 cd3d f062 25bd
000001a0: 3624 02bf 9178 c5be 7402 26bf fcf4 90be
000001b0: 9c3d 06bf 4b7c 31be 1d4e 433d 5beb ebbe
000001c0: 7904 04bf ce65 1abe b0a8 123f 5aeb c63e
000001d0: 438d 88bc 4c12 a33e f583 613e 4d32 273e
000001e0: fc68 bdbe 336a b2be 808b 413d 0295 153f
000001f0: d7e0 be3e e9fd 0fbe 0b8c f13e 8e9b aa3e
00000200: 500b adbd 273b 1cbe 4d06 b1bd c367 653e
00000210: 8698 e5be 1b09 19be 2673 1c3b f79a f43e
00000220: 13b9 013f 4ea9 a5bd 6b2c 98bd 6bda 13be
00000230: da7f b6bd 474c 9abe c499 1abf 48cf ff3c
00000240: 4f1d 543f 757f 913e 84dd 20bc b357 ea3e
00000250: 4add 453e dc75 b73d 7539 843e 006b 533e
00000260: 1d49 0bbf 4903 f0be ab7e 84be dd0e 9dbe
00000270: e950 6e3d 47ff e83e cc5b d73c 7356 d0be
00000280: 526d febd 3b3c bbbe bde3 853d 50fb 493d
00000290: df79 1abf 2c1b 8c3e e07e 953e 7e49 c83e
000002a0: 177e 24bf ae96 24bf 81fd d43e c4c4 563f
000002b0: b473 ef3e 1ef0 11be 4cc0 c43e 83bf 303d
000002c0: 44cf 49be a46b edbe 51f3 a6be d5f8 ae3e
000002d0: f4d6 cebd ee45 79bd 2172 29bf b5bb 4ebf
000002e0: b51a 99be aca6 22be 906c 8abe 385c d9bd
000002f0: 3e26 5c3b 9450 53bf 729b 43be 7f5a 413d

W.1 f4 [64, 3]
0.018181946 -0.4932022 0.015615123 -0.15503691 -0.052775547 -0.10782205 -0.17074974 -0.5993686
0.26675183 -0.043907598 0.075861745 0.15285857 -0.33097455 -0.045012306 -0.953758 0.48991093
0.34887263 0.22865549 -0.2676396 -0.05578367 -0.41847035 1.0032996 0.19761057 0.013844547
-0.2274335 -0.16796027 -0.15829405 1.0309335 0.6102449 -0.46699482 -0.9604284 -0.23408425
-0.03107703 0.23221877 0.27373853 -0.52791727 0.44471028 0.38250285 -0.16600731 0.37830856
0.1139808 0.20839097 0.45863456 0.014529332 -0.47088194 -0.886744 -0.25391442 0.28655452
0.13207619 0.25057405 -0.21668579 0.7346142 0.2909834 0.29603335 -0.87356776 -0.1421976
-0.49070212 -0.3749347 -0.30733287 -0.031334165 -0.965773 -0.2039749 -0.5678127 2.0850588e-05
0.16628467 -0.012410849 -0.6848062 -0.29024008 0.3217478 0.60272926 0.16887744 0.37097093
0.000500976 -0.10620061 0.11429602 -0.49846596 -0.48776975 0.25284055 -0.52103657 -0.075150594
-0.19043826 -0.008858529 -0.06400728 -0.21819913 0.78529155 0.12945898 0.1021495 -0.00763638
-0.16130215 0.2783572 -0.0016036315 0.042401012 0.011119439 -1.0384933 -0.69627446 -0.2431983
0.43612173 0.39747024 -0.22338264 -0.03414779 -0.18598443 0.048238035 0.93864244 0.36031058
-0.23267274 0.78124917 0.18219979 -0.47784308 0.93713385 0.6327157 0.012992901 0.066561185
-0.03605673 -0.26289 0.46510673 0.124728866 0.09995784 -0.94233936 -0.27291122 -0.49802727
0.40779188 0.15410069 -0.38242742 -0.39983934 -0.6172787 0.14453359 -0.20231333 -0.18950558
0.17748898 -0.62291175 -0.49989447 -0.52389795 -0.04366978 0.13986513 0.035284143 -0.9216934
-0.14057344 -0.15972328 0.5682629 0.32058007 0.4040516 0.89140105 0.27960953 0.13369606
-0.8177092 -0.3262308 -0.29436848 0.6249969 0.14482388 0.024298651 -0.8897194 -0.70144475
-0.2116072 -0.24936292 -0.56767535 0.15053622 -0.3025155 -0.34071603 0.33509997 0.17172837
0.24056935 -0.06575277 -0.9080111 -0.28006476 0.10725201 0.03737073 0.47648707 -0.19602841
-0.7175965 -0.5803599 -0.5007613 -0.042778723 0.11172509 0.3301402 0.71844083 0.49450275
-0.41992238 0.047702357 0.5244117 0.06735555 0.8641757 0.28023022 -0.011413081 0.24344906
0.5336908 -0.103127934 -0.0023906517 0.16672434 -0.44295257 0.63765234 0.61453456 -0.20602931
00000000: 4ef2 943c 0085 fcbe 93d6 7f3c ffc1 1ebe
00000010: 2c2b 58bd cfd1 dcbd 05d9 2ebe 3870 19bf
00000020: b293 883e 74d8 33bd 675d 9b3d f586 1c3e
00000030: 7f75 a9be d35e 38bd 7c29 74bf 9bd5 fa3e
00000040: 6f9f b23e aa24 6a3e 0f08 89be 6b7d 64bd
00000050: bf41 d6be 1f6c 803f 6d5a 4a3e 3dd4 623c
00000060: 54e4 68be c7fd 2bbe d617 22be a1f5 833f
00000070: 0339 1c3f f219 efbe a3de 75bf c8b3 6fbe
00000080: 4195 febc c2ca 6d3e 7527 8c3e 9625 07bf
00000090: 11b1 e33e 6ad7 c33e d2fd 29be a9b1 c13e
000000a0: c46e e93d 7164 553e 26d2 ea3e 6f0c 6e3c
000000b0: 7017 f1be a801 63bf 1201 82be 46b7 923e
000000c0: fb3e 073e 3e4b 803e e1e2 5dbe ad0f 3c3f
000000d0: c7fb 943e af91 973e 23a2 5fbf 3f9c 11be
000000e0: 4f3d fbbe 71f7 bfbe bc5a 9dbe 4158 00bd
000000f0: e63c 77bf ccde 50be 2c5c 11bf 4ce8 ae37
00000100: 8746 2a3e e056 4bbc 764f 2fbf 599a 94be
00000110: 21bc a43e 774c 1a3f 35ee 2c3e e7ef bd3e
00000120: ee53 033a b57f d9bd 0814 ea3d ee36 ffbe
00000130: f5bc f9be 5174 813e a762 05bf 8ee8 99bd
00000140: 3f02 43be 5d23 11bc 4016 83bd 986f 5fbe
00000150: de08 493f e590 043e c233 d13d 993a fabb
00000160: 642c 25be d684 8e3e f230 d2ba afac 2d3d
00000170: 4f2e 363c 59ed 84bf 0b3f 32bf fa08 79be
00000180: 594b df3e 3881 cb3e 6bbe 64be 8ede 0bbd
00000190: b472 3ebe 3f95 453d df4a 703f a17a b83e
000001a0: c341 6ebe f2ff 473f 9592 3a3e d9a7 f4be
000001b0: 01e8 6f3f a8f9 213f 2de0 543c 3b51 883d
000001c0: 39b0 13bd 8599 86be 7822 ee3e d971 ff3d
000001d0: b2b6 cc3d 273d 71bf 05bb 8bbe 6efd febe
000001e0: 19ca d03e 92cc 1d3e 87cd c3be beb7 ccbe
000001f0: fa05 1ebf 9d00 143e 3a2b 4fbe c00d 42be
00000200: acbf 353e 2577 1fbf 2bf2 ffbe 2d1e 06bf
00000210: 15df 32bd ce38 0f3e 1b86 103d 19f4 6bbf
00000220: 7cf2 0fbe 808e 23be ad79 113f 1223 a43e
00000230: dadf ce3e dc32 643f fb28 8f3e 9fe7 083e
00000240: 6455 51bf b907 a7be 77b7 96be ccff 1f3f
00000250: b64c 143e f70d c73c a7c4 63bf e291 33bf
00000260: 8faf 58be fe58 7fbe 2c53 11bf 2b26 1a3e
00000270: 50e3 9abe 5572 aebe 3992 ab3e 90d9 2f3e
00000280: d057 763e 63a9 86bd 6a73 68bf a664 8fbe
00000290: f1a6 db3d 0d12 193d 1df6 f33e acbb 48be
000002a0: 67b4 37bf 7792 14bf e431 00bf be38 2fbd
000002b0: 20d0 e43d 2308 a93e bdeb 373f 772f fd3e
000002c0: 1100 d7be 8c63 433d d83f 063f b5f1 893d
000002d0: 9e3a 5d3f 567a 8f3e eefd 3abc b64a 793e
000002e0: f69f 083f bd34 d3bd 7bac 1cbb c9b9 2a3e
000002f0: aeca e2be 2f3d 233f 2352 1d3f 59f9 52be

W.2 f4 [1, 3]
-0.5079819 -0.038288515 -1.4310843
00000000: 1a0b 02bf 6bd4 1cbd c52d b7bf

U.0 f4 [64, 64]
-0.041399673 0.13040818 0.14965183 0.025552005 -0.066498674 -0.027717572 0.09500841 0.05645641
-0.16216016 -0.006219294 0.1262018 0.010845624 0.04310651 -0.30317646 -0.08495136 0.01704151
-0.11827996 0.082233585 -0.043293547 -0.021794174 -0.07052468 -0.061465412 0.062608875 -0.13023664
0.050985865 -0.060964268 0.01822059 0.059982397 -0.14325805 -0.074229605 -0.15788639 -0.03259656
-0.080983184 0.13725673 -0.05115619 0.14256056 0.105181664 0.09680903 0.07388101 -0.3578239
-0.110495225 -0.051371727 -0.08560312 -0.015507217 0.032377433 0.011997877 -0.117966294 0.029458735
-0.19538186 -0.36212355 -0.19180982 0.10682077 0.08904329 0.07291352 0.08522996 -0.08231738
-0.033717494 0.08751239 0.09214451 0.010358214 0.033026613 -0.0046733315 0.009892671 0.010193032
-0.2589913 0.08179206 0.1849776 0.036141273 -0.10756397 -0.07170573 0.09194512 -0.033931598
-0.2769913 0.10520439 0.12255719 0.14430064 -0.00911757 -0.037924048 0.07314545 0.048407476
-0.0044406676 0.0009296231 -0.033941463 -0.27851138 -0.16435671 -0.30206499 -0.100793876 -0.26498795
-0.050499782 0.14349149 0.022721821 0.08698702 -0.10500277 -0.028986875 0.011971249 0.0043445425
-0.12017033 0.074206844 -0.15622443 -0.1028329 -0.057120416 -0.07730555 0.11468041 -0.1506795
0.0036880798 0.015940756 0.045356315 -0.041119173 -0.17443264 -0.0477841 -0.13934967 -0.12378282
-0.046648785 -0.02502768 0.028453056 -0.015424715 0.08857318 -0.04944535 -0.19683646 -0.06681184
0.07165149 0.14359681 -0.35598007 -0.08103014 -0.13130072 -0.071514435 -0.19301246 0.020299962
-0.00083305326 0.19954412 -0.11104937 -0.11829449 -0.047409218 -0.17773353 0.0033526805 -0.14761989
-0.11453385 0.0016460856 0.05851805 0.027865468 -0.120858274 -0.15371655 0.0253957 -0.21870616
-0.09537013 -0.150749 0.032053474 0.003719903 -0.14118098 -0.034908682 0.045157284 0.03353657
-0.0028914537 -0.41176412 0.14145462 -0.20875025 0.08426201 0.0626121 -0.24701694 0.060467675
-0.06670792 -0.036882572 0.025108302 0.12391658 0.03955628 0.114163525 -0.27476498 -0.14398172
0.056287512 -0.20410265 -0.13886392 -0.0552404 0.021153675 -0.13379474 -0.09673634 0.06651151
-0.3372816 -0.1363032 -0.15839516 0.05199589 -0.12976418 -0.0007851925 0.029720746 -0.40538752
0.06913982 -0.076838285 0.050540034 0.101225786 -0.11111051 0.07972186 -0.1474294 -0.0014298899
-0.034804344 0.12161695 0.014803718 0.024935208 -0.49953112 0.10658856 0.0042590722 -0.07321323
-0.17740777 0.049470656 0.067242414 0.024283143 0.06605988 0.02309703 0.020749701 0.08166319
-0.1391309 0.023201846 0.006581721 0.011488491 -0.025894007 -0.118614316 0.07740929 -0.049120966
0.0018536935 -0.09609745 0.17648543 0.06672315 -0.16052282 -0.03204834 -0.011255324 0.13922538
-0.063103996 0.013194653 -0.06378974 -0.0043528145 -0.06356094 0.06548143 -0.11816885 0.011248394
0.06347939 0.084366135 -0.0141048115 -0.09564361 0.008588522 -0.12024922 -0.015540919 0.1146773
-0.08890683 0.047389284 -0.042078674 -0.07972714 -0.14862166 -0.014839269 -0.07972461 0.04951531
0.12033939 -0.02892065 -0.14095825 -0.11256428 -0.15594724 0.048107505 -0.15202086 -0.011532331
00000000: b492 29bd b989 053e 543e 193e 7052 d13c
00000010: 7530 88bd f60f e3bc c593 c23d d63e 673d
00000020: 500d 26be 38cb cbbb 0b3b 013e d8b1 313c
00000030: 7490 303d f239 9bbe fbfa adbd a39a 8b3c
00000040: c33c f2bd 156a a83d 9354 31bd b289 b2bc
00000050: 3e6f 90bd 28c3 7bbd 1539 803d c15c 05be
00000060: 8ed6 503d abb5 79bd 5943 953c 1ab0 753d
00000070: 3db2 12be b105 98bd f8ac 21be f883 05bd
00000080: 83da a5bd 078d 0c3e 2789 51bd 65fb 113e
00000090: 7c69 d73d d043 c63d ed4e 973d b234 b7be
000000a0: 524b e2bd 296b 52bd b050 afbd fb11 7ebc
000000b0: 339e 043d be92 443c 5098 f1bd 7253 f13c
000000c0: 2f12 48be 4268 b9be cb69 44be d9c4 da3d
000000d0: 545c b63d af53 953d 0c8d ae3d 0496 a8bd
000000e0: 5b1b 0abd b239 b33d 43b6 bc3d 80b5 293c
000000f0: ea46 073d bf22 99bb df14 223c ad00 273c
00000100: 829a 84be 9882 a73d c56a 3d3e df08 143d
00000110: 804a dcbd 74da 92bd b94d bc3d dcfb 0abd
00000120: ced1 8dbe 6675 d73d 44ff fa3d 8cc3 133e
00000130: dc61 15bc 3f56 1bbd 48cd 953d eb46 463d
00000140: 0583 91bb f3b1 733a 3406 0bbd 0b99 8ebe
00000150: 204d 28be 43a8 9abe 056d cebd 80ac 87be
00000160: dcd8 4ebd 6fef 123e 1d23 ba3c 4026 b23d
00000170: b10b d7bd e275 edbc 0f23 443c aa5c 8e3b
00000180: dd1b f6bd c2f9 973d 4cf9 1fbe 0e9a d2bd
00000190: 19f7 69bd 5f52 9ebd 90dd ea3d ba4b 1abe
000001a0: b6b3 713b 3096 823c 8bc7 393d 946c 28bd
000001b0: 789e 32be 43b9 43bd aeb1 0ebe d981 fdbd
000001c0: cc12 3fbd d906 cdbc 6216 e93c f2b7 7cbc
000001d0: db65 b53d 3587 4abd 7f8f 49be a5d4 88bd
000001e0: 04be 923d 0b0b 133e 0543 b6be 21f3 a5bd
000001f0: b273 06be 2976 92bd 0fa5 45be 1b4c a63c
00000200: 4261 5aba 4b55 4c3e da6d e3bd 6244 f2bd
00000210: 2b30 42bd c7ff 35be a5b8 5b3b ab29 17be
00000220: b990 eabd 78c1 d73a 9fb0 6f3d 1f46 e43c
00000230: 8b84 f7bd df67 1dbe a50a d03c 82f4 5fbe
00000240: 6a51 c3bd f25d 1abe 814a 033d 9ec9 733b
00000250: bf91 10be 68fc 0ebd d8f6 383d a45d 093d
00000260: 8b7e 3dbb bfd2 d2be 7bd9 103e a0c2 55be
00000270: 9091 ac3d c63a 803d 02f2 7cbe f4ac 773d
00000280: 299e 88bd 2e12 17bd edaf cd3c fac7 fd3d
00000290: c405 223d 91ce e93d ffad 8cbe f26f 13be
000002a0: bc8d 663d 4900 51be 5832 0ebe c243 62bd
000002b0: 794a ad3c 7d01 09be b41d c6bd 3037 883d
000002c0: 2db0 acbe 1193 0bbe 5732 22be a4f9 543d
000002d0: e7e0 04be 60d5 4dba ec78 f33c f48e cfbe
000002e0: 2e99 8d3d 645d 9dbd 1103 4f3d 774f cf3d
000002f0: e88d e3bd 3745 a33d bcf7 16be 256b bbba
00000300: 008f 0ebd 4f12 f93d 4b8b 723c ec44 cc3c
00000310: 8bc2 ffbe 1a4b da3d b08f 8b3b d1f0 95bd
00000320: 62aa 35be bea1 4a3d 64b6 893d 71ed c63c
00000330: 674a 873d fc35 bd3c 47fb a93c 083f a73d
00000340: 5578 0ebe cc11 be3c 7aab d73b 393a 3c3c
00000350: ab1f d4bc 10ec f2bd c388 9e3d 1133 49bd
00000360: a2f7 f23a bdce c4bd 99b8 343e 26a6 883d
00000370: 1860 24be 1f45 03bd 4068 38bc 1991 0e3e
00000380: ab3c 81bd 632e 583c 32a4 82bd 0ea2 8ebb
00000390: 3d2c 82bd 211b 863d 8302 f2bd 2f4b 383c
000003a0: 7c01 823d 27c8 ac3d de17 67bc cce0 c3bd
000003b0: dfb6 0c3c 3945 f6bd 579f 7ebc efdb ea3d
000003c0: c914 b6bd 441b 423d b05a 2cbd fc47 a3bd
000003d0: 4730 18be 6820 73bc a846 a3bd 91d0 4a3d
000003e0: 8074 f63d 00eb ecbc 5c57 10be 1a88 e6bd
000003f0: a2b0 1fbe 600c 453d 5bab 1bbe 1af2 3cbc

U.1 f4 [1, 64]
-0.05385385 -0.07257737 0.02950148 -0.071729206 -0.30612805 -0.07498692 -0.0364238 0.02050834
-0.06678892 0.032510374 0.10544468 0.025596714 0.021233654 -0.034138963 -0.36735862 -0.050228123
-0.029706826 -0.0959135 0.123511985 -0.10825881 0.04526711 0.04025059 -0.093432136 -0.08393571
-0.07246604 0.09624192 0.024228968 -0.07315036 -0.07480795 -0.036142163 -0.16329268 0.21449311
0.026419297 -0.026057992 -0.06709382 -0.08336701 0.11989061 -0.0883209 0.0076932027 0.14332184
-0.12523799 0.08855879 0.02613665 0.009291601 0.030325714 0.07476435 -0.12180047 -0.032153256
-0.003741273 -0.11044705 0.022955667 0.10107581 0.029703785 0.029761294 -0.03235771 -0.01348914
0.13268366 -0.07157759 0.0027857416 -0.13226202 -0.11116377 -0.08954203 -0.13667545 0.09759825
00000000: db95 5cbd 72a3 94bd 16ad f13c c3e6 92bd
00000010: d1bc 9cbe be92 99bd 1f31 15bd 1b01 a83c
00000020: a1c8 88bd 9929 053d 61f3 d73d 33b0 d13c
00000030: 33f2 ad3c 4cd5 0bbd 6e16 bcbe 01bc 4dbd
00000040: bb5b f3bc 4c6e c4bd daf3 fc3d ccb6 ddbd
00000050: 016a 393d cddd 243d 5959 bfbd 7ce6 abbd
00000060: 1369 94bd 7c1a c53d d47b c63c dbcf 95bd
00000070: e934 99bd ce09 14bd 3236 27be 15a4 5b3e
00000080: 486d d83c 9277 d5bc 7c68 89bd 53bc aabd
00000090: 3589 f53d 97e1 b4bd 4317 fc3b f6c2 123e
000000a0: 633e 00be 505e b53d 871c d63c cd3b 183c
000000b0: a26d f83c 0d1e 993d 8672 f9bd 22b3 03bd
000000c0: 2530 75bb 1032 e2bd 860d bc3c d600 cf3d
000000d0: 5a55 f33c f5cd f33c 8589 04bd 8e01 5dbc
000000e0: 3ade 073e 4697 92bd fd90 363b b26f 07be
000000f0: d5a9 e3bd d061 b7bd a6f4 0bbe 97e1 c73d

bias.0 f4 [64]
0.0070995498 -0.455341 0.17938636 -0.36974904 0.015668927 -0.055031925 -0.3197045 0.352101
-0.26311222 0.0852179 0.24286889 -0.21178035 -0.012087506 -0.06596547 -0.087321974 -0.2807838
0.36059102 0.33741692 -0.1091152 0.17006877 0.27923048 -0.39639136 0.37272167 -0.121421464
0.38552684 0.30247483 0.24738023 0.38141218 -0.56588924 0.23808102 0.22828068 0.21618773
0.12614399 0.24293938 -0.017143881 0.34794894 -0.1870462 0.47373956 0.26476964 0.22064978
0.017769188 -0.43165088 -0.49168372 -0.296863 -0.13991076 -0.08925921 -0.086579695 0.050024018
-0.31276587 -0.43376797 -0.40257505 -0.40507305 -0.52567804 -0.50312597 -0.39089108 -0.11531205
-0.17075309 0.43636757 -0.2448755 0.19870122 0.33304742 -0.47380656 -0.46611208 -0.25064617
00000000: 57a3 e83b 7522 e9be 0fb1 373e bf4f bdbe
00000010: 1f5c 803c 2869 61bd 4fb0 a3be 9546 b43e
00000020: a5b6 86be b986 ae3d 9fb2 783e f3dc 58be
00000030: ad0a 46bc e818 87bd ddd5 b2bd e5c2 8fbe
00000040: 639f b83e e9c1 ac3e ca77 dfbd 8226 2e3e
00000050: 4cf7 8e3e cff3 cabe 60d5 be3e d1ab f8bd
00000060: c663 c53e fbdd 9a3e 3e51 7d3e 7548 c33e
00000070: 1ede 10bf 83cb 733e 69c2 693e 5160 5d3e
00000080: e42b 013e 1ac5 783e 5371 8cbc 5d26 b23e
00000090: 0a89 3fbe fe8d f23e e38f 873e 04f2 613e
000000a0: b090 913c 5801 ddbe f8bd fbbe 6dfe 97be
000000b0: c444 0fbe 88cd b6bd b250 b1bd fce5 4c3d
000000c0: d922 a0be d616 debe 511e cebe bc65 cfbe
000000d0: d692 06bf ddcc 00bf e022 c8be b928 ecbd
000000e0: e6d9 2ebe 926b df3e a5c0 7abe 5578 4b3e
000000f0: 3185 aa3e c696 f2be 3ea6 eebe b254 80be

bias.1 f4 [64]
0.4038899 -0.3488795 -0.16602586 0.20348494 -0.75460047 -0.5245155 -0.058776114 0.07664886
0.19216995 -0.15618154 -0.31720778 -0.57872665 0.2235208 0.050248582 -0.32882923 0.42590833
-0.30513692 -0.5986424 -0.13729136 -0.51097727 0.40783304 0.13674787 -0.38141757 -0.40383446
0.07474774 -0.31024262 0.22525373 -0.26136038 -0.65203893 0.2594216 -0.37196213 -0.027073443
-0.43032876 -0.5455249 -0.047220483 0.36551037 -0.56905 0.2088796 -0.13570456 0.35807312
-0.56367 -0.52950734 0.2447516 -0.41437802 0.2851956 -0.4984717 -0.09803437 0.41884866
-0.5333391 -0.4802131 -0.2970387 0.03933909 -0.5317991 0.47650164 -0.4824095 0.50933444
0.16906217 -0.1531908 0.4764675 -0.2716819 0.38233876 -0.25793183 -0.37489986 -0.2666462
00000000: a8ca ce3e 55a0 b2be af02 2abe 5b5e 503e
00000010: 7f2d 41bf a646 06bf 39bf 70bd 14fa 9c3d
00000020: 33c8 443e 0eee 1fbe 0f69 a2be 6e27 14bf
00000030: a3e2 643e 75d1 4d3d 4e5c a8be a810 da3e
00000040: e83a 9cbe a140 19bf 1b96 0cbe 68cf 02bf
00000050: 7ecf d03e a207 0c3e 2a49 c3be 64c3 cebe
00000060: 5815 993d 1fd8 9ebe eaa8 663e 07d1 85be
00000070: 06ec 26bf e8d2 843e d271 bebe 20c9 ddbc
00000080: 0d54 dcbe 85a7 0bbf 446a 41bd 2d24 bb3e
00000090: 43ad 11bf 89e4 553e 23f6 0abe 5c55 b73e
000000a0: ad4c 10bf cb8d 07bf 2aa0 7a3e 5b29 d4be
000000b0: 2805 923e af37 ffbe 3ec6 c8bd 5573 d63e
000000c0: e988 08bf 7ede f5be 7515 98be 0722 213d
000000d0: fc23 08bf 06f8 f33e 61fe f6be be63 023f
000000e0: a21e 2d3e 0dde 1cbe 8cf3 f33e e419 8bbe
000000f0: e8c1 c33e a40f 84be e0f2 bfbe da85 88be
