DI_LYAP_m-fwd_d-1_s-0.005_seed4.pt (torch, 21631 bytes, 7 tensors)

W.0 f4 [64, 3]
0	0x3f16d073	0.5891182
1	0x3d8c0906	0.068376586
2	0xbf1dd073	-0.61646193
3	0xbf5ff764	-0.87486863
4	0xbf458a64	-0.7716429
5	0xbedc3b02	-0.4301377
6	0x3f8abb10	1.0838337
7	0x3f0eae64	0.5573485
8	0x3d55b32e	0.052172832
9	0x3e2a433d	0.16627212
10	0xbe3e22da	-0.18567982
11	0xbedc4de4	-0.43028176
12	0x3e81fdda	0.25388986
13	0xbb1101a5	-0.0022126224
14	0xbe827908	-0.25482965
15	0x3f4b7904	0.7948153
16	0x3ebe2017	0.37133858
17	0xbe916baa	-0.28402454
18	0xbf3228f0	-0.69593716
19	0xbf2b586e	-0.6693181
20	0xbcafa3b4	-0.021440364
21	0x3e926163	0.28589925
22	0x3dd39567	0.103312306
23	0xbe0053df	-0.12531994
24	0x3f82b757	1.0212201
25	0x3dcd88a4	0.10035828
26	0xbd498ce9	-0.049206648
27	0x3f2416ed	0.6409748
28	0x3f14258e	0.57869804
29	0xbe571318	-0.21003377
30	0x3f75ae77	0.9596934
31	0x3efcd0f5	0.49378172
32	0xbe581a9e	-0.21103904
33	0x3f484706	0.78233373
34	0x3f218863	0.63098735
35	0xbe7556f1	-0.23958947
36	0x3e822ef6	0.25426453
37	0x3ecd7693	0.40129527
38	0x3ecaa0f5	0.39575925
39	0x3f2a83ba	0.6660725
40	0x3e4d925f	0.20075367
41	0x3e7d57d3	0.24740534
42	0x3daba9fb	0.083820306
43	0xbebc70f7	-0.36804935
44	0xbea16592	-0.31522804
45	0x3f6cf5cc	0.92562556
46	0x3ecde8bb	0.40216622
47	0xbe4a77b5	-0.19772227
48	0x3e8bb798	0.27288508
49	0x3f1518eb	0.58241147
50	0xbeb4558c	-0.35221517
51	0x3f530c4d	0.82440645
52	0x3ecaf233	0.39637908
53	0xbefe3886	-0.496525
54	0xbdd69932	-0.104784384
55	0x3e10e3a1	0.14149334
56	0x3e41f673	0.18941669
57	0x3f81f58d	1.0153061
58	0x3ddbf5a9	0.10740215
59	0x3b22c4aa	0.002483646
60	0x3dab1165	0.08352927
61	0x3ea00819	0.31256178
62	0xbf175770	-0.59117794
63	0x3f6a6169	0.91554886
64	0x3ddaf08b	0.10690411
65	0x3d5ae362	0.053439505
66	0xbe57b572	-0.2106531
67	0xbedb4392	-0.4282499
68	0xbda02065	-0.07818679
69	0x3f16709d	0.58765584
70	0x3daebfeb	0.08532699
71	0xbf1b53a8	-0.60674524
72	0xbf3c975d	-0.7366846
73	0xbebaa7c9	-0.36456135
74	0xbec23cd6	-0.3793704
75	0x3f812c22	1.0091593
76	0x3ec27de0	0.3798666
77	0x3dc162ee	0.094426975
78	0xbf170522	-0.5899221
79	0xbf0bdd18	-0.5463424
80	0x3b948bc8	0.004533265
81	0x3f80a339	1.0049812
82	0x3ea65346	0.32485408
83	0xbed95dcb	-0.4245437
84	0x3e81e8d3	0.25372943
85	0x3c820a90	0.015874177
86	0xbe35f6ba	-0.177699
87	0xbe4aa82b	-0.19790713
88	0xbeed1046	-0.46301478
89	0xbf15099c	-0.5821779
90	0x3f2de496	0.6792692
91	0x3e9dcd28	0.30820584
92	0x3e4bbe44	0.198968
93	0x3f5dd13b	0.86647385
94	0x3f1795ba	0.5921284
95	0xbe58871e	-0.21145293
96	0xbdda598f	-0.10661613
97	0x3e823f4a	0.2543891
98	0x3ef98a11	0.4873815
99	0xbf48ad00	-0.7838898
100	0xbeb15268	-0.34633183
101	0x3e8a22ff	0.26979825
102	0x3e101d0e	0.14073583
103	0xbcf4e23a	-0.02989303
104	0xbf0036f5	-0.5008386
105	0xbeac4ff1	-0.3365474
106	0xbf243c66	-0.6415466
107	0xbe90eb92	-0.28304726
108	0xbef34bfc	-0.4751891
109	0xbe31d09a	-0.17364731
110	0x3d4f2c0e	0.050579123
111	0xbed336fc	-0.41252887
112	0xbf032c07	-0.51239055
113	0xbe18ec41	-0.14933874
114	0x3f091643	0.53549594
115	0x3ec6e10e	0.38843578
116	0xbc6c4708	-0.014421232
117	0x3e8febee	0.28109688
118	0x3e5ed301	0.21760179
119	0x3e2d03f6	0.16896042
120	0xbea3f650	-0.3202386
121	0xbeafe248	-0.34352326
122	0x3d4924a3	0.049107205
123	0x3f0a9f5a	0.541494
124	0x3ebeedf1	0.3729091
125	0xbe0d9c19	-0.13829078
126	0x3edc57a8	0.43035626
127	0x3ea98a36	0.3311326
128	0xbdaa7cce	-0.08324586
129	0xbdbd9045	-0.09256033
130	0xbda51c44	-0.08062032
131	0x3e69bb12	0.22825268
132	0xbecc38b2	-0.39887005
133	0xbe17d5da	-0.14827672
134	0x3bc41ffb	0.0059852577
135	0x3edf16ff	0.43572232
136	0x3f00f860	0.5037899
137	0xbda2785c	-0.07933113
138	0xbcb1a21c	-0.021683745
139	0xbe0a2fa0	-0.1349473
140	0xbdafb641	-0.08579684
141	0xbe81a27a	-0.25319272
142	0xbf186a64	-0.5953734
143	0x3d059d66	0.03262081
144	0x3f4a9b0b	0.79142827
145	0x3e940391	0.2890897
146	0xbbca2aa1	-0.0061696325
147	0x3ed86f38	0.42272353
148	0x3e44d9be	0.19223687
149	0x3dbd3bf3	0.0923995
150	0x3e604743	0.21902184
151	0x3e4aebf8	0.19816577
152	0xbf0c6362	-0.54839146
153	0xbed4c9b6	-0.41560143
154	0xbe83067d	-0.25590888
155	0xbe9caf0b	-0.30602297
156	0x3c8e8049	0.017395156
157	0x3ee1dd5d	0.441142
158	0x3cbbe18a	0.022934694
159	0xbeb4f5eb	-0.3534387
160	0xbdf94df0	-0.121730685
161	0xbeb9579a	-0.36199647
162	0x3d07d1c7	0.033159044
163	0x3d165e5f	0.036711093
164	0xbf1ba11f	-0.60792726
165	0x3e6d8c60	0.2319808
166	0x3e937b71	0.28805116
167	0x3ecb5f9d	0.39721385
168	0xbf180d32	-0.59395134
169	0xbf24d93d	-0.6439398
170	0x3ed5b395	0.41738573
171	0x3f4dd554	0.8040364
172	0x3ef0aaec	0.47005403
173	0xbe123371	-0.14277436
174	0x3ec03e46	0.3754751
175	0x3d2d6660	0.04233396
176	0xbe469fa1	-0.19396831
177	0xbed060c2	-0.4069882
178	0xbea5e3a3	-0.32400236
179	0x3eb0d14a	0.34534675
180	0xbd663711	-0.05620486
181	0xbd5d4461	-0.05402029
182	0xbf278a3b	-0.654453
183	0xbf426c12	-0.7594615
184	0xbe9d0afb	-0.3067244
185	0xbe1f57de	-0.15560862
186	0xbe632526	-0.2218214
187	0xbdcf377a	-0.10118003
188	0x3bed2e18	0.007238161
189	0xbf478a9d	-0.7794588
190	0xbe4beb0c	-0.19913882
191	0x3d4a92e0	0.049456477

W.1 f4 [64, 3]
0	0x3d86e4aa	0.06586583
1	0xbef73e24	-0.48289597
2	0x3cdc6645	0.026904235
3	0xbdc006d3	-0.093763016
4	0xbd3e7e7e	-0.04650735
5	0xbdd90fdb	-0.10598727
6	0xbdf26f98	-0.11837691
7	0xbf16daea	-0.58927786
8	0x3e8bde49	0.27318028
9	0xbdafe4a8	-0.085885346
10	0x3d921e7b	0.0713472
11	0x3e260277	0.16211878
12	0xbec9c19f	-0.39405534
13	0xbd4fd2b8	-0.050738066
14	0xbf7061b4	-0.93899083
15	0x3ee58aa0	0.44832325
16	0x3eb2493a	0.34821492
17	0x3e6be0f3	0.2303503
18	0xbe5bc842	-0.21463111
19	0xbd5312cb	-0.051531594
20	0xbed40763	-0.41411886
21	0x3f7e1fa8	0.99267054
22	0x3e508cff	0.20366286
23	0x3bd3451d	0.006447448
24	0xbe3103f9	-0.17286672
25	0xbe25d63a	-0.16195002
26	0xbe1f4ed7	-0.15557419
27	0x3f7bf357	0.9841818
28	0x3f1cf42f	0.61310095
29	0xbeee2d1a	-0.46518785
30	0xbf6a0878	-0.9141917
31	0xbe78e1da	-0.24304906
32	0xbd0a1a6c	-0.033716604
33	0x3e407df4	0.18798047
34	0x3e880d3a	0.2657259
35	0xbf082538	-0.5318179
36	0x3ecf5eb3	0.40501937
37	0x3ec34644	0.38139546
38	0xbe277189	-0.16351904
39	0x3eaff395	0.34365526
40	0x3de9116c	0.11380276
41	0x3e576ee2	0.21038392
42	0x3ef1cd35	0.47226873
43	0x3c9794bc	0.01850354
44	0xbeecd592	-0.4625669
45	0xbf582ee6	-0.8444656
46	0xbe83a8b7	-0.25714657
47	0x3e93c05e	0.28857702
48	0x3db84900	0.08998299
49	0x3e785280	0.24250221
50	0xbe5dba4b	-0.21653096
51	0x3f3349e2	0.7003461
52	0x3e968c08	0.2940371
53	0x3e96ca32	0.29451138
54	0xbf524045	-0.8212932
55	0xbe1938be	-0.14963052
56	0xbefa27f6	-0.48858613
57	0xbea67a3e	-0.32515138
58	0xbe9a4de0	-0.3013754
59	0xbd00ec47	-0.03147533
60	0xbf6b1a44	-0.91836953
61	0xbe58e06d	-0.21179362
62	0xbf119a27	-0.5687584
63	0xbd2fdf64	-0.04293765
64	0x3e23b9fa	0.15988913
65	0xbbe97f37	-0.007125761
66	0xbf21b30e	-0.6316384
67	0xbe9552ed	-0.2916483
68	0x3ea44603	0.32084665
69	0x3f1289a8	0.57241297
70	0x3e2efa1d	0.17087598
71	0x3ebcf211	0.36903432
72	0x3d847a57	0.06468647
73	0xbdc9f957	-0.09862011
74	0x3df273ba	0.11838479
75	0xbee461a8	-0.44605756
76	0xbef80ac8	-0.48445725
77	0x3e81d82e	0.25360245
78	0xbeeedecb	-0.46654353
79	0xbd994c20	-0.07485223
80	0xbe418415	-0.18898042
81	0x3d4cba89	0.04998258
82	0xbd603dfa	-0.054746605
83	0xbe5c3a9a	-0.2150673
84	0x3f434d72	0.7629005
85	0x3e0a2f3f	0.13494585
86	0x3dd188c1	0.10231162
87	0x3d4dfdf2	0.05029101
88	0xbe1e4ef3	-0.15459804
89	0x3e92ddb1	0.28684762
90	0xbd2e562c	-0.04256265
91	0x3d0e7770	0.034781873
92	0x3c293e92	0.010329859
93	0xbf7d5f52	-0.9897357
94	0xbf3465d1	-0.7046786
95	0xbe7ade93	-0.24498968
96	0x3ec90951	0.3926492
97	0x3eca42e1	0.3950415
98	0xbe63e806	-0.22256479
99	0x3ca15a7f	0.019696472
100	0xbe32e63a	-0.17470637
101	0x3d4ddb47	0.050257947
102	0x3f66b839	0.9012485
103	0x3ebafd04	0.3652116
104	0xbe6ef2ba	-0.2333478
105	0x3f3f9442	0.748356
106	0x3e3f8bc4	0.1870566
107	0xbef44af8	-0.47713447
108	0x3f64b931	0.8934508
109	0x3f2246ec	0.6338947
110	0x3c572d8e	0.01313342
111	0x3e0f59ff	0.13999175
112	0xbce84ae2	-0.02835602
113	0xbe86259a	-0.26200563
114	0x3edd1147	0.43177244
115	0x3e005bad	0.12534972
116	0x3dcf1fef	0.10113513
117	0xbf65366b	-0.8953616
118	0xbe8f712c	-0.2801603
119	0xbeffb96f	-0.49946162
120	0x3ebc0e1d	0.36729518
121	0x3e1c642f	0.15272592
122	0xbec3853a	-0.3818758
123	0xbeb3be37	-0.3510606
124	0xbf1c31d0	-0.6101351
125	0x3e144908	0.14480984
126	0xbe10ad97	-0.1412872
127	0xbe3c81e3	-0.18408923
128	0x3e3ada98	0.1824745
129	0xbf128982	-0.5724107
130	0xbeff2b82	-0.4983788
131	0xbf06536a	-0.5247103
132	0xbdb04eab	-0.08608755
133	0x3e095644	0.13411814
134	0x3d2ccf12	0.042189665
135	0xbf5fd3a6	-0.87432325
136	0xbe194540	-0.14967823
137	0xbe24471e	-0.16042754
138	0x3f0850f0	0.532485
139	0x3ea48bbb	0.32137856
140	0x3eceb0f6	0.40369385
141	0x3f61d351	0.8821307
142	0x3e9119f1	0.28340104
143	0x3dfe2e07	0.12411123
144	0xbf453dd5	-0.77047473
145	0xbeaa118a	-0.33216506
146	0xbe964497	-0.29349205
147	0x3f17cde2	0.5929853
148	0x3e17707b	0.14789002
149	0x3ccf7de4	0.025328584
150	0xbf57a5fb	-0.8423764
151	0xbf34e618	-0.70663595
152	0xbe595a63	-0.21225886
153	0xbe495ed8	-0.19665086
154	0xbf0f4377	-0.5596232
155	0x3e1f3fd6	0.15551695
156	0xbe7ea488	-0.24867451
157	0xbeaaead0	-0.33382273
158	0x3eacc280	0.33742142
159	0x3e053457	0.13008247
160	0x3e735539	0.23762979
161	0xbd740d83	-0.0595832
162	0xbf5c59cf	-0.8607454
163	0xbe9356d0	-0.2877717
164	0x3dd6bb93	0.10484996
165	0xbb84101c	-0.0040302407
166	0x3ef0cf33	0.4703308
167	0xbe41926f	-0.18903516
168	0xbf2b2c8b	-0.6686484
169	0xbf14c8a1	-0.58118635
170	0xbf005867	-0.5013489
171	0xbdb6621b	-0.08905431
172	0x3dd8e4cc	0.105905145
173	0x3ead7a5c	0.33882415
174	0x3f2e7356	0.6814474
175	0x3efdcc6d	0.49570027
176	0xbed732f5	-0.42031065
177	0x3b48ab58	0.0030619707
178	0x3f03f642	0.51547635
179	0x3d92acf7	0.07161897
180	0x3f588d44	0.84590554
181	0x3e9166a8	0.28398633
182	0xbc90f8b7	-0.017696721
183	0x3e4d2953	0.20035295
184	0x3f070622	0.5274373
185	0xbdcef66a	-0.101055935
186	0xbd3029f5	-0.043008763
187	0x3e1d7823	0.1537786
188	0xbee4eee4	-0.4471351
189	0x3f180197	0.59377426
190	0x3f1d0796	0.613397
191	0xbe520035	-0.20507891

W.2 f4 [1, 3]
0	0xbef2d8de	-0.47431082
1	0xbd18625d	-0.03720318
2	0xbfbce69f	-1.475788

U.0 f4 [64, 64]
0	0xbcd19b34	-0.025586702
1	0x3e0e1b19	0.13877524
2	0x3e33b3aa	0.17549005
3	0x3c492fc7	0.012279457
4	0xbd8a6431	-0.06757391
5	0x3c2cee3a	0.0105548445
6	0x3dc646c0	0.09681463
7	0x3dcc1df3	0.0996665
8	0xbe21ad98	-0.15788877
9	0x3c51d3f4	0.012806881
10	0x3e1ca5d5	0.15297635
11	0x3ceca5a2	0.028887574
12	0x3d9c6552	0.07636513
13	0xbe85d0ad	-0.2613577
14	0xbdccb00d	-0.099945165
15	0x3d54b666	0.05193176
16	0xbdd30f88	-0.10305697
17	0x3df14c34	0.11782113
18	0x3e055448	0.13020432
19	0xbc80fa05	-0.015744219
20	0xbd191c99	-0.03738079
21	0xbd5bebee	-0.053691797
22	0x3d623af6	0.05523201
23	0xbde2c404	-0.11072543
24	0x3d70a260	0.058748603
25	0xbbb29c76	-0.0054507805
26	0x3c98c730	0.018649668
27	0x3dfdc4b7	0.12391036
28	0xbe039302	-0.12849048
29	0xbdaef112	-0.08542074
30	0xbd779952	-0.060448952
31	0xbc4269ed	-0.011866075
32	0x3dc53f63	0.09631231
33	0x3e1568f6	0.1459082
34	0xbd633021	-0.05546582
35	0x3e09a082	0.13440135
36	0x3de19bab	0.110160194
37	0x3dbe87df	0.09303259
38	0x3de08a37	0.109638624
39	0xbc90daba	-0.017682422
40	0xbdea6933	-0.114458464
41	0xbca8762d	-0.020564163
42	0xbd50f9d3	-0.0510195
43	0xbc8639d7	-0.016385002
44	0x3d13f0c7	0.036118295
45	0x3d00d147	0.031449582
46	0xbdfd4166	-0.123659894
47	0x3ca5b612	0.02022842
48	0xbde44a4d	-0.11146984
49	0xbe400160	-0.18750525
50	0xbdd5e6be	-0.10444401
51	0x3dd9754b	0.10618075
52	0x3dcd91f9	0.10037608
53	0x3d9ba984	0.07600692
54	0x3e164fbf	0.14678858
55	0xbc0d4a2d	-0.008623642
56	0xbd0c0f40	-0.03419423
57	0x3dee6a21	0.11641336
58	0x3de7d0fb	0.11319157
59	0x3c209587	0.009801275
60	0x3d0590db	0.032608848
61	0x3bcb6dea	0.006208171
62	0x3c267d6c	0.010161739
63	0x3ccbb9aa	0.024868805
64	0xbe753757	-0.23946892
65	0x3db3d4e9	0.08780844
66	0x3e48a2ac	0.19593304
67	0x3cba0440	0.022707105
68	0xbdde112c	-0.10843119
69	0xbd705769	-0.05867711
70	0x3dbac6fc	0.091199845
71	0xbcabf3c5	-0.020990262
72	0xbe81b66a	-0.25334483
73	0x3de6d27f	0.11270618
74	0x3e092b21	0.13395359
75	0x3e1ce451	0.15321471
76	0xbba12e44	-0.0049188454
77	0xbcc65194	-0.024208821
78	0x3d6dcc4d	0.058056165
79	0x3d807289	0.06271846
80	0xbb1f24ae	-0.0024283337
81	0x3c62aca1	0.013835103
82	0xbd092a86	-0.03348782
83	0xbe85909f	-0.260869
84	0xbe2946de	-0.1653094
85	0xbe912667	-0.2834961
86	0xbde12490	-0.10993302
87	0xbe7acf86	-0.24493226
88	0xbd476bd3	-0.048686814
89	0x3e1ff1d7	0.15619598
90	0x3ca2d549	0.019877093
91	0x3dd23821	0.10264612
92	0xbdc16f26	-0.09445028
93	0xbd2c49d0	-0.04206258
94	0x3cb9968f	0.0226548
95	0x3c622745	0.013803308
96	0xbdf22da7	-0.11825114
97	0x3d9c3e3a	0.07629056
98	0xbe25530d	-0.16144963
99	0xbde6b158	-0.112642944
100	0xbd6eb323	-0.058276307
101	0xbdab8159	-0.083742805
102	0x3dfb12f1	0.12259472
103	0xbe12bb70	-0.14329314
104	0xbb4badcb	-0.003107893
105	0x3cc89a74	0.024487711
106	0x3d542bad	0.051799465
107	0xbd363187	-0.044480827
108	0xbe34b14c	-0.17645758
109	0xbd2f2be8	-0.04276648
110	0xbe165f61	-0.14684822
111	0xbe0953b2	-0.13410833
112	0xbd05b57a	-0.032643773
113	0xbc81f4d6	-0.015863817
114	0x3cf9e4ab	0.030504545
115	0xbca9ba49	-0.02071871
116	0x3da9bbb0	0.08287752
117	0xbd569a50	-0.052393258
118	0xbe42d118	-0.19025075
119	0xbd7d8886	-0.061897777
120	0x3d8cbade	0.068715796
121	0x3e1d25eb	0.15346496
122	0xbeb4ec41	-0.35336497
123	0xbdaeb188	-0.08529955
124	0xbe0aeabf	-0.13566111
125	0xbd88953d	-0.0666909
126	0xbe495d23	-0.19664435
127	0x3cd8b6e2	0.026454393
128	0x3b6f6168	0.0036526565
129	0x3e551e5d	0.20812364
130	0xbda39f2b	-0.07989343
131	0xbe0834a8	-0.13301337
132	0xbd5459c3	-0.051843416
133	0xbddaff64	-0.10693243
134	0x3bb390b3	0.005479896
135	0xbe031eb7	-0.12804686
136	0xbdedad22	-0.11605288
137	0x3ccbbe42	0.024870995
138	0x3dbf1535	0.09330217
139	0x3d49587a	0.049156643
140	0xbd5813f9	-0.052753422
141	0xbe0ece80	-0.13945961
142	0x3c1a1dc0	0.009406507
143	0xbe2534c8	-0.16133416
144	0xbd9b493c	-0.07582328
145	0xbdbc342a	-0.09189637
146	0x3db61a2b	0.0889171
147	0x3b5a7cc8	0.0033338536
148	0xbd8ba440	-0.068184376
149	0xbd0b9e6b	-0.034086626
150	0x3d17f666	0.03710022
151	0x3d2032e2	0.039111026
152	0x3b8d19cf	0.004306055
153	0xbec66773	-0.387508
154	0x3e115d99	0.14195861
155	0xbe363ee3	-0.17797427
156	0x3dbdb04a	0.0926214
157	0x3d4fbe3b	0.050718527
158	0xbe2fd82f	-0.17172311
159	0x3daeaecd	0.08529434
160	0x3d0cdbbf	0.034389254
161	0xbce91b77	-0.02845548
162	0x3c90744f	0.017633585
163	0x3decd39c	0.11563799
164	0x3d2fc174	0.0429091
165	0x3de1885f	0.11012339
166	0xbe53e4a0	-0.20692682
167	0xbddbe68d	-0.107373334
168	0x3d537b2f	0.05163115
169	0xbe1be9e6	-0.15225944
170	0xbd8f69be	-0.070025906
171	0xbd6e9849	-0.0582507
172	0x3cbc5578	0.022989973
173	0xbddd345d	-0.10801003
174	0xbdd569a1	-0.10420538
175	0x3d69d934	0.057091907
176	0xbe809e24	-0.25120652
177	0xbde0c9e9	-0.10976011
178	0xbd82a6d5	-0.06379477
179	0x3d4d9343	0.050189268
180	0xbde5a79b	-0.11213609
181	0xb95a7cc2	-0.00020836576
182	0x3d810f14	0.06301704
183	0xbec1bf64	-0.37841332
184	0x3d8d459d	0.06898043
185	0xbd14631f	-0.03622734
186	0x3d7cd6cd	0.061728287
187	0x3dccad71	0.09994019
188	0xbdebdb0b	-0.115163885
189	0x3db7bc83	0.08971503
190	0xbe18d55b	-0.14925139
191	0x3c4041b8	0.011734419
192	0xbce6bd5d	-0.028166467
193	0x3e0fd5ef	0.14046453
194	0x3ca39aa4	0.0199712
195	0x3c999096	0.018745702
196	0xbefdf1a4	-0.4959842
197	0x3de5cc72	0.112206355
198	0x3c83202c	0.016006552
199	0xbd9bf5b7	-0.07615226
200	0xbe223918	-0.15842092
201	0x3d492c7a	0.04911468
202	0x3d94a7c8	0.07258564
203	0x3ce10dbc	0.02747237
204	0x3d725446	0.0591624
205	0x3cd352cb	0.025796315
206	0x3c648258	0.013947092
207	0x3db8fc98	0.090325534
208	0xbe178f42	-0.14800742
209	0x3cea0c53	0.02857033
210	0xbbedec82	-0.00726086
211	0x3cd7bf08	0.026336208
212	0xbd21e346	-0.039523385
213	0xbdd5486c	-0.10414204
214	0x3da20ca8	0.0791257
215	0xbd329904	-0.04360296
216	0x3c8f3c80	0.017484903
217	0xbdb9c059	-0.090698905
218	0x3e3e4667	0.18581544
219	0x3d9b2c58	0.07576817
220	0xbe199883	-0.14999585
221	0xbd079d5a	-0.033109047
222	0xbc25fe41	-0.01013142
223	0x3e11cddd	0.14238687
224	0xbd993356	-0.07480495
225	0x3cdc4795	0.026889602
226	0xbd58bf77	-0.05291697
227	0xbafb47c3	-0.0019171167
228	0xbd54a9b6	-0.05191966
229	0x3d9190dd	0.071077086
230	0xbdf584c5	-0.119882144
231	0x3bcca77c	0.0062455516
232	0x3d8a9cd0	0.06768191
233	0x3dab644c	0.083687395
234	0xbc931ca3	-0.017957991
235	0xbdb3db7e	-0.08782099
236	0x3c9f9116	0.019478362
237	0xbdffb140	-0.1248498
238	0xbc5a5eef	-0.013328298
239	0x3dec1b7d	0.115286805
240	0xbda9d395	-0.08292309
241	0x3d383e76	0.044981442
242	0xbd574fdb	-0.05256639
243	0xbd9376b9	-0.07200379
244	0xbe2a2606	-0.16616067
245	0xbb2cba00	-0.0026355982
246	0xbdb77088	-0.089570105
247	0x3d2e7f2f	0.04260176
248	0x3e03e929	0.12881912
249	0xbcdb6005	-0.026779184
250	0xbe0dc068	-0.13842928
251	0xbdd8e623	-0.1059077
252	0xbe10e2fc	-0.14149088
253	0x3d89757c	0.067118615
254	0xbe13780b	-0.14401262
255	0x3c172828	0.009225883

U.1 f4 [1, 64]
0	0xbd7cd2ad	-0.061724354
1	0xbd96aacb	-0.07356795
2	0x3cb4c80c	0.022068046
3	0xbd999fd6	-0.075011894
4	0xbe8dddbb	-0.2770823
5	0xbd970993	-0.07374873
6	0xbd1210ac	-0.03566043
7	0x3cf1f902	0.029537681
8	0xbd909cbf	-0.07061147
9	0x3d28ff50	0.04125911
10	0x3def615c	0.11688492
11	0x3ca296b2	0.019847248
12	0x3cb383e8	0.021913484
13	0xbd05a8ad	-0.032631565
14	0xbeb77283	-0.35829553
15	0xbd3ce039	-0.046112273
16	0xbd131138	-0.035905093
17	0xbdb922c0	-0.09039831
18	0x3e0c6879	0.13711728
19	0xbde5cebb	-0.11221071
20	0x3d68c404	0.05682756
21	0x3d10f3b0	0.03538865
22	0xbdba086f	-0.0908364
23	0xbda3c0cf	-0.0799576
24	0xbd9d8d4b	-0.07692965
25	0x3dc18910	0.09449971
26	0x3ce54774	0.027988173
27	0xbd9ee586	-0.07758622
28	0xbd863d49	-0.06554658
29	0xbd27443c	-0.040836558
30	0xbe2c246f	-0.16810773
31	0x3e66764e	0.22506067
32	0x3cd8220a	0.026383419
33	0xbd0b0b81	-0.033946518
34	0xbd716ee9	-0.058943663
35	0xbd9bd2f4	-0.076085955
36	0x3e0113fe	0.12605283
37	0xbdb80e0d	-0.08987055
38	0x3c285ff7	0.010276786
39	0x3e1ce74c	0.15322608
40	0xbdfedbfe	-0.12444304
41	0x3dab7747	0.0837236
42	0x3cb88b06	0.022527229
43	0x3c21373b	0.009839828
44	0x3cd48a38	0.025944814
45	0x3db70a10	0.08937466
46	0xbdf4c891	-0.119523175
47	0xbcd9772a	-0.02654608
48	0x3b9dbe7b	0.004813967
49	0xbdd6ba66	-0.104847714
50	0x3cf9af60	0.030479133
51	0x3dc309eb	0.09523376
52	0x3ccb3b5d	0.02480858
53	0x3ce5ef0f	0.028068094
54	0xbcbb7dcb	-0.022887131
55	0xbc96aec6	-0.018393885
56	0x3e0aaa24	0.13541466
57	0xbd9c9e1d	-0.07647345
58	0x3bd5467a	0.0065086456
59	0xbe0f562a	-0.13997713
60	0xbdd7e451	-0.10541595
61	0xbdc058cf	-0.09391939
62	0xbe15e124	-0.14636666
63	0x3dcd25a3	0.10016944

bias.0 f4 [64]
0	0x3c3dbcfd	0.011580703
1	0xbee55295	-0.44789568
2	0x3e32da50	0.17466092
3	0xbebf9f0e	-0.37426037
4	0x3cd8dc30	0.026472181
5	0xbd53f20b	-0.051744502
6	0xbea2a6f6	-0.31768006
7	0x3eb7da7e	0.35908884
8	0xbe840d30	-0.2579131
9	0x3db14a57	0.08656757
10	0x3e77b640	0.24190617
11	0xbe558050	-0.20849729
12	0xbbcdefbd	-0.0062846825
13	0xbd842f24	-0.06454304
14	0xbdb86c60	-0.09005046
15	0xbe8d1049	-0.27551487
16	0x3eb9aaa6	0.36263007
17	0x3ead8ace	0.33894962
18	0xbdd1d823	-0.10246303
19	0x3e2d426f	0.16919874
20	0x3e8f378c	0.27972066
21	0xbec88115	-0.39160982
22	0x3ec04d23	0.3755885
23	0xbdef25b4	-0.11677113
24	0x3ec6373f	0.38714024
25	0x3e980eb9	0.29698732
26	0x3e7df244	0.24799448
27	0x3ec347df	0.3814077
28	0xbf1063a2	-0.5640203
29	0x3e71f3a3	0.23628096
30	0x3e69a81f	0.2281804
31	0x3e5d313a	0.2160081
32	0x3e0d9b34	0.13828737
33	0x3e78917a	0.24274245
34	0xbc47a2aa	-0.012184778
35	0x3eb2540f	0.34829757
36	0xbe3b8f0c	-0.18316287
37	0x3ef350d6	0.4752261
38	0x3e888636	0.26664895
39	0x3e684cd4	0.22685558
40	0x3c9effd4	0.019409098
41	0xbedba2e3	-0.4289771
42	0xbefae55a	-0.49003106
43	0xbe94e6a1	-0.29082206
44	0xbe0acd16	-0.13554797
45	0xbdb33d89	-0.08751971
46	0xbdac4fa3	-0.08413627
47	0x3d510a33	0.051035117
48	0xbe9e553d	-0.30924407
49	0xbedc82b5	-0.43068472
50	0xbecf0b9e	-0.4043855
51	0xbeceeece	-0.4041657
52	0xbf075374	-0.52861714
53	0xbeffb19f	-0.49940202
54	0xbec8025e	-0.39064306
55	0xbde0862c	-0.10963091
56	0xbe2dbc30	-0.16966319
57	0x3ede8795	0.43462816
58	0xbe760de9	-0.24028744
59	0x3e4e81d4	0.20166713
60	0x3eadd808	0.3395388
61	0xbeef6859	-0.46759298
62	0xbeecd0a9	-0.46252945
63	0xbe7aa6d7	-0.24477707

bias.1 f4 [64]
0	0x3ed55ffa	0.41674787
1	0xbeb0bed3	-0.34520587
2	0xbe23fb2a	-0.1601378
3	0x3e5e9abf	0.21738718
4	0xbf39dd70	-0.7260351
5	0xbf05c4fa	-0.5225369
6	0xbd6116d5	-0.054953415
7	0x3d8a2b93	0.067465924
8	0x3e497dc5	0.19676884
9	0xbe1fe686	-0.15615281
10	0xbea2a8fa	-0.31769544
11	0xbf147c0f	-0.580018
12	0x3e674ee1	0.22588684
13	0x3d63f09d	0.05564939
14	0xbea3c897	-0.31988975
15	0x3ed650ca	0.41858512
16	0xbe9b1198	-0.3028686
17	0xbf19520b	-0.5989081
18	0xbe082a1b	-0.13297312
19	0xbf02d5ba	-0.5110737
20	0x3ed00595	0.4062926
21	0x3e152ea3	0.14568572
22	0xbec3c785	-0.3823816
23	0xbece71e3	-0.40321264
24	0x3dae4905	0.08510021
25	0xbe9e763e	-0.30949587
26	0x3e6941cd	0.22779007
27	0xbe842ab6	-0.25813836
28	0xbf26abc9	-0.65105873
29	0x3e8be6ea	0.2732461
30	0xbeba93a9	-0.3644078
31	0xbce8f9e8	-0.028439477
32	0xbedbb4a6	-0.4291126
33	0xbf0b44f0	-0.54402065
34	0xbd4d4206	-0.050111793
35	0x3eba0431	0.36331323
36	0xbf11a6e3	-0.56895274
37	0x3e5ee8a5	0.21768434
38	0xbe07ec78	-0.132738
39	0x3eb644dc	0.3559941
40	0xbf0fda3a	-0.5619236
41	0xbf07843e	-0.5293616
42	0x3e81981f	0.25311372
43	0xbed4582c	-0.4147352
44	0x3e97b9da	0.2963398
45	0xbefd1c98	-0.49435878
46	0xbdc735e8	-0.09727079
47	0x3ed0f3bb	0.40810952
48	0xbf07d671	-0.53061587
49	0xbef51719	-0.47869185
50	0xbe97eb6b	-0.29671797
51	0x3d368b96	0.044566713
52	0xbf07a16d	-0.5298069
53	0x3ef82a77	0.48469898
54	0xbef72aeb	-0.4827493
55	0x3f04d7fe	0.5189208
56	0x3e2c527f	0.16828345
57	0xbe112251	-0.14173247
58	0x3ef2ab9a	0.47396547
59	0xbe888441	-0.26663402
60	0x3ebfa31a	0.37429124
61	0xbe82b065	-0.25525203
62	0xbebfc613	-0.37455806
63	0xbe883fe0	-0.26611233
