DI_LYAP_m-fwd_d-1_s-0.005_seed0.pt (torch, 21631 bytes, 7 tensors)

W.0 f4 [64, 3]
0.45633727 0.3665965 -0.49279755 -0.9011204 -0.27781957 0.031708788 0.43111178 0.50844824
-0.11091705 -0.31185648 -0.16555475 -0.2172847 -1.0226872 -0.47569615 -0.20893577 0.44594428
0.25463212 0.19400279 -0.86690426 -0.31541 0.116804674 0.02151961 -0.08131148 0.18998271
0.21972719 0.061950922 0.14350636 -0.9940753 -0.46627307 -0.09996591 0.22907732 0.5441214
-0.40274784 -0.72745967 -0.4705229 -0.4887087 0.109874 0.5077914 0.18749629 0.57508683
0.089865535 -0.5804251 -0.36442545 -0.5654686 -0.41818005 0.15464802 0.36246386 0.2204067
-0.5293401 -0.047907967 -0.1320531 1.0630047 0.34960774 0.0016554327 -0.07790076 -0.3189416
0.047240797 -0.91858023 -0.477692 -0.28435585 0.7141538 0.30358 -0.38977656 0.6254449
0.38711295 -0.12981834 0.42959368 0.15681168 0.1639101 0.08514748 -0.40767148 -0.26474747
0.6536658 0.5349129 0.35596362 0.98471147 0.20699446 -0.57373357 -0.41726407 -0.38788053
-0.53130966 0.9918839 0.559836 -0.54575735 -0.3424062 -0.08818432 -0.26900452 0.15781844
0.22501084 -0.4163737 0.64792717 0.35155976 0.27985865 -0.2462565 -0.5831725 -0.3856929
0.7580202 0.19600765 -0.50637287 0.12528351 0.5467342 0.30273336 -0.7408696 -0.19095705
-0.5501788 -0.4778478 -0.4836775 -0.41667518 0.36110094 0.1094823 -0.37015346 -0.12615784
-0.3413356 0.44017234 -0.07076517 -0.4775455 -0.17925926 0.3964723 0.10493095 -0.0948976
0.44526374 0.077025734 -0.6065131 -0.19489427 -0.574303 -0.35329878 -0.6104197 -0.31511548
-0.24102518 -0.9402638 -0.16710241 -0.10224278 -0.7315159 -0.06583499 -0.06491396 0.038775567
0.020342551 -0.42847693 0.5420023 0.39901075 0.37796724 0.8209532 0.6483696 -0.10471212
-0.9820846 -0.32493636 0.20290257 -0.47143373 -0.31216833 -0.4476048 -1.0087104 -0.58976936
-0.09046096 0.80314136 0.42014086 -0.5191764 -0.103041254 -0.4461561 -0.16378477 -0.7114141
-0.14355524 -0.25019425 -0.9747245 -0.6072379 -0.044826243 -0.45547467 -0.28273955 0.1298
-0.89910746 -0.085637264 0.031540565 0.21206185 0.53486764 0.12434411 -0.06703891 0.34649047
-0.12994997 0.19732814 0.502581 -0.49562576 -0.40056282 -0.118907034 0.1214897 0.5697789
0.31003383 0.03472859 -0.6143068 -0.14044009 -0.553993 0.730993 0.5200491 0.24196383
00000000: 0aa5 e93e 89b2 bb3e f64f fcbe d4af 66bf
00000010: 5e3e 8ebe 13e1 013d afba dc3e aa29 023f
00000020: 7a28 e3bd a7ab 9fbe 2f87 29be e17f 5ebe
00000030: 6ae7 82bf 728e f3be 42f3 55be cf52 e43e
00000040: 245f 823e aba8 463e 70ed 5dbf 6b7d a1be
00000050: 4a37 ef3d e549 b03c a286 a6bd d48a 423e
00000060: 2a00 613e 40c0 7d3d 55f3 123e b87b 7ebf
00000070: 58bb eebe edba ccbd 3f93 6a3e 8a4b 0b3f
00000080: f734 cebe cc3a 3abf 61e8 f0be 0738 fabe
00000090: 9f05 e13d 9efe 013f 07ff 3f3e e438 133f
000000a0: 6c0b b83d bd96 14bf f995 babe 8dc2 10bf
000000b0: b21b d6be 0d5c 1e3e dd94 b93e 4bb2 613e
000000c0: d582 07bf 253b 44bd ee38 07be 8a10 883f
000000d0: c9ff b23e 1bfb d83a 6f8a 9fbd 504c a3be
000000e0: 917f 413d 1328 6bbf 0c94 f4be 1797 91be
000000f0: c9d2 363f d66e 9b3e cb90 c7be 281d 203f
00000100: ab33 c63e 19ef 04be b4f3 db3e 3e93 203e
00000110: 0dd8 273e cd61 ae3d 51ba d0be fb8c 87be
00000120: a456 273f 0df0 083f dd40 b63e 0d16 7c3f
00000130: 5bf6 533e 34e0 12bf a3a3 d5be 4798 c6be
00000140: e903 08bf 1aec 7d3f 6951 0f3f c1b6 0bbf
00000150: de4f afbe fb99 b4bd f6ba 89be 289b 213e
00000160: 3e69 663e ef2e d5be 8ede 253f a4ff b33e
00000170: a249 8f3e aa2a 7cbe cb4a 15bf 8a79 c5be
00000180: 9d0d 423f 3bb6 483e a7a1 01bf 524a 003e
00000190: c6f6 0b3f deff 9a3e a1a9 3dbf 3f8a 43be
000001a0: 85d8 0cbf 78a8 f4be 94a4 f7be 7356 d5be
000001b0: 39e2 b83e 4238 e03d c184 bdbe 852f 01be
000001c0: 8ac3 aebe 455e e13e 54ed 90bd d880 f4be
000001d0: bd8f 37be 6bfe ca3e 0ae6 d63d ac59 c2bd
000001e0: 9cf9 e33e abbf 9d3d 7144 1bbf 5d92 47be
000001f0: 8505 13bf 94e3 b4be 7744 1cbf d156 a1be
00000200: 4ecf 76be 21b5 70bf e51c 2bbe aa64 d1bd
00000210: a044 3bbf 7fd4 86bd 9cf1 84bd 21d3 1e3d
00000220: 6ca5 a63c 5461 dbbe aac0 0a3f 234b cc3e
00000230: ec84 c13e fd29 523f 8dfb 253f 4f73 d6bd
00000240: e569 7bbf 0f5e a6be b1c5 4f3e c35f f1be
00000250: 87d4 9fbe 752c e5be 6c1d 81bf 20fb 16bf
00000260: 9943 b9bd ac9a 4d3f b41c d73e bfe8 04bf
00000270: 4b07 d3bd 936e e4be 32b7 27be 3c1f 36bf
00000280: 2500 13be 7619 80be 8b87 79bf f173 1bbf
00000290: b99b 37bd fa33 e9be 3dc3 90be 4bea 043e
000002a0: e82b 66bf 9762 afbd ae30 013d be26 593e
000002b0: 16ed 083f 20a8 fe3d b24b 89bd 3367 b13e
000002c0: 9b11 05be 6310 4a3e 26a9 003f a9c2 fdbe
000002d0: 9216 cdbe 8885 f3bd 98cf f83d 08dd 113f
000002e0: c1bc 9e3e 913f 0e3d 3643 1dbf 87cf 0fbe
000002f0: 7cd2 0dbf 5b22 3b3f f021 053f 5ec5 773e

W.1 f4 [64, 3]
-0.029905593 -0.0010256879 -0.54743433 -0.79161 -0.36713806 0.05292534 -0.27777243 -0.043714575
-0.3804002 -0.098416075 -0.42250416 -0.40555996 0.12207618 0.4056126 -0.25016302 0.9478747
0.28693643 -0.032019775 -0.4711911 -0.118615784 -0.09001917 0.17246199 -0.008941609 -0.41359395
-0.9161225 -0.33210343 0.23648965 -0.79581684 -0.059021074 -0.23663142 0.6510226 0.054731324
-0.6119651 -0.17968492 -0.40740615 -0.17574883 -0.6623331 -0.09864095 -0.26060632 0.8845535
0.10078968 0.16325216 -0.10784885 -0.35169578 0.2163067 -0.8890504 -0.29645783 0.052692223
0.633987 0.48508617 -0.24987832 0.4699037 0.34792134 -0.55969715 -0.03727175 -0.461492
0.0019462828 -0.57121295 -0.31584042 -0.034818646 0.0215609 -0.12191535 -0.384744 -0.6913586
-0.5958395 0.12263083 -0.74804425 -0.42857143 -0.34778118 0.7633703 0.3458253 0.27737674
-0.25082806 -0.17842661 -0.20890757 0.6084812 0.51529855 0.047742397 -0.741577 -0.31029028
-0.5287268 -0.34088537 -0.3293555 -0.50787705 0.04379495 -0.3447412 -0.07297314 0.57793576
0.04330392 -0.545626 0.007720017 0.4474613 0.055544846 0.03998468 -0.16530244 0.085285105
-0.23560914 -0.031692617 -0.72570646 0.63495076 0.21633397 -0.12411523 -0.608236 -0.37981164
0.2751304 0.023846526 0.21496134 -0.2527851 0.143682 0.08852256 -0.38075548 0.5728748
0.14309187 -0.49306223 0.5385846 0.25784552 0.064474754 -0.54259026 -0.5012058 -0.13016142
-0.26358223 -0.20149978 0.11664793 -0.07833078 -0.2784723 -0.024449218 0.6857135 0.08530908
-0.12613204 -0.3956046 -0.4726443 0.008920573 0.8396709 0.59539646 0.21265265 0.53779614
0.32001892 -0.30732828 -0.9499209 -0.54323596 0.39029136 -0.09628223 -0.3865591 0.19447799
0.8365861 0.61906815 0.3220352 0.0035228794 -0.07921978 -0.29076365 0.9195193 0.39538825
-0.4079794 0.96548045 0.35508355 0.17261328 0.07727302 0.14506087 -0.27492568 0.011002382
-0.06558808 0.023696085 0.54915726 0.2820837 -0.2576003 -0.18179819 -0.39542717 0.09269251
-0.85348064 -0.65435195 -0.39929202 0.86210394 0.3453174 0.33060035 -0.010492351 -0.49677113
-0.40042365 -0.5709724 -0.3990675 0.29053682 -0.90562975 -0.34951812 -0.498369 0.1514002
0.46932366 0.39416504 0.8501276 0.5116323 0.3646149 0.31753626 0.2548197 0.38984618
00000000: 93fc f4bc 6070 86ba a824 0cbf f4a6 4abf
00000010: 85f9 bbbe 3ec8 583d 3038 8ebe 0e0e 33bd
00000020: d1c3 c2be 5e8e c9bd 7752 d8be 8ea5 cfbe
00000030: 1403 fa3d 74ac cf3e 5e15 80be eba7 723f
00000040: 55e9 923e 2b27 03bd f63f f1be d5ec f2bd
00000050: f85b b8bd e099 303e d47f 12bc 96c2 d3be
00000060: 0187 6abf 7609 aabe 582a 723e a7ba 4bbf
00000070: 15c0 71bd 824f 72be 6ba9 263f f42d 603d
00000080: bfa9 1cbf 53ff 37be 8a97 d0be 80f7 33be
00000090: a98e 29bf 4404 cabd 316e 85be 1972 623f
000000a0: d26a ce3d 932b 273e dcdf dcbd 7811 b4be
000000b0: 817f 5d3e cf98 63bf 52c9 97be cdd3 573d
000000c0: f94c 223f 375d f83e 1ae0 7fbe 3897 f03e
000000d0: bf22 b23e 5048 0fbf 43aa 18bd ae48 ecbe
000000e0: 6a1a ff3a 033b 12bf d6b5 a1be ff9d 0ebd
000000f0: 7ca0 b03c c1ae f9bd 2afd c4be e1fc 30bf
00000100: f088 18bf df25 fb3d d47f 3fbf b76d dbbe
00000110: 6010 b2be 3c6c 433f 0410 b13e 5304 8e3e
00000120: 896c 80be 77b5 36be deeb 55be 6dc5 1b3f
00000130: 9bea 033f 888d 433d fed7 3dbf 5ede 9ebe
00000140: a45a 07bf 8788 aebe 49a1 a8be 3b04 02bf
00000150: 5562 333d eb81 b0be f172 95bd 99f3 133f
00000160: 745f 313d 25ae 0bbf 32f8 fc3b a619 e53e
00000170: fe82 633d fac6 233d 0b45 29be f5a9 ae3d
00000180: 8643 71be 1ed0 01bd e6c7 39bf 228c 223f
00000190: a786 5d3e 2030 febd 5bb5 1bbf ac76 c2be
000001a0: e4dd 8c3e ca59 c33c d31e 5c3e 0c6d 81be
000001b0: 6021 133e 514b b53d 62f2 c2be eca7 123f
000001c0: ad86 123e a772 fcbe aee0 093f 5404 843e
000001d0: 570b 843d 32e7 0abf 064f 00bf 0949 05be
000001e0: 40f4 86be f555 4ebe 1ce5 ee3d e36b a0bd
000001f0: ec93 8ebe ba49 c8bc ec8a 2f3f 87b6 ae3d
00000200: c228 01be b08c cabe 6ffe f1be 9827 123c
00000210: acf4 563f e76b 183f 9ec1 593e 02ad 093f
00000220: 85d9 a33e 225a 9dbe 042e 73bf 8311 0bbf
00000230: 45d4 c73e 9e2f c5bd 13eb c5be 3d25 473e
00000240: 822a 563f 407b 1e3f cce1 a43e 1ce0 663b
00000250: fb3d a2bd f9de 94be 9e65 6b3f 5470 ca3e
00000260: ade2 d0be ba29 773f 83cd b53e 89c1 303e
00000270: 5141 9e3d d68a 143e 0fc3 8cbe 5643 343c
00000280: 0b53 86bd 4b1e c23c 9295 0c3f 466d 903e
00000290: 30e4 83be 4e29 3abe 6e75 cabe 92d5 bd3d
000002a0: b57d 5abf 9c83 27bf 0170 ccbe d8b2 5c3f
000002b0: 71cd b03e 7344 a93e 1ce8 2bbc c958 febe
000002c0: 5404 cdbe 3f2b 12bf 9352 ccbe 3ec1 943e
000002d0: 5ad7 67bf 0af4 b2be 392a ffbe a708 1b3e
000002e0: 314b f03e 00d0 c93e f6a1 593f 56fa 023f
000002f0: ceae ba3e 1d94 a23e ba77 823e eb99 c73e

W.2 f4 [1, 3]
0.58415604 0.5635313 -1.0734851
00000000: 408b 153f 9643 103f f667 89bf

U.0 f4 [64, 64]
0.068335116 0.0035629843 0.045856524 -0.012499381 0.06406596 -0.1109608 -0.008873902 -0.18869331
-0.018259974 0.1886973 -0.034269173 -0.006443071 0.043369576 0.023913277 0.039197553 -0.11130079
-0.08961826 0.09981726 -0.10691795 0.19438589 0.09796995 -0.04158891 0.009457809 -0.10025374
-0.024883986 0.12085728 0.026440283 -0.023847125 -0.12904084 -0.089104466 -0.03566413 0.031344183
0.11095688 -0.039773807 -0.058311787 0.049085844 -0.0033255839 0.0588981 -0.115677066 -0.0899459
-0.1540477 -0.036794756 0.07550202 -0.10212194 -0.23793754 -0.012920757 -0.020119254 -0.044859543
0.0047039287 0.045975283 0.011765614 0.104314014 -0.11509366 -0.14420453 -0.008211563 -0.006223317
-0.22220619 -0.15354411 0.034767937 -0.07308869 -0.035840277 -0.022347357 -0.13771491 0.10201525
-0.011411183 0.16410032 -0.0027502945 -0.12769414 0.1976898 -0.18025248 0.11049903 -0.21613452
-0.37849092 -0.014808812 -0.105178535 0.089248255 -0.18473566 -0.22011112 0.08701541 -0.11504232
-0.1557175 -0.2132526 -0.08184466 0.13314942 -0.018837301 -0.010758969 -0.4165799 -0.013352255
-0.19591616 -0.592306 0.068740934 -0.06886873 -0.011754924 -0.23622029 -0.18403657 -0.091970704
-0.380516 -0.10474737 0.1107229 0.112046205 -0.38326305 -0.032186236 -0.062051136 -0.46008953
-0.22225869 0.06398096 -0.063132286 0.11792806 -0.060414426 -0.2803227 -0.19179735 0.09244716
0.15710953 -0.104016274 0.19356142 0.027337933 0.04758282 0.09457243 0.047628775 0.036032777
0.029064676 -0.1227546 -0.07931434 -0.09798039 0.012070522 -0.20749947 -0.06495228 -0.04625817
0.02472762 -0.011291838 -0.010748743 0.042281616 0.08267914 -0.01822089 0.030635994 -0.05451409
-0.21358764 0.03163398 -0.090638585 0.17808145 -0.08983816 -0.1026272 -0.026405811 0.058963493
-0.20967953 -0.057992168 -0.11518448 -0.011421884 -0.009267971 -0.039702296 -0.15528046 -0.07611011
0.0063294396 -0.072175324 0.050113272 0.024197008 -0.13865389 -0.049975917 0.07482268 -0.060634334
-0.017947176 -0.097899035 0.13835128 -0.07029539 -0.19835736 0.11608368 -0.081616074 -0.068452135
-0.12121516 -0.00901283 0.0062292414 0.07488981 -0.3301922 -0.27620888 -0.11118837 -0.014441137
0.11074557 -0.057824455 0.21949202 0.004563275 -0.02685657 0.076823644 0.17096493 0.12075043
-0.24263632 -0.08308104 -0.15394022 -0.042234108 0.037388895 -0.08221778 -0.13615374 0.03963431
0.030022543 0.006818982 -0.11054992 -0.15692173 0.1044581 -0.1549839 -0.016149944 -0.07266456
0.0026144872 0.1780565 0.10564309 0.017966876 -0.10797095 -0.22127767 0.103025556 -0.048992205
0.057330776 -0.4205736 0.04464982 0.17139457 -0.15528445 -0.29796523 -0.13906753 -0.1682071
0.049656488 -0.23149867 -0.06928364 0.06906518 -0.10519351 -0.16604203 -0.41567707 -0.036615588
-0.25076827 0.10107242 -0.038274627 0.049222313 0.02711501 0.00471857 -0.039562423 0.026384564
-0.07998205 -0.087278806 0.12070921 0.06504338 -0.09567188 -0.07966084 -0.5009983 0.13014348
0.026288716 -0.12263201 0.07469105 0.01234962 -0.024343316 0.04583822 0.097535424 0.030175623
0.013468741 -0.059865646 -0.07341675 -0.087311715 0.016359078 -0.27594447 0.007475164 -0.065096095
00000000: 48f3 8b3d f580 693b 0dd4 3b3d 34ca 4cbc
00000010: 0435 833d 6a3f e3bd d863 11bc d238 41be
00000020: f195 95bc dd39 413e d55d 0cbd 6620 d3bb
00000030: 4ca4 313d c7e5 c33c 9d8d 203d abf1 e3bd
00000040: c789 b7bd fe6c cc3d ccf7 dabd 180d 473e
00000050: 78a4 c83d 2259 2abd edf4 1a3c d551 cdbd
00000060: 80d9 cbbc 0684 f73d 4b99 d83c 0c5b c3bc
00000070: 4823 04be 677c b6bd 8d14 12bd c262 003d
00000080: 5c3d e33d dce9 22bd 57d8 6ebd 3d0e 493d
00000090: 0af2 59bb 223f 713d 19e8 ecbd 8e35 b8bd
000000a0: aebe 1dbe 19b6 16bd cea0 9a3d 4f25 d1bd
000000b0: e6a5 73be 95b1 53bc 22d1 a4bc a4be 37bd
000000c0: 6a23 9a3b 9450 3c3d 90c4 403c 96a2 d53d
000000d0: 3ab6 ebbd 5aaa 13be cb89 06bc f7ec cbbb
000000e0: 058a 63be ab3a 1dbe d368 0e3d 86af 95bd
000000f0: 41cd 12bd ce11 b7bc 2305 0dbe 5fed d03d
00000100: f8f5 3abc ea09 283e 493e 34bb 41c2 02be
00000110: 326f 4a3e 1b94 38be 514d e23d 5e52 5dbe
00000120: 90c9 c1be a9a0 72bc d867 d7bd cac7 b63d
00000130: 582b 3dbe cf64 61be 2335 b23d 4f9b ebbd
00000140: 6974 1fbe e45e 5abe 2c9e a7bd 5258 083e
00000150: af50 9abc 6346 30bc f649 d5be 6bc3 5abc
00000160: 3f9e 48be 5ea1 17bf 0cc8 8c3d 0c0b 8dbd
00000170: ba97 40bc bbe3 71be 1574 3cbe 235b bcbd
00000180: fed2 c2be ca85 d6bd b0c2 e23d 7b78 e53d
00000190: 0e3b c4be b7d5 03bd 5529 7ebd db90 ebbe
000001a0: c897 63be 7308 833d 804b 81bd 4484 f13d
000001b0: 1e75 77bd 7586 8fbe 8666 44be f054 bd3d
000001c0: 52e1 203e 7c06 d5bd f734 463e cdf3 df3c
000001d0: 34e6 423d 31af c13d 6416 433d 1b97 133d
000001e0: 0b19 ee3c c466 fbbd 8f6f a2bd f1a9 c8bd
000001f0: 70c3 453c be7a 54be b305 85bd 3579 3dbd
00000200: 9491 ca3c 6701 39bc 7f1b 30bc 7d2f 2d3d
00000210: ae53 a93d fa43 95bc 56f8 fa3c 2b4a 5fbd
00000220: b8b6 5abe a292 013d b9a0 b9bd fc5a 363e
00000230: 12fd b7bd 362e d2bd 0051 d8bc b483 713d
00000240: 3bb6 56be 3289 6dbd d7e5 ebbd db22 3bbc
00000250: b0d8 17bc e09e 22bd d701 1fbe 9edf 9bbd
00000260: 3067 cf3b a8d0 93bd 9343 4d3d ce38 c63c
00000270: 49fb 0dbe 8cb3 4cbd a23c 993d b55b 78bd
00000280: f505 93bc 4a7f c8bd f5ab 0d3e 08f7 8fbd
00000290: 311e 4bbe 48bd ed3d 5426 a7bd a230 8cbd
000002a0: a73f f8bd 8daa 13bc aa1e cc3b d45f 993d
000002b0: f40e a9be 406b 8dbe bab6 e3bd 859a 6cbc
000002c0: 93ce e23d 56d9 6cbd 84c2 603e 8687 953b
000002d0: 4f02 dcbc b755 9d3d 6e11 2f3e 004c f73d
000002e0: a875 78be 6426 aabd 81a2 1dbe acfd 2cbd
000002f0: 1925 193d cc61 a8bd e36b 0bbe 9657 223d
00000300: d6f1 f53c c471 df3b ff67 e2bd 17b0 20be
00000310: 21ee d53d 19b4 1ebe e34c 84bc 28d1 94bd
00000320: d157 2b3b 7154 363e 685b d83d 452f 933c
00000330: e01f ddbd 9d96 62be 10ff d23d 0dac 48bd
00000340: add3 6a3d 6c55 d7be bbe2 363d 0f82 2f3e
00000350: e302 1fbe e68e 98be b867 0ebe 7b3e 2cbe
00000360: 9a64 4b3d fd0d 6dbe 95e4 8dbd 0c72 8d3d
00000370: b26f d7bd ec06 2abe a0d3 d4be 3afa 15bd
00000380: b364 80be 0fff ce3d dbc5 1cbd 569d 493d
00000390: 4c20 de3c 3c9e 9a3b 350c 22bd 7124 d83c
000003a0: a1cd a3bd 3bbf b2bd 6436 f73d 7735 853d
000003b0: 9eef c3bd 3925 a3bd 6d41 00bf 5544 053e
000003c0: 6f5b d73c 7e26 fbbd 9ff7 983d 1056 4a3c
000003d0: a26b c7bc dbc0 3b3d a7c0 c73d de32 f73c
000003e0: ffab 5c3c ae35 75bd 855b 96bd 7cd0 b2bd
000003f0: 7903 863c 9848 8dbe 38f2 f43b 1a51 85bd

U.1 f4 [1, 64]
-0.14017372 0.025881864 -0.2083723 -0.06044269 -0.06612125 0.1050468 -0.17594957 -0.09626378
-0.007899792 -0.20755026 0.046148125 -0.013887356 -0.029629504 -0.110799745 0.052558612 0.097491145
0.015479086 0.07261586 -0.03605426 0.08758631 -0.02705065 0.103363514 -0.08086572 0.13373157
-0.0027812913 0.08255834 0.04899923 0.06331961 0.06385557 -0.06655033 -0.12683445 0.04581822
-0.33612835 -0.051743984 0.07624513 0.024255624 -0.03410627 -0.0077762376 -0.032870077 0.12483958
0.028891934 0.024344971 0.04705719 -0.063347794 0.07793964 -0.08014178 0.10242516 -0.15429835
-0.092415094 -0.21602254 0.13139942 0.062030926 -0.04753916 -0.09740504 -0.031691078 -0.06211251
-0.010739666 -0.018738395 -0.11643689 0.005215079 0.14768696 -0.120665096 0.101297185 -0.12055414
00000000: b389 0fbe 3406 d43c 8c5f 55be c192 77bd
00000010: 946a 87bd c722 d73d 202c 34be f225 c5bd
00000020: 216e 01bc 0e88 54be d105 3d3d cb87 63bc
00000030: 93b9 f2bc faea e2bd b347 573d 70a9 c73d
00000040: fe9b 7d3c a0b7 943d a2ad 13bd 7460 b33d
00000050: 5399 ddbc 40b0 d33d ed9c a5bd eef0 083e
00000060: 5346 36bb 5914 a93d 6bb3 483d b6ad 813d
00000070: b6c6 823d 8a4b 88bd e4e0 01be e3ab 3b3d
00000080: 0419 acbe 80f1 53bd 6826 9c3d bbb3 c63c
00000090: 04b3 0bbd cfcf febb c6a2 06bd e5ab ff3d
000000a0: c7ae ec3c 1b6f c73c 0abf 403d 7dbc 81bd
000000b0: d19e 9f3d 6021 a4bd 48c4 d13d 6300 1ebe
000000c0: 2044 bdbd 0335 5dbe 928d 063e 2414 7e3d
000000d0: 6cb8 42bd 4b7c c7bd 81ce 01bd b069 7ebd
000000e0: 6df5 2fbc 4381 99bc 7776 eebd 41e3 aa3b
000000f0: 403b 173e 431f f7bd e674 cf3d 17e5 f6bd

bias.0 f4 [64]
-0.24557993 0.024778893 0.06567229 0.36530033 -0.00402714 -0.28529897 -0.29034722 -0.13420479
-0.6379632 -0.41982883 -0.2530054 0.01250932 -0.40386322 -0.52023774 0.36740783 0.47179672
-0.5635642 -0.5079039 -0.26908258 0.20472722 0.14072794 -0.20220701 -0.5940971 -0.22630008
-0.18916556 0.24283062 -0.30687553 0.3326599 -0.07207028 -0.14562935 -0.55265737 0.515636
-0.15425433 0.32313088 -0.33657005 -0.5537246 -0.5517016 -0.34120837 -0.22276552 -0.22854711
0.16504657 -0.5475002 0.22630833 0.31314114 -0.33662608 -0.69658077 -0.056001067 0.09582087
0.13170923 -0.20735112 -0.18668461 -0.24580263 -0.5894811 0.07618664 -0.39960068 -0.33235148
-0.32206976 0.39478233 0.46971956 -0.42198643 0.3100215 0.40708095 0.34749568 -0.026737086
00000000: 4e79 7bbe 1bfd ca3c 327f 863d a508 bb3e
00000010: 19f6 83bb b512 92be 64a8 94be fb6c 09be
00000020: 8e51 23bf cef3 d6be ec89 81be e4f3 4c3c
00000030: 29c7 cebe 4d2e 05bf e11c bc3e 578f f13e
00000040: be45 10bf fd05 02bf 31c5 89be 03a4 513e
00000050: fc1a 103e 5b0f 4fbe bf16 18bf 35bb 67be
00000060: 9eb4 41be 97a8 783e ca1e 9dbe 6652 aa3e
00000070: 9599 93bd dc1f 15be f47a 0dbf b900 043f
00000080: d9f4 1dbe 6971 a53e e952 acbe e5c0 0dbf
00000090: 513c 0dbf ddb2 aebe a51c 64be 4108 6abe
000000a0: f801 293e f928 0cbf 5fbd 673e 0954 a03e
000000b0: 415a acbe 1e53 32bf 6061 65bd bb3d c43d
000000c0: c9de 063e da53 54be 402a 3fbe afb3 7bbe
000000d0: 3ce8 16bf be07 9c3d 7698 ccbe f929 aabe
000000e0: 54e6 a4be e920 ca3e 157f f03e 9b0e d8be
000000f0: 23bb 9e3e ea6c d03e f4ea b13e bc07 dbbc

bias.1 f4 [64]
0.39552757 0.18572423 -0.6647236 -0.32177565 -0.0012813661 -0.43643624 -0.2608302 0.27769807
0.14285976 0.1524395 -0.06120556 -0.30728763 0.2530339 -0.07684794 0.078300476 -0.3003106
0.19335483 -0.41058442 0.44196945 0.4249603 0.17521715 0.344432 0.30213138 -0.27696815
-0.5258978 0.023789996 0.32788214 -0.078936026 0.03913276 0.34147474 0.23696555 0.41261366
-0.20831746 0.017324734 -0.19715764 -0.11166114 -0.3353731 0.34128922 0.45556995 0.16611367
-0.023848439 -0.20570432 -0.620714 -0.13456586 -0.45053896 -0.419697 -0.21110488 -0.12640014
0.022029288 -0.46607792 0.35604334 -0.563061 -0.29300785 -0.27883458 0.00799846 0.21055008
-0.13584778 -0.00029341102 -0.15618274 -0.27674824 -0.074708335 0.10850553 -0.59952307 -0.41429695
00000000: 9782 ca3e 7e2e 3e3e 532b 2abf c7bf a4be
00000010: 83f3 a7ba 9274 dfbe 898b 85be 712e 8e3e
00000020: d449 123e 1a19 1c3e aeb2 7abd ce54 9dbe
00000030: a98d 813e 7462 9dbd 005c a03d 50c2 99be
00000040: cffe 453e 1f38 d2be d249 e23e 6594 d93e
00000050: 206c 333e 6459 b03e f7b0 9a3e c5ce 8dbe
00000060: 3da1 06bf 3de3 c23c 2be0 a73e 36a9 a1bd
00000070: ac49 203d c7d5 ae3e 19a7 723e 1942 d33e
00000080: 2c51 55be 9aec 8d3c b1e3 49be 99ae e4bd
00000090: 06b6 abbe 76bd ae3e 7740 e93e b419 2a3e
000000a0: cd5d c3bc 27a4 52be 1de7 1ebf a2cb 09be
000000b0: 0bad e6be 86e2 d6be e12b 58be 0a6f 01be
000000c0: c476 b43c c4a1 eebe 504b b63e c424 10bf
000000d0: 2005 96be 68c3 8ebe f90b 033c 719a 573e
000000e0: ae1b 0bbe f6d4 99b9 5eee 1fbe f2b1 8dbe
000000f0: af00 99bd 2638 de3d 587a 19bf bb1e d4be
