DI_LYAP_m-fwd_d-1_s-0.005_seed2.pt (torch, 21631 bytes, 7 tensors)

W.0 f4 [64, 3]
0	0xbe82884a	-0.25494605
1	0xbdf24545	-0.11829618
2	0x3c3c059b	0.011475946
3	0x3ecaacff	0.3958511
4	0x3e95fed7	0.2929599
5	0x3dbbef9d	0.09176562
6	0xbef021c6	-0.46900767
7	0xbefc2fb3	-0.49255142
8	0x3cff2d95	0.031149665
9	0xbe13ebc3	-0.14445405
10	0x3cd247cd	0.025669003
11	0xbe131e3b	-0.14367001
12	0x3e98a8d1	0.29816297
13	0x3f03f2ec	0.51542544
14	0x3c4c3259	0.012463176
15	0x3f2a0895	0.66419345
16	0x3eaeec83	0.3416482
17	0xbe947060	-0.28991985
18	0x3e54e401	0.20790102
19	0x3f1d0a1e	0.6134356
20	0xbf0b81d9	-0.54495007
21	0xbebc126a	-0.367328
22	0xbd2bcec7	-0.041945245
23	0x3deb082c	0.11476168
24	0x3ebcebd8	0.36898685
25	0x3e35315c	0.1769461
26	0xbe031fe0	-0.12805128
27	0xbf40f80c	-0.7537849
28	0xbecc71d9	-0.3993061
29	0xbe9a57ae	-0.3014502
30	0xbf74cd57	-0.95625824
31	0xbef17c3a	-0.4716509
32	0x3d870962	0.065935865
33	0x3f3ed5bd	0.7454489
34	0x3de7a277	0.113102846
35	0xbf00bc2e	-0.5028714
36	0xbe079016	-0.13238558
37	0xbe497a30	-0.19675517
38	0xbe67f499	-0.226519
39	0xbf4447be	-0.7667197
40	0xbe81e16b	-0.25367293
41	0xbf05d1d6	-0.5227331
42	0x3f2d48a5	0.6768897
43	0x3e926ded	0.28599492
44	0x3b3142be	0.0027047838
45	0x3f3770ff	0.71656793
46	0x3ea293bf	0.31753346
47	0xbd561f42	-0.052275904
48	0x3eb729da	0.35774118
49	0x3d98fbcf	0.07469904
50	0xbd59a384	-0.053134456
51	0x3f50e3bb	0.8159749
52	0x3efe9e4a	0.4973014
53	0x3e55ddcc	0.2088539
54	0xbedc3dfd	-0.43016043
55	0xbd217cb7	-0.039425578
56	0xbede8168	-0.43458104
57	0x3f1cfa46	0.61319387
58	0x3dfa1c47	0.12212425
59	0x3e0b011c	0.13574642
60	0xbdf58abd	-0.11989353
61	0xbefdcaea	-0.49568874
62	0x3dc9a1cc	0.098453134
63	0x3f7e5298	0.9934478
64	0x3f2089ea	0.6271044
65	0xbda070b3	-0.07833996
66	0xbe66e6b4	-0.22548944
67	0xbf12ce57	-0.573461
68	0xbe6afbe3	-0.2294765
69	0xbe1006ad	-0.14065047
70	0xbf0436ac	-0.5164592
71	0x3ed68e35	0.4190537
72	0x3d2312a9	0.039812718
73	0x3e2c8591	0.16847827
74	0xbdb3d87e	-0.08781527
75	0x3f048c7c	0.5177686
76	0x3dc4a7a3	0.09602287
77	0xbf2c6132	-0.6733581
78	0xbf0651b0	-0.52468395
79	0xbec7cf77	-0.3902547
80	0x3eb94d31	0.36191705
81	0xbefcfe34	-0.49412692
82	0xbf25e9ab	-0.64809674
83	0x3dc537e8	0.09629804
84	0xbe159e7f	-0.14611243
85	0xbe736892	-0.23770359
86	0xbe1468f2	-0.14493158
87	0xbe1f3326	-0.15546855
88	0xbeb74cf4	-0.35800898
89	0xbebdb283	-0.37050256
90	0xbeed5afe	-0.46358484
91	0xbee03602	-0.43791205
92	0x3e8408b2	0.25787884
93	0x3ef4c5f4	0.47807276
94	0x3eccbafd	0.3998641
95	0x3e739e6c	0.23790902
96	0xbf5f64d3	-0.8726322
97	0xbedec55a	-0.43509942
98	0xbed814b2	-0.4220329
99	0xbf19b186	-0.60036504
100	0xbe7f5520	-0.24934816
101	0xbe2bd7fd	-0.16781612
102	0xbe08ef11	-0.13372447
103	0x3e5e7dcf	0.2172768
104	0x3e923586	0.2855646
105	0x3f1dc00c	0.61621165
106	0x3edfb3fc	0.43692005
107	0x3eadf41d	0.33975306
108	0xbe3ae673	-0.18251972
109	0x3d5f9eaa	0.054594673
110	0x3e948b87	0.290127
111	0xbf53e3b0	-0.827693
112	0xbea06165	-0.31324306
113	0xbe0a4387	-0.13502322
114	0xbf4c95bf	-0.79915994
115	0xbe2f881b	-0.17141764
116	0xbe32d218	-0.17462957
117	0x3e729485	0.23689468
118	0x3c9c0c05	0.0190487
119	0xbd0281b6	-0.031861983
120	0x3f5803ac	0.843806
121	0x3ebff610	0.37492418
122	0xbed5cf84	-0.41759884
123	0x3f5ca875	0.86194545
124	0x3efcc2c9	0.4936736
125	0xbebda9f0	-0.37043715
126	0x3e62927c	0.22126192
127	0x3edb4557	0.4282634
128	0xbf0eb8a0	-0.55750465
129	0xbf6491e0	-0.8928509
130	0xbee64863	-0.44977102
131	0x3ceaba56	0.028653305
132	0xbf23b0a1	-0.6394139
133	0xbf11d5df	-0.56966966
134	0x3dee86d9	0.11646814
135	0x3f3814ec	0.71906924
136	0x3ea1580b	0.31512484
137	0xbedd95a0	-0.43278217
138	0x3ea33879	0.31879023
139	0x3d1e3770	0.038627088
140	0xbf4439be	-0.7665061
141	0x3eaeb908	0.34125543
142	0x3ed68e0c	0.41905248
143	0x3e5d993d	0.21640487
144	0x3ed5e08e	0.41772884
145	0x3ef2fa2d	0.47456494
146	0xbefe605a	-0.49682885
147	0x3f51a0e5	0.8188613
148	0x3f366e60	0.7126217
149	0xbe8a2272	-0.26979405
150	0xbe7c6b2b	-0.24650256
151	0xbd9af930	-0.0756706
152	0xbf1ecf43	-0.62035006
153	0xbed60b57	-0.41805527
154	0xbe56c19e	-0.20972297
155	0xbf0c43be	-0.54790866
156	0xbef389d4	-0.47566092
157	0xbca5ada6	-0.020224404
158	0xbc568ffb	-0.013095851
159	0xbe5445b3	-0.20729713
160	0xbec029fa	-0.37532026
161	0x3e9c5d89	0.30540112
162	0xbebb6b02	-0.36605078
163	0xbf1a21cd	-0.60207826
164	0xbd14a599	-0.03629074
165	0xbd2240c0	-0.03961253
166	0xbe9ec0be	-0.31006426
167	0xbdd6e05f	-0.10492014
168	0xbf36a88d	-0.7135094
169	0xbf06f3be	-0.5271567
170	0xbeb3f1d6	-0.35145444
171	0x3ef64144	0.4809667
172	0x3ee7ff16	0.45311803
173	0xbdc34b34	-0.09535828
174	0xbf3367d2	-0.7008029
175	0xbd8d7977	-0.06907933
176	0xbf624add	-0.8839548
177	0x3eee9ed5	0.46605554
178	0x3ef173aa	0.47158557
179	0x3e204331	0.15650631
180	0xbf39d9d1	-0.72597986
181	0xbe18609c	-0.14880604
182	0x3c822f30	0.015891641
183	0xbe89c4cc	-0.26907957
184	0xbf17a914	-0.5924237
185	0xbeb8d205	-0.36097732
186	0x3e690600	0.22756195
187	0x3e697dc4	0.22801882
188	0x3ed08e93	0.40733775
189	0x3f2fb04a	0.6862837
190	0x3e9bc2ac	0.3042196
191	0xbee7eea1	-0.45299247

W.1 f4 [64, 3]
0	0x3f4e558a	0.8059927
1	0x3e8c21bb	0.27369484
2	0xbe6ede6b	-0.23327033
3	0x3e12c58e	0.14333174
4	0x3e25846c	0.16163796
5	0xbea814e8	-0.3282845
6	0x3f29bc0d	0.6630257
7	0x3f03699a	0.5133301
8	0xbec31280	-0.38100052
9	0xbf4b925a	-0.7952019
10	0xbe96e6e2	-0.29473025
11	0xbf0230d1	-0.5085574
12	0x3ebb1804	0.3654176
13	0x3ec593ef	0.38589427
14	0x3e2c6598	0.1683563
15	0xbf188abc	-0.5958669
16	0xbda21b90	-0.079154134
17	0xbecf5006	-0.4049074
18	0xbf6429d4	-0.89126325
19	0xbe55aeb1	-0.2086742
20	0xbdb4e3ee	-0.08832537
21	0xbf334a7e	-0.7003554
22	0xbef4e1ae	-0.4782843
23	0x3d5bb1bf	0.05363631
24	0xbea8328b	-0.3285106
25	0xbe29e70c	-0.16592044
26	0x3d785de6	0.060636424
27	0x3f83dd7e	1.0301969
28	0x3df8fefc	0.121580094
29	0xbed4a4ce	-0.41531986
30	0x3f79ebdd	0.97625524
31	0x3f0b5bcb	0.5443694
32	0xbd25a30b	-0.040438693
33	0xbf284804	-0.6573489
34	0xbe81db21	-0.25362495
35	0x3ea5ed5d	0.32407656
36	0xbe03c661	-0.12868644
37	0xbe889123	-0.2667323
38	0xbcf0838b	-0.0293596
39	0x3f0b99c3	0.54531497
40	0x3e41e69c	0.18935627
41	0xbdc58df7	-0.09646218
42	0xbf0c6ebe	-0.5485648
43	0xbcfbb17a	-0.030724276
44	0xbf1d77b7	-0.61510795
45	0xbf1c7fcd	-0.6113251
46	0xbea1f896	-0.3163497
47	0xbead1dac	-0.338117
48	0x3e1ea9b7	0.15494429
49	0x3e6f159d	0.23348089
50	0xbeff4c0e	-0.49862713
51	0xbe1638d2	-0.14670113
52	0x3efdc798	0.4956634
53	0x3e82c749	0.25542668
54	0x3f3fe044	0.7495158
55	0x3ea1764b	0.31535563
56	0xbe848697	-0.25883934
57	0xbf466019	-0.77490383
58	0xbee45ecc	-0.44603574
59	0xbe07a394	-0.13245994
60	0xbe8d755d	-0.27628604
61	0xbf0dd149	-0.5539747
62	0xbef5928d	-0.47963372
63	0x3f41d557	0.75716156
64	0x3df85e11	0.12127317
65	0x3e4040f1	0.18774773
66	0x3f745a9b	0.9545075
67	0x3ee6c572	0.45072514
68	0xbe1e56d9	-0.15462817
69	0x3e24f81c	0.16110271
70	0x3e2fdb89	0.1717359
71	0x3ecbcb26	0.39803427
72	0xbe075a53	-0.1321805
73	0x3df44885	0.119278945
74	0xbeecfac9	-0.46285084
75	0xbd8461d8	-0.06463975
76	0x3e54a2a2	0.20765164
77	0x3e9a21da	0.30103952
78	0x3f1fed4d	0.6247147
79	0x3e5a3634	0.2130974
80	0xbe64d616	-0.22347292
81	0xbed2bed9	-0.4116123
82	0xbf0cc431	-0.54986864
83	0xbecc1279	-0.39857844
84	0xbecbce82	-0.3980599
85	0xbe03b0cc	-0.12860411
86	0xbe369ed9	-0.17834033
87	0x3f4211ab	0.7580821
88	0x3e8cf7a6	0.2753269
89	0xbe3e62eb	-0.18592422
90	0xbf18d09d	-0.5969332
91	0xbee4a021	-0.4465342
92	0x3e335878	0.17514217
93	0x3c7da91b	0.015482212
94	0x3e25b714	0.1618312
95	0xbdfdb6ff	-0.12388419
96	0x3d338d9b	0.043836217
97	0xbea9cbd0	-0.3316331
98	0xbee5064b	-0.44731364
99	0x3ef597ed	0.47967473
100	0x3d34f4d9	0.044178817
101	0xbec9ffc7	-0.39452955
102	0x3e0a4bdc	0.135055
103	0xbee85c20	-0.45382786
104	0x3e9f2be6	0.3108818
105	0xbe15c0ac	-0.1462428
106	0xbdc585e2	-0.09644677
107	0x3db2593a	0.08708425
108	0xbf003fa2	-0.50097096
109	0xbede630b	-0.4343494
110	0x3e735fbb	0.23766987
111	0xbf0c730a	-0.54863036
112	0xbd90eda5	-0.07076577
113	0x3e521a0e	0.20517752
114	0x3df4d3f5	0.1195449
115	0xbec4e043	-0.38452348
116	0xbe2efca1	-0.17088558
117	0x3f40250d	0.75056535
118	0x3eec2d33	0.46128234
119	0xbeb787d7	-0.35845825
120	0x3b9b925e	0.004747673
121	0x3e6c8bd9	0.23100223
122	0xbec77484	-0.38956082
123	0xbbda92eb	-0.006670346
124	0xbed4c3d3	-0.41555652
125	0xbec5b89f	-0.38617417
126	0x3f2775c5	0.6541408
127	0x3ec1495e	0.37751287
128	0xbe6b3f30	-0.22973323
129	0x3d9b9a41	0.07597781
130	0x3e66fda2	0.2255769
131	0x3e3ac406	0.1823884
132	0xbe8ccb71	-0.27498963
133	0xbf0f40bf	-0.5595817
134	0xbe591de4	-0.21202809
135	0x3ded33ed	0.1158217
136	0x3c4bd3f7	0.012440673
137	0xbd9efa10	-0.077625394
138	0xbeea0b7b	-0.45711884
139	0xbcf7ddde	-0.030257162
140	0xbea678b1	-0.32513955
141	0xbdd08fdf	-0.10183691
142	0xbf119a92	-0.5687648
143	0xbcd137b1	-0.025539251
144	0x3c8884c3	0.016664868
145	0xbeace525	-0.33768573
146	0x3ea3c71c	0.31987846
147	0x3eaf3ef6	0.34227723
148	0x3f14db8f	0.5814752
149	0xbeec152d	-0.46109906
150	0x3f09e3f9	0.53863484
151	0x3ee80397	0.4531524
152	0x3ea19c92	0.31564766
153	0xbf36ae5e	-0.71359813
154	0xbf0a0ac3	-0.5392267
155	0xbd531e92	-0.051542826
156	0x3e180c76	0.14848503
157	0x3ec578be	0.3856868
158	0xbe9593da	-0.29214364
159	0xbeb90641	-0.36137584
160	0xbf09bc5b	-0.5380303
161	0xbd4e0001	-0.050292972
162	0x3f6cc6a6	0.92490613
163	0x3ebcbde8	0.36863637
164	0x3dca3759	0.09873838
165	0x3dba3299	0.09091682
166	0x3f0573ac	0.52129626
167	0xbe8d0d8d	-0.275494
168	0x3deb517e	0.11490153
169	0xbee1a5d8	-0.4407184
170	0xbeb3d8fd	-0.35126486
171	0x3e783863	0.2424026
172	0x3dd7ff41	0.10546733
173	0x3e6c3255	0.23066075
174	0xbe944e08	-0.28965783
175	0xbe4e52be	-0.20148751
176	0xbf032761	-0.5123196
177	0xbf19672c	-0.5992305
178	0xbea1c326	-0.315942
179	0xbebce28f	-0.368916
180	0x3f4b4684	0.79404473
181	0x3e0ce251	0.13758208
182	0xbebeb7e4	-0.37249672
183	0xbe121b2e	-0.1426818
184	0xbec22ad9	-0.37923315
185	0xbec623a4	-0.38699067
186	0x3ec19bdd	0.37814227
187	0x3ed02af9	0.40657786
188	0x3e74f62b	0.2392203
189	0xbf4f4e0a	-0.80978453
190	0xbef35cd2	-0.47531754
191	0x3dc3f479	0.09568114

W.2 f4 [1, 3]
0	0xbe7ab8c8	-0.24484551
1	0x3d9ba469	0.07599718
2	0xbf717cc2	-0.9433099

U.0 f4 [64, 64]
0	0xbef0c6fb	-0.4702681
1	0x3c874d1b	0.016516259
2	0xbe0e87a0	-0.13918924
3	0xbe02854f	-0.12746166
4	0x3e00fd8a	0.12596717
5	0xbcc95422	-0.02457625
6	0x3d76852e	0.060185604
7	0xbd706498	-0.058689684
8	0xbddb1af8	-0.10698503
9	0xbd1b2af8	-0.037882775
10	0x3d82a8d1	0.063798554
11	0x3dd58eab	0.104276024
12	0xbde955f9	-0.11393351
13	0xbe66c1ce	-0.22534868
14	0x3de2ac15	0.11067978
15	0x3db4889f	0.08815121
16	0x3db9a5c5	0.09064821
17	0xbc984b41	-0.018590571
18	0xbdb216db	-0.086957656
19	0xbd3de2e5	-0.04635896
20	0xbe5fe9f4	-0.2186659
21	0x3e785124	0.24249703
22	0xbd63c597	-0.05560836
23	0xbe3b575e	-0.18295047
24	0xbe1e2e6b	-0.15447395
25	0xbd0d80d2	-0.03454668
26	0xbe22c97b	-0.15897171
27	0xbd6427a2	-0.05570186
28	0xbe4c2199	-0.19934691
29	0xbdae96ad	-0.08524833
30	0xbcc6db3f	-0.024274467
31	0xbd233e13	-0.03985412
32	0xbdf7cb08	-0.12099272
33	0xbdc80fcb	-0.09768637
34	0xbe29f2eb	-0.16596572
35	0x3e341312	0.175854
36	0xbdfa4d36	-0.12221758
37	0xbe14b84e	-0.14523432
38	0xbf018225	-0.5058921
39	0x3cc6fb1f	0.024289666
40	0x3e04855d	0.12941499
41	0x3db3f591	0.087870724
42	0x3e126ce3	0.1429935
43	0xbe614809	-0.22000135
44	0x3d07cfb8	0.03315708
45	0x3e2ed7f8	0.17074573
46	0xbd86c46f	-0.065804355
47	0x3bdbf562	0.0067126015
48	0x3e23c651	0.1599362
49	0x3e444772	0.19167879
50	0xbefcef6c	-0.49401414
51	0xbe962043	-0.2932149
52	0xbe7ff21e	-0.24994704
53	0xbe3f9ca3	-0.18712096
54	0xbdc30289	-0.09521968
55	0xbdcd4d32	-0.100244895
56	0x3ca52f95	0.02016429
57	0xbd00d673	-0.031454515
58	0xbdc39ac5	-0.09551004
59	0x3dc92d76	0.09823124
60	0xbec5a625	-0.3860332
61	0xbe33fc78	-0.17576778
62	0xbdaaede2	-0.08346154
63	0x3d7f8f07	0.06239226
64	0xbecb2e70	-0.39683867
65	0xbd1c7210	-0.038194716
66	0xbcfb5fcc	-0.030685328
67	0xbdd338ed	-0.10313592
68	0x3ba180d0	0.0049286857
69	0x3d043ab4	0.032282546
70	0x3c0ffa1e	0.00878766
71	0xbe264ebf	-0.16240977
72	0x3d9868de	0.07441877
73	0x3d215e20	0.039396405
74	0x3df89c40	0.12139177
75	0xbd8c82bb	-0.06860872
76	0xbde11a91	-0.10991395
77	0x3c6293bd	0.013829169
78	0xbd6fa718	-0.058508962
79	0x3d1a29cc	0.037637517
80	0xbdcb9a06	-0.09941487
81	0x3c2fb0e6	0.010723328
82	0xbdc32ee6	-0.095304295
83	0xbda4b465	-0.0804222
84	0x3cd36805	0.025806436
85	0x3e22723c	0.1586389
86	0xbdc9b557	-0.09849041
87	0xbc8c7d5a	-0.017149616
88	0xbdcb0301	-0.09912682
89	0xbe043dbc	-0.12914175
90	0xbd01b4cd	-0.031666566
91	0x3e196775	0.14980872
92	0xbd1ded4e	-0.03855639
93	0xbcfdf6e1	-0.03100151
94	0x3dfb589c	0.1227276
95	0x3d2e0468	0.04248467
96	0x3e04251e	0.12904784
97	0xbe1b66b1	-0.15175892
98	0xbcbba0d4	-0.022903837
99	0x3df55ab6	0.11980192
100	0xbd58d41d	-0.052936662
101	0xbd4df018	-0.0502778
102	0xbe7b2013	-0.24523954
103	0xbd278b28	-0.040904194
104	0x3df367df	0.11885046
105	0xbd3eab7a	-0.04655025
106	0xbddcb039	-0.10775799
107	0xbdcb9d4c	-0.099421114
108	0xbd7591cc	-0.059953496
109	0x3b2bb151	0.0026198218
110	0xbda9c5e8	-0.08289701
111	0xbdbadc7d	-0.09124086
112	0xbd3e5888	-0.04647115
113	0x3e1c7c27	0.15281735
114	0xbd17af9b	-0.037032705
115	0xbc4a7369	-0.0123566175
116	0xbe2cb43d	-0.1686563
117	0xbdbcd623	-0.09220531
118	0x3dad3b73	0.08458605
119	0xbdeb88ee	-0.11500727
120	0xbd5f6c28	-0.054546505
121	0xbcb88220	-0.022522986
122	0xbc9365cc	-0.017992876
123	0x3dd411ca	0.103549555
124	0xbeb5bf7a	-0.35497648
125	0x3e0bfc8c	0.13670558
126	0xbdda366f	-0.10654914
127	0xbc5b6d5d	-0.013392773
128	0xbe89399b	-0.26801762
129	0x3e09e189	0.13464941
130	0xbdcc864f	-0.09986555
131	0x3c3fa1cd	0.011696291
132	0x3da4106f	0.08010947
133	0x3d1846e9	0.037177
134	0x3de8b534	0.11362687
135	0xbdf0c527	-0.11756354
136	0xbde9ca8f	-0.11415588
137	0xbea9b991	-0.33149388
138	0xbe31ee54	-0.17376071
139	0xbd7694f7	-0.060200658
140	0xbef989ed	-0.48738042
141	0xbea36939	-0.31916216
142	0xbd1bb916	-0.03801831
143	0x3dcdc153	0.10046639
144	0x3dda5124	0.106600076
145	0x3e062938	0.13101661
146	0xbde797ff	-0.11308288
147	0x3db849fa	0.08998485
148	0xbcf02e72	-0.029319022
149	0x3d31abdb	0.043376785
150	0xbd64eee0	-0.05589187
151	0xbe61f0bf	-0.22064494
152	0xbdfdd0c2	-0.12393333
153	0xbc2090db	-0.009800161
154	0xbe66dd49	-0.22545351
155	0xbe412769	-0.1886269
156	0xbeb5b62f	-0.35490558
157	0xbe5ba71d	-0.21450467
158	0xbe100e57	-0.1406797
159	0x3dce675a	0.100783065
160	0xbe5380dd	-0.20654626
161	0xbeaa3cd4	-0.33249533
162	0x3bfa0ed6	0.007631163
163	0x3cf6626d	0.03007623
164	0xbda14904	-0.07875255
165	0xbeae7e9c	-0.3408097
166	0xbe15e40b	-0.14637773
167	0xbd66cd0e	-0.0563479
168	0x3de1971a	0.110151485
169	0x3e2946a3	0.16530852
170	0x3d7c3042	0.06156946
171	0xbea7f8ae	-0.32806915
172	0xbe2b4744	-0.16726404
173	0x3e092a56	0.13395056
174	0xbcd1d51b	-0.025614312
175	0x3df08f7a	0.11746116
176	0xbd168934	-0.03675194
177	0x3d111412	0.03541953
178	0xbdd3934f	-0.10330831
179	0xbecfdf0f	-0.40599868
180	0xbd8eb73e	-0.069685444
181	0xbea2e9c2	-0.31818968
182	0xbdb4e0a6	-0.08831911
183	0xbeac342a	-0.33633548
184	0xbdacf9fd	-0.08446119
185	0x3e18166a	0.148523
186	0xbe476f76	-0.19476113
187	0x3d97bce7	0.07409077
188	0xbde51933	-0.11186447
189	0xbde9a8d0	-0.114091516
190	0x3d2c711c	0.042100057
191	0xbb843cc4	-0.004035564
192	0x3af5423e	0.0018711758
193	0xbe0ea8dd	-0.13931604
194	0x3d971ab9	0.07378144
195	0xbe6ad523	-0.22932868
196	0xbdbbddba	-0.0917315
197	0xbd176a7d	-0.03696679
198	0xbe207f35	-0.15673526
199	0xba48f453	-0.00076658017
200	0xbf0388bc	-0.51380515
201	0x3cd419c1	0.025891187
202	0x3d243fe1	0.040099982
203	0xbe0dcab1	-0.13846852
204	0x3d74c153	0.05975468
205	0xbd0c9455	-0.034321148
206	0xbe367163	-0.17816691
207	0xbe13df8c	-0.14440745
208	0xbe0cc721	-0.13747837
209	0xbcb17d3c	-0.021666162
210	0xbc075b76	-0.008261552
211	0xbe48591f	-0.19565247
212	0x3dc6aa16	0.0970041
213	0xbd5e567d	-0.0542817
214	0x3dfa4f0e	0.1222211
215	0x3c1d811c	0.009613302
216	0xbe188e92	-0.14898136
217	0xbe63da4e	-0.22251245
218	0x3c14a7d3	0.009073216
219	0x3d8a2863	0.067459844
220	0xbdffc865	-0.12489394
221	0xbd69285f	-0.056923267
222	0x3d986cf1	0.07442654
223	0xbe793078	-0.24334896
224	0xbc004a74	-0.007830251
225	0x3d9a82cd	0.075444795
226	0xbe1c64f8	-0.15272892
227	0xbe2f4bce	-0.17118761
228	0x3d0e50ff	0.034745213
229	0x3d0c50ae	0.03425663
230	0xbc56930c	-0.013096582
231	0xbdcaf8cb	-0.09910735
232	0xbd15747e	-0.03648805
233	0xbdf2b460	-0.1185081
234	0xbd8c4de5	-0.06850795
235	0x3dfd42e3	0.12366273
236	0x3e089b30	0.1334045
237	0xbdf9e098	-0.12201041
238	0xbe8159b4	-0.2526375
239	0xbe713657	-0.23555885
240	0x3cd6c5c0	0.026217341
241	0x3da0ce63	0.07851865
242	0x3d8994f5	0.067178644
243	0x3d99af75	0.07504169
244	0x3d0fcf66	0.0351099
245	0xbca5a1a8	-0.020218685
246	0x3dcfd54e	0.101481065
247	0x3d050985	0.03247978
248	0x3c362638	0.0111175105
249	0xbda4ac8b	-0.080407225
250	0xbdd54c1c	-0.10414907
251	0xbd85c984	-0.06532577
252	0x3c82ace1	0.015951576
253	0xbd2a579e	-0.041587465
254	0xbe6d4b6a	-0.231733
255	0xbe4b2308	-0.19837582

U.1 f4 [1, 64]
0	0x3d6a4ddd	0.057203162
1	0xbe0d645b	-0.13807814
2	0x3d64e28a	0.055880107
3	0x3e01eea5	0.12688692
4	0xbc0f6120	-0.008751184
5	0xbdb1f676	-0.08689587
6	0xbc480f32	-0.012210654
7	0xbdad43ba	-0.084601834
8	0xbe172a6a	-0.14762273
9	0xbdc4fbd5	-0.09618346
10	0x3e5316e7	0.20614205
11	0xbe013542	-0.12617972
12	0xbe2df849	-0.16989245
13	0x3c8be23b	0.017075649
14	0xbec51f4a	-0.38500434
15	0x3ce898e7	0.028393222
16	0xbdfa5bde	-0.122245535
17	0xbd0c353b	-0.034230452
18	0x3e1c3ea7	0.15258275
19	0x3d4bdd9a	0.049771883
20	0xbdf58027	-0.11987334
21	0xbd81017c	-0.06299111
22	0xbc99acda	-0.01875918
23	0xbdf5f370	-0.12009323
24	0xbe36e07e	-0.17859074
25	0xbca14eeb	-0.019690951
26	0xbd5f738d	-0.054553557
27	0x3db4586b	0.08805927
28	0xbd3178fb	-0.043328267
29	0x3dec54b4	0.11539593
30	0xbde8a811	-0.11360181
31	0xbe220933	-0.15823822
32	0xbc4699aa	-0.012121597
33	0xbe4aa27e	-0.19788548
34	0xbe25b564	-0.16182476
35	0xbe3a984c	-0.18222159
36	0x3b204d42	0.0024460112
37	0xbdca8e91	-0.09890474
38	0xbd8e3e22	-0.06945445
39	0xbc8cf8d5	-0.017208496
40	0x3c9c55d9	0.019083904
41	0x3c9d4a16	0.019200366
42	0x3e127a37	0.14304434
43	0x3da49cea	0.080377415
44	0x3dd8c692	0.10584749
45	0xbe3701e4	-0.17871815
46	0xbeaa341f	-0.3324289
47	0xbd80b2f9	-0.06284136
48	0xbd3aac92	-0.045574732
49	0x3e038392	0.12843159
50	0x3c5f1a37	0.01361709
51	0x3ce923e2	0.028459493
52	0xbd3b209c	-0.045685396
53	0x3dcb7649	0.099346705
54	0xbc41a150	-0.011818245
55	0xbd887205	-0.066623725
56	0x3d0cd541	0.034383062
57	0x3d0a2037	0.03372213
58	0xbdbfd3bb	-0.09366556
59	0xbd541078	-0.05177352
60	0xbdad8c70	-0.08474052
61	0xbd97fb80	-0.07421017
62	0xbca6d7e8	-0.020366624
63	0xbb996c2d	-0.004682085

bias.0 f4 [64]
0	0xbdf391b4	-0.11893025
1	0xbea4938e	-0.32143825
2	0x3ea8b2c1	0.32948878
3	0xbf179c52	-0.592229
4	0x3e9a43ae	0.3012976
5	0xbed8df53	-0.42357883
6	0x3dd9d5d7	0.1063649
7	0xbf448fb0	-0.7678175
8	0x3ebbccea	0.36679775
9	0x3d3dba42	0.046320207
10	0xbe9d74ea	-0.3075326
11	0xbf311b66	-0.6918243
12	0xbf225d7c	-0.63423896
13	0xbefb1968	-0.4904282
14	0x3e75a294	0.239878
15	0x3e39145f	0.18074177
16	0xbf1d12fb	-0.61357087
17	0x3ddfd808	0.109298766
18	0xbf036faa	-0.5134226
19	0xbed2c359	-0.41164663
20	0xbeecdd0b	-0.46262392
21	0x3ea5a617	0.3235328
22	0xbe82310c	-0.25428045
23	0x3d9faa8e	0.077962026
24	0xbe2b8a93	-0.1675208
25	0xbd92515f	-0.071444266
26	0xbe6ad756	-0.22933707
27	0xbf0b0124	-0.54298615
28	0xbeabf721	-0.33586982
29	0xbea765f2	-0.32694966
30	0xbec0a2c2	-0.37624174
31	0xbd5de7b4	-0.054176047
32	0x3eed699c	0.46369636
33	0xbdeaec48	-0.11470848
34	0xbed21ac4	-0.41036046
35	0xbe50c729	-0.20388474
36	0xbed5e38a	-0.4177516
37	0x3e81148b	0.25210986
38	0xbf0915c8	-0.5354886
39	0x3e485671	0.19564225
40	0xbe0d1df3	-0.13780956
41	0x3e9bbeac	0.3041891
42	0x3e976114	0.29566252
43	0x3ea1c935	0.3159882
44	0x3d013a28	0.031549603
45	0xbe965114	-0.29358733
46	0x3c0ebb59	0.008711659
47	0x3c9f21c1	0.019425275
48	0x3e4c09e3	0.19925646
49	0xbc11baf8	-0.0088946745
50	0x3e214a51	0.15751006
51	0xbdbc3ca3	-0.09191253
52	0xbf58cc2e	-0.84686553
53	0xbdc803b1	-0.09766329
54	0x3ce6391f	0.02810341
55	0x3d384e04	0.044996276
56	0x3e97864d	0.2959465
57	0xbe9c42ef	-0.30519816
58	0xbebce7b0	-0.36895514
59	0x3eea7c08	0.45797753
60	0x3ec381b7	0.38184902
61	0xbf0fa778	-0.5611491
62	0xbd8ffa15	-0.07030121
63	0x3a62f27c	0.0008657349

bias.1 f4 [64]
0	0x3ea020b2	0.31274945
1	0xbe255fc9	-0.1614982
2	0x3eeb53a8	0.45962262
3	0x3d4c41b7	0.049867358
4	0x3ed52ddc	0.4163655
5	0x3e211709	0.15731443
6	0xbeabd963	-0.3356429
7	0xbe75a441	-0.23988439
8	0xbf09ea16	-0.5387281
9	0xbe3bcc42	-0.18339637
10	0xbedaa9d8	-0.42707705
11	0xbe4d5054	-0.20050174
12	0x3eab17b5	0.33416525
13	0x3e9158cd	0.28388062
14	0x3cc406fe	0.023929115
15	0x3df6d17f	0.12051677
16	0xbf064a51	-0.5245715
17	0x3f008ebd	0.502178
18	0x3ec99311	0.39370015
19	0xbd594ce2	-0.053051837
20	0x3eb535d9	0.35392645
21	0xbe130699	-0.14357986
22	0x3d100a8d	0.035166312
23	0x3edddf51	0.4333444
24	0x3e583f7a	0.21117964
25	0x3f174ebf	0.5910453
26	0x3ec5c27f	0.3862495
27	0xbe0407a7	-0.12893544
28	0xbf1c1132	-0.6096374
29	0x3ec4d61f	0.3844461
30	0xbe967493	-0.29385814
31	0xbea4a0c9	-0.3215392
32	0xbf0ff104	-0.56227136
33	0xbea197c8	-0.31561112
34	0x3ef31bbf	0.47482106
35	0x3e3376c6	0.17525777
36	0x3e622eda	0.22088185
37	0x3ea8fd82	0.3300591
38	0x3ec86a82	0.3914376
39	0xbe38712a	-0.18011919
40	0x3e6c157b	0.23055069
41	0x39d46043	0.00040507512
42	0x3eaa7046	0.33288783
43	0x3ed0b18c	0.40760458
44	0xbeedf8ec	-0.46478975
45	0x3e7c365a	0.24630108
46	0xbf146583	-0.57967395
47	0xbeacaca8	-0.33725476
48	0xbe8dc114	-0.2768637
49	0x3da345ba	0.07972284
50	0x3eb876c1	0.36028102
51	0xbeca9cfc	-0.39572895
52	0xbe8fe930	-0.28107595
53	0xbf0d42b6	-0.5517992
54	0x3e90e64a	0.28300697
55	0xbe53f515	-0.2069896
56	0xbeef1f27	-0.46703455
57	0xbed1c6e6	-0.4097206
58	0x3ef1ea13	0.47248897
59	0xbea62eb6	-0.32457513
60	0x3ecb6664	0.39726555
61	0xbe68efec	-0.22747773
62	0x3eac8359	0.3369396
63	0xbf0e3df3	-0.55563277
