DI_LYAP_m-fwd_d-1_s-0.005_seed3.pt (torch, 21631 bytes, 7 tensors)

W.0 f4 [64, 3]
00000000: 0236 86bf 5b6f 1cbf 8e4c 32be 5342 69bf
00000010: 34fc d6bd 1761 42bf 11d6 413f 07e6 c63e
00000020: bd9b 173d c748 373e cf52 393b ca6d 9d3c
00000030: 1aa5 56bf 7f62 3bbe 088d 0abf 52d5 d0be
00000040: 2c69 d2be 7d60 cc3e 5ba3 5b3f 9a83 0e3f
00000050: f0f0 b73d 3a57 d63d 455c 193f 5b44 11bf
00000060: bd1c 46bf b5f6 e4be f4c2 89be e658 8ebe
00000070: 18ac fdbe 4f22 eebe 0cf8 1d3e ad61 cf3e
00000080: de9a e4be e795 7fbf 7568 2abf 9410 3cbe
00000090: 42df 11bf ce09 2ebf 53e2 88be 76d2 ee3e
000000a0: b731 093e 74b6 97be e51a ddbe 18c4 d7be
000000b0: cf57 4b3e ba91 05bf a444 e9be 4f88 44be
000000c0: 5e77 b03e abe9 193f ca0a 673e 3101 0bbf
000000d0: 2434 bdbd d80e 6e3e 2174 5b3f 5964 6b3e
000000e0: 03df b2be c0ed 6c3f 8bd9 bc3e dd90 90be
000000f0: c653 373f ef00 013e 8333 3dbf fb5b 33bf
00000100: 98c1 0abf ebec dbbe 94cf b6be eeb2 ebbe
00000110: c46a 643e ede5 1b3f b46c 343e ee16 8a3d
00000120: 51a4 b5be b141 88bb ee96 1cbe 7a3d f53e
00000130: c144 f83d 2874 3d3d b9ab 063f 8a70 fb3e
00000140: 14d1 efbe b12b 66bf 9127 24bf c543 14bd
00000150: a446 c73d 0eaa f7be d83a 2d3e b0f9 79bf
00000160: 0b6d 06bf 94f1 0ebe 63fa 4e3e 28c9 473e
00000170: 5b22 0fbf 1947 803f 4bf9 493e 119e d2bd
00000180: 0138 263d e6da ad3e 8b0a 4abe bf0c 093e
00000190: 120e c23d dafc 443d e30f 94be a772 53be
000001a0: c0bd f439 be8d 21bf 8149 84be b944 79be
000001b0: c8f8 18bd 661b c7be 2bde 303e f902 74bd
000001c0: c91b c3be ad2d 01bf 0779 43bf 36bb 19bf
000001d0: b617 c23e 91d1 493e d9f1 e3bc cedb 7b3e
000001e0: b40b 75be 4921 25bf de04 09bf 9a32 3dbf
000001f0: c45c 39bf f3af 4bbe 84f1 2f3c d9e5 fe3c
00000200: 4335 f2be 416e de3e 622d 243f c5ae fc3b
00000210: 6777 edbc d046 bdbd 8ba4 0fbf 129c 163f
00000220: cf82 a03e a252 003e 700f 82bf bd8f 27be
00000230: 8b64 17bf f15c 323e 5012 683d 927b 71be
00000240: 546e 07bf 8876 e3bd aabe 6bbd 47d3 37be
00000250: 46ce 8e3e 7d4b 023f 728a ef3a 357e 1d3f
00000260: 7c55 733d bad1 7a3f cd29 273f 0a06 e2be
00000270: 14bd 003f 4697 d73d d0c2 79be 35d1 11bf
00000280: 69a8 05bf ddae 3fbd 82e2 113f a04a c03e
00000290: cc79 fcbe db3d f7bd 7b82 843e f63c 4fbe
000002a0: 7674 b4be 91d2 1cbe ac25 00be 0328 8dbe
000002b0: 6cf4 11bf 3594 023e 9f83 f13e aaf7 b23e
000002c0: 9758 9dbe 0922 5d3f f0e7 fe3e 2e3f a9be
000002d0: f0da 4e3f 965b 2a3e 6c94 e33d d35f 583f
000002e0: 5267 373e b249 82be 7c8f 153f f0a9 ed3e
000002f0: 447d 05bf f9b8 cc3e 4277 273f 2e08 c6be
-1.0485232 -0.61107415 -0.17412016 -0.9111683 -0.10497323 -0.759294 0.75717264 0.38847372
0.037013758 0.17898856 0.0028278118 0.01921739 -0.83845675 -0.18299292 -0.54121447 -0.4078775
-0.41095865 0.39917365 0.85796136 0.5566956 0.08981502 0.10465856 0.5990642 -0.5674493
-0.773876 -0.44719473 -0.2690655 -0.278022 -0.4954536 -0.4651055 0.15426654 0.40504208
-0.44649404 -0.9983811 -0.6656564 -0.18365699 -0.5698129 -0.6798371 -0.26735172 0.46644944
0.13397871 -0.29631388 -0.4318458 -0.42141795 0.19857715 -0.52175486 -0.4556018 -0.19192623
0.3446607 0.60122174 0.2256271 -0.5429869 -0.09238461 0.2324785 0.85724074 0.22987498
-0.3493577 0.9255028 0.36884722 -0.28235522 0.71612203 0.12598012 -0.73906726 -0.70062226
-0.5420165 -0.42954192 -0.35705245 -0.4603495 0.22306353 0.60897714 0.17619592 0.06742655
-0.35476926 -0.0041582217 -0.1529195 0.47898465 0.12122489 0.046253353 0.5260578 0.49109298
-0.468392 -0.8991042 -0.64122874 -0.036197443 0.097302705 -0.4837193 0.16916978 -0.9764662
-0.52510136 -0.13959342 0.20212702 0.19510329 -0.559118 1.0021697 0.19724004 -0.10284055
0.040580753 0.3395607 -0.19730584 0.13383768 0.0947534 0.0480927 -0.2891837 -0.20649205
0.0004668068 -0.63106906 -0.2583733 -0.24342622 -0.03734663 -0.3888809 0.1727225 -0.059573147
-0.38107136 -0.5046032 -0.7635655 -0.60051286 0.37908715 0.1970885 -0.027825283 0.24595568
-0.23930246 -0.64503914 -0.5352305 -0.73905337 -0.72407174 -0.19891338 0.010738734 0.03111546
-0.4730626 0.43443492 0.6413175 0.007711264 -0.0289876 -0.09242022 -0.5611045 0.58831894
0.313498 0.12531522 -1.0160961 -0.16363426 -0.5913779 0.17418267 0.05665809 -0.23582295
-0.5290272 -0.111065924 -0.05755488 -0.1795169 0.2789175 0.50896436 0.0018275513 0.615207
0.059407696 0.9797627 0.6529816 -0.44145232 0.5028851 0.105269 -0.24390721 -0.5695985
-0.522101 -0.046797622 0.5698625 0.37556934 -0.49311674 -0.12072345 0.258808 -0.20238099
-0.35245103 -0.153147 -0.1251437 -0.2756959 -0.57013583 0.12751849 0.4717073 0.34954578
-0.3073165 0.8638006 0.4978633 -0.33056015 0.8080282 0.166365 0.111122936 0.84521216
0.17910507 -0.2544685 0.58422065 0.46418715 -0.52144265 0.39984873 0.6541635 -0.38678116

W.1 f4 [64, 3]
00000000: e21d 863d 1d2a 743d fbb5 203d b4f4 483f
00000010: bcf2 9e3d 0146 1ebe 88a1 143e c8d7 193f
00000020: f65c c4be 7dd9 573f 975f c73e a790 af3e
00000030: b6e2 7f3d fcf9 15be 6fba a63e b1c7 a33b
00000040: 2d49 dd3e e1ce c2be f770 3fbf ae47 e8be
00000050: 88de cd3e 44f2 5cbe c3d4 d4be a0f5 ebbe
00000060: d166 a0be 02d2 cbbd a239 3bbd bd6b 4339
00000070: da5d afbe 379a 14bf 7edd 013f 1744 dd3e
00000080: f9c5 723e 43f7 c1be 5eb1 14be 9fa4 4d3d
00000090: 813b 4d3a 2d02 f9be 61db bcbd 6719 693f
000000a0: dc84 083f 8a52 bb3e 5451 223f 187b 2c3f
000000b0: bd3f 0abf 9e77 0e3f b0d2 f93d 7511 5c3e
000000c0: 5192 023f 6b59 ee3e 0063 efbe 58ed b93e
000000d0: 8e65 7a3e 2c50 863e 45c7 0d3f bcbc ea3e
000000e0: 8a24 4cbe 4e37 cf3e 0351 133f 3564 873e
000000f0: af9b 093c 1ad6 fbbe f9bd 4cbd ccb2 fabd
00000100: 0523 0a3f 1d00 ef3e 32e7 95bd ddca a7be
00000110: 6452 b9be 6f8a 673c 1cd1 5e3e 0961 da3e
00000120: 6af3 f1be 0bf5 1cbf 05a0 25be 66ce 093f
00000130: 602a 6a3d 3b20 58bd a4e2 3abe b69d 00be
00000140: ca07 f5be 3011 ccbe 602e 91be 159c f8be
00000150: 51a3 34bf fc4b 1cbf 2bfd ecbc cc3b 06bf
00000160: 4921 b7be d396 b73b 8075 d3be fad6 c9be
00000170: 13ef ff3d a46a 5ebf 915b 9bbd 3ab1 11bd
00000180: ad81 703f 1d13 c63e 000d 76be 253c 85be
00000190: 9f5f d1be f758 97bd 866a 143e a0bd 33be
000001a0: 48c6 1cbf 06df 713f a73d a33e eada 703e
000001b0: 815f 11bf 6230 8abe 55fd 33be f097 753e
000001c0: b11e b33d 88e7 5ebe 2a72 0abf 0bf7 e3be
000001d0: 6613 91be 02d1 15bc 360a 1a3d 3691 823d
000001e0: a0bd 2f3f 93d4 443e 24de d1be d7e5 a4be
000001f0: ecf7 bbbc 6de4 2bbe 2fbf 0e3f 8e79 c73e
00000200: 56eb b33e 3e46 febe 5d72 0bbf fe10 d5be
00000210: 4d8f ef3c b9a4 40be 0323 5bbc 0b19 d43e
00000220: a313 153d 0253 59bf 068c a53e dfc6 173e
00000230: e6e6 9abe bec0 f43e ea66 033e af97 7d3d
00000240: 0e89 2e3e 8c09 0b3f 4146 dc3e 7d5a d0bb
00000250: 7fc9 bbbe 37d2 c9be 084a a6be 5713 9bbe
00000260: 047b 94bd 2008 2cbf ca9d 96be 8c97 8bbc
00000270: 26d1 afbd 9fae 0d3e e957 92bd 132f 2bbf
00000280: 7afb b6be 47ae a8be b0d8 783f c7c2 cb3d
00000290: dded 98be b7df 02bf 7b11 0cbf e8b5 fbbe
000002a0: 880b 5fbf 1010 44be ea35 a4be 5636 1e3f
000002b0: b617 f73e c0dc b8be 487e ad3c 3df4 cebd
000002c0: f085 90be 2f11 db3d f25b a4be 0079 193e
000002d0: bb35 163f 4b6d 7d3e d091 a5be 9765 c53d
000002e0: 1c22 c0be 53b4 75be 241e 823e e32b 0fbd
000002f0: 3fd5 b0be 3ea3 76bf d934 31bf 19c5 e5be
0.065486684 0.059610475 0.03923605 0.7849839 0.07761142 -0.15456392 0.14514744 0.6009488
-0.38352174 0.84316236 0.38940117 0.34290048 0.062472068 -0.14646143 0.32564113 0.0049981703
0.4321989 -0.3804846 -0.74781746 -0.45367187 0.4020884 -0.21576792 -0.41568574 -0.46085835
-0.31328443 -0.09952165 -0.04570926 0.00018636785 -0.3425129 -0.58047813 0.50728595 0.4321601
0.23708333 -0.37883958 -0.14520785 0.050205823 0.0007828996 -0.48634472 -0.09221531 0.91054386
0.5332773 0.3658641 0.63405347 0.67375326 -0.54003507 0.5565127 0.121983886 0.21491034
0.5100451 0.46552595 -0.46755219 0.3631389 0.24452803 0.2623304 0.55382186 0.45847118
-0.19935814 0.40471882 0.5754549 0.2644364 0.008398934 -0.49186784 -0.04998586 -0.12241134
0.53959686 0.46679774 -0.07319488 -0.3277196 -0.36195672 0.014132126 0.21759456 0.42652157
-0.47256023 -0.61311406 -0.16174324 0.53830564 0.05716932 -0.052765112 -0.18250519 -0.12560162
-0.47857505 -0.39856863 -0.28355694 -0.4855658 -0.705617 -0.6105344 -0.028929314 -0.5243499
-0.35767582 0.0056026964 -0.41300583 -0.39421827 0.12496772 -0.8688147 -0.07585824 -0.035569407
0.9394787 0.38686457 -0.24028397 -0.2602245 -0.40893266 -0.073900156 0.1449376 -0.17552805
-0.61240053 0.9448093 0.31882975 0.23521009 -0.5678635 -0.26990038 -0.17577107 0.23983741
0.08746088 -0.2176801 -0.5408045 -0.44524416 -0.28335112 -0.00914407 0.037607394 0.06375353
0.6864872 0.19221716 -0.40989792 -0.32206604 -0.022945367 -0.16786356 0.55760473 0.38959926
0.35140485 -0.49662966 -0.5447138 -0.41614527 0.029243136 -0.18812837 -0.013375047 0.41425356
0.03639568 -0.84892285 0.32333392 0.14821957 -0.30254287 0.478033 0.12832227 0.061912235
0.1704447 0.5431144 0.4302235 -0.0063584433 -0.36677167 -0.39418194 -0.32478356 -0.30288193
-0.07250026 -0.671999 -0.29417259 -0.017040037 -0.08584814 0.13836144 -0.07145674 -0.66868705
-0.35738736 -0.32945463 0.9720564 0.0994926 -0.29868975 -0.5112261 -0.54714173 -0.4916222
-0.8712697 -0.19146752 -0.32072383 0.6180166 0.48260278 -0.3610592 0.02117838 -0.101051785
-0.28227186 0.10696637 -0.321014 0.14987564 0.58675736 0.24748723 -0.3233781 0.09638517
-0.37526023 -0.2399457 0.2541362 -0.034953963 -0.34537694 -0.9634284 -0.69221264 -0.44876936

W.2 f4 [1, 3]
00000000: 6668 b3bd d6ac b2be 68fe 85bf
-0.08760147 -0.34897488 -1.0468264

U.0 f4 [64, 64]
00000000: 17ff b53d 4b75 d3be a205 dcbc d82d afbe
00000010: a55e edbc 5031 f53c 0e95 cb3d 0cad de3d
00000020: 6896 2e3d 16fe bfbc 86bc 87bd f55d 413d
00000030: 8892 173d 39e6 16bd f5f2 343d a646 4f3d
00000040: ae34 0b3c affd 4cbe b9bc 353d 7e8b 163d
00000050: 20eb 9bbd ed74 16bd 39cd 80bd 0dd9 db3c
00000060: 2cfd 50bd 69ba 79bd 698d 0d3e f9ac 503d
00000070: 3e1b ebbb 275d 4c3e 4f33 1bbe e2a9 083d
00000080: 840a d4bd ba76 03be 954e 603d de31 49bd
00000090: b868 5e3d 2f33 02bd 1025 d0bc bdab bebe
000000a0: a4fc a43b 1bfb 0c3d bf1b 69bd 87c6 f7bc
000000b0: f3cf 9dbc 4500 abbd 98cd 0ebe 85cc 1bbd
000000c0: e4c8 7bbe 2f3a 1fbe af6e 95bd 3240 363e
000000d0: 0098 f0bd d46d 49bd 6f81 eb3d c800 81bd
000000e0: a48f c9bd 7ccf f63d 458e 41bd 4fd7 b23d
000000f0: 0d00 d2bb a307 c9bd 82b2 06bd 4385 073e
00000100: 814a 403e 550b fcbe 0b9e aa3d 2189 82be
00000110: 9719 23be 8045 67bd 8fb6 bb3d e6f4 f4bc
00000120: 276d 9d3c 3753 2b3d 3529 c83d 41ed 7a3d
00000130: 2f8f a3bd b22a a5bd 8bcd 95bd 152c 6dbb
00000140: 5ef8 d53d ea52 86be e9f3 2c3c 348a cebb
00000150: c754 453d 7b9a 543d ebb9 0bbe 283b ff3b
00000160: b97a 9ebe ab26 dfbd ea1a 063e 3613 c43d
00000170: da39 8f3b 34db 72bc d4f9 4cbd 2ef0 ab3d
00000180: f323 8a3d 0500 acbc b5f5 cabd c7f7 df3c
00000190: b50c c0bd 488e 3cbe e79d ad3d 2e30 c4be
000001a0: 63e5 d8bc aff7 ff3d a95d d2be 6457 1a3e
000001b0: 6ef7 8dbe 93bf 093c 33eb fcbd 2765 4639
000001c0: edf1 38be f2cc 52bc b5ee ad3d 581a db3d
000001d0: 5f4e abbc f450 76bd ced2 81bc 3688 5b3d
000001e0: ef62 79be 3eb5 e7bd 201c 9b3d 3334 a43d
000001f0: 5cd1 1f3d 388f 35bd 6133 56bc ca96 aebc
00000200: be21 45be 0236 97bd 8b7e 283d 2cf2 1b3e
00000210: e99c b3bd 76d1 06bf f309 213c 4aea 60bd
00000220: b405 e7be 176d 21bc 3f5b f1bb 50eb ac3d
00000230: 9f2d 5bbd c9d5 3c3d c9dc e7be bee0 c3be
00000240: 6bd6 213e c032 51be c460 453e a748 6c3c
00000250: 52ff 293e 34b6 e9bd df25 64be dc1b 803c
00000260: 7fca 063d ed4e db3c bdac 0b3e 5776 2abe
00000270: 5282 14bd 4d17 44be 04a0 833d 1434 fc3d
00000280: 7ba3 283b 2db8 38be 0ef1 1fbe c78a b5be
00000290: e38e acbe 6a70 87be d63e 99bd 3930 2dbd
000002a0: 2e28 99bc d25b a7bd 05d0 09bc dbce 353e
000002b0: aa2a 06be f3f5 953a 4b92 0dbe 553f 813b
000002c0: a3ea a8bd f7be 08be 92c9 12bd b591 7e3e
000002d0: 43a1 823d 5f19 9dbe 17d5 1cbb 567a 34be
000002e0: 0666 61be d2f3 18be a897 903d 3607 3d3e
000002f0: a4b4 c0bb e8e3 cc3d 803a 9e3d 5fe1 3b3d
00000300: 665e 9abd 5dfb 49be 1c5d 5a3e b3c9 50be
00000310: 4613 b1be 4ca4 69be a13b 223e 4ce8 b43d
00000320: 7eb4 3cbe f9e4 1cbe c73b 443d b2d3 843d
00000330: 5975 2cbe 412a a13d 483d 26be 8d8b b1bd
00000340: f25b 00bd a230 53be 0ae9 fe3d 5d4d d73d
00000350: a432 173e 6bc5 59bd 1a7d 9abd 9ece 213c
00000360: e60c e5bd e09b 023b 65dd 493e caa3 5dbc
00000370: d99d 6bbe 0516 0bbd d456 213d ca7f efbc
00000380: 605a 8bbd 5941 1abd 459e b4be 33b7 cdbe
00000390: edd7 81be 7567 f7bd 013a 5bbc b8e4 11bd
000003a0: 8aaf 57be 02bd be3d 3bbe 21be 9a2d 4c3e
000003b0: 0ebe b7be 3807 2d3d e87d 7bbe 35c4 1dbe
000003c0: 7b60 57be b9a7 e8bd 2241 053e e273 2c3e
000003d0: 53f6 983d 0a40 c6bd cc4d c43d 40d0 8ebd
000003e0: 984c 05bf 6ac5 5abe f8cd e8bc c0cf 6b3e
000003f0: 4b16 ee3d 251e 233e 1cde a83d 982e f23d
0.08886545 -0.41300425 -0.026858155 -0.34214664 -0.028975794 0.02993074 0.09940539 0.1087285
0.042623907 -0.023436587 -0.06627755 0.047208745 0.037004977 -0.03684065 0.044177014 0.050604485
0.008496447 -0.20018648 0.044369433 0.036754124 -0.07613206 -0.036732603 -0.06289143 0.026836896
-0.051022694 -0.06096879 0.13823475 0.05094621 -0.0071748784 0.1995741 -0.15156291 0.033365138
-0.10353568 -0.1283826 0.05476244 -0.049119823 0.054299086 -0.031787094 -0.025408298 -0.372404
0.005035 0.03441916 -0.056911226 -0.030246032 -0.019264197 -0.08349661 -0.13945615 -0.038036842
-0.24588352 -0.15549539 -0.07296502 0.17797926 -0.11747742 -0.049177006 0.11499297 -0.06298977
-0.098418504 0.12051293 -0.04725482 0.08732473 -0.0064086975 -0.0981591 -0.032885082 0.13234429
0.18778421 -0.49227396 0.083309256 -0.25495246 -0.1592773 -0.056462765 0.0916568 -0.029901933
0.019217087 0.041827407 0.097734846 0.06126142 -0.079862945 -0.08064784 -0.07314595 -0.0036189605
0.10447763 -0.26235133 0.0105562 -0.006303096 0.048176553 0.051905137 -0.13645141 0.0077890344
-0.30953005 -0.10896047 0.13096204 0.09573977 0.00437091 -0.01482277 -0.050042942 0.0839542
0.06745138 -0.020996103 -0.09910146 0.02733983 -0.09377424 -0.18413651 0.08477383 -0.38318008
-0.026476568 0.12498414 -0.41087082 0.150724 -0.27727836 0.008407491 -0.12349548 0.00018920434
-0.18061037 -0.012866246 0.084927954 0.10698384 -0.020911394 -0.060135797 -0.01584759 0.053596698
-0.24354146 -0.11313866 0.07573724 0.08017769 0.03901802 -0.044326037 -0.013073773 -0.021312136
-0.19251153 -0.07383348 0.041136306 0.152291 -0.087701626 -0.5266336 0.009829032 -0.054910935
-0.4512154 -0.009852669 -0.0073656137 0.0844332 -0.053510305 0.04610232 -0.45285633 -0.38257402
0.1580445 -0.20429516 0.19275194 0.014421619 0.16601303 -0.114117056 -0.22280072 0.015638284
0.03290796 0.026771033 0.13640113 -0.16646706 -0.036257096 -0.19149514 0.06427005 0.123146206
0.0025732208 -0.18039007 -0.15619299 -0.3545744 -0.33702764 -0.26452953 -0.07482688 -0.042282317
-0.018695917 -0.0817181 -0.008411412 0.1775469 -0.13102213 0.0011441096 -0.13825338 0.0039443173
-0.082478784 -0.13354097 -0.035836764 0.2486027 0.063784145 -0.3068342 -0.0023930722 -0.17624792
-0.22011575 -0.1493676 0.07060176 0.18459782 -0.005880909 0.10004407 0.07726002 0.045869227
-0.07537536 -0.19724794 0.21324581 -0.20389442 -0.34585017 -0.2281658 0.15843059 0.088333696
-0.18428227 -0.15321721 0.04790857 0.0648569 -0.1684164 0.078693874 -0.16234314 -0.08669195
-0.031337686 -0.2062402 0.124467924 0.10512803 0.14765412 -0.053166788 -0.075433925 0.0098759215
-0.11184101 0.0019929335 0.19713362 -0.01352782 -0.23009433 -0.033956546 0.039389446 -0.02923574
-0.06804347 -0.037659977 -0.35277 -0.40178832 -0.2536005 -0.1208028 -0.013380528 -0.035618514
-0.21063057 0.09313394 -0.15795223 0.1993927 -0.35887188 0.042243212 -0.24559748 -0.15406878
-0.21032898 -0.113601156 0.13013127 0.16841081 0.074688576 -0.09680183 0.09585151 -0.06973314
-0.5207 -0.2136437 -0.028418526 0.23028469 0.11625346 0.15929468 0.08245489 0.11825293

U.1 f4 [1, 64]
00000000: ede3 9abd 6d81 7cbc e590 d53d 55e6 573b
00000010: 92b7 1ebd 02c2 edbd 2c53 ea3d 1f1a 2abd
00000020: dcd2 c5bd 39d1 dabd f03e 24bb 79e8 c7bd
00000030: b2c2 00bd ba86 b43d 41a3 c63c 909d 0dbe
00000040: a71f 1cbd f485 94bd 9c74 823d bc75 923c
00000050: debc dbbd b1f5 b73b dc9b 13be 5193 09bd
00000060: 6bf8 c5bc 3e50 fd3c a58b 12be cc4f 81bd
00000070: 5901 ef3c a8c0 81bd 2796 51bd 988d a3be
00000080: 93e8 c33c 70a3 0dbe 6d2b 0cbc f84f 0ebd
00000090: 98bc 31bc ee83 de3c ff63 e73d f4b7 52be
000000a0: 8d43 283e af21 5dbe d9f2 0b3e c6a5 ed3d
000000b0: c63a 8dbd 1e91 95be 5486 393b bcbf 0cbe
000000c0: ad94 c2bd 3650 6fbc d2fb e3bd 4d02 83bd
000000d0: f2c7 b8bb ca95 583d c1b9 ffbd c26b ee3d
000000e0: 5c2d 093d 4541 373d 19c2 4fbe 5a0c 38be
000000f0: c684 d13c b6ff 033d 1962 52bd ec04 88bc
-0.07563005 -0.015411717 0.10428027 0.0032943685 -0.038749285 -0.1160927 0.11441645 -0.041528817
-0.09659359 -0.10684437 -0.0025061928 -0.097611375 -0.031435676 0.088147596 0.024247767 -0.13829637
-0.038116124 -0.07252112 0.06369898 0.017878406 -0.10729383 0.0056140055 -0.14414924 -0.033587757
-0.024166306 0.030922052 -0.14311083 -0.06314048 0.029175447 -0.063355744 -0.051168587 -0.31943965
0.023914611 -0.13831878 -0.008555275 -0.034744233 -0.010848187 0.027162518 0.112983696 -0.20577985
0.16432019 -0.2159488 0.13666858 0.116038844 -0.06895976 -0.29212278 0.0028308826 -0.13745016
-0.09501014 -0.014606526 -0.11132015 -0.06396923 -0.0056390697 0.052877225 -0.124866016 0.11641647
0.033490524 0.04473998 -0.20288886 -0.17973462 0.025576007 0.032226287 -0.051363084 -0.01660391

bias.0 f4 [64]
00000000: 6371 4abe c5eb 0bbf 1d45 b7be 36ac 98bd
00000010: 05eb c7be 3ab1 dcbe 16de 92be 3ba5 f7be
00000020: a493 8d3e cf1a 09bf 77f6 cbbe af9d c3be
00000030: d336 4f3d f1e1 913e 0269 9ebe 63af 1f3e
00000040: f139 df3c 3729 12be f763 953e dc4f 26bc
00000050: 5c36 333e 0d1f 0bbe 0acc f7be 5429 543d
00000060: 7b3a 18bf 274e b3be 14ee 143e 6dee 233e
00000070: 6a99 22be 080b b3be 9bb5 9ebe a71b 1abf
00000080: 9043 e4be 2675 23bf 82ad 22bf e66b 18bf
00000090: 4d80 05be a5f5 02bd a7bc 07bf 48f4 d53d
000000a0: a57f ccbe 49b5 cebe df94 c0be eaac e3be
000000b0: 73ee 183e 134b db3e 5757 21bf 5130 47bf
000000c0: 9b31 24bf 3fec b4bd cd7e a7be 6310 613e
000000d0: d9ae 23bf 17b6 c13e 242e c63e da52 93be
000000e0: a6ac 82be 3f0b 253d 9108 39be eab9 b33e
000000f0: 264a 38bf 9f08 053d 718b f93e 474d 2e3e
-0.19769816 -0.5465663 -0.35794917 -0.07454722 -0.39046493 -0.43103963 -0.28685063 -0.48368248
0.27651703 -0.5355653 -0.39836475 -0.3820624 0.050589394 0.28492692 -0.3093949 0.15594248
0.027249308 -0.14273535 0.2917783 -0.010150876 0.17501205 -0.13586064 -0.48397857 0.051797226
-0.59464234 -0.35020563 0.14543945 0.16008921 -0.15878835 -0.34969354 -0.3099793 -0.60198444
-0.44582796 -0.6385063 -0.63546 -0.5953964 -0.13037224 -0.031972546 -0.53022236 0.104469836
-0.39941135 -0.40372685 -0.3761358 -0.4446786 0.14934711 0.42830715 -0.63023895 -0.778081
-0.6413819 -0.08834123 -0.3271393 0.21978907 -0.6393867 0.37834236 0.38707078 -0.28774148
-0.25522345 0.04029393 -0.18069674 0.3510278 -0.7198814 0.032478925 0.48739198 0.17021666

bias.1 f4 [64]
00000000: 1b4d a23e 4c8a 5c3e edea a23e 43c3 e5be
00000010: 12ab f93e e434 93be e590 0cbf 8dfa 33be
00000020: b4e3 d83e 09e3 03bf 0bea 873d 93e7 afbe
00000030: 8d66 b5be 550a f2be 0977 b83e 16cc e8be
00000040: 79d5 22be 5bcf eb3d 500f eabd 0b65 fd3e
00000050: 9d63 0fbf 98c9 7f3e 25c2 b63e b07b edbe
00000060: d218 2fbe 5f89 d93e 74fe c4be e3b9 053d
00000070: 1622 63bd b139 4ebd 9134 a33e 8b77 83be
00000080: 6f8a d83e a38e 1dbd 8a21 57be 2c1f e6be
00000090: d516 52bd da53 0fbf 3ae0 bf3e 1ab3 ec3e
000000a0: 0b9c eabe 3c13 09be 6f2d 183e 7b1d 06bf
000000b0: 8b58 823e fa21 4dbe 105e 37be f607 2f3e
000000c0: 7065 963e 91a4 16bf 99f5 363c 39dd cbbe
000000d0: 2335 f83e 488e e3be 7bf1 62be 5e9d a3be
000000e0: 9d44 62be 66f5 41bd 0cb8 03bf 6c85 ed3e
000000f0: 5e83 553d 8229 56be 2906 24bf 7343 a33e
0.31699452 0.21537131 0.3181986 -0.44875535 0.4876333 -0.2875129 -0.5490859 -0.17576046
0.42361224 -0.51518303 0.06636437 -0.34356365 -0.35429803 -0.47273508 0.36028317 -0.45468205
-0.15901746 0.11514159 -0.11428702 0.49491152 -0.5601137 0.24979246 0.35694996 -0.4638343
-0.17099312 0.42487618 -0.38475382 0.03264798 -0.05545243 -0.050347988 0.31876042 -0.25677142
0.42293116 -0.038466107 -0.21008888 -0.44945657 -0.051291306 -0.5598732 0.3747576 0.46230394
-0.45822176 -0.13386244 0.14861082 -0.52388734 0.25458178 -0.20032492 -0.17906976 0.1709288
0.29374266 -0.5884486 0.0111669535 -0.39817217 0.4847804 -0.4444449 -0.2216243 -0.31956
-0.22096486 -0.04735317 -0.5145271 0.46390855 0.052127235 -0.20914271 -0.640719 0.31887397
