fwd_CP_TO_m-fwd_d-1_s-15_seed_4.pt (torch, 12132 bytes, 3 tensors)

weight f4 [128, 5]
0	0xbdd92347	-0.10602432
1	0xbdefc02c	-0.11706576
2	0xbdb58481	-0.08863164
3	0x3dd79fcd	0.105285265
4	0x3e086b0e	0.13322088
5	0x3b2fa97b	0.00268039
6	0x3e899a0c	0.2687534
7	0xbd91e484	-0.07123664
8	0xbcc23fec	-0.023712121
9	0xbe92f87d	-0.28705207
10	0x3dce06e8	0.10059911
11	0x3e84fec0	0.2597561
12	0x3da3b39a	0.07993241
13	0x3c7cf692	0.015439646
14	0xbe4149bf	-0.18875788
15	0x3d397cd3	0.045285057
16	0x3d0752bd	0.03303789
17	0x3e913456	0.28360242
18	0xbdfe0a5f	-0.12404322
19	0x3d80a4bc	0.062814206
20	0xbe1ef955	-0.155248
21	0x3e47ad97	0.19499813
22	0x3e057d5f	0.13036107
23	0xbd432c90	-0.04764992
24	0x3d8efa64	0.06981352
25	0x3df4a759	0.119459815
26	0xbd561c2e	-0.052272968
27	0x3d7f40ec	0.062317774
28	0x3cb626d0	0.022235304
29	0xbe5c6077	-0.21521173
30	0xbdc2b2c9	-0.09506757
31	0x3d012184	0.031526104
32	0x3e186467	0.1488205
33	0xbe13df13	-0.14440565
34	0x3e2650f5	0.1624182
35	0xbb0615d3	-0.0020459786
36	0x3e3db053	0.18524294
37	0xbdde391e	-0.10850738
38	0x3d46c98d	0.048532058
39	0xbc284b5c	-0.010271873
40	0x3d8948f6	0.06703369
41	0xbdd40d3c	-0.10354087
42	0x3cc851e3	0.02445311
43	0xbe62c2d8	-0.2214464
44	0x3afe9d6d	0.0019425579
45	0x3d891737	0.06693881
46	0xbd95b447	-0.07309776
47	0x3d18abc7	0.037273195
48	0xbd864859	-0.06556768
49	0xbe0d7d87	-0.13817416
50	0x3c4074d5	0.011746605
51	0x3de76064	0.11297682
52	0xbdc7a338	-0.097479284
53	0x3bd0894c	0.0063640233
54	0x3d915289	0.070958205
55	0x3b7e296f	0.003878202
56	0xbdc9ae83	-0.098477386
57	0xbdec401e	-0.11535667
58	0xbd97519e	-0.07388614
59	0x3e2a72b1	0.16645314
60	0x3d0e3f45	0.034728307
61	0x3dced4f4	0.10099211
62	0xbd6dbda4	-0.058042184
63	0xbdcae35a	-0.09906645
64	0xbe10301a	-0.1408085
65	0x3e18bde0	0.14916182
66	0xbd21c3c0	-0.039493322
67	0x3c2a7af1	0.010405288
68	0x3c17550b	0.009236584
69	0xbcc918b4	-0.024547912
70	0x3e67efce	0.22650072
71	0x3e2a455e	0.16628024
72	0x3bc818d4	0.0061064754
73	0x3d05afe7	0.032638457
74	0x3dbd216c	0.0923489
75	0x3e23c691	0.15993716
76	0x3e4b8424	0.19874626
77	0xbd005015	-0.031326372
78	0x3dc62d07	0.09676557
79	0xbe10fb8f	-0.14158462
80	0xbd133ec0	-0.035948515
81	0x3cc97999	0.024594115
82	0x3cbb34b9	0.022852289
83	0xbc6ebd80	-0.0145715475
84	0xbef91a14	-0.4865271
85	0x3df91b1f	0.12163376
86	0x3df8aacb	0.12141951
87	0xbe340971	-0.17581727
88	0xbc31e11e	-0.010856895
89	0x3e29f3c4	0.16596895
90	0xbe1489c4	-0.14505678
91	0xbd9c8f6d	-0.07644544
92	0x3cdc8dfb	0.02692317
93	0xbe24eb46	-0.16105375
94	0xbde0d3ae	-0.10977875
95	0x3e495e0b	0.19664781
96	0xbea064d9	-0.3132694
97	0xbdcfac6b	-0.10140308
98	0x3df448da	0.11927958
99	0xbd03b449	-0.032154355
100	0xbdb9572d	-0.090498306
101	0xbe6c78b8	-0.23092926
102	0x3bf40b9d	0.0074476735
103	0x3d82045e	0.06348489
104	0xbe296a10	-0.16544366
105	0xbe8a2af2	-0.2698589
106	0xbe042285	-0.12903793
107	0xbe4b6bd1	-0.19865347
108	0x3e2d62f5	0.1693228
109	0x3ca948ed	0.020664657
110	0xbdcd0b0e	-0.10011874
111	0x3d4f78cf	0.05065232
112	0x3d806d8f	0.06270897
113	0xbd7e1d01	-0.06203938
114	0xbdf164ba	-0.1178679
115	0xbd569e2f	-0.05239695
116	0x3de0e659	0.10981435
117	0xbe31914b	-0.17340581
118	0x3dfc432b	0.12317499
119	0x3dc8465d	0.09779046
120	0x3dcdc99e	0.10048221
121	0xbc234a23	-0.009966406
122	0xbb403173	-0.002932635
123	0x3df13a96	0.117787525
124	0x3bc5ad8d	0.0060326518
125	0xbd0aaf5c	-0.033858642
126	0x3df65af5	0.120290674
127	0xbdd1b23f	-0.10239076
128	0xbe0583b5	-0.13038523
129	0x3dcf83dc	0.10132572
130	0xbd2eead4	-0.04270442
131	0xbc90e97b	-0.017689457
132	0x3d53ff2a	0.051757015
133	0x3e50c8e3	0.20389132
134	0xbe28c55b	-0.16481535
135	0x3d9c8393	0.07642283
136	0x3e285ce0	0.16441679
137	0x3d77ff9c	0.060546502
138	0xbcf52dac	-0.029929005
139	0xbce44807	-0.027866377
140	0x3e5dcc7f	0.2166004
141	0x3d37b48b	0.044849914
142	0xbe430249	-0.1904384
143	0x3e26b370	0.16279387
144	0xbda5d148	-0.08096558
145	0xbd0c5506	-0.034260772
146	0xbceb58d8	-0.028728887
147	0x3e32f230	0.174752
148	0xbd81be93	-0.06335177
149	0xbd212392	-0.039340563
150	0x3e34316e	0.17596981
151	0xbc2f3a33	-0.010695028
152	0x3e376417	0.17909275
153	0x3e27d91c	0.16391414
154	0x3dd7b34a	0.105322435
155	0xbe4fc98f	-0.20291732
156	0x3d9fc532	0.07801284
157	0x3e315b9f	0.17320107
158	0xbe393656	-0.18087134
159	0xbe517ac8	-0.20456994
160	0x3da49bd4	0.08037534
161	0x3c927303	0.017877107
162	0x3d5edf32	0.054412074
163	0x3ba23cb1	0.0049510826
164	0x3dcc784b	0.099838816
165	0xbda2b1d2	-0.07944073
166	0xbc4913f7	-0.012272826
167	0x3e01a649	0.12661089
168	0xbe4568c8	-0.19278252
169	0x3c9ba475	0.018999318
170	0xbe266215	-0.16248353
171	0x3d97c189	0.07409961
172	0xbd647b0c	-0.05578141
173	0x3e2a711d	0.16644712
174	0xbd007343	-0.031359922
175	0x3e195f28	0.14977705
176	0x3dba2598	0.09089202
177	0xbb0c093b	-0.0021367806
178	0xbe3d1ae0	-0.18467283
179	0x3dd82a37	0.10554927
180	0x3d2d974a	0.04238061
181	0x3d4046ab	0.046942394
182	0xbbfd37ef	-0.007727615
183	0x3c50333c	0.012707528
184	0xbd362e27	-0.044477608
185	0x3e1c4062	0.15258935
186	0x3e1d35a4	0.15352494
187	0xba8b73c5	-0.001063936
188	0x3d1b7473	0.03795285
189	0xbd6f8a2d	-0.058481384
190	0x3e41dbfe	0.18931577
191	0x3d1e0b07	0.038584735
192	0xbda1e75b	-0.07905456
193	0xbdd1c770	-0.10243118
194	0xbd2fc97e	-0.042916767
195	0x3e2c4b58	0.16825616
196	0x3e03283b	0.12808315
197	0xbd9c52cc	-0.0763298
198	0x3e706ff0	0.23480201
199	0xbe75f854	-0.24020511
200	0x3dc8b91e	0.09800933
201	0xbe53143a	-0.20613185
202	0xbe034db1	-0.12822606
203	0xbe25b8f4	-0.16183835
204	0xbde232ad	-0.11044822
205	0xbd0291ff	-0.031877514
206	0xbd452956	-0.048135124
207	0xbc9fd073	-0.019508576
208	0x3d04207f	0.032257553
209	0xbe2069ab	-0.15665309
210	0x3cfb7338	0.030694589
211	0x3d90d35e	0.07071565
212	0xbd5d0676	-0.05396124
213	0xbe05a0d5	-0.13049634
214	0xbcbfd211	-0.023415597
215	0x3e9ad831	0.30243066
216	0xbdb6a154	-0.0891749
217	0x3d17f692	0.037100382
218	0x3dd18881	0.10231114
219	0x3d1871bf	0.03721785
220	0x3d036ff3	0.032089185
221	0xbe506d55	-0.20354207
222	0xbdc8cb7d	-0.09804437
223	0x3dec0a3d	0.1152539
224	0xbc441aa6	-0.011969244
225	0xbdb1b7a7	-0.08677607
226	0x3d2b065e	0.04175412
227	0x3d6fee7b	0.058577042
228	0x3e888816	0.26666325
229	0xbd8b6d66	-0.068079755
230	0x3d835b2c	0.06413874
231	0x3d4096e4	0.0470189
232	0xbe218331	-0.15772702
233	0x3c619b27	0.013769901
234	0x3c1e9803	0.009679797
235	0xbb8ab4b2	-0.0042329663
236	0x3d03fd6d	0.032224108
237	0x3e114f56	0.1419042
238	0xbd872ed1	-0.066007264
239	0x3e01a81a	0.12661782
240	0x3e16cae6	0.14725837
241	0xbda0c17a	-0.07849403
242	0xbe36ffe7	-0.17871056
243	0xbe686c9f	-0.22697686
244	0x3d52a1c7	0.051423814
245	0x3dad84e1	0.0847261
246	0xbd953294	-0.07285038
247	0xbc13cdd6	-0.009021243
248	0x3dfb91b0	0.12283647
249	0xbe342a43	-0.17594247
250	0x3daef69c	0.08543131
251	0x3de48a2d	0.111591674
252	0x3c118396	0.00888147
253	0x3d483d0c	0.048886344
254	0x3bf71902	0.007540823
255	0x3d380d31	0.044934455

bias f4 [128]
0	0x3bb0c65d	0.0053947405
1	0xbc7549df	-0.0149712255
2	0xbc3aa808	-0.011392601
3	0xbc19b305	-0.0093810605
4	0x3bc465c7	0.005993578
5	0x3a311f02	0.00067566347
6	0x3c5e3e82	0.013564708
7	0x3c8106df	0.015750347
8	0x3bb640cf	0.005561925
9	0xbcb9b7f3	-0.022670722
10	0xbce2bb63	-0.027677244
11	0xbc457bc1	-0.012053431
12	0x3cb6266a	0.022235114
13	0xbd1c76b8	-0.038199157
14	0xbbdcac67	-0.006734419
15	0x3c660dcd	0.014041376
16	0xbd66a010	-0.05630499
17	0xbc53154d	-0.0128834965
18	0x3aa0cc37	0.0012267892
19	0x3d948f36	0.07253878
20	0xbc254fe0	-0.010089844
21	0x3d8e3e26	0.069454476
22	0xbbbf2f99	-0.0058345315
23	0xbc10548d	-0.008809221
24	0x3c044d44	0.008075062
25	0x3c75d0c8	0.015003391
26	0xbc5cdd55	-0.013480504
27	0xbd7d1a81	-0.061792854
28	0xbcc74b3b	-0.024327865
29	0xbb47cfd4	-0.0030488865
30	0x3c7c5b63	0.015402648
31	0xbc967642	-0.018366937
32	0xbbfdac3d	-0.0077414797
33	0x3d190f6e	0.03736823
34	0xbc970c5d	-0.018438512
35	0x3d26d594	0.040731028
36	0xbc9ad9fd	-0.018902773
37	0xbb67aabb	-0.0035349566
38	0x3cf4b1b0	0.029869884
39	0x3d035812	0.032066412
40	0xbd0f7905	-0.035027523
41	0xbd06721d	-0.03282367
42	0x3cb24171	0.02175972
43	0x3c34f3ca	0.011044452
44	0x3d547713	0.05187137
45	0xbc8af173	-0.016960835
46	0xbafda7cc	-0.0019352376
47	0xbc7ad678	-0.015309922
48	0xbc1fe0e8	-0.009758212
49	0x3d5cdf5a	0.053923942
50	0xbc451e3d	-0.012031135
51	0x3c64e0a9	0.013969579
52	0xbbab17e1	-0.0052213524
53	0x3bef1e2a	0.007297297
54	0x3d150347	0.03638008
55	0xbab4669a	-0.0013763488
56	0xbc5b6036	-0.013389638
57	0x39b7e40f	0.00035074397
58	0xbc9b9c1c	-0.018995337
59	0x3c156508	0.009118326
60	0xbbb5fd39	-0.005553868
61	0x3c36fa7f	0.011168121
62	0xbc541b4b	-0.01294596
63	0x3dc82721	0.09773088
64	0x3c36c1a3	0.011154565
65	0x3cd6fc6e	0.026243415
66	0xbb720529	-0.0036929345
67	0xbba984ad	-0.005173287
68	0x3c6d9170	0.014500007
69	0xbd1b9d6e	-0.037991934
70	0xbd11d449	-0.03560284
71	0xbccff366	-0.025384616
72	0x3cdd7d7a	0.027037371
73	0xb97bc570	-0.00024010777
74	0xbc389be1	-0.011267633
75	0xbc88d673	-0.01670382
76	0xbac236e1	-0.001481738
77	0xba327fea	-0.0006809222
78	0xbcd31b1f	-0.025769768
79	0x3d415ba4	0.047206536
80	0x3c5d0ca2	0.013491781
81	0xbb4cf40d	-0.0031273395
82	0xbcc88b46	-0.024480473
83	0x3a5f1d27	0.0008511119
84	0x3c4600f3	0.012085187
85	0x3ba8f4d9	0.0051561412
86	0xb97b35e3	-0.000239573
87	0x3c210aea	0.009829262
88	0xbc6bcdef	-0.01439236
89	0xba97ce28	-0.0011581825
90	0x3c88b6e4	0.016688772
91	0x3b4a665b	0.0030883763
92	0x3c370343	0.011170211
93	0xbc92e2e3	-0.017930454
94	0x3b88630f	0.0041621993
95	0xba2103bd	-0.00061422196
96	0x3c0029b8	0.0078224465
97	0xbc20e4d6	-0.009820184
98	0x3c1c394a	0.009535143
99	0xbbda0ef4	-0.0066546146
100	0x3c38fa09	0.011290082
101	0xba50e9dc	-0.0007969418
102	0xbb5d1529	-0.0033734536
103	0xbd104dcb	-0.03523044
104	0xbcd4a264	-0.02595634
105	0xbd14c110	-0.03631693
106	0xbb69196f	-0.0035568138
107	0x3b24b18b	0.0025130238
108	0xbba2c3f7	-0.0049672085
109	0x3d2c5b1d	0.04207908
110	0xbc5a1434	-0.013310481
111	0xbb8e9217	-0.0043509114
112	0xbc35fd1f	-0.011107712
113	0xbc27089f	-0.0101949265
114	0xbc8186a6	-0.015811276
115	0x3c77d4a2	0.015126379
116	0xbcfba06c	-0.030716144
117	0xbc05d705	-0.00816894
118	0xbcf18560	-0.029482543
119	0x3bd8e890	0.0066195205
120	0x3cb128ea	0.021625955
121	0xbb6b98c7	-0.0035949217
122	0x3d3ea2b8	0.0465419
123	0xbd113785	-0.03545334
124	0xbd5532d3	-0.052050423
125	0x3c315237	0.010822824
126	0xbcf0e7e2	-0.029407445
127	0xbca4317f	-0.020043133

weight f4 [1, 128]
0	0x3dd52fc7	0.104095034
1	0xbda97413	-0.082740925
2	0xbbe82ae9	-0.0070851934
3	0x3d05b34b	0.03264169
4	0xbe08c17a	-0.13355055
5	0x3de14b72	0.11000718
6	0xbe54121f	-0.20710038
7	0x3d7167c8	0.058936864
8	0x3e02d28f	0.12775634
9	0xbde8f51d	-0.11374877
10	0x3c1dd2ef	0.00963281
11	0xbd30956f	-0.04311126
12	0xbe4aacab	-0.1979243
13	0x3b831818	0.004000675
14	0x3dabf6d5	0.08396689
15	0x3e39494c	0.18094367
16	0xbd077042	-0.03306604
17	0x3d88da35	0.06682245
18	0xbdcdb889	-0.10044963
19	0x3ecae838	0.39630294
20	0xbe0d3269	-0.13788761
21	0x3e80818b	0.25098833
22	0xbd0bc167	-0.03411999
23	0xbe3f427a	-0.18677703
24	0x3dd9b052	0.106293336
25	0xbdced4ae	-0.10099159
26	0xbe5db59a	-0.21651307
27	0x3de9cb0c	0.11415681
28	0x3ca617f6	0.020275097
29	0xbd115ab5	-0.035486896
30	0x3cf98f35	0.030463794
31	0xbdba4411	-0.09095014
32	0x3d9e45c4	0.077281505
33	0xbe508f78	-0.20367229
34	0xbda2ed96	-0.07955472
35	0xbd7d37e1	-0.06182087
36	0x3d874c86	0.066063926
37	0x3d366670	0.044531286
38	0xbdb72e53	-0.089443825
39	0xbeadbb60	-0.33932018
40	0xbe2fa414	-0.17152435
41	0xbd838e47	-0.064236216
42	0xbc832635	-0.01600943
43	0x3e21461a	0.15749398
44	0x3d93322a	0.071873024
45	0xbdec76f7	-0.11546128
46	0xbe335927	-0.17514478
47	0x3e067752	0.13131455
48	0xbdbb0415	-0.09131638
49	0x3dc7b5c7	0.09751468
50	0x3da9ee05	0.08297352
51	0xbdd93ed0	-0.10607684
52	0xbcd281aa	-0.025696594
53	0x3dbc6d0b	0.09200486
54	0xbd835e9e	-0.06414531
55	0x3e4c8a50	0.19974637
56	0x3d16549c	0.036701784
57	0x3de82365	0.11334876
58	0x3ca1936c	0.019723617
59	0x3df89c67	0.121392064
60	0xbca45e97	-0.020064635
61	0x3dad3b77	0.08458608
62	0x3dd0aafb	0.10188862
63	0x3e5066e5	0.20351751
64	0xbe18ffe6	-0.14941368
65	0xbe5826db	-0.21108572
66	0x3e57f38d	0.21089001
67	0x3cdf3c6f	0.027250497
68	0xbd91f357	-0.071264915
69	0xbdd65cf4	-0.10466948
70	0x3d8fa9b9	0.07014794
71	0x3d3e8b7f	0.046519753
72	0xbeb49dd4	-0.35276663
73	0xbe0725db	-0.13198034
74	0x3e233c02	0.1594086
75	0x3d37b355	0.04484876
76	0xbe73cb8c	-0.23808116
77	0xbdee0515	-0.11622063
78	0xbcca5727	-0.02469976
79	0x3e92cc4e	0.28671497
80	0xbe856387	-0.26052496
81	0x3d9bada8	0.07601482
82	0x3d9c8eed	0.076444484
83	0xbd428aec	-0.047495767
84	0xbd7b2b41	-0.061320547
85	0x3e3460d7	0.17615066
86	0xbe5d35a4	-0.21602494
87	0xbd863068	-0.065522015
88	0xbdd183db	-0.102302276
89	0x3dcce04c	0.10003719
90	0xbcd7cc32	-0.026342485
91	0x3d8870c5	0.06662134
92	0xbca25042	-0.01981366
93	0x3baccc55	0.0052733817
94	0x3e606131	0.21912076
95	0x3e3e32ab	0.18574016
96	0x3dcf649a	0.1012661
97	0x3c23c103	0.009994748
98	0x3e331601	0.17488863
99	0xbda82f30	-0.08212125
100	0x3cc4ae66	0.02400894
101	0x3e49e84d	0.19717522
102	0x3dbc96c9	0.092084475
103	0xbd866237	-0.06561702
104	0xbcc5d08d	-0.024147296
105	0x3d675670	0.056478918
106	0x3d030d8a	0.031995334
107	0x3dd4a0c2	0.103822246
108	0xbe15ae35	-0.14617236
109	0xbdf910b6	-0.121613905
110	0x3c7b5cae	0.015341921
111	0xbd2b8114	-0.041871145
112	0x3e22ea55	0.15909703
113	0xbdcb4100	-0.09924507
114	0xbaf5a970	-0.0018742513
115	0xbdda020b	-0.10644921
116	0x3dc6240b	0.096748434
117	0x3eae9da6	0.3410465
118	0xbbe91a44	-0.007113727
119	0xbdebb215	-0.11508576
120	0x3d8b069d	0.06788371
121	0x3c8e8122	0.01739556
122	0x3e65e60e	0.2245104
123	0x3d67dd1a	0.056607343
124	0xbe0253e2	-0.12727311
125	0x3d1b3dae	0.03790062
126	0x3d151d16	0.03640469
127	0x3e8c6fad	0.27428952
