fwd_CP_TO_m-fwd_d-2_s-15_seed_4.pt (torch, 22884 bytes, 3 tensors)

weight f4 [512, 5]
0.20513183 0.011132835 0.1548493 -0.013223747 -0.0013183077 0.1050163 0.00158292 0.006963021
-0.043556962 0.044798337 0.26228914 0.010153165 0.17085312 -0.015873935 -0.027811108 -0.2334849
-0.030856632 -0.028137486 -0.0627275 -0.24479485 0.13336508 0.010444101 -0.003914559 -0.056355696
0.0036557852 -0.027225386 -0.061408214 -0.058046296 0.1289736 0.013027174 0.20788766 0.09055017
-0.11737067 -0.030209204 0.05877021 0.29461187 0.16492096 -0.06025029 -0.14608844 0.050234906
-0.13985957 -0.009820049 -0.0854919 -0.03124495 0.05575106 -0.07808636 -0.05145161 -0.0056932187
0.12050058 -0.027363613 0.014128793 0.053165097 0.02248017 -0.069939695 0.2077065 -0.18089937
-0.03184607 -0.1160118 0.029828373 -0.11139187 0.19390483 0.02550144 -0.0420476 -0.021919213
0.0871195 0.2636786 0.09941366 -0.058018696 -0.11059792 0.034688234 0.17083691 0.15564568
-0.11812654 -0.055964857 0.1335228 0.031176653 -0.041925747 0.045894623 0.04704532 -0.009287981
-0.28721124 -0.04038691 -0.048430577 -0.06688726 -0.01970899 0.23687044 0.14067586 0.10201012
0.08153196 -0.049529716 -0.08180407 -0.041592706 0.04519999 0.22411756 0.054867186 0.27172416
0.11950833 -0.07663098 -0.10277268 0.052439425 -0.13900761 -0.15445499 0.028496027 0.11850178
-0.07621976 0.19627051 0.17062712 -0.08126777 -0.104269534 0.09791324 -0.20769742 -0.14448315
0.0486586 0.10065788 -0.059752457 0.16342339 0.13083991 -0.023298034 -0.20811135 -0.05669154
0.062306352 -0.121353626 -0.023014976 0.04145148 0.097897045 -0.082464404 -0.12636831 0.030391833
0.116256446 -0.05625123 -0.10107072 -0.10847447 0.04712837 0.08704326 -0.075857975 0.06315919
0.00798838 0.06151163 0.01455533 -0.04061536 -0.0016030702 0.10459408 0.033981767 -0.046000846
0.03452741 0.16064617 0.120687924 -0.07863973 -0.06032587 0.1430703 -0.0781164 -0.015960462
0.081442915 -0.014672189 -0.074804164 -0.031127062 0.122117475 0.029117363 -0.09040323 0.006347196
0.20855248 -0.0053147213 0.030503413 0.0400344 0.08837893 -0.21171205 -0.033289723 0.047479037
0.075379975 0.020550668 -0.13394676 0.04689247 0.035760425 0.020115508 -0.005662547 -0.005618155
-0.037997153 0.07924917 0.029718295 0.06848465 0.06796544 -0.0053353226 0.016746175 0.027374275
0.19585377 0.2941336 0.04266964 0.034629505 0.08565936 -0.006842125 0.006538385 0.10444782
-0.086061426 0.020651756 -0.09990434 0.07832503 0.09302631 -0.01834408 -0.00074105326 -0.027456034
0.118000574 0.16332096 -0.041189905 -0.1479998 0.061661813 -0.28644732 -0.16402443 0.026436325
0.16755274 -0.013830268 -0.1406561 0.071918406 0.05834461 -0.011055791 -0.1092879 -0.23988064
-0.011620575 -0.019001361 -0.075204864 -0.13579874 0.10762027 -0.03351484 -0.026108991 -0.048115153
-0.007088114 -0.09732156 0.025514496 -0.03647378 0.08576601 0.02083447 0.12380826 0.003984802
0.08671008 0.0054207426 0.1431906 0.20331487 0.07102397 -0.1359587 -0.16193908 -0.07411741
0.28718117 0.051664736 -0.114405975 -0.021906551 0.015724454 -0.012001677 0.14634135 -0.024611192
0.039776195 -0.069019474 0.23312497 0.11924787 -0.03649712 -0.16800009 -0.014909734 -0.16884984
00000000: 140e 523e 7f66 363c d190 1e3e 6aa8 58bc
00000010: 11cb acba c912 d73d fb79 cf3a 0e2a e43b
00000020: c968 32bd 767e 373d c34a 863e 7659 263c
00000030: 1ff4 2e3e 0e0a 82bc 1fd4 e3bc aa16 6fbe
00000040: 0cc7 fcbc 9680 e6bc 4777 80bd 80ab 7abe
00000050: db90 083e bc1d 2b3c b345 80bb 3bd5 66bd
00000060: e695 6f3b c607 dfbc 2e87 7bbd f4c1 6dbd
00000070: a811 043e ee6f 553c 81e0 543e 5e72 b93d
00000080: 0960 f0bd 4b79 f7bc 08b9 703d 5ed7 963e
00000090: 0ae1 283e 02c9 76bd 3598 15be 1ec3 4d3d
000000a0: 5937 0fbe 45e4 20bc 6116 afbd 69f5 ffbc
000000b0: 395b 643d beeb 9fbd ecbe 52bd 2e8e babb
000000c0: 02c9 f63d a829 e0bc 747c 673c a5c3 593d
000000d0: 5528 b83c 8b3c 8fbd 03b1 543e af3d 39be
000000e0: 0671 02bd 9897 edbd a25a f43c 6c21 e4bd
000000f0: fd8e 463e 65e8 d03c 1b3a 2cbd ec8f b3bc
00000100: b56b b23d e200 873e 6499 cb3d 03a5 6dbd
00000110: 2a81 e2bd 4015 0e3d dfef 2e3e 9561 1f3e
00000120: 54ec f1bd 683b 65bd 33ba 083e 2e66 ff3c
00000130: 55ba 2bbd 00fc 3b3d 98b2 403d 9e2c 18bc
00000140: 5a0d 93be bf6c 25bd 245f 46bd 30fc 88bd
00000150: bf74 a1bc 2a8e 723e 550d 103e afea d03d
00000160: 3afa a63d acdf 4abd e488 a7bd 1d5d 2abd
00000170: a023 393d 137f 653e 6abc 603d 6e1f 8b3e
00000180: c9c0 f43d b4f0 9cbd 7c7a d2bd b9ca 563d
00000190: 0358 0ebe 7329 1ebe 8070 e93c 10b1 f23d
000001a0: 1b19 9cbd 23fb 483e e0b8 2e3e b76f a6bd
000001b0: 448b d5bd bd86 c83d a2ae 54be 64f3 13be
000001c0: 3d4e 473d b825 ce3d febe 74bd 7658 273e
000001d0: e6fa 053e 85db bebc 241b 55be 6335 68bd
000001e0: f234 7f3d 4088 f8bd e789 bcbc 07c9 293d
000001f0: 3f7e c83d 19e3 a8bd b266 01be 4bf8 f83c
00000200: dc17 ee3d b167 66bd 2afe cebd dd27 debd
00000210: ad09 413d bd43 b23d 6d5b 9bbd 9b59 813d
00000220: b2e1 023c 9ef3 7b3d 7b79 6e3c 4b5c 26bd
00000230: 1c1e d2ba 6c35 d63d 7730 0b3d 626b 3cbd
00000240: 9d6c 0d3d 6e80 243e 3b2b f73d de0d a1bd
00000250: 4218 77bd 0581 123e 7efb 9fbd 84bf 82bc
00000260: 8bcb a63d 9f63 70bc ed32 99bd 2efe febc
00000270: ba18 fa3d 8987 ee3c 5425 b9bd 24fc cf3b
00000280: c88e 553e 1d27 aebb 4be2 f93c 1cfb 233d
00000290: 0300 b53d 0bcb 58be ce5a 08bd 6179 423d
000002a0: d160 9a3d e059 a83c 5729 09be 5212 403d
000002b0: 8679 123d 47c9 a43c e38c b9bb 8018 b8bb
000002c0: e7a2 1bbd 644d a23d c873 f33c ae41 8c3d
000002d0: 7731 8b3d eed3 aebb 462f 893c 0440 e03c
000002e0: e48d 483e ae98 963e 5cc6 2e3d abd7 0d3d
000002f0: 2d6e af3d e833 e0bb f33f d63b bde8 d53d
00000300: f940 b0bd df2d a93c a69a ccbd e068 a03d
00000310: 9484 be3d 5346 96bc 3e43 42ba 7aeb e0bc
00000320: 49aa f13d 9c3d 273e bfb6 28bd 428d 17be
00000330: 1991 7c3d 39a9 92be 05f6 27be fe90 d83c
00000340: f292 2b3e 5998 62bc 2708 10be f549 933d
00000350: c2fa 6e3d 5923 35bc 56d2 dfbd 45a3 75be
00000360: 3964 3ebc bea8 9bbc 0205 9abd d30e 0bbe
00000370: 0468 dc3d db46 09bd 86e2 d5bc 6514 45bd
00000380: 6943 e8bb 8750 c7bd c703 d13c 8865 15bd
00000390: 17a6 af3d 0dad aa3c 2f8f fd3d f192 823b
000003a0: 0e95 b13d 7ca0 b13b 8fa0 123e c631 503e
000003b0: 0475 913d c238 0bbe 5cd3 25be deca 97bd
000003c0: 6909 933e 679e 533d ae4d eabd 5e75 b3bc
000003d0: 92d0 803c afa2 44bc 82da 153e 699d c9bc
000003e0: 5dec 223d 155a 8dbd 50b8 6e3e 3a38 f43d
000003f0: 017e 15bd 3708 2cbe f547 74bc f9e6 2cbe

bias f4 [512]
-0.06184777 -0.05290282 -0.118767776 0.027883481 -0.061290868 0.038949095 -0.0249959 -0.13761815
0.025616495 0.07559427 -0.03327331 -0.03523991 -0.048450414 -0.13938436 -0.03435887 0.003710023
0.08458457 -0.03603292 0.11148994 -0.10765807 0.05251896 -0.083140165 0.03447612 -0.080293305
0.017999928 0.04290145 0.042525973 -0.012365184 -0.02840051 -0.058891788 0.0027144866 -0.04143947
-0.06998985 0.09714548 0.0061832466 0.0060143126 0.016271707 -0.100288704 -0.024447788 -0.016252356
-0.049822815 0.099451415 -0.020431735 0.016720237 -0.03137127 0.078883715 -0.0049446695 -0.06484247
-0.058486514 -0.031254217 -0.12592526 0.017478824 0.021788504 -0.012378547 0.12639506 -0.0006426872
0.039811097 0.007822988 0.080401175 -0.12192605 -0.042561077 0.096344806 0.059418984 0.005459428
-0.041929375 -0.06827408 0.14259465 -0.08925466 -0.009909899 -0.05150592 -0.024459438 0.011834848
0.08340666 0.028998666 0.044038787 -0.068220764 0.011715941 -0.09489884 -0.08391484 -0.013215561
-0.050059922 0.0038732188 -0.0661443 0.07996349 -0.067536674 -0.039099324 -0.029894093 0.10676059
0.04493925 -0.07812179 0.021354998 0.037161242 -0.08537645 0.012720586 -0.10403292 0.00873035
-0.02194801 -0.01177876 0.057947032 0.011293327 0.0010433397 -0.058026485 -0.008552992 -0.0683566
0.032958042 -0.12849742 0.035020433 0.020986337 -0.00547974 -0.01966923 -0.11337865 0.035018254
0.12702234 0.11678434 -0.015080028 0.054063708 0.120229036 -0.018858701 -0.11919299 -0.11407889
0.011322957 0.13553403 0.1887911 -0.056552965 0.010942133 -0.014126837 -0.019499356 -0.04463858
-0.050774526 0.03354493 0.03265386 0.07532486 -0.013585994 -0.040234108 0.06202273 0.00071466016
0.0029181675 -0.069441885 -0.019495472 0.10997994 0.020493543 -0.04255577 -0.011569794 0.0904014
0.020175762 -0.02531277 -0.0659324 0.02311367 0.06782021 -0.06630462 -0.023101615 -0.0013462441
-0.016767452 0.018009719 -0.08198782 0.04574036 -0.048714824 0.110984035 -0.11746042 -0.04621093
-0.018249031 -0.01911777 0.047109775 -0.049478248 0.10331355 -0.022058276 -0.038089823 -0.063794166
0.023788033 0.09945948 -0.06305982 -0.0978684 -0.04572624 0.03993783 0.022864617 -0.15904063
-0.014637144 -0.16457866 0.13761494 0.016655684 0.0029998343 -0.04606833 0.05680725 -0.037655097
-0.05260996 -0.020267827 -0.03922683 0.0017861796 -0.067411415 -0.051286288 -0.031268064 -0.03378289
-0.045505688 -0.043277856 0.046795476 0.11184989 -0.04440977 0.018711753 -0.09847753 -0.06060308
0.06961252 -0.018845603 0.06410705 0.041812073 0.1049946 0.018960198 -0.009720798 -0.08822819
-0.08782763 -0.019318376 -0.0037552079 0.08870593 -0.025113584 0.033803094 0.13498266 0.15250802
0.020103775 0.0060880403 -0.11703562 -0.0062546204 -0.090211675 -0.007623367 0.034930058 -0.015679251
0.13134548 -0.004683286 0.02066635 -0.0019342812 -0.055870906 0.022866817 0.078575365 0.020902209
-0.08934032 0.03177851 -0.13538088 -0.08604195 0.011370814 0.039862618 0.033097424 0.023726385
-0.026587788 -0.016418835 0.030033886 -0.013078098 -0.028255777 -0.021492137 -0.073785424 0.021457419
0.07853969 0.002984564 -0.09518826 -0.01507323 0.04197997 0.0103281485 -0.014884452 0.010861518
00000000: 1654 7dbd a1b0 58bd 853c f3bd e66b e43c
00000010: 220c 7bbd 1689 1f3d 34c4 ccbc c6eb 0cbe
00000020: afd9 d13c 2bd1 9a3d 9849 08bd b957 10bd
00000030: f173 46bd c6ba 0ebe e3bb 0cbd db23 733b
00000040: ad3a ad3d 4197 13bd d654 e43d d67b dcbd
00000050: 1f1e 573d 6445 aabd d536 0d3d d170 a4bd
00000060: 9674 933c 6eb9 2f3d b72f 2e3d 5797 4abc
00000070: 30a8 e8bc 8438 71bd 87e5 313b 6fbc 29bd
00000080: d756 8fbd 36f4 c63d d59c ca3b b613 c53b
00000090: 3e4c 853c 2a64 cdbd ba46 c8bc a923 85bc
000000a0: 0213 4cbd 2fad cb3d 7460 a7bc e1f8 883c
000000b0: 297f 00bd c98d a13d e506 a2bb 21cc 84bd
000000c0: 8e8f 6fbd 6c04 00bd 8df2 00be c02f 8f3c
000000d0: ce7d b23c 64cf 4abc b56d 013e 027a 28ba
000000e0: f610 233d fd2b 003c 5fa9 a43d 5db4 f9bd
000000f0: 8654 2ebd 6d50 c53d 5261 733d 00e5 b23b
00000100: 23be 2bbd 48d3 8bbd 5504 123e 26cb b6bd
00000110: 215d 22bc dff7 52bd 295f c8bc f3e6 413c
00000120: 1cd1 aa3d 9c8e ed3c 0462 343d 54b7 8bbd
00000130: 38f4 3f3c 535a c2bd 8bdb abbd 1586 58bc
00000140: a20b 4dbd d4d5 7d3b aa76 87bd e6c3 a33d
00000150: ab50 8abd 9d26 20bd 75e4 f4bc 4ca5 da3d
00000160: 3812 383d 51fe 9fbd adf0 ae3c 6336 183d
00000170: d9d9 aebd 016a 503c 360f d5bd be09 0f3c
00000180: 50cc b3bc b3fb 40bc de59 6d3d a607 393c
00000190: acc0 883a 2ead 6dbd d921 0cbc 8cfe 8bbd
000001a0: 03ff 063d d494 03be 9671 0f3d 8aeb ab3c
000001b0: 648f b3bb 5d21 a1bc 1133 e8bd 4d6f 0f3d
000001c0: 2512 023e a12c ef3d 3912 77bc e871 5d3d
000001d0: a43a f63d 907d 9abc 741b f4bd 31a2 e9bd
000001e0: ed83 393c 6fc9 0a3e 7452 413e 15a4 67bd
000001f0: a246 333c 4074 67bc 1dbd 9fbc f2d6 36bd
00000200: f3f8 4fbd 6966 093d 0ec0 053d ec43 9a3d
00000210: ca97 5ebc 85cc 24bd 8c0b 7e3d 0858 3b3a
00000220: ba3e 3f3b 8c37 8ebd f8b4 9fbc 2a3d e13d
00000230: 13e2 a73c f64e 2ebd 3c8f 3dbc 5f24 b93d
00000240: a447 a53c ba5c cfbc 9107 87bd e158 bd3c
00000250: 52e5 8a3d b7ca 87bd 993f bdbc 7574 b0ba
00000260: e55b 89bc 1e89 933c 3be9 a7bd 3e5a 3b3d
00000270: 3289 47bd 994b e33d 178f f0bd ac47 3dbd
00000280: fe7e 95bc df9c 9cbc 2ef6 403d b4a9 4abd
00000290: 0e96 d33d 8fb3 b4bc 1304 1cbd 84a6 82bd
000002a0: 1fdf c23c 69b1 cb3d 8225 81bd 3a6f c8bd
000002b0: 704b 3bbd da95 233d 944e bb3c 8cdb 22be
000002c0: a2d0 6fbc 4f87 28be eeea 0c3e 8071 883c
000002d0: de98 443b 25b2 3cbd b8ae 683d 3b3c 1abd
000002e0: 8b7d 57bd b708 a6bc 50ac 20bd 3e1e ea3a
000002f0: ff0e 8abd 9211 52bd f112 00bd ed5f 0abd
00000300: 2c64 3abd 1f44 31bd 9dac 3f3d 8e11 e53d
00000310: 05e7 35bd 6449 993c 96ae c9bd ef3a 78bd
00000320: 0291 8e3d 1862 9abc 8f4a 833d 2343 2b3d
00000330: 6907 d73d 6b52 9b3c fb43 1fbc fbb0 b4bd
00000340: f9de b3bd 9241 9ebc ef19 76bb 74ab b53d
00000350: 01bb cdbc 1d75 0a3d e538 0a3e 102b 1c3e
00000360: acb0 a43c 2f7e c73b 5fb0 efbd 8ff3 ccbb
00000370: e6c0 b8bd 70cd f9bb d212 0f3d c671 80bc
00000380: 6e7f 063e 4076 99bb 7a4c a93c b587 fdba
00000390: e4d8 64bd 3153 bb3c 1fec a03d 1c3b ab3c
000003a0: 0ff8 b6bd 2f2a 023d 49a1 0abe c336 b0bd
000003b0: a74c 3a3c fc46 233d 2a91 073d d65d c23c
000003c0: a2ce d9bc cb80 86bc a009 f63c 8545 56bc
000003d0: a978 e7bc 4710 b0bc d01c 97bd 78c7 af3c
000003e0: 6bd9 a03d ad98 433b 10f2 c2bd b5f5 76bc
000003f0: 30f3 2b3d 6537 293c ebdd 73bc 82f4 313c

weight f4 [1, 512]
0.12194497 -0.0058124126 0.17014411 0.087924436 -0.06991038 -0.018641297 -0.09283683 -0.13011155
0.049246754 -0.1451732 -0.025381599 0.047695085 -0.08026947 -0.19124211 -0.10594991 0.008718094
0.118293926 0.22500019 -0.15349033 -0.20815292 -0.049574323 -0.08014535 -0.111614764 -0.09622412
0.050346248 -0.030322991 -0.036601596 0.009089544 0.017972732 -0.10126413 -0.087568045 -0.10531987
0.1381823 -0.19144146 -0.03379671 9.1844864e-05 0.02530784 0.13159424 0.021811591 -0.013358968
-0.10343502 -0.16932432 -0.013953629 0.053730324 -0.05285495 -0.055319507 0.10346402 -0.09967343
-0.07886416 -0.018846931 -0.13644828 0.08155702 0.107719064 0.016083574 -0.12696958 -0.001501053
0.07107541 0.10952642 0.06754382 -0.15836824 0.18768558 0.22367208 -0.15026648 0.069114
0.09126792 -0.031178461 -0.077942014 -0.18690088 -0.048939686 0.049148507 0.0863821 0.028098954
0.1579072 0.1332479 0.14457436 -0.0905205 -0.015746493 -0.202455 -0.10511231 -0.0149769075
-0.09198374 0.14336298 0.029596305 -0.021076512 0.086882815 0.033125542 -0.01293985 -0.09488577
0.09253594 -0.054564632 -0.08082949 0.20840435 -0.084697425 -0.013927318 -0.18082291 0.101481736
0.0147957 0.050283503 -0.10847759 0.114604235 0.15281406 -0.12457617 -0.0041745286 -0.099052906
-0.09417368 -0.100274734 0.15611926 -0.11470845 -0.021869252 0.013780607 -0.15969798 -0.14853948
0.10783754 -0.19975588 0.1327072 0.09531433 -0.042870987 0.0857012 0.15520497 -0.066134855
-0.082363024 -0.022869142 -0.15458092 -0.12972768 0.0076457467 -0.0088244025 -0.06655286 0.12303861
0.06193702 0.16624555 0.06621812 0.09358497 0.097008735 0.06553673 0.17618842 -0.012410933
0.08761157 -0.010165699 -0.09386509 -0.13303784 0.012147706 0.16729115 0.0030098362 0.10816178
0.04539719 -0.005085575 0.15782332 -0.060275584 -0.0570561 -0.117064044 0.027760956 0.07860115
0.17094706 -0.11417099 -0.106240235 0.08004303 -0.034705453 -0.13531871 0.12923361 0.07272393
0.012230321 0.053303134 0.066538334 -0.12943 -0.09174573 0.013229798 0.033689838 -0.067452595
0.034362365 -0.09876858 -0.08795549 -0.05069311 -0.10395737 0.2059348 -0.06413048 -0.15813631
0.08539684 -0.15161517 -0.20750411 0.10902131 0.094173454 0.009639663 -0.17973444 -0.107986055
-0.046725594 -0.009851573 0.21228966 -0.01247539 -0.08992994 -0.08027522 0.10681003 -0.008303053
-0.08003776 0.1006741 0.121257976 -0.14488998 -0.03912802 0.078280486 0.126868 -0.0883939
-0.15010488 0.0070281336 0.13266273 -0.12998965 -0.1474936 0.06734026 0.014799719 -0.2088274
-0.07582782 -0.06307434 -0.13511078 -0.08770576 0.08932189 0.121022984 -0.10163078 -0.14849775
-0.10832598 -0.010125894 0.092836566 -0.018539237 -0.13633648 0.09654645 -0.04422246 0.12375746
-0.12992887 -0.013542209 0.11648214 0.062253263 0.16004774 -0.0008830845 -0.08475427 0.1254768
-0.14287311 0.21386702 -0.14864756 -0.12374558 -0.063980564 0.16435629 0.08444036 -0.05023206
0.16642794 0.030962601 -0.10485024 0.088433124 -0.06747693 -0.028497977 -0.13356741 0.15715757
-0.09821747 -0.03508662 -0.104586996 -0.012971277 0.06511361 -0.099202365 0.092070356 0.029757474
00000000: 49be f93d 0d76 bebb 423a 2e3e ba11 b43d
00000010: 2c2d 8fbd a2b5 98bc 3c21 bebd f63b 05be
00000020: f7b6 493d 49a8 14be 12ed cfbc ec5b 433d
00000030: 5264 a4bd f9d4 43be 44fc d8bd 56d6 0e3c
00000040: 1644 f23d 7366 663e 922c 1dbe 0a26 55be
00000050: 720e 4bbd 3f23 a4bd 4896 e4bd 2711 c5bd
00000060: de37 4e3d ec67 f8bc 8eeb 15bd 50ec 143c
00000070: 8d3b 933c 9163 cfbd e056 b3bd f2b1 d7bd
00000080: a97f 0d3e 3b09 44be 6b6e 0abd d69c c038
00000090: 6352 cf3c a4c0 063e 39ae b23c 93df 5abc
000000a0: bdd5 d3bd 5b63 2dbe c39d 64bc 5414 5c3d
000000b0: 6f7e 58bd b596 62bd f2e4 d33d 9521 ccbd
000000c0: 8883 a1bd e164 9abc 19b9 0bbe 5e07 a73d
000000d0: d09b dc3d b3c1 833c 5004 02be fbbe c4ba
000000e0: fc8f 913d 634f e03d 6a54 8a3d 492b 22be
000000f0: a630 403e 4b0a 653e 75df 19be a48b 8d3d
00000100: adea ba3d f969 ffbc 10a0 9fbd f262 3fbe
00000110: fb74 48bd f24f 493d 19e9 b03d c72f e63c
00000120: 6db2 213e 2372 083e 4d0b 143e d062 b9bd
00000130: cafe 80bc 5d50 4fbe 1f45 d7bd b461 75bc
00000140: f961 bcbd bfcd 123e f373 f23c a6a8 acbc
00000150: 9eef b13d a6ae 073d aa01 54bc 7853 c2bd
00000160: 7c83 bd3d 2a7f 5fbd ef89 a5bd f367 553e
00000170: d875 adbd 682f 64bc a429 39be a8d5 cf3d
00000180: aa69 723c 13f6 4d3d 8029 debd a0b5 ea3d
00000190: 4a7b 1c3e cb21 ffbd 7cca 88bb 40dc cabd
000001a0: 21de c0bd d75c cdbd badd 1f3e 44ec eabd
000001b0: 2527 b3bc 0ec8 613c de87 23be bc1a 18be
000001c0: eed9 dc3d ce8c 4cbe 65e4 073e 2934 c33d
000001d0: 7d99 2fbd 1c84 af3d 0dee 1e3e b671 87bd
000001e0: f2ad a8bd 1158 bbbc 764a 1ebe 55d7 04be
000001f0: 2c89 fa3b 3a94 10bc de4c 88bd abfb fb3d
00000200: acb1 7d3d 463c 2a3e 5e9d 873d 7aa9 bf3d
00000210: 84ac c63d 1f38 863d bd6a 343e 3a57 4bbc
00000220: b26d b33d 088e 26bc 573c c0bd 123b 08be
00000230: 2c07 473c 5f4e 2b3e ac40 453b ec83 dd3d
00000240: 67f2 393d e5a4 a6bb 709c 213e 88e3 76bd
00000250: a8b3 69bd 46bf efbd f26a e33c a4f9 a03d
00000260: bf0c 2f3e 7bd2 e9bd 7b94 d9bd 9aed a33d
00000270: 4e27 0ebd fd90 0abe d155 043e 49f0 943d
00000280: af61 483c 6354 5a3d 4045 883d 4c89 04be
00000290: 2fe5 bbbd cbc1 583c 5bfe 093d 9624 8abd
000002a0: 8dbf 0c3d 2e47 cabd 0222 b4bd 94a3 4fbd
000002b0: 9ae7 d4bd 92e0 523e d756 83bd 7cee 21be
000002c0: 8ae4 ae3d 0241 1bbe f57b 54be 9146 df3d
000002d0: 03de c03d adef 1d3c 4e0c 38be cb27 ddbd
000002e0: 5663 3fbd 7e68 21bc 7662 593e 9465 4cbc
000002f0: 302d b8bd 5667 a4bd 38bf da3d 8709 08bc
00000300: d6ea a3bd 392e ce3d 1a56 f83d 0a5e 14be
00000310: b444 20bd 8551 a03d afe9 013e dc07 b5bd
00000320: 18b5 19be 424c e63b bdd8 073e 021c 05be
00000330: 9008 17be b1e9 893d 857a 723c dad6 55be
00000340: 9e4b 9bbd 1f2d 81bd 7b5a 0abe 149f b3bd
00000350: 65ee b63d e6da f73d cc23 d0bd cb0f 18be
00000360: 03da ddbd 14e7 25bc 1921 be3d 99df 97bc
00000370: ca9b 0bbe 25ba c53d 9c22 35bd 8d74 fd3d
00000380: 130c 05be 24e0 5dbc 308e ee3d 47fd 7e3d
00000390: 8ee3 233e cc7e 67ba a693 adbd fe7c 003e
000003a0: 544d 12be f5ff 5a3e 1137 18be 536e fdbd
000003b0: 3e08 83bd 044d 283e 11ef ac3d 22c0 4dbd
000003c0: 166c 2a3e 48a5 fd3c b9bb d6bd 6d1c b53d
000003d0: 5831 8abd 9774 e9bc e5c5 08be eaed 203e
000003e0: 3e26 c9bd fdb6 0fbd b531 d6bd 7b85 54bc
000003f0: 495a 853d 9c2a cbbd 628f bc3d f2c5 f33c
