fwd_CP_TO_m-fwd_d-1_s-15_seed_4.pt (torch, 12132 bytes, 3 tensors)

weight f4 [128, 5]
-0.08533111 -0.15482415 -0.11681585 0.07268873 -0.062110946 -0.033213824 0.23311125 -0.11184021
-0.06172048 0.34259254 -0.009829921 0.36810112 0.09705641 0.030651558 0.20795584 0.15660627
-0.0069511035 0.26729968 -0.14828718 0.31248975 -0.16172254 0.29132274 0.13761754 -0.056830242
0.55747116 0.17610672 -0.098739415 0.06378965 -0.0301607 -0.042833358 -0.115319364 0.063042246
0.14820313 -0.13680933 0.16046603 -0.013525184 0.038027193 -0.07277508 0.044082694 -0.5376666
0.04897203 -0.14671206 -0.039951414 -0.23434462 -0.079619884 -0.008339319 -0.20541218 -0.05144885
-0.00014027928 -0.21393481 -0.0017859273 0.021445246 -0.052575186 0.043959983 0.09038205 -0.005174013
-0.14767817 -0.08602553 0.0053170477 0.16408485 0.09448748 0.18885612 -0.067500524 -0.07977356
-0.08128618 0.1218346 -0.11555033 0.12019145 -0.10413429 0.072428614 0.2415453 0.13204414
-0.0028307685 0.009302473 -0.27742916 0.20347962 0.18749043 -0.023197556 0.06787849 -0.7206123
-0.10566374 -0.037792347 0.022468306 -0.019577367 -0.49101445 0.057659734 0.09665369 -0.2054313
-0.09251022 0.013246482 -0.13548334 -0.11183157 0.034044173 -0.045850545 -0.16938908 0.21024877
-0.22328515 -0.15267436 0.21151534 -0.18379816 -0.058229443 -0.34823704 -0.095689096 0.021065645
-0.0391047 -0.46557954 -0.0019680657 -0.21135025 0.15091717 -0.2823714 -0.13897192 0.028941397
0.063734114 -0.058442213 -0.16820394 -0.050681647 0.1426952 -0.190845 0.11073054 0.18972862
0.15394661 -0.026159154 0.02406883 0.10488171 0.12178117 0.016493535 0.21460538 -0.10306663
-0.08472695 0.20679921 -0.06470975 0.026721945 -0.0022022063 0.18233933 -0.16733657 0.09020879
0.13184397 0.04471122 -0.056549706 -0.27632087 0.23013107 0.021254994 -0.17118984 0.17603919
-0.043318454 -0.04378723 -0.0755663 0.15852307 -0.09879487 -0.10439688 0.29367298 0.026859542
0.19711144 0.1401887 0.30874756 -0.22984757 0.07972917 0.18205917 -0.1637701 -0.17784324
0.14597906 -0.024230212 0.078783706 0.012375517 0.26232588 -0.022112438 -0.030402971 0.130536
-0.17776081 0.064397745 -0.20536269 0.0734646 -0.052752808 0.18879673 -0.290249 0.105619706
-0.063333794 0.014065464 -0.14946462 0.07523649 0.08887965 -0.031571064 -0.0013784011 0.00927038
-0.048531614 0.19983926 0.14197725 -0.0027821774 0.0272023 -0.27787092 0.23048176 0.022715515
-0.055311292 -0.0533446 -0.04189692 0.092127435 0.07974465 -0.09391232 0.22924764 -0.5661754
0.13399495 -0.3169455 -0.19676052 -0.023875618 -0.028154047 -0.04772654 -0.10764807 -0.032147113
0.018265776 -0.08388407 0.07773511 0.11568768 -0.025685363 -0.07712016 -0.0040751393 0.35080558
-0.10164807 0.021665394 0.105836526 0.41315737 0.03790334 -0.26993263 -0.09059516 0.005128603
-0.027101226 -0.1432547 0.029896356 0.03350616 0.28850856 -0.22278337 0.08089772 0.087723054
-0.13409387 0.04787106 0.08344188 0.057649415 -0.019300085 0.16167562 -0.051970262 0.28607726
0.19009298 -0.06423135 -0.1494075 -0.18747027 0.14690778 0.22513485 -0.011350512 -0.017102852
0.09497575 -0.22539298 0.171587 0.05841214 0.025710892 0.069962844 0.20550627 0.100667015
00000000: 14c2 aebd 398a 1ebe 263d efbd d4dd 943d
00000010: 0c68 7ebd 380b 08bd b7b4 6e3e 7b0c e5bd
00000020: 9dce 7cbd 4a68 af3e ad0d 21bc c077 bc3e
00000030: 83c5 c63d fa18 fb3c 60f2 543e 655d 203e
00000040: 15c6 e3bb 81db 883e 98d8 17be a8fe 9f3e
00000050: 989a 25be 4128 953e 9deb 0c3e d4c6 68bd
00000060: 6eb6 0e3f 5255 343e e437 cabd 26a4 823d
00000070: 9313 f7bc 0872 2fbd 8f2c ecbd 4b1c 813d
00000080: 90c2 173e bf17 0cbe 3551 243e bc98 5dbc
00000090: 67c2 1b3d 1a0b 95bd 0e90 343d 85a4 09bf
000000a0: e596 483d b03b 16be 18a4 23bd 09f8 6fbe
000000b0: c00f a3bd a4a1 08bc 9257 52be 08bc 52bd
000000c0: ef17 13b9 ba11 5bbe c715 eaba f1ad af3c
000000d0: 1459 57bd 620f 343d 391a b93d c48a a9bb
000000e0: f238 17be 272e b0bd a13a ae3b dc05 283e
000000f0: a782 c13d 8063 413e b73d 8abd 5260 a3bd
00000100: 5e79 a6bd 6b84 f93d a7a5 ecbd ef26 f63d
00000110: 5c44 d5bd 7455 943d a757 773e 9436 073e
00000120: 6a84 39bb 6669 183c 320b 8ebe f65c 503e
00000130: 7efd 3f3e cd08 bebc e103 8b3d 0c7a 38bf
00000140: 3b66 d8bd 26cc 1abd 740f b83c b760 a0bc
00000150: 3f66 fbbe 9d2c 6c3d 5ff2 c53d 955c 52be
00000160: 0076 bdbd c607 593c 25bc 0abe f307 e5bd
00000170: e771 0b3d c8cd 3bbd 5574 2dbe 744b 573e
00000180: dda4 64be ab56 1cbe 7a97 583e 9635 3cbe
00000190: ff81 6ebd 204c b2be a5f8 c3bd dc91 ac3c
000001a0: 402c 20bd 7160 eebe aafa 00bb 336c 58be
000001b0: 088a 1a3e fc92 90be a84e 0ebe 8216 ed3c
000001c0: 0887 823d 1a61 6fbd a73d 2cbe 8f97 4fbd
000001d0: b11e 123e df6c 43be b1c6 e23d 3848 423e
000001e0: 2ea4 1d3e b94b d6bc ff2b c53c 39cc d63d
000001f0: 6868 f93d 731d 873c 83c1 5b3e 9914 d3bd
00000200: 5385 adbd 2cc3 533e 8c86 84bd fbe7 da3c
00000210: e452 10bb 29b7 3a3e 475a 2bbe 63bf b83d
00000220: 1b02 073e 1d23 373d aaa0 67bd ee79 8dbe
00000230: 7ba7 6b3e f41e ae3c 644c 2fbe 9e43 343e
00000240: b16e 31bd 3d5a 33bd 81c2 9abd df53 223e
00000250: f754 cabd 08ce d5bd 4e5c 963e 8b08 dc3c
00000260: 95d7 493e a08d 0f3e 2914 9e3e 295d 6bbe
00000270: 0c49 a33d b86d 3a3e 59b3 27be 8a1c 36be
00000280: 897b 153e 707e c6bc 5a59 a13d aec2 4a3c
00000290: 944f 863e 2525 b5bc a70f f9bc 3bab 053e
000002a0: ee06 36be f7e2 833d 994a 52be 9c74 963d
000002b0: 5413 58bd ee53 413e 849b 94be 254f d83d
000002c0: 26b5 81bd d572 663c 410d 19be 9715 9a3d
000002d0: 8906 b63d a950 01bd 77ab b4ba cbe2 173c
000002e0: 16c9 46bd aaa2 4c3e 7c62 113e 3155 36bb
000002f0: 5cd7 de3c 1945 8ebe 6903 6c3e e315 ba3c
00000300: 188e 62bd de7f 5abd 1b9c 2bbd 4fad bc3d
00000310: 2a51 a33d 1a55 c0bd e5bf 6a3e dff0 10bf
00000320: f935 093e ae46 a2be 977b 49be cd96 c3bc
00000330: 51a3 e6bc e87c 43bd 9776 dcbd b1ac 03bd
00000340: 1ca2 953c 69cb abbd 9633 9f3d aaed ec3d
00000350: 1c6a d2bc 2df1 9dbd bf88 85bb ca9c b33e
00000360: dd2c d0bd a07b b13c d2c0 d83d 5d89 d33e
00000370: 8840 1b3d 9c34 8abe f589 b9bd d70d a83b
00000380: 6403 debc 5cb1 12be 34e9 f43c c13d 093d
00000390: 65b7 933e 5321 64be b4ad a53d 25a8 b33d
000003a0: e74f 09be 7214 443d 94e3 aa3d cb21 6c3d
000003b0: 361b 9ebc 4b8e 253e c5de 54bd b878 923e
000003c0: bca7 423e ba8b 83bd 48fe 18be 35f8 3fbe
000003d0: fe6e 163e c089 663e 7ff7 39bc 481b 8cbc
000003e0: a582 c23d 6bcd 66be 81b4 2f3e 9141 6f3d
000003f0: a69f d23c ae48 8f3d 3c70 523e 822a ce3d

bias f4 [128]
-0.140121 0.13241586 -0.06733241 -0.036166176 0.028471196 -0.041834068 0.026604084 -0.14268781
-0.046479 -0.13259692 -0.047823645 -0.03437829 0.061802797 0.0020055783 -0.085433125 -0.005492184
-0.021047492 -0.012954808 -0.054328 -0.07073874 0.10782272 0.0530917 -0.025461223 0.052188974
-0.025446476 0.07966902 0.057832103 0.055207223 -0.0016595657 -0.04015079 0.023357721 0.011802509
-0.03433268 -0.063476354 0.015002044 -0.19466045 -0.059748873 -0.05955764 -0.04548198 -0.081046395
0.010818237 0.008266218 0.021002581 -0.024817176 0.029204154 0.0057194233 0.042710222 -0.04133266
0.022285378 0.045413986 -0.048134077 -0.006898734 -0.026379794 -0.04508193 -0.07379009 -0.050031252
-0.021207826 -0.09562862 0.061159454 0.033295173 0.0101834955 -0.043233912 0.05530595 -0.074448906
0.057591874 0.030613659 -0.040133864 0.19968599 -0.019452665 0.060689397 -0.063344084 -0.0038527863
0.023963355 0.042988483 -0.16033243 -0.1301797 -0.003263397 0.067346625 0.11653639 -0.17904735
0.025464073 -0.048191357 0.04049868 -0.03664887 -0.10728947 0.0057682768 -0.0057636 0.08569019
-0.17896464 -0.022007298 -0.018857487 -0.07067825 -0.006530443 0.017144283 -0.011971764 -0.017883733
0.103101656 0.03787964 0.24210493 0.04024887 0.045915492 -0.019019142 -0.00075017655 0.16942996
0.03983357 0.008388278 -0.01645687 -0.06773461 0.041868467 -0.096244365 0.09003333 -0.033898108
0.01215418 0.06984751 -0.046507403 0.05525649 0.013267041 0.05714053 0.060810022 0.046864856
0.2866776 -0.118396185 0.007216302 0.02934624 0.044278126 0.042290244 0.18156074 -0.046580095
00000000: e17b 0fbe 0698 073e 93e5 89bd fc22 14bd
00000010: 6d3c e93c 335a 2bbd cff0 d93c c11c 12be
00000020: c460 3ebd 7dc7 07be bae2 43bd 40d0 0cbd
00000030: ee24 7d3d 0570 033b 90f7 aebd c7f7 b3bb
00000040: ca6b acbc 6740 54bc 0987 5ebd 79df 90bd
00000050: 29d2 dc3d af76 593d 0e94 d0bc 1bc4 553d
00000060: 2175 d0bc 8329 a33d 5be1 6c3d f820 623d
00000070: c985 d9ba 2875 24bd b158 bf3c 505f 413c
00000080: 6da0 0cbd e4ff 81bd 22cb 753c 1255 47be
00000090: 3cbb 74bd b6f2 73bd 504b 3abd a7fb a5bd
000000a0: fa3e 313c 086f 073c 9b0d ac3c 644d cbbc
000000b0: 8d3d ef3c 006a bb3b eaf0 2e3d 6f4c 29bd
000000c0: d38f b63c 0404 3a3d 3d28 45bd c60e e2bb
000000d0: 701a d8bc d4a7 38bd 421f 97bd 92ed 4cbd
000000e0: 09bc adbc f0d8 c3bd 5682 7a3d 8560 083d
000000f0: add8 263c 0b16 31bd 7e88 623d ab78 98bd
00000100: 75e5 6b3d 7fc9 fa3c 6863 24bd 7c7a 4c3e
00000110: 325b 9fbc 7295 783d 8bba 81bd 077f 7cbb
00000120: cc4e c43c b114 303d 2f2e 24be d44d 05be
00000130: b7de 55bb 07ed 893d a1aa ee3d 3058 37be
00000140: 089a d03c 4d64 45bd f2e1 253d 201d 16bd
00000150: 95ba dbbd d003 bd3b 95dc bcbb 577e af3d
00000160: 8242 37be a648 b4bc 047b 9abc c2bf 90bd
00000170: 54fd d5bb 2b72 8c3c 3825 44bc e880 92bc
00000180: f626 d33d ae27 1b3d 5bea 773e 00dc 243d
00000190: e211 3c3d 08ce 9bbc 7fa7 44ba 0c7f 2d3e
000001a0: 8728 233d fd6e 093c 8fd0 86bc 71b8 8abd
000001b0: 457e 2b3d c41b c5bd 6563 b83d bed8 0abd
000001c0: 5322 473c 360c 8f3d 8c7e 3ebd a154 623d
000001d0: 015e 593c 300c 6a3d ee13 793d 5df5 3f3d
000001e0: 68c7 923e b379 f2bd bb76 ec3b 8767 f03c
000001f0: fb5c 353d 8938 2d3d 0feb 393e c5ca 3ebd

weight f4 [1, 128]
-0.00060934 -0.11387444 -0.04268876 0.04963203 -0.13231392 0.07602301 -0.1630156 0.011258848
0.16198891 -0.0058290134 -0.0022600503 -0.045917057 -0.2015401 0.056758516 0.014512135 0.123861745
-0.02951199 0.0739397 0.017929995 0.25533617 -0.24348158 0.24942538 -0.0017865712 -0.2167355
0.102453634 -0.10368545 -0.19788627 0.1267767 -0.0060416344 -0.0056735286 0.06091898 -0.06606779
0.0985698 -0.09548848 -0.12809162 -0.027379874 0.026976282 0.019520657 -0.061162435 -0.3825433
-0.22042115 -0.118148565 -0.004793948 0.19708444 -0.02864012 -0.1222998 -0.17889383 0.1623353
-0.055928223 -0.055511124 0.09057663 -0.059702016 0.0075308573 0.08476845 -0.02033701 0.19105934
0.04875325 0.111581996 0.07173068 0.1461866 -0.025871601 0.079842724 0.13721775 0.017454602
-0.19188443 -0.20068513 0.21375777 0.31032664 -0.062921844 -0.15164113 0.06676661 0.050899707
-0.3696265 -0.09162599 0.0994031 0.05611426 -0.383383 -0.07905984 -0.05800069 0.21879102
-0.22627556 0.039949674 0.097312845 -0.054225627 -0.0041811317 0.15444389 -0.17729416 -0.022928314
-0.042288054 0.11393976 0.026734252 0.06316411 -0.26340944 0.093212575 0.21133299 0.17479785
0.117970176 -0.009796826 0.6048322 -0.07471526 -0.09497552 0.20783885 0.10319765 -0.15847392
-0.036632076 0.26604447 -0.00686888 0.07178051 -0.21290529 -0.09541691 0.14053915 -0.028397387
0.19132903 -0.14777604 -0.010402317 -0.14972049 0.13733235 0.34074077 0.04406573 -0.13197911
0.31877452 0.03813377 0.25386652 0.08427194 -0.18176904 0.121392794 0.036633465 0.267165
00000000: 1dbc 1fba 0137 e9bd 69da 2ebd f54a 4b3d
00000010: 4d7d 07be f4b1 9b3d 90ed 26be 0877 383c
00000020: 6ce0 253e 4f01 bfbb 5a1d 14bb 8613 3cbd
00000030: 8760 4ebe 9e7b 683d 4ec4 6d3c 3aab fd3d
00000040: 21c3 f1bc b36d 973d ede1 923c 6cbb 823e
00000050: 3c53 79be 5e69 7f3e 622b eaba e9ef 5dbe
00000060: 36d3 d13d 0a59 d4bd b3a2 4abe c0d1 013e
00000070: e7f8 c5bb 02e9 b9bb 2e86 793d 8d4e 87bd
00000080: f7de c93d 778f c3bd 732a 03be c24b e0bc
00000090: 5dfd dc3c c9e9 9f3c 7685 7abd b7dc c3be
000000a0: 15b6 61be e0f7 f1bd 8d16 9dbb 81d0 493e
000000b0: af9e eabc 5178 fabd f22f 37be 3a3b 263e
000000c0: fe14 65bd a25f 63bd 3d80 b93d 1a8a 74bd
000000d0: 69c5 f63b 159b ad3d cd99 a6bc 0fa5 433e
000000e0: 7db1 473d 1a85 e43d 89e7 923d f1b1 153e
000000f0: aef0 d3bc 9584 a33d cf82 0c3e f4fc 8e3c
00000100: 5a7d 44be 6780 4dbe 51e3 5a3e 22e3 9e3e
00000110: 2bdd 80bd d047 1bbe efbc 883d 367c 503d
00000120: af3f bdbe 68a6 bbbd da93 cb3d 11d8 653d
00000130: c74a c4be 20ea a1bd 2292 6dbd c10a 603e
00000140: c8b4 67be 45a2 233d f54b c73d b11b 5ebd
00000150: e001 89bb 8a26 1e3e 9a8c 35be 29d4 bbbc
00000160: 3d36 2dbd 4059 e93d ca01 db3c 2f5c 813d
00000170: 9add 86be 3ce6 be3d ad67 583e 35fe 323e
00000180: 599a f13d de82 20bc 48d6 1a3f 5004 99bd
00000190: 8782 c2bd b5d3 543e 4a59 d33d fd46 22be
000001a0: 840b 16bd fb36 883e 5714 e1bb a901 933d
000001b0: d803 5abe f169 c3bd 7fe9 0f3e a3a1 e8bc
000001c0: c2eb 433e 9a52 17be 7b6e 2abc 5450 19be
000001d0: daa0 0c3e 9375 ae3e 447e 343d 8825 07be
000001e0: 6a36 a33e 2832 1c3d cbfa 813e c496 ac3d
000001f0: aa21 3abe c99c f83d f90c 163d dac9 883e
