fwd_CP_TO_m-fwd_d-1_s-15_seed_0.pt (torch, 12644 bytes, 3 tensors)

weight f4 [128, 6]
-0.24567173 -0.10913751 0.04527876 0.057224203 -0.21482676 0.31874114 0.15164328 0.0804658
-0.14080215 0.07705116 -0.07995292 0.07258008 0.19203527 0.1553119 -0.20753595 0.107555404
0.1164782 -0.093427174 0.23399259 0.08528356 -0.12097775 0.27795523 -0.19094414 -0.15098444
-0.27520293 0.047696043 0.12984382 -0.15579142 -0.173725 0.10256018 -0.25954345 -0.0014944547
0.22316444 -0.28454173 0.19500557 0.19496027 0.3103446 -0.104394495 -0.43616518 -0.012587191
0.16135329 0.04656199 -0.16102298 -0.16464093 0.10699696 -0.20398602 0.13694051 0.082808
-0.11649197 -0.11753056 0.1974037 -0.07172986 0.06130838 0.065706305 -0.018822715 -0.1537942
0.05121059 -0.3115488 0.07807552 -0.050932534 -0.19831343 -0.18527085 -0.22113365 0.024062136
0.046214547 -0.15037334 -0.100807086 -0.14002477 -0.05855759 0.06144053 0.083984956 0.06945659
0.11317479 0.026789214 -0.031459402 0.025247939 0.122382134 -0.09001639 0.019827908 0.11628625
-0.0673891 0.05554867 0.038428616 -0.22677706 0.118851595 0.12460502 -0.17687666 -0.021564778
-0.10483727 -0.031244569 0.1247147 -0.1527817 0.36244565 0.053349067 0.061487433 0.021306204
0.23209094 0.0783493 -0.11115188 -0.01665711 0.118969575 -0.092916556 -0.22712418 -0.18841033
0.24394114 0.043834884 -0.19024459 0.05899151 -0.0060160155 0.036646955 0.14933419 0.03304277
0.14299932 -0.19606264 0.042455476 0.033489954 0.048258666 0.039010536 0.07906414 0.13910645
0.27039784 -0.16478747 -0.113183856 -0.1280962 0.049261678 -0.2417334 0.11261867 0.11817103
-0.20819056 -0.0030717242 0.033624627 -0.04086097 0.3445045 -0.06474548 -0.33044866 -0.017673373
0.11376556 0.18317057 -0.06508544 -0.08045855 0.29166317 -0.054256853 0.07002356 0.03297646
-0.12514888 -0.08760045 0.185597 -0.059993926 -0.07155625 0.09228773 0.18144767 0.10248384
-0.06131468 0.047010954 0.21807294 0.023301266 0.1591458 -0.08298317 0.095342025 0.15973589
0.04046319 -0.12334783 0.18750341 0.18460661 -0.37734845 0.05138099 -0.22592448 -0.043158993
-0.21354909 -0.016957812 0.26688743 -0.25080222 -0.03250691 -0.09332241 0.3326178 -0.18588851
0.058269903 -0.05946904 -0.019146958 -0.14768791 -0.20292999 0.013338179 0.6048896 -0.12723802
0.27420527 0.42913616 -0.18581283 0.118385084 0.32858878 0.07318539 -0.049058646 -0.18675297
-0.082804315 0.06834518 -0.082561925 0.04211109 0.043991994 0.105937 -0.115007415 -0.07327465
0.013013505 0.0005285707 -0.21572696 -0.12277249 0.12157164 -0.12040828 0.18579517 0.13121463
-0.023883546 -0.018823031 0.14298072 -0.0020450992 0.20208232 0.14004008 -0.041577607 0.027229918
-0.016345847 -0.2709015 0.055488415 0.18930312 0.02774108 0.12524737 0.08577023 0.00930559
0.07141434 0.045002174 0.24609935 0.16410483 0.059588242 0.5311933 -0.48819393 -0.12551683
-0.20583402 -0.43576583 -0.47498402 -0.27047032 0.515728 -0.14036946 0.44856942 0.15999094
0.069023766 -0.16688092 -0.1683859 0.26281142 -0.044487577 0.06576127 0.16824286 0.06288047
0.14769995 0.07148926 0.29921588 -0.07405466 -0.26729515 -0.17084214 0.104260266 0.014506102
00000000: 5f91 7bbe 7d83 dfbd 3976 393d ed63 6a3d
00000010: 8cfb 5bbe 0a32 a33e 6048 1b3e 41cb a43d
00000020: 702e 10be 00cd 9d3d 5bbe a3bd dda4 943d
00000030: e5a4 443e 150a 1f3e 4e84 54be 0246 dc3d
00000040: 1f8c ee3d bf56 bfbd c19b 6f3e 26a9 ae3d
00000050: 2fc3 f7bd 2650 8e3e dc86 43be aa9b 1abe
00000060: 66e7 8cbe ed5c 433d c7f5 043e c987 1fbe
00000070: f7e4 31be 120b d23d e1e2 84be 94e1 c3ba
00000080: 3885 643e 74af 91be 8aaf 473e aaa3 473e
00000090: 7de5 9e3e c8cc d5bd 0b51 dfbe 813a 4ebc
000000a0: cc39 253e c9b7 3e3d 35e3 24be a297 28be
000000b0: 3921 db3d b6e1 50be 223a 0c3e 3e97 a93d
000000c0: 5893 eebd ddb3 f0bd 3224 4a3e 1be7 92bd
000000d0: 7f1e 7b3d 0791 863d 1832 9abc 3a7c 1dbe
000000e0: 32c2 513d 5383 9fbe 0fe6 9f3d a29e 50bd
000000f0: ad12 4bbe a4b7 3dbe dc70 62be f51d c53c
00000100: 774b 3d3d 78fb 19be f273 cebd a762 0fbe
00000110: 15da 6fbd 11a9 7b3d 4e00 ac3d 423f 8e3d
00000120: 2fc8 e73d 0e75 db3c 93db 00bd c4d4 ce3c
00000130: 7ca3 fa3d 835a b8bd 236e a23c 7c27 ee3d
00000140: 4c03 8abd 0187 633d 5367 1d3d 3f38 68be
00000150: 7768 f33d eb30 ff3d 281f 35be 9ea8 b0bc
00000160: ecb4 d6bd 9cf4 ffbc 6c6a ff3d ce72 1cbe
00000170: 7a92 b93e 8d84 5a3d 3fda 7b3d 598a ae3c
00000180: 3fa9 6d3e 9975 a03d 99a3 e3bd 7e74 88bc
00000190: 52a6 f33d 094b bebd 3e93 68be a3ee 40be
000001a0: b5cb 793e 358c 333d 7acf 42be 15a1 713d
000001b0: ff21 c5bb 1e1b 163d 10eb 183e db57 073d
000001c0: 6a6e 123e a5c4 48be cbe5 2d3d c32c 093d
000001d0: e1aa 453d 83c9 1f3d 61ec a13d ec71 0e3e
000001e0: 9671 8a3e 0cbe 28be f0cc e7bd a62b 03be
000001f0: 9dc6 493d f688 77be 9ea4 e63d a703 f23d
00000200: e82f 55be fb4e 49bb fab9 093d d55d 27bd
00000210: e562 b03e 4799 84bd 9130 a9be c0c7 90bc
00000220: ebfd e83d 1191 3b3e 844b 85bd 74c7 a4bd
00000230: e054 953e 6f3c 5ebd 8368 8f3d 5312 073d
00000240: 0727 00be dd67 b3bd 240d 3e3e 31bc 75bd
00000250: 158c 92bd 5901 bd3d 6bcd 393e 0ce3 d13d
00000260: 1a25 7bbd 8f8e 403d 834e 5f3e 4ce2 be3c
00000270: 1ef7 223e 15f3 a9bd ae42 c33d ce91 233e
00000280: bbbc 253d c99d fcbd e500 403e 8409 3d3e
00000290: d133 c1be df74 523d bf58 67be 7cc7 30bd
000002a0: 9dac 5abe 1ceb 8abc 78a5 883e 2669 80be
000002b0: f725 05bd d21f bfbd e14c aa3e 8f59 3ebe
000002c0: 6cac 6e3d cf95 73bd 15da 9cbc 803b 17be
000002d0: e1cc 4fbe 6188 5a3c 0bda 1a3f af4a 02be
000002e0: a264 8c3e bcb7 db3e b845 3ebe e173 f23d
000002f0: ca3c a83e 39e2 953d b8f1 48bd 2c3c 3fbe
00000300: 4f95 a9bd 8ff8 8b3d 3a16 a9bd ae7c 2c3d
00000310: f330 343d 7ff5 d83d 0289 ebbd 0511 96bd
00000320: 9936 553c c78f 0a3a 87e7 5cbe 2570 fbbd
00000330: 8dfa f83d 9e98 f6bd 1741 3e3e 215d 063e
00000340: 6da7 c3bc c232 9abc 8a69 123e 1207 06bb
00000350: abee 4e3e ab66 0f3e 484d 2abd 4711 df3c
00000360: bae7 85bc 9ab3 8abe d247 633d add8 413e
00000370: 4341 e33c d940 003e 4da8 af3d 7976 183c
00000380: ae41 923d 3354 383d 7801 7c3e 190b 283e
00000390: cd12 743d 49fc 073f 8ef4 f9be 7c87 00be
000003a0: 27c6 52be b31c dfbe 1b31 f3be 167b 8abe
000003b0: c006 043f 03bd 0fbe e4aa e53e aad4 233e
000003c0: 555c 8d3d d5e2 2abe 5a6d 2cbe 388f 863e
000003d0: 9b38 36bd d8ad 863d db47 2c3e 7ac7 803d
000003e0: a83e 173e f668 923d d332 993e f8a9 97bd
000003f0: e9da 88be 3ef1 2ebe 6886 d53d 00ab 6d3c

bias f4 [128]
0.035597067 -0.019068532 -0.024965284 -0.04502609 0.017154954 0.029451318 -0.035332773 0.16183299
0.0010392301 -0.03398528 -0.07486804 0.035916455 -0.024238065 0.0015470071 -0.037109565 0.07695038
-0.027525878 0.015761124 0.018967547 -0.035133764 -0.03012869 -0.02356194 -0.047127996 -0.014264445
0.007740021 -0.029914519 0.01842946 -0.040942583 0.030177444 -0.04027933 0.0720406 -0.21597433
-0.024498645 0.040535823 0.05895965 0.034666497 0.06603067 -0.035724077 -0.38534966 0.41263136
0.032171387 -0.04023875 0.05907401 -0.022955572 -0.027153082 -0.06519223 -0.003398971 0.09730982
-0.031784467 -0.012808847 -0.010413491 0.32992518 -0.03717564 -0.100548655 -0.046224635 -0.069189504
-0.017443227 0.027336925 0.061422493 0.031366024 0.00428698 -0.0773589 -0.03408045 0.019982679
0.2602369 -0.014174445 0.12188488 0.0056991456 -0.024295999 -0.0031194377 0.014880345 0.0034648255
0.06272362 0.011216848 -0.019227486 0.013326514 0.02393084 -0.1396485 0.07348681 0.13472189
-0.026108677 0.016776832 -0.026799735 -0.087006316 -0.0026924342 0.014918726 -0.11812229 -0.1901551
0.12268791 0.017045181 -0.06765921 -0.029012464 0.0053128987 0.011033128 0.045814566 0.14963248
0.0048761466 0.040403247 -0.3873169 0.009551498 0.014804857 0.1700006 0.01391246 -0.049737204
0.028318202 0.019097384 0.08186066 0.026298208 -0.044962335 -0.019941589 -0.00092284265 -0.0006166211
-0.033370506 -0.04218288 0.08164638 -0.030175727 -0.031846944 -0.0698242 0.047516763 0.033860307
-0.025165344 -0.03442707 -0.0374481 0.16145001 -0.029372193 -0.0440311 -0.02514941 -0.021694308
00000000: 3bce 113d 9c35 9cbc ff83 ccbc 476d 38bd
00000010: 8c88 8c3c e443 f13c 19b9 10bd 8cb7 253e
00000020: c736 883a 2634 0bbd 6a54 99bd 221d 133d
00000030: e88e c6bc f2c4 ca3a 3300 18bd 2998 9d3d
00000040: f37d e1bc 791d 813c d461 9b3c 6ce8 0fbd
00000050: 71d0 f6bc f804 c1bc 4909 41bd 6bb5 69bc
00000060: 01a0 fd3b 4b0f f5bc 61f9 963c 69b3 27bd
00000070: b036 f73c f0fb 24bd 068a 933d 6028 5dbe
00000080: 62b1 c8bc e408 263d ad7f 713d 75fe 0d3d
00000090: 173b 873d 6953 12bd 8d4c c5be 6b44 d33e
000000a0: 25c6 033d 63d1 24bd 97f7 713d 530d bcbc
000000b0: 2470 debc 8183 85bd 45c1 5ebb 5f4a c73d
000000c0: 6e30 02bd 33dc 51bc 599d 2abc f4eb a83e
000000d0: 7c45 18bd 74ec cdbd 0b56 3dbd 3ab3 8dbd
000000e0: 19e5 8ebc b0f1 df3c 2796 7b3d a979 003d
000000f0: cb79 8c3b 586e 9ebd f197 0bbd b7b2 a33c
00000100: c53d 853e ee3b 68bc c89e f93d e6bf ba3b
00000110: 6708 c7bc 7b6f 4cbb b1cc 733c 2012 633b
00000120: 3e75 803d dfc6 373c f682 9dbc 7357 5a3c
00000130: 9c0a c43c 0400 0fbe 4180 963d 89f4 093e
00000140: dde1 d5bc 916f 893c 1e8b dbbc 5e30 b2bd
00000150: 8d73 30bb ac6d 743c 19ea f1bd 05b8 42be
00000160: cd43 fb3d 56a2 8b3c e990 8abd 8cab edbc
00000170: d317 ae3b 4bc4 343c 0ea8 3b3d 4239 193e
00000180: 15c8 9f3b e07d 253d 674e c6be e37d 1c3c
00000190: 1290 723c a314 2e3e 16f1 633c 3db9 4bbd
000001a0: 93fb e73c 1e72 9c3c 90a6 a73d 576f d73c
000001b0: 6d2a 38bd 8b5c a3bc ecea 71ba bea4 21ba
000001c0: 83af 08bd f5c7 2cbd 3836 a73d 1633 f7bc
000001d0: f171 02bd fdff 8ebd f0a0 423d 1bb1 0a3d
000001e0: 8d27 cebc 6603 0dbd 2e63 19bd 2753 253e
000001f0: f49d f0bc f459 34bd 2306 cebc 43b8 b1bc

weight f4 [1, 128]
-0.25351837 0.11360801 -0.08552195 0.29853463 -0.041767385 0.13472217 -0.067462176 0.14643312
0.027161017 0.12961671 -0.051483333 0.15949185 -0.18589246 0.17413084 0.093451194 0.21367611
-0.19650695 -0.07698787 0.16821171 -0.112416476 -0.18584995 -0.14305751 -0.083878435 0.2833545
-0.16187401 -0.05027467 0.14185473 0.26766467 -0.076702036 -0.0780651 0.27917907 -0.054710303
-0.09279664 -0.1332323 0.23684485 0.051859237 0.20630774 -0.010377514 0.25894046 0.26942796
0.06268103 -0.12621951 0.23079665 -0.013516566 -0.047019303 0.03752979 -0.034678288 0.18788326
0.0012628374 -0.04594513 -0.078336954 0.26532367 -0.012172096 0.24422231 -0.01928647 0.23941125
0.26894647 -0.16794078 0.19682306 -0.002619572 0.036914397 -0.117853574 -0.14743692 -0.10359157
0.1999893 -0.08526729 -0.14015225 0.030624222 -0.065677404 0.33369756 -0.26179498 -0.036493056
0.2969287 -0.09145014 -0.22566946 -0.035662886 -0.36703032 -0.062715486 0.43601733 0.21079656
0.12094869 0.057442013 0.04977534 -0.035364367 0.03961954 -0.02275603 0.20457166 0.36288437
0.18846047 0.18079594 0.013623679 -0.0870726 0.09193121 -0.1406662 0.16830654 0.45315525
-0.094737396 -0.055558816 0.28040478 -0.099510014 -0.09629732 0.047921553 -0.087974764 -0.050819512
0.070884705 -0.16728258 -0.32609499 -0.38768795 -0.07548211 0.049043357 -0.07468529 -0.050293777
-0.016278645 -0.01707085 0.16675751 -0.014058759 -0.06544628 -0.01948806 0.021778462 -0.4725098
0.069987595 -0.097163014 0.0139303785 0.0632661 -0.15215072 -0.025130097 -0.017542366 0.20365515
00000000: 29cd 81be 51ab e83d 2226 afbd 88d9 983e
00000010: 4714 2bbd 9cf4 093e 9c29 8abd 90f2 153e
00000020: c880 de3c 3eba 043e 30e0 52bd d551 233e
00000030: 985a 3ebe 5b4f 323e 5763 bf3d e9cd 5a3e
00000040: 1e39 49be d1ab 9dbd b13f 2c3e 9c3a e6bd
00000050: 734f 3ebe ab7d 12be 75c8 abbd d713 913e
00000060: 4dc2 25be d0ec 4dbd 5e42 113e 580b 893e
00000070: f515 9dbd 98e0 9fbd 8ff0 8e3e e917 60bd
00000080: 2a0c bebd 0c6e 08be 7587 723e 5a6a 543d
00000090: 5642 533e 7306 2abc d893 843e 76f2 893e
000000a0: e95e 803d b03f 01be f555 6c3e 9674 5dbc
000000b0: 5097 40bd d6b8 193d d20a 0ebd 7864 403e
000000c0: cb85 a53a f630 3cbd 206f a0bd 81d8 873e
000000d0: 796d 47bc 6a15 7a3e a9fe 9dbc 3928 753e
000000e0: 5ab3 893e abf8 2bbe fc8b 493e 20ad 2bbb
000000f0: 8d33 173d 375d f1bd b4f9 16be d127 d4bd
00000100: ffc9 4c3e 9ea0 aebd 1284 0fbe a6df fa3c
00000110: e081 86bd 68da aa3e fe09 86be be79 15bd
00000120: 0a07 983e 364a bbbd e515 67be 3f13 12bd
00000130: 66eb bbbe fa70 80bd aa3d df3e 0edb 573e
00000140: f2b3 f73d 5148 6b3d 3ae1 4b3d 3ada 10bd
00000150: 1948 223d db6a babc 3c7b 513e fbcb b93e
00000160: c8fb 403e 9222 393e da35 5f3c 1f53 b2bd
00000170: 6e46 bc3d cd0a 10be 8d58 2c3e f703 e83e
00000180: ae05 c2bd a491 63bd 3791 8f3e e8cb cbbd
00000190: 8837 c5bd 6449 443d 1d2c b4bd 1f28 50bd
000001a0: 002c 913d 204c 2bbe ecf5 a6be 097f c6be
000001b0: 5d96 9abd b0e1 483d 9af4 98bd d900 4ebd
000001c0: cb5a 85bc 2bd8 8bbc 7bc2 2a3e b656 66bc
000001d0: b308 86bd 6da5 9fbc bf68 b23c ceec f1be
000001e0: a855 8f3d 67fd c6bd 3e3c 643c a891 813d
000001f0: 66cd 1bbe a2dd cdbc 02b5 8fbc fa8a 503e
