fwd_CP_TO_m-fwd_d-1_s-15_seed_0.pt (torch, 12132 bytes, 3 tensors)

weight f4 [128, 5]
-0.23661235 0.108203866 -0.0723447 -0.21709017 0.38413355 0.0809232 -0.114089005 -0.1659057
0.077613965 0.057429202 0.3126774 0.15442604 0.39816558 -0.27967915 -0.44418767 0.029474093
0.29066333 0.26318178 -0.036803447 -0.27285624 -0.009026496 -0.056355126 0.071298726 0.13710839
0.01883537 0.10844372 -0.13227086 0.0023893593 0.06408255 -0.28425333 0.04178836 -0.078179784
0.1294382 0.26138607 0.039828893 -0.08502312 0.19847041 -0.102682404 -0.15327619 0.09197577
0.06378202 -0.036486894 0.027006753 -0.0051369937 0.23468603 0.34298173 -0.14544493 0.1348136
0.045651946 -0.46010402 -0.008258278 -0.16418824 0.0014261563 -0.033249684 0.020922719 -0.04914449
0.09352883 -0.04668641 -0.024976328 0.13273202 0.10522011 -0.054226775 7.018749e-07 0.04015253
0.13905917 -0.063719034 0.0013666262 -0.027846202 0.09226597 -0.157988 -0.007421477 -0.074405715
-0.114150204 -0.2647847 -0.113668725 -0.0304533 -0.18967424 0.19584383 -0.040456515 -0.57488585
0.19761637 -0.056251686 -0.17917079 -0.081516534 -0.090352155 -0.13963482 -0.007090599 -0.09850776
0.27083063 -0.2839032 -0.029482475 0.12817998 -0.034395315 -0.045011677 0.10670481 -0.4351795
0.008111314 -0.20376536 0.18404719 0.2735775 0.0745444 0.08330818 0.026506819 -0.11513577
-0.12217729 -0.030233996 0.058070265 0.08449768 -0.0980112 0.025163103 0.047357436 0.12664172
-0.1290301 0.06727968 0.09285643 -0.1118215 -0.23465161 -0.15509665 -0.1946673 -0.30333307
0.089767486 0.1435592 -0.08726876 -0.19289926 0.01813713 0.19106835 -0.22157374 0.09779714
0.034972087 -0.50143915 -0.22894512 0.18870707 -0.2195066 0.15629822 0.47862542 0.059994183
0.050457958 0.050944235 -0.065571785 -0.017272165 0.09833799 0.117074065 -0.18492308 0.08302466
0.39583698 -0.006952455 0.010660199 0.08081046 0.13085198 0.14672434 -0.50236535 -0.022047577
-0.2709157 0.059859406 0.45281008 -0.11530333 -0.12252814 0.061317507 0.070719145 -0.18830156
0.123695225 -0.2568748 0.11341656 -0.021902379 0.10488001 -0.20439795 -0.32613078 0.0012170131
0.12155624 0.08548501 0.05626768 -0.0721809 -0.14590804 -0.068453364 0.4179144 -0.048899323
0.031294342 -0.11666652 0.0139364945 -0.13326629 0.1373197 -0.092893146 -0.122589454 -0.20316496
-0.08962855 -0.6374792 -0.10074597 -0.042080484 -0.10269428 0.1672065 -0.16850865 -0.26085007
-0.09405825 -0.25066257 -0.46906865 -0.16230017 -0.17474167 0.056585703 0.035333224 0.09365979
0.12463177 0.03914676 0.06827012 0.009312787 -0.15994029 -0.107253425 -0.143673 0.10197984
-0.1070013 0.05000552 -0.021307368 -0.17322902 0.033039253 0.06311426 0.045218274 -0.06584052
-0.113008894 -0.018725116 -0.006829718 -0.10360846 0.034309782 0.044223905 -0.0069460827 0.026236733
0.0328616 0.04726346 -0.0415829 -0.05123162 0.1693951 -0.33535293 -0.08340021 -0.21027154
0.013686417 0.03235792 -0.05787591 -0.07889835 -0.004233303 0.040302653 0.08966048 0.11981654
0.10238488 -0.15224671 0.018663537 0.0039288374 0.22417195 0.14593706 0.033654056 0.13891038
-0.012012755 -0.48623297 -0.03814208 -0.17353818 0.08067526 -0.08074098 0.046190467 0.17681152
00000000: 824a 72be fd99 dd3d 7529 94bd e34c 5ebe
00000010: 27ad c43e 10bb a53d 7fa7 e9bd 2fe3 29be
00000020: 12f4 9e3d e23a 6b3d 4117 a03e dc21 1e3e
00000030: 5cdc cb3e 1b32 8fbe 916c e3be a773 f13c
00000040: d3d1 943e c3bf 863e 36bf 16bd d0b3 8bbe
00000050: dee3 13bc a2d4 66bd 1105 923d 2466 0c3e
00000060: a24c 9a3c be17 de3d 0372 07be cc96 1c3b
00000070: b63d 833d a789 91be 452a 2b3d b91c a0bd
00000080: 738b 043e 65d4 853e 9f23 233d 9a20 aebd
00000090: d43b 4b3e 274b d2bd 6ff4 1cbe cb5d bc3d
000000a0: 26a0 823d 4873 15bd 443d dd3c 3a54 a8bb
000000b0: 8951 703e 4d9b af3e 84ef 14be 940c 0a3e
000000c0: 89fd 3a3d c192 ebbe ba4d 07bc f620 28be
000000d0: dded ba3a d230 08bd 1f66 ab3c bc4b 49bd
000000e0: 0b8c bf3d 403a 3fbd 289b ccbc e7ea 073e
000000f0: a47d d73d e51c 5ebd 7a68 3c35 fb76 243d
00000100: 8765 0e3e 207f 82bd 5e20 b33a b81d e4bc
00000110: f1f5 bc3d 9bc7 21be dd2f f3bb 0662 98bd
00000120: 95c7 e9bd dc91 87be 26cb e8bd 3379 f9bc
00000130: f739 42be 498b 483e bbb5 25bd b82b 13bf
00000140: f25b 4a3e 2b68 66bd 8c78 37be 24f2 a6bd
00000150: 8d0a b9bd 6efc 0ebe 4158 e8bb 70be c9bd
00000160: 50aa 8a3e c35b 91be 3b85 f1bc 9d41 033e
00000170: 1ae2 0cbd 2a5e 38bd 0d88 da3d d9cf debe
00000180: 51e5 043c dea7 50be de76 3c3e 5a12 8c3e
00000190: bcaa 983d 7b9d aa3d d424 d93c 4dcc ebbd
000001a0: 1638 fabd 49ad f7bc 16db 6d3d 1f0d ad3d
000001b0: 19ba c8bd da22 ce3c dff9 413d 5eae 013e
000001c0: 7720 04be eec9 893d 832b be3d ac02 e5bd
000001d0: 8348 70be a8d1 1ebe dd56 47be 794e 9bbe
000001e0: 04d8 b73d 2f01 133e f7b9 b2bd 6287 45be
000001f0: 5294 943c 6ca7 433e 3ae4 62be de49 c83d
00000200: e43e 0f3d 515e 00bf 9770 6abe 6d3c 413e
00000210: 57c6 60be a40c 203e 640e f53e 76bc 753d
00000220: 01ad 4e3d e7aa 503d 804a 86bd 5b7e 8dbc
00000230: 6e65 c93d 87c4 ef3d 7a5c 3dbe d508 aa3d
00000240: 25ab ca3e 6bd1 e3bb 1ea8 2e3c f47f a53d
00000250: 10fe 053e e83e 163e 049b 00bf 1f9d b4bc
00000260: 76b5 8abe 232f 753d b9d6 e73e 2724 ecbd
00000270: 09f0 fabd 1128 7b3d 33d5 903d 20d2 40be
00000280: ec53 fd3d 1885 83be f146 e83d 9e6c b3bc
00000290: 55cb d63d b24d 51be 9dfa a6be 2f84 9f3a
000002a0: 7af2 f83d c412 af3d f078 663d 94d3 93bd
000002b0: eb68 15be 4731 8cbd e0f8 d53e a84a 48bd
000002c0: 7f2e 003d dbee eebd e555 643c f576 08be
000002d0: 899d 0c3e c33e bebd 2e10 fbbd 7a0a 50be
000002e0: 2c8f b7bd d631 23bf e753 cebd 965c 2cbd
000002f0: 6151 d2bd 2e38 2b3e 888d 2cbe 248e 85be
00000300: 9da1 c0bd d856 80be c429 f0be 0432 26be
00000310: 7bef 32be 69c6 673d 92b9 103d b4d0 bf3d
00000320: f13e ff3d 5a58 203d 34d1 8b3d a994 183c
00000330: 63c7 23be afa7 dbbd 041f 13be ceda d03d
00000340: 7f23 dbbd 97d2 4c3d ca8c aebc f362 31be
00000350: 2b54 073d 0d42 813d cc36 393d 65d7 86bd
00000360: 3571 e7bd 6a65 99bc d4cb dfbb ac30 d4bd
00000370: 6a88 0c3d 2024 353d f79b e3bb 6bee d63c
00000380: e399 063d 5497 413d d552 2abd 3fd8 51bd
00000390: e975 2d3e 61b3 abbe bbcd aabd 6c51 57be
000003a0: fe3c 603c bd89 043d 4a0f 6dbd 7595 a1bd
000003b0: 85b7 8abb 6514 253d ea9f b73d 6062 f53d
000003c0: 2aaf d13d 90e6 1bbe 46e4 983c 7abd 803b
000003d0: 558d 653e 8670 153e d6d8 093d 863e 0e3e
000003e0: 25d1 44bc 87f3 f8be df3a 1cbd feb3 31be
000003f0: 1239 a53d 875b a5bd 3732 3d3d 140e 353e

bias f4 [128]
0.04015158 0.01220869 -0.04986897 -0.1228674 -0.014367699 -0.04296239 -0.05882772 -0.081457086
-0.073392406 0.012688903 -0.020000106 -0.008122797 -0.040457286 -0.020275852 0.07603141 0.04940808
0.05729261 0.027605489 -0.02205099 0.08192754 -0.028111257 0.023042742 -0.01129695 0.23833726
0.008062623 0.0020722998 -0.08609479 -0.024418408 0.019843535 -0.03149431 0.05214774 -0.008715419
-0.010511169 0.003552392 -0.001831926 0.021323375 0.03235762 0.11270508 0.30831507 0.0045700297
-0.042405996 0.04144896 0.01371378 -0.05255542 -0.0058590947 0.08545542 0.032914903 -0.02187055
-0.017612176 0.046980694 0.034617033 0.03413576 -0.0041130763 0.09507773 -0.004418737 -0.06534787
-0.12440155 0.043985486 0.2397187 0.10479666 -0.04766066 -0.08023312 -0.14285229 -0.044296134
-0.048672892 -0.00021093064 0.0360802 -0.03959491 -0.018379929 0.033314433 -0.09307196 0.1502423
0.006849971 -0.14582436 -0.04606891 -0.048149686 -0.0072268345 0.008302973 0.23111646 -0.029802782
0.101926215 0.016275434 -0.03639456 0.028029684 0.032754708 -0.030168895 -0.01317557 0.04569822
-0.015222879 -0.017757187 0.089271694 0.026533203 0.014676729 0.028324654 0.14497438 -0.02822755
0.027669203 -0.04276758 -0.005076011 -0.043412663 -0.023836423 -0.02703818 0.029346786 -0.023611004
-0.038563382 -0.007912396 -0.05313619 -0.029197862 0.010393091 -0.049878065 0.04671349 -0.007956666
0.024242567 -0.00626068 0.017869603 0.04208561 0.10463252 -0.041282304 -0.062226605 0.003232776
-0.045049697 0.012724743 0.06662198 -0.046738867 0.011961318 0.06428765 -0.047347594 0.008687489
00000000: fc75 243d f506 483c 6843 4cbd e7a1 fbbd
00000010: 7f66 6bbc 55f9 2fbd 56f5 70bd f9d2 a6bd
00000020: c24e 96bd 1ee5 4f3c 43d7 a3bc 7b15 05bc
00000030: 8ab6 25bd 8b19 a6bc 5bb6 9b3d 2060 4a3d
00000040: a8ab 6a3d e824 e23c 47a4 b4bc a0c9 a73d
00000050: 9449 e6bc 22c4 bc3c d816 39bc af0e 743e
00000060: 1819 043c 6ccf 073b 7752 b0bd 1d09 c8bc
00000070: e98e a23c 2d00 01bd de98 553d 1ecb 0ebc
00000080: 0a37 2cbc 3fcf 683b 3d1d f0ba 5cae ae3c
00000090: 6c89 043d ecd1 e63d 79db 9d3e 30c0 953b
000000a0: e9b1 2dbd 62c6 293d c3af 603c 5a44 57bd
000000b0: a6fd bfbb 4003 af3d c7d1 063d de29 b3bc
000000c0: 6947 90bc d46e 403d 97ca 0d3d f0d1 0b3d
000000d0: fcc6 86bb 1db8 c23d 0dcb 90bb 1bd5 85bd
000000e0: 3dc6 febd 202a 343d d278 753e a29f d63d
000000f0: d337 43bd 4351 a4bd df47 12be dd6f 35bd
00000100: 3a5d 47bd 432d 5db9 d5c8 133d 462e 22bd
00000110: 8191 96bc b774 083d 839c bebd 1ed9 193e
00000120: b975 e03b fb52 15be c1b2 3cbd 9b38 45bd
00000130: 15cf ecbb 3109 083c cba9 6c3e f724 f4bc
00000140: b1be d03d 0f54 853c 7612 15bd 829e e53c
00000150: cd29 063d c224 f7bc 59de 57bc 0f2e 3b3d
00000160: 6269 79bc 8577 91bc 14d4 b63d 295c d93c
00000170: aa76 703c 1b09 e83c 2a74 143e 773d e7bc
00000180: 86aa e23c 0f2d 2fbd ab54 a6bb 7ad1 31bd
00000190: 9a44 c3bc 2c7f ddbc ac68 f03c dd6b c1bc
000001a0: a3f4 1dbd ffa2 01bc 55a5 59bd 5b30 efbc
000001b0: c847 2a3c f14c 4cbd a556 3f3d ad5c 02bc
000001c0: 5998 c63c 6426 cdbb 4663 923c f661 2c3d
000001d0: 9349 d63d a217 29bd 53e1 7ebd fbdc 533b
000001e0: 0886 38bd 717b 503c 1b71 883d 4171 3fbd
000001f0: 67f9 433c 3ea9 833d 8def 41bd f855 0e3c

weight f4 [1, 128]
0.17958471 -0.15451139 0.15139624 0.053002015 -0.018135061 0.045106567 -0.21278055 0.13932584
-0.05853246 0.018608792 0.045681942 0.3240696 -0.03770728 0.15886487 -0.19204889 0.035724703
-0.1280244 0.02077338 0.15661238 0.04503443 0.00059814 0.0009417788 0.06045256 -0.20402151
-0.067497805 0.20625061 0.050575253 -0.055699803 0.091543764 -0.034106698 0.06654492 0.13494383
0.066757865 -0.026581855 0.013521973 -0.20445597 -0.06511559 0.096222654 -0.22715844 -0.08046443
0.14468125 -0.006460509 -0.06798558 -0.015329784 -0.028606195 0.16617432 -0.10861143 -0.18795131
-0.11102401 0.09188796 -0.18516263 0.26553923 -0.0942089 0.2226824 -0.058210347 0.015644724
0.038480602 0.03582258 0.45234197 0.27482897 -0.014990024 -0.21896286 0.15452875 0.05946138
-0.2709236 -0.1731578 -0.14232226 -0.01370429 -0.06686091 0.07205049 -0.102164924 0.0968282
-0.11001061 0.024560563 -0.039582122 0.12015938 -0.051942427 0.12631889 -0.18860194 -0.045405895
0.10764836 0.059397805 -0.024653196 0.06513971 0.03643829 -0.022917042 -0.27166986 0.18485777
-0.07992612 -0.003090975 -0.11796749 -0.13079016 -0.027196892 0.13053152 0.15499085 -0.16450629
0.18375096 0.013649965 0.06524894 0.16910066 -0.23272654 -0.005628033 -0.05631282 -0.06909822
0.1256993 0.033920687 0.0007544724 -0.19664018 0.013252951 0.21520105 -0.14572729 0.28668702
0.036594525 -0.0016851837 -0.16916035 0.118850656 0.16579352 -0.10926206 0.1458895 -0.06645462
0.08320128 -0.23799978 -0.089284346 0.040201277 0.101788096 -0.10737655 -0.22880802 0.091364756
00000000: 0ee5 373e 3c38 1ebe 9e07 1b3e a418 593d
00000010: fb8f 94bc aac1 383d 25e3 59be 6fab 0e3e
00000020: bcbf 6fbd 7771 983c fd1c 3b3d 73ec a53e
00000030: f372 1abd 79ad 223e 77a8 44be 1154 123d
00000040: d418 03be ef2c aa3c ff5e 203e 0676 383d
00000050: 7fcc 1c3a b5e1 763a 1b9d 773d 04eb 50be
00000060: 4a3c 8abd 5c33 533e ff27 4f3d 7a25 64bd
00000070: 4c7b bb3d 77b3 0bbd b448 883d b72e 0a3e
00000080: 59b8 883d 31c2 d9bc 448b 5d3c e85c 51be
00000090: 535b 85bd 6210 c53d 399c 68be 89ca a4bd
000000a0: 5227 143e adb2 d3bb 063c 8bbd c629 7bbc
000000b0: 8a57 eabc 9a29 2a3e ab6f debd 4f76 40be
000000c0: 8e60 e3bd c12f bc3d 469b 3dbe c2f4 873e
000000d0: 99f0 c0bd db06 643e f96d 6ebd 5d29 803c
000000e0: d69d 1d3d b3ba 123d 5e99 e73e 62b6 8c3e
000000f0: b898 75bc cd37 60be c93c 1e3e c78d 733d
00000100: 80b6 8abe 4750 31be edbc 11be f587 60bc
00000110: 5fee 88bd 358f 933d d83b d1bd dd4d c63d
00000120: 3e4d e1bd 3c33 c93c dd20 22bd 1f16 f63d
00000130: 95c1 54bd bd59 013e de20 41be 88fb 39bd
00000140: be76 dc3d 1d4b 733d 80f5 c9bc f867 853d
00000150: 5140 153d 85bc bbbc 5018 8bbe 5b4b 3d3e
00000160: 4eb0 a3bd f591 4abb f098 f1bd dbed 05be
00000170: 04cc debc 0eaa 053e ecb5 1e3e 5674 28be
00000180: 3629 3c3e 1aa4 5f3c 3ca1 853d b928 2d3e
00000190: de4f 6ebe 5d6b b8bb 46a8 66bd 5e83 8dbd
000001a0: 51b7 003e 6bf0 0a3d c9c7 453a 0b5c 49be
000001b0: e822 593c aa5d 5c3e 8939 15be a4c8 923e
000001c0: 24e4 153d 62e1 dcba 5f38 2dbe f967 f33d
000001d0: c7c5 293e c9c4 dfbd 0f64 153e 5c19 88bd
000001e0: 6f65 aa3d 37b6 73be b6da b6bd 18aa 243d
000001f0: 4776 d03d 3de8 dbbd a64c 6abe 721d bb3d
