fwd_CP_TO_m-fwd_d-1_s-15_seed_4.pt (torch, 12132 bytes, 3 tensors)

weight f4 [128, 5]
00000000: 4949 dabd 705e 9ebc b2fa cabd cade c03d
00000010: 90e7 443d 42bb 223d d484 953e e99e 5cbd
00000020: 1ee9 dcbc ce0f 9abe fb80 9d3d 5b92 8d3e
00000030: b450 473d a4be 063c 43fb 5ebe 3973 b13d
00000040: 7bb9 5bbc d9ab 943e 53b6 26be d33e d73d
00000050: ff4f 24be 637f 603e 219f bb3d d7be 5fbd
00000060: e1e0 333d 312a 273e cee6 7cbd 7b24 a73d
00000070: 0f1d 8e3c e0f7 49be f1dc efbd 75e4 813d
00000080: 131b 133e 2348 11be c606 033e ba68 36bd
00000090: 609b 4c3e 83f5 d6bd 21e9 6e3d 5431 81bd
000000a0: 49e3 c93c 2fcc d0bd 493d f63c 70d5 5abe
000000b0: 9e57 403c 0e57 f73d b012 40bd 2156 2c3d
000000c0: a0e4 72bd f36c 34be 4658 22bc bbec 193e
000000d0: a294 9cbd 53e6 5d3d ad3e bb3c 5dcc 2c3c
000000e0: a672 eabd 8297 c1bd fb96 6dbd 166a 373e
000000f0: 49f8 883d 8969 823d e289 50bd e3a8 ddbd
00000100: 2eb6 b1bd 3d97 0d3e 195f c13c 77e0 3a3c
00000110: 0268 9dbb 312b b4bd 838f b23e 28bb 2f3e
00000120: 7e8f 0a3b 82ab a13c 8e1a 9b3d 0127 463e
00000130: f2bf 623e df53 72bd 320b 973d 4367 1bbe
00000140: 8b62 25bd 1af2 4e3d 171c 203d a7d8 023a
00000150: c73f 01bf 87de d53d 4df2 1b3e f84f 3fbe
00000160: 84bd 873b 7342 163e 3145 ecbd 12f0 b7bd
00000170: 31eb 1b3d e41c 21be 71fd d8bd 3202 513e
00000180: 3e13 52be 0fcb d7bd 8267 e93d 329f c4bd
00000190: 5541 07be 24f2 6abe 0713 84bc 172d 403d
000001a0: 344e 3dbe ca4f 91be b928 a9bc 0877 60be
000001b0: 6f3d 1c3e 6ceb 9abd 4c05 ddbd 82e9 9c3d
000001c0: 4de0 993d d5d4 47bd f631 11be 6c81 f4bc
000001d0: 91d0 153e a2ea 10be 9872 1b3e 0431 ad3d
000001e0: 5e51 043e 1ba1 bdbc ab35 053c a0ae e53d
000001f0: d66b 593c 4876 8cbc 2c6f bb3d 3b27 b3bd
00000200: ce5c 08be 6c2b ef3d c86d 8ebd ca8d 423c
00000210: 3b37 4b3d 54d9 5f3e 3b20 35be 24a3 9a3d
00000220: 7270 0b3e c9a1 a53d caae 4cbd 053d 6dbb
00000230: e208 463e 645a af3d 3a30 35be d49e 483e
00000240: 7ad9 00be c537 7bbd a56d f8bc bf26 163e
00000250: d08c a3bd 31e1 50bd 270b 4d3e 3ec9 59bc
00000260: 95ec 3a3e 3b1c 163e 7c22 bd3d 294c 55be
00000270: c84a e03d c88b 383e 343c 33be 9157 74be
00000280: 5499 db3d 78be c63b dd2a a03d 447e 613b
00000290: 49e0 e63d 695a 89bd ca5a 8c39 607e fc3d
000002a0: e1a1 4abe 4246 76bb f33e 5abe 346a a93d
000002b0: 2feb 41bd 3fd4 343e c10c 86bc beb7 333e
000002c0: c9a4 3b3d 2cb8 17bc 6cc6 4abe f80e 083e
000002d0: 30ab 693d 680b cc3d 817a 06bc e46d 0e3c
000002e0: b66b b1bd ec46 4c3e 811c 253e 8e6e 0d3b
000002f0: 0cbd f73c 852c 88bd edfa 503e b129 8dbb
00000300: a4d7 99bd 9bdb e3bd c488 3dbb 9d6d 1b3e
00000310: 1bdb ff3d 5ba5 9abd d05d 763e f04b 4dbe
00000320: 7b4b f63d 7d9b 5ebe aaa1 f6bd 83e9 22be
00000330: d416 e4bd 525f 8cbd 9d2c 07bd a17e 89bc
00000340: f591 193d ee17 2dbe 1bb5 7e3d 9a3c 843d
00000350: e193 fdbc d34a 00be b0d7 ddba 0c0f a93e
00000360: dc57 e5bd 4f42 3a3d d39c d63d dc41 703d
00000370: 2327 b83c f2ea ebbd ffc0 d6bd c52e db3d
00000380: ed9e c1bd bc56 00be f0ba 843d 8da4 7b3d
00000390: bd91 923e 9437 9abd 74e8 a93d d3d5 153d
000003a0: 5a5b 08be 1f29 f83c acb5 da3c d1f1 533c
000003b0: fc33 413b b40f 2d3e d43e 9ebd a13b 1b3e
000003c0: 9e91 303e 7763 c7bd b8c3 28be 3472 6cbe
000003d0: b185 6d3d 4ce9 4e3e 5378 b9bd 3d59 f6bd
000003e0: efd1 c7bb 74b4 29be c679 e73d 368e e23d
000003f0: cf19 853c b986 193d fa7b 273b 0d6c 5a3d
-0.10658509 -0.01933214 -0.099110976 0.09417494 0.048072398 0.039729364 0.29202902 -0.053862486
-0.026966628 -0.30090183 0.07690617 0.27650723 0.04866095 0.008224163 -0.21775536 0.08664555
-0.013410921 0.2903736 -0.16280489 0.1051003 -0.16046141 0.21923594 0.09161211 -0.05462536
0.043915633 0.16324688 -0.06174355 0.08161255 0.01734784 -0.19723463 -0.11712063 0.06342403
0.14365797 -0.14187674 0.12795553 -0.04453347 0.19981146 -0.104960464 0.058327798 -0.06308237
0.02464451 -0.10195195 0.03005852 -0.21370482 0.01173964 0.12077151 -0.04689282 0.042074326
-0.059300065 -0.17619686 -0.009908741 0.15031712 -0.07645537 0.054174732 0.022857035 0.010546771
-0.11447649 -0.09452726 -0.058005314 0.17911562 0.06687982 0.063677855 -0.050912745 -0.10823228
-0.08677326 0.13827224 0.023604916 0.011406056 -0.0048036585 -0.087973006 0.34875116 0.17161238
0.0021142657 0.019735102 0.07573424 0.19350816 0.22143534 -0.059162017 0.07375182 -0.1517611
-0.04037718 0.050523855 0.03908929 0.000499139 -0.5048794 0.10442834 0.15229149 -0.1868285
0.004142465 0.14673786 -0.11536635 -0.08981337 0.038066093 -0.15733677 -0.10595215 0.20410994
-0.20515153 -0.10536777 0.11396696 -0.096006766 -0.13208516 -0.22943932 -0.016122354 0.046918
-0.18486863 -0.28381187 -0.0206493 -0.21920407 0.1525781 -0.075644344 -0.10792026 0.076617256
0.07513485 -0.048786957 -0.14179215 -0.02984687 0.14630343 -0.14152005 0.15180433 0.084566146
0.12921664 -0.02314811 0.008130471 0.11214948 0.013270339 -0.017146245 0.09152064 -0.08747717
-0.13316652 0.11678204 -0.06954533 0.011874625 0.04961322 0.21860248 -0.17688076 0.07550648
0.13617113 0.08087499 -0.04997138 -0.00361997 0.19339326 0.085621625 -0.17694178 0.19591838
-0.1258296 -0.061332483 -0.03032572 0.14663218 -0.07985842 -0.05099601 0.20023786 -0.013292609
0.18254311 0.14659207 0.09235093 -0.20829834 0.109517634 0.18022072 -0.17503434 -0.23861529
0.107226044 0.006065186 0.078206755 0.0034407536 0.11273248 -0.067066975 0.00026770524 0.123287916
-0.19788314 -0.0037578498 -0.21313076 0.0827221 -0.04734343 0.1765909 -0.016363503 0.17550561
0.04581145 -0.009260219 -0.19802254 0.1328696 0.057048023 0.09963113 -0.008207918 0.008693192
-0.08663122 0.1994893 0.16124155 0.0021580788 0.030241512 -0.066491164 0.2040822 -0.0043079485
-0.07511833 -0.11125871 -0.002892063 0.15178533 0.12492963 -0.0755107 0.24059224 -0.20048499
0.120261155 -0.21739002 -0.12042554 -0.1590939 -0.111371666 -0.068541184 -0.03300153 -0.016784014
0.03749271 -0.1690366 0.062184434 0.06456871 -0.030954303 -0.12528543 -0.0016925242 0.33019292
-0.111983985 0.045473393 0.104791306 0.05865656 0.0224796 -0.11519422 -0.1048603 0.1070228
-0.09454141 -0.12533087 0.06480968 0.061436225 0.28626814 -0.07530132 0.0829629 0.03658087
-0.13316098 0.030293046 0.026697956 0.0129360715 0.0029480448 0.16900522 -0.07726827 0.15159465
0.17243049 -0.09735768 -0.16480911 -0.2309044 0.057988826 0.20206183 -0.09056153 -0.120287396
-0.006098024 -0.16572744 0.11302523 0.11062281 0.016247658 0.037481997 0.0025556074 0.0533257

bias f4 [128]
00000000: 7a87 efbd 73a2 20bd 5375 07bd 92a3 393d
00000010: 2af1 c1bc 6e92 483c 8c90 e6bc f409 59bc
00000020: b9e0 be3b ea01 52bd ec77 96bd f8c8 d73b
00000030: b317 703d 297d ccbd feef 35bc 1891 c83b
00000040: 579b 9fbd eb15 41bd 7306 5c3c b4d6 833c
00000050: 3408 30bc 315e 4fbd 13c8 09bd fea6 34bd
00000060: 64c9 b33c 9e2e 363d cb70 2dbd 2f2f 08bc
00000070: c11a 8bbd 5150 00bc 6727 9b3c c722 51bd
00000080: 4544 dd3b 8cec c03c 584d 78bc ab96 a03d
00000090: f11c 92bd 4cd1 20bc 5158 993d 0459 123d
000000a0: b099 acbc 5299 1fbd 7f62 d13c 75ba 113d
000000b0: 7380 58bd e73c 1abd 3aed 573c 35c7 a43c
000000c0: 0700 323c a88b 1a3d f171 2cbc d5c9 5b3d
000000d0: 67a4 59bb ff25 bb3d cf2c bf3c 5117 2bbd
000000e0: e2fa 74bd bbc7 5abc 731a 45bd ba91 0b3d
000000f0: f43e 50bc f352 173d b594 0fbd 5d20 9b3c
00000100: 2c68 223d 7910 6c3d b822 bd3c 21dd 3abd
00000110: bf41 2fbc ddb8 46bd 8b51 bcbd d584 14bd
00000120: 7a88 0d3d 4828 17bd 0fd2 83bd ee95 ef3c
00000130: 058e a3bb ed66 c3bc 28f4 22bd 2956 443d
00000140: d1b3 7b3d e97b 0b3c e072 13bd 7518 9cbc
00000150: dd64 c23b f5cb 03bb b080 dcbc 96e8 99bc
00000160: 52a7 803c 7433 e7ba d08e ff3c 65ab 20bd
00000170: 094e 333d 52a7 e8bc 9102 dabc c385 05bd
00000180: 38da 123d 0518 37bd 54ea 29bc 0d6d 59bc
00000190: 5a14 a2bc 25ea af3c b08a acbc 6c5e 26bd
000001a0: 9f3f efbc ac26 2bbd eb30 50bd 98a1 c3bc
000001b0: 80fb a63c 9fd6 a93c f51f 04bd 2541 b5bc
000001c0: c90b 36bd c149 6e3c 9fa0 cabc 61ba 163d
000001d0: c843 20bd 5125 b93c 2225 d5bc 54e7 09bc
000001e0: 6bfa 3f3c 6f43 853c d618 613d 27f5 46bd
000001f0: b666 4cbd 97f1 cdbb c0ba cb3b 07bf 7dbd
-0.11695762 -0.039217424 -0.033070873 0.04532201 -0.023674566 0.012241943 -0.028145097 -0.013247002
0.005825129 -0.051271357 -0.07347092 0.0065852366 0.05861635 -0.0998481 -0.011104582 0.006120812
-0.077933006 -0.047140043 0.013429272 0.01609359 -0.010744143 -0.050626937 -0.03363807 -0.04410457
0.021946616 0.04447805 -0.042343896 -0.008312031 -0.06792212 -0.007831649 0.018939687 -0.051058557
0.006752523 0.023550294 -0.015155159 0.07841238 -0.071344264 -0.009815525 0.07487548 0.035729423
-0.021069378 -0.038964577 0.025559662 0.03557821 -0.052856874 -0.037655737 0.013179118 0.02011452
0.010864264 0.037730843 -0.010525213 0.05365928 -0.0033209564 0.091381066 0.023336796 -0.041770283
-0.059809573 -0.0133532835 -0.048120927 0.034074523 -0.012710322 0.03694434 -0.035053927 0.01893633
0.039650127 0.057632897 0.023087844 -0.04562104 -0.010696827 -0.048516143 -0.091952406 -0.03625949
0.034553982 -0.03690365 -0.0643655 0.029246297 -0.0049912953 -0.02385279 -0.039783627 0.04793373
0.061450783 0.008513429 -0.035998225 -0.01905463 0.005932434 -0.0020110582 -0.026916832 -0.018787663
0.015704785 -0.0017639236 0.031196028 -0.039225955 0.043775592 -0.028400097 -0.026612552 -0.03259827
0.03585264 -0.04470064 -0.01037081 -0.013270629 -0.019785095 0.021473954 -0.021062225 -0.04061739
-0.029205142 -0.041784927 -0.0508279 -0.023880765 0.020383596 0.020732222 -0.03225704 -0.02212579
-0.044444833 0.0145439515 -0.024734793 0.03679884 -0.03912714 0.022600802 -0.026018683 -0.008416969
0.011717419 0.016267506 0.054955326 -0.04857364 -0.04990264 -0.0062849033 0.0062173307 -0.061949756

weight f4 [1, 128]
00000000: f1c7 1e3d 9ed3 87bd 4a1e 49bb fb68 863d
00000010: ea60 d9bd f936 f33d a0b2 29be c043 6e3d
00000020: ee06 ff3d cf9e e6bd 354a 5e3c 8af5 01bd
00000030: bf62 48be 22e2 2ebb bfaf ad3d 2444 323e
00000040: 2a21 143c 7fc8 923d 51da b7bd 4437 853e
00000050: 1026 10be dc13 813e 89fc 3c3b ab2d 19be
00000060: 9b83 e03d 4cac b5bd 7962 58be cd55 373e
00000070: e1fe 403d 42ad ce3b 7b1f 143d a859 97bd
00000080: 15cf bd3d 7d54 66be caf7 c7bd 2126 8fbd
00000090: 871e 1dbb d273 3a3d 8f4f bebd 0e5c a0be
000000a0: 89ee 29be fb99 8bbd 0372 33bc 105e 313e
000000b0: 4e22 bb3c a1cb fbbd d1bf 18be b5f2 333e
000000c0: 4afc b3bd ec95 9dbd c4bf a53d bdf6 c1bd
000000d0: f6d0 74bc 683b 2f3e 97ae a8bd 441d 553e
000000e0: d84a 203d 12a2 e53d 9771 983c 332b 0e3e
000000f0: 031c f23a e22d d23d ad5d cb3d 0d62 473e
00000100: 79e4 04be 1e86 5cbe 67a7 6b3e eb9a f43c
00000110: d79d 9bbd 3294 e5bd bf40 913d b477 033d
00000120: 2a91 b5be b454 b0bd 05cf f73d 54d3 b83d
00000130: dbfd 70be 150b b5bd 4f86 523c 92d0 973e
00000140: 9621 7fbe 6904 bf3d f639 893d 891b ddbc
00000150: a38c 8cbd 1dca 243e 33fc 37be 0e1c 8dbd
00000160: 182f 1abe 9ff8 cb3d 30d1 adbc 7a9e ad3d
00000170: dcab ad3d 3f87 943c ec35 603e 1d31 2e3e
00000180: 755f fb3d e08f 1d3d aa0f 303e 3d45 86bd
00000190: ddf0 85bc a49b 553e 2528 bf3d 7af7 6cbd
000001a0: c03f e5ba 6704 e73d 0449 bc3b 9b92 df3d
000001b0: 9d50 10be 8dec 00be 7df6 003d 5108 30bd
000001c0: 0067 273e adb4 adbd b00d 273c 200f dcbd
000001d0: ee6e db3d 12f5 c43e e4c1 a43c f0ef c4bd
000001e0: 4751 863d 5b79 043d 2555 663e 39cf 3d3d
000001f0: 0068 18be 9b2a 9b3c 46bb 993d 42a5 8f3e
0.038764898 -0.0663216 -0.003068822 0.06562992 -0.10614188 0.118757196 -0.16572046 0.05817008
0.124524936 -0.11260759 0.013567497 -0.031728305 -0.19568919 -0.0026685079 0.084807865 0.17408806
0.00904111 0.07167148 -0.089771874 0.26018727 -0.1407702 0.25210464 0.0028837046 -0.14958827
0.10962602 -0.08870754 -0.21131314 0.17903824 0.04711807 0.006307275 0.036162835 -0.073901474
0.092680134 -0.22493167 -0.09764059 -0.069896944 -0.0023974495 0.04552061 -0.09292518 -0.31320232
-0.165949 -0.06816479 -0.0109524755 0.17321038 0.022843506 -0.122946985 -0.14916922 0.17573054
-0.08788355 -0.07694611 0.08093217 -0.0947089 -0.014942398 0.17112505 -0.08236425 0.20811945
0.039133877 0.11212553 0.018608851 0.13883667 0.0018471483 0.10262658 0.099299766 0.19470997
-0.1297778 -0.21535537 0.23013078 0.029859027 -0.07598465 -0.11209907 0.070924275 0.03209658
-0.35462314 -0.08609906 0.12100033 0.09024683 -0.23534338 -0.08840004 0.0128494045 0.29651314
-0.24915156 0.09327013 0.06700508 -0.026990669 -0.06862762 0.16092725 -0.179673 -0.06890117
-0.15057027 0.0995953 -0.021217912 0.08477493 0.08480045 0.018130897 0.2189557 0.17010923
0.12274066 0.038467288 0.17193475 -0.06556175 -0.016350204 0.20860153 0.09333829 -0.0578532
-0.0017490312 0.112801366 0.005746009 0.10916635 -0.14093252 -0.12590237 0.03148507 -0.04297668
0.16347885 -0.08481727 0.010196134 -0.10745072 0.107145175 0.38468224 0.020111986 -0.09616077
0.06558471 0.032342296 0.22493418 0.0463402 -0.14883423 0.018941214 0.07506423 0.2805577
