fwd_CP_TO_m-fwd_d-1_s-15_seed_4.pt (torch, 12132 bytes, 3 tensors)

weight f4 [128, 5]
00000000: 023d 8bbe 13a2 11be 756a ccbc 355c 933e
00000010: 9eed c63e fe49 0d3b 7fe1 ab3e fcba debd
00000020: 60bf 84bd f629 0fbe d8c1 963d a9d1 203e
00000030: 2ff3 173e 60ab 8f3d 5fc6 efbe 58ad c13b
00000040: e64d 833b aac5 783e e842 e1bd e3dc 9d3e
00000050: 4952 a3be 5465 153e 9b50 163e 2714 58bd
00000060: 3d53 66be f01a 043e be21 b3bd b9ba 063d
00000070: ff64 51bc 1cf3 1fbe f389 1fbe f5ac 033d
00000080: 1cd0 1c3e ffb8 0fbe 0101 3fbd aa7d 4dbd
00000090: 31cd 0d3e b735 99bd bd0e 2a3d ca58 70be
000000a0: 7c75 673d 5692 79bd 34d7 b43c bb98 85be
000000b0: 41b0 24be b520 623c ad6f 26be 1fd2 583d
000000c0: 215a 3abd f515 4ebe ef69 68bd 5654 f53c
000000d0: a553 59bd 8cf0 173d 90b1 94bd e7be 75bc
000000e0: 3a09 26be 986b 8bbe 2df3 3bbe 414b e03e
000000f0: 5ef4 c43c 952f 2e3e c848 61bd 3c06 9bbd
00000100: 2e82 67bc 3d2a fb3d 9ee4 0dbe e1ac b93c
00000110: 71b5 df3c 12b5 6e3e 3cf1 e03d c09e a63d
00000120: e738 583b 45bc 843c d40e 6e3e a32c 203e
00000130: ab63 673e 51ba a9bc 991c 8d3d 14b8 b83c
00000140: 6224 893d 5b54 123e b946 553d c767 efbd
00000150: 7c2d 16bf 0808 313e 9da2 fc3d 9df7 2fbe
00000160: 2825 7abd 07b9 f73d fc0e 0dbe fbf9 debd
00000170: 3339 8b3d 0088 d3bd d64a 06bd ba3a 4d3e
00000180: 8900 b9be bb35 eebd 523e d13d d184 80be
00000190: f9af a0ba 8417 70be 4c5d 45bc 927a 4c3b
000001a0: 59e7 8bbe a364 58be dc46 17be 40c5 2fbe
000001b0: 531e 3d3e 6438 52be 1cf9 b5bd bb99 8e3d
000001c0: 316e d83d 2308 b3bc e1c5 73be 9745 42bd
000001d0: ef96 d13d 4f02 49be 7e2c e63d 83bd 2e3e
000001e0: d651 833d 5eaf f3bc 9c3c b23c de4e 453e
000001f0: 990a 3e3e cc0d 42bd 318f 153e bc40 d4bd
00000200: 8657 c1bd 6b11 193e f998 1c3d 1eed 763d
00000210: 4eb6 333d c13f 243e 1f60 58be 3d9d 063e
00000220: f80d d73d e362 293d 6093 67bd 37c3 dfbd
00000230: 4aab 663e 12f7 043b fc31 28be 0515 403e
00000240: 7880 65bd fa65 f6bc 667e a6bc a32d 463e
00000250: c8d5 8abd 4171 05be d0b5 ad3d 3cdf 88bd
00000260: e427 fe3d e0f9 863e 4095 aa3e 20e3 63be
00000270: 04c8 d53d afe6 7f3e 70de d1bd 43b2 b8be
00000280: 2fbc a13c 8ab4 77bd 31f3 963d f33d 3a3d
00000290: cbc3 ad3e 9f46 61be 0702 8abd a08f 0a3e
000002a0: 1e19 32be e50a 193e 491a b6bd 77c1 1e3e
000002b0: 599e 13bd 1ac9 353e a98e 55be f1c1 613d
000002c0: 856d ee3d 17c2 843c d085 1abe 2233 593e
000002d0: 7b1c cbba e729 f1bc 3398 853b 2749 8c3c
000002e0: a5b7 113e 1cc5 eb3d f2f5 003e 0c70 863b
000002f0: 5d8a 0e3d d8fe 043e 6255 243e f716 943d
00000300: 4030 7cbd b976 7abd 2162 8a3d dec5 473e
00000310: eda3 533e ba4e 56bd 8901 893e 33ef e3be
00000320: 67ca 0c3e fdbf 85be ec09 c9bd 1de2 e9bd
00000330: 00f9 35bc b231 d23d 908b a73d 6cab 8e3d
00000340: 687b e73d d7ad 9fbe 6519 0b3c 3a99 cf3d
00000350: 9322 02bd 9598 bfbd a3ae 8e3d 4dba 8f3e
00000360: 2258 c2bd b683 1b3d 3abd 133e c26c 663e
00000370: 5ba8 a93d c3e4 70bc fca6 99be 352d 8ebd
00000380: ee11 0a3e ef1f 70bd de0c ab3d b404 c23c
00000390: 0563 543e 4585 38be 0931 673d ed85 033d
000003a0: d3cf 2ebe 6cc2 033d 190b d43d 2594 34bd
000003b0: 83e1 19bd 8cf8 1a3e bbc2 f2bc d14a c83e
000003c0: 5815 083e eae4 12be 0bcc 5ebe 56fb 52be
000003d0: 9ca5 4a3e 523b 5f3e 6a64 b6bd a32f 8abd
000003e0: 4ee4 3b3d 8493 b5bd 282d bc3d a2d6 893d
000003f0: 8f63 113d 1133 b13d 538a 5d3e cdd0 aa3c
-0.27194983 -0.14221983 -0.024953106 0.28781286 0.38853163 0.0021558995 0.33570477 -0.10875508
-0.064818144 -0.1398085 0.073611915 0.15704979 0.14838861 0.07015109 -0.46831033 0.0059105568
0.004007089 0.24294153 -0.109990895 0.30832586 -0.31898716 0.14589435 0.14679186 -0.052753594
-0.2249269 0.12900901 -0.0874667 0.032892916 -0.012780427 -0.15620083 -0.15579967 0.032147367
0.15313762 -0.14035414 -0.046631817 -0.05016867 0.13847806 -0.074809484 0.04151796 -0.2347137
0.056508526 -0.060930572 0.022075273 -0.26093087 -0.1608286 0.013801743 -0.16253538 0.052934762
-0.04549611 -0.20125563 -0.05674165 0.029947441 -0.053058285 0.037094638 -0.0726043 -0.014999128
-0.16214457 -0.27230525 -0.18354483 0.43807414 0.024042305 0.17010339 -0.05500105 -0.075695485
-0.014130158 0.12263916 -0.13856742 0.022665443 0.027308198 0.2331126 0.10983512 0.08135748
0.00329929 0.016203055 0.23247844 0.15642028 0.22596614 -0.020718725 0.0689022 0.022548713
0.066963926 0.14289992 0.0520694 -0.11689716 -0.58663154 0.1728822 0.123357035 -0.171843
-0.06107059 0.12095838 -0.13775247 -0.10887524 0.06798019 -0.10328674 -0.032786213 0.20041934
-0.3613322 -0.11631342 0.10216965 -0.2510133 -0.0012259475 -0.2344647 -0.0120461695 0.0031200987
-0.27324942 -0.2113214 -0.14773124 -0.17165089 0.18468599 -0.20529324 -0.088854045 0.069629155
0.10567892 -0.021854466 -0.23805954 -0.047429647 0.102338664 -0.19629787 0.11238955 0.1706448
0.06412093 -0.029746708 0.021757416 0.19268367 0.1855873 -0.04737644 0.14605404 -0.103639096
-0.09440522 0.1494805 0.038231824 0.060284726 0.04387503 0.16039945 -0.21130417 0.13145919
0.10500711 0.04135407 -0.056537032 -0.10925906 0.22526279 0.0020288867 -0.16425318 0.18758018
-0.05603072 -0.030077923 -0.020323943 0.19353347 -0.06779057 -0.13031484 0.084819436 -0.066832036
0.12409952 0.26362514 0.33316994 -0.2225461 0.104385406 0.24990343 -0.10247505 -0.36073503
0.019743053 -0.06047491 0.07370604 0.045469236 0.3393844 -0.21999596 -0.06738668 0.13531351
-0.17392394 0.14945562 -0.08891732 0.15503488 -0.036039684 0.17752495 -0.20855202 0.055116598
0.11641983 0.01620583 -0.15090108 0.21210912 -0.0015496159 -0.029438926 0.0040769815 0.017124726
0.14230211 0.11512205 0.1259382 0.0041027125 0.034799922 0.1298784 0.16048196 0.07230943
-0.061569452 -0.06114838 0.06756998 0.19509074 0.20668001 -0.052321173 0.26758984 -0.44518432
0.13749085 -0.26123038 -0.098163456 -0.11420081 -0.0111067295 0.10263385 0.08180916 0.0696629
0.11302835 -0.31187317 0.008489941 0.101366475 -0.031771254 -0.093552746 0.06966903 0.28071824
-0.09489466 0.037967406 0.14427653 0.22502425 0.082840644 -0.014702979 -0.3001021 -0.06942216
0.13483402 -0.058624204 0.083520636 0.023683883 0.20740898 -0.18019588 0.056443248 0.032110143
-0.17071466 0.032167837 0.10353679 -0.044086594 -0.03756858 0.15133876 -0.02963387 0.3911958
0.13289392 -0.14345136 -0.21757524 -0.2060369 0.19789737 0.21799973 -0.08905871 -0.06747367
0.045872025 -0.08866027 0.091883 0.06730391 0.035495337 0.08652318 0.21634798 0.020851517

bias f4 [128]
00000000: 4aeb cc3d e7b4 b43d 8304 ddbd 6a3f 4d3b
00000010: 152c 76bd ea74 18bd 8a31 f0bb cf72 9abd
00000020: 3fc9 b33c 2def 8cbd 44f9 88bd c19d 61bc
00000030: 1510 553d c977 aa3b 7055 7bbd 98de eb3c
00000040: 690b 4e3d ba16 653c 062c 11bd 411a e4bd
00000050: 8d7d b6bb 69a2 c3bd dd14 de3b 82a1 5b3b
00000060: 49b0 91bb 065e 513c 8665 a93d e3df 35bd
00000070: ed41 d0bc d448 223c 5b3b ecbc f98d 693c
00000080: 677d 0fbd 7248 a2bd 2435 8b3d f338 33bc
00000090: d13e 33bd 5998 85bc 42f4 ec3b 392a a93c
000000a0: 1368 96bc 6ebb a83d d2cb c13b 52a7 8b3c
000000b0: 99fd 313e c755 473d 7d9e 2bbc 3ca6 e9bc
000000c0: 5401 29bd 24e7 c4bc e94b 77bc e2d5 bbbb
000000d0: 5f9c a6bc a16b 423b 6256 bebc 97fd f2bb
000000e0: 7cc3 95bb 1902 93bd 0f3e 1d3d a13a d63b
000000f0: 29b1 533c 463d 1abd d4b9 c23c 9354 153d
00000100: 493e ec3c d977 c43c f9b7 f03b abbd 6c3d
00000110: d253 e93c d436 c23c f7df b6bd 9aa6 6c3d
00000120: f29c 11bd 0ced 0fba 8b57 d5bd 7e03 a2bc
00000130: 2484 69bd 5274 823c 450e ed3c 8c42 2fbd
00000140: 70c2 613a b579 08bd ef2d 27be cf8b 9c3c
00000150: 3b68 83bd 6282 853c 2130 0d3d 847f 3c3c
00000160: cf5d 7f3d 4227 0bbd 142f 5abc 6f5f ddbc
00000170: 0186 36bd 9ab5 ebbc 428d aabc 8956 b0bc
00000180: 8ae2 5dbd ed2f 66ba 1cf7 8e3c 1920 503c
00000190: d9d8 b8bc 3cbc 523c 8e20 71bc 39da 763d
000001a0: 5631 91bc d4b7 043d f4ed 9bbc 4f8e a53c
000001b0: 2e60 12bd e66d a5bd 779d e9bc 2f7f f33b
000001c0: 1117 783b 8d05 0bbd 7c3d 68bd 1d02 03bd
000001d0: 8193 77bd 3647 d43c 0010 7bba 8444 debc
000001e0: 105a 82bc d1d6 5abd 3b2e 55bd c810 fc3b
000001f0: 6687 563d 2bef d43d 1762 a63c 1c0a 063d
0.10005815 0.08823567 -0.10791876 0.0031318315 -0.060100634 -0.037220873 -0.0073301243 -0.07541429
0.021946548 -0.06881557 -0.06688169 -0.013770522 0.05201729 0.005202268 -0.061360776 0.028792664
0.05030385 0.013982469 -0.035442375 -0.1113782 -0.005569166 -0.09552462 0.0067773894 0.0033513014
-0.0044460637 0.012778765 0.08271317 -0.04440297 -0.02542206 0.009905059 -0.028836897 0.01425504
-0.035031702 -0.07923974 0.06797245 -0.010938871 -0.04376108 -0.016307997 0.0072312662 0.020650016
-0.018360173 0.082388744 0.00591419 0.017047558 0.17381896 0.048665788 -0.010474798 -0.02852165
-0.041261032 -0.024035998 -0.015093782 -0.005732284 -0.020338235 0.0029666203 -0.02323455 -0.007415484
-0.0045704227 -0.071781345 0.03838926 0.006537751 0.012920656 -0.03765609 0.02377025 0.03645761
0.028838294 0.023982929 0.00734615 0.05779807 0.028482351 0.023707785 -0.08929437 0.05777607
-0.035550065 -0.000549034 -0.10417088 -0.019777056 -0.057010785 0.015924606 0.028937468 -0.042788073
0.00086120423 -0.033319194 -0.16326116 0.019109635 -0.06416365 0.016297523 0.034469727 0.0115050115
0.062345322 -0.033972986 -0.013316888 -0.027023045 -0.04456139 -0.028773118 -0.02081931 -0.021525638
-0.054171123 -0.0008780945 0.017451815 0.012702965 -0.022564339 0.012862261 -0.014717234 0.060266707
-0.01772372 0.032401875 -0.019034363 0.02020946 -0.035736255 -0.08077602 -0.028517468 0.007430933
0.0037855546 -0.03394084 -0.05669926 -0.031984437 -0.060443405 0.025912862 -0.00095772743 -0.02713228
-0.015912086 -0.05342752 -0.052046042 0.00769243 0.05237522 0.1039718 0.020310445 0.032724485

weight f4 [1, 128]
00000000: f51d 863e 505d eabd b0f7 a3bd 479b 0e3d
00000010: 79cf 13be a409 833d 71e6 3cbe 2123 743c
00000020: 4d42 1a3e 7c13 86bd 25d3 e1b8 d5df 43be
00000030: e0f5 47be d746 093d a137 303d c246 053e
00000040: bb92 2d3e 656c 843d 6d24 6dbd 41ee 463e
00000050: acca 0bbe 5183 1d3e b3c3 84bd 4d97 63be
00000060: 9cde 123e 0574 dbbd 14fe 70be e744 233e
00000070: e86e f3bb 4278 4abd 86e0 993d 1aac 2dbe
00000080: b70f fa3d b8b0 10be 08fb 04be 295c 26bd
00000090: f0db 473d 6c2b f53c c02e 8fbd 1b55 e3be
000000a0: 3e2b 18be 8e7d 59be db09 98bb daca 443e
000000b0: 4820 87be b516 d3bd 149c 48be 6c13 2c3e
000000c0: 86fb f3bd 1098 9dbc da62 d73d 6420 b2bd
000000d0: dd3e 4bbc fec8 a03d f277 38bd 71cf 2e3e
000000e0: ce7a f33a 1246 e73d 9a79 a33d 7b9b 0a3e
000000f0: ed55 5dbd 7396 a13d 71f9 f83d 8020 3abe
00000100: 862e 56be 3fd5 53be 112f 633e 006d 953d
00000110: e90b b5bd ea01 a0bd ab5e 8f3d 1237 503d
00000120: 65fb 9dbe 18dc fbbd 74b9 283e 4737 783d
00000130: 2892 83be ff75 29be ea99 65bd aee8 923e
00000140: 0c9d 76be 8888 2f3d ba97 d63d e3c5 48bd
00000150: 0ac6 1cbd f943 233e aceb 73be e21c b6bc
00000160: 8106 a1bd 284d 013e b1a3 ae3c 0263 a33d
00000170: bb11 803d 9dba 50bc f138 4b3e b31e 233e
00000180: 8bfd b03d 5a58 833c 4b59 513e 819f 95bd
00000190: 729a 103b ae4a 603e 1eb4 e63d b822 5fbe
000001a0: aebf bfbc b934 463e 10b5 f1bb 127e 8b3d
000001b0: a60c d1bd a1c0 e9bd c21b e03c 63f1 1ebd
000001c0: 6dd8 423e a129 9abd 00c9 6cbc 391a b6bd
000001d0: 16f7 1a3e aa10 a83e d5a5 023d 2420 1bbe
000001e0: c86a 883d 5ceb 5c3d bcd7 543e ee21 b63d
000001f0: 638a e0bd add5 793e 5a34 2a3d 413a 4e3e
0.2619473 -0.11443579 -0.08006227 0.034816053 -0.14434613 0.06398323 -0.18447281 0.0149009535
0.15064354 -0.06546685 -0.00010768165 -0.19128354 -0.19527388 0.033514824 0.0430218 0.13015273
0.16950504 0.06465987 -0.057896066 0.19426824 -0.13651532 0.15382124 -0.06482639 -0.22225685
0.14342731 -0.10715488 -0.23534423 0.15944253 -0.0074289925 -0.049431093 0.075135276 -0.16960183
0.122100286 -0.14129913 -0.12986386 -0.040615235 0.048793733 0.029927932 -0.06991339 -0.44400868
-0.14860246 -0.21239302 -0.0046398467 0.19218007 -0.26391816 -0.103070654 -0.19590789 0.16804284
-0.11913209 -0.019237548 0.10516901 -0.08697584 -0.0124051245 0.07850836 -0.045036264 0.1707132
0.0018576027 0.11292662 0.07982178 0.13535874 -0.054037023 0.07890024 0.12156952 -0.1817646
-0.20916185 -0.20686816 0.22185923 0.07296181 -0.08840162 -0.07812865 0.07000478 0.05083377
-0.3085586 -0.12297839 0.16476995 0.06059959 -0.25697446 -0.16548918 -0.056054987 0.28693146
-0.24083346 0.042854816 0.10478158 -0.049016844 -0.038274802 0.15943898 -0.2382037 -0.02223057
-0.07862569 0.12627089 0.021318289 0.079778686 0.06253382 -0.012739805 0.1984594 0.1592968
0.086421095 0.01603334 0.20444219 -0.073058136 0.0022064713 0.21903488 0.112648234 -0.21790588
-0.02340683 0.1935605 -0.0073763207 0.068111554 -0.102074906 -0.11413694 0.027356986 -0.038804423
0.19027872 -0.07527471 -0.014452219 -0.0889172 0.15133318 0.32825214 0.03189643 -0.1514898
0.06660992 0.053935394 0.20785421 0.0889319 -0.10963895 0.24397917 0.041553833 0.2013941
