fwd_CP_TO_m-fwd_d-1.5_s-15_seed_4.pt (torch, 22918 bytes, 3 tensors)

weight f4 [512, 5]
00000000: 2377 533e b8d5 6d3c 4f59 1f3e b80c 44bc
00000010: 2a18 9e3a 67b1 db3d 469e 333b 9779 0f3c
00000020: b45d 23bd d661 283d 07dd 863e 210f 763c
00000030: 528f 2f3e 1459 66bc 3fb7 d3bc a8e3 6ebe
00000040: 9ed5 1fbd 4114 f2bc 0718 8cbd d117 7cbe
00000050: ce7d 0a3e 17cc 5e3c 4b40 4abb d712 5bbd
00000060: ad77 1a3a 613a e5bc 01bc 81bd c210 70bd
00000070: d3ea 023e ff0d 4d3c 6d89 563e 9fac be3d
00000080: df43 f6bd d169 fbbc 60d8 803d 1e1d 973e
00000090: 3230 2e3e c5cc 82bd c831 15be 1eaf 413d
000000a0: 8805 11be 66d0 41bc 54f4 afbd 251b 07bd
000000b0: ef17 673d 71d3 a2bd dedf 61bd 987f bebb
000000c0: d6fc f33d bb6d ccbc 4a90 7a3c 659b 613d
000000d0: 6ecc bd3c 65bb 8bbd 3fc4 523e a200 3abe
000000e0: 64fb f4bc 0611 efbd 3e29 e43c 1f7e f2bd
000000f0: bf35 483e 1afb e63c 3089 29bd 10ef 96bc
00000100: 1810 b63d 2db4 873e 98e7 d63d 5f94 77bd
00000110: a302 e2bd af3f 033d b49e 303e 3aff 203e
00000120: 1e0e f9bd 7e14 6abd 7229 0c3e 9d93 fc3c
00000130: 2477 29bd 57a7 3a3d 6cef 3e3d 61c4 0fbc
00000140: 5909 93be eb25 52bd d702 4cbd 0108 95bd
00000150: 9281 89bc 22a8 713e d692 1c3e 6756 d43d
00000160: ca4c b33d bdf2 75bd e341 a9bd f510 3dbd
00000170: 8134 3d3d af2f 653e 288f 683d f2ce 8b3e
00000180: 3f81 fd3d 92f3 a1bd a122 d2bd 4e4c 513d
00000190: c5d4 0fbe 41fd 23be b565 fa3c 7c3e f33d
000001a0: 92af 9cbd f073 4a3e d09b 323e c871 aebd
000001b0: 646e d5bd d6d3 cb3d 6153 56be 39f2 18be
000001c0: 08db 4e3d a16c ce3d 873b 75bd 8039 2a3e
000001d0: c10a 143e 7983 d6bc 5563 55be e954 6cbd
000001e0: 4517 843d 6803 f7bd 149e b5bc 1dd7 2e3d
000001f0: e2da c73d 5a6c abbd 450e 05be 376b fe3c
00000200: 1283 ec3d 2ba1 66bd f3e4 d1bd 50fc e3bd
00000210: 0bbd 433d 8ee6 b03d 75a3 9bbd d0c3 863d
00000220: 1fb6 0f3c fcaf 803d 5b1f 7e3c 27cd 25bd
00000230: d960 04bb 7f73 d73d 38f0 0a3d 85f5 40bd
00000240: a89c 123d 9937 263e 2216 ff3d 4c87 a7bd
00000250: 37fa 76bd bddb 133e 3f62 a2bd 607f 80bc
00000260: 4f2d a63d 830d 7ebc 27e1 9abd 72d4 00bd
00000270: c89e fc3d cf31 f83c 67cb b1bd ed84 d63b
00000280: 22e7 553e 149a 7b3a 54d4 023d 093f 303d
00000290: 8549 b53d 74d5 5abe 3c47 25bd 2d08 4a3d
000002a0: 61f1 993d b2d9 c63c cf44 0cbe 6a85 3b3d
000002b0: 18cd 0d3d 2be4 8d3c d4c0 b6bb c835 5cba
000002c0: 07f3 17bd 3082 a33d 8bc4 ef3c bf65 8f3d
000002d0: 0b33 8a3d f62a a0bb e3d7 8f3c 7eea e93c
000002e0: 49e3 483e ea09 963e 4747 693d 20e3 163d
000002f0: 4a5a ba3d 724f 52bc 5dac aa3b b21b d63d
00000300: 8c8c b0bd de8c aa3c 9023 d0bd ad65 a23d
00000310: 4ef2 be3d a831 94bc 0cb2 a53a 67b5 dabc
00000320: 2920 f43d 5264 2b3e 2346 31bd 8ca9 16be
00000330: 64bc 7c3d 19f6 92be f933 2fbe 6f53 f03c
00000340: 760f 2c3e 030f 1fbc 9cc5 11be f3ae 923d
00000350: 941c 693d 3060 5bbc 065b e5bd 80e8 77be
00000360: ef6d 88bc 0fa6 a6bc ecb5 a2bd 61fe 0cbe
00000370: e13c e03d 6c92 03bd 5352 d2bc a541 39bd
00000380: 692f 0ebc 1435 cebd 1bc2 a63c e2bb 1dbd
00000390: 0f17 a83d 9e7c e43c 006a 003e 92ba 943b
000003a0: d4cf b33d 2731 d23b 10e6 153e 0720 513e
000003b0: 56e5 993d 732c 0dbe 6929 25be d0af 99bd
000003c0: 3530 933e d8e6 6b3d 5610 f0bd bf41 afbc
000003d0: 7fd7 a93c 1fd3 47bc 2e06 163e e6de d3bc
000003e0: a21e 1d3d ddf8 8cbd 2d87 6f3e bc77 003e
000003f0: 5991 1fbd 6643 2bbe aba2 95bc 4bfe 2ebe
0.20650916 0.014516287 0.15561412 -0.011965923 0.0012061645 0.10727196 0.002740757 0.008757017
-0.039884284 0.04110893 0.26340505 0.015018255 0.17144516 -0.014059324 -0.025844214 -0.23329031
-0.03902208 -0.029550673 -0.0684052 -0.2461846 0.13524553 0.0135984635 -0.0030861076 -0.053484764
0.0005892467 -0.027981939 -0.06334687 -0.05860973 0.12784891 0.012515544 0.20950861 0.093102686
-0.12024664 -0.030690106 0.0629127 0.29514402 0.17010573 -0.06386713 -0.14569771 0.047286145
-0.14162266 -0.011829471 -0.08591524 -0.03298487 0.05641931 -0.079504855 -0.055145137 -0.00581355
0.11913459 -0.024954667 0.01529319 0.055079836 0.023168769 -0.06822852 0.20582674 -0.18164304
-0.029905029 -0.11673169 0.027851697 -0.11840462 0.19551753 0.028195906 -0.041390598 -0.01842454
0.088897884 0.2650465 0.10493392 -0.060444232 -0.11035659 0.032043155 0.1724804 0.15722361
-0.12160896 -0.05714845 0.13687685 0.030832106 -0.041373387 0.045569744 0.04661505 -0.008774848
-0.2871807 -0.051305693 -0.049807396 -0.07276917 -0.016785417 0.23599294 0.15290388 0.103680424
0.08754881 -0.060045946 -0.0826452 -0.04615875 0.04619265 0.22381471 0.05677715 0.27306324
0.12378167 -0.079077855 -0.10260511 0.05109816 -0.14046009 -0.16014577 0.030566076 0.11877152
-0.07650675 0.19770789 0.1744225 -0.08517796 -0.10421446 0.09952514 -0.20930244 -0.1493615
0.050501853 0.10079313 -0.059871223 0.16623497 0.14457227 -0.026185738 -0.20838673 -0.057698164
0.06449751 -0.120611966 -0.022170104 0.042685617 0.097585455 -0.08370276 -0.12993725 0.031056983
0.11548437 -0.056306046 -0.10248747 -0.11132109 0.047787707 0.08637725 -0.07599536 0.06580317
0.008771448 0.06283566 0.015510405 -0.04047885 -0.0020199327 0.10520076 0.033920497 -0.047109146
0.03579393 0.16232146 0.124553934 -0.08180103 -0.060297217 0.14439292 -0.07928895 -0.015685737
0.08114111 -0.015506151 -0.07562476 -0.031452604 0.123349726 0.030297188 -0.08681374 0.0065466077
0.20888951 0.00095978496 0.031940773 0.043028865 0.08851913 -0.21370488 -0.040351138 0.049324203
0.075167425 0.024273727 -0.13698123 0.04578153 0.03461942 0.017320713 -0.005577186 -0.0008400348
-0.037097003 0.07983816 0.029268524 0.070018284 0.06748017 -0.004887934 0.017558997 0.028554197
0.19617952 0.2930444 0.05695274 0.036837697 0.090992525 -0.012836324 0.0052085356 0.10454501
-0.08620557 0.020819124 -0.10163033 0.07929549 0.0932356 -0.018090084 0.0012641563 -0.026697828
0.119201966 0.16737488 -0.04327978 -0.14713115 0.0617031 -0.28703383 -0.1710967 0.02933666
0.16802773 -0.009708169 -0.14235538 0.07162275 0.05691202 -0.013389632 -0.11199002 -0.24209785
-0.016653983 -0.020342855 -0.07944855 -0.13768913 0.10949112 -0.03212206 -0.02567402 -0.04522862
-0.008678296 -0.100687176 0.020356229 -0.038509257 0.08207523 0.027891453 0.12540436 0.0045388425
0.087798744 0.006414551 0.14638543 0.20422374 0.075144455 -0.13786487 -0.16129078 -0.07504237
0.28747717 0.057593197 -0.11721866 -0.021393655 0.02073264 -0.012196331 0.14650795 -0.025863122
0.03835929 -0.068834044 0.23391409 0.12545675 -0.038956974 -0.16724929 -0.018266043 -0.17089193

bias f4 [512]
00000000: 93b6 83bd a347 61bd f056 fbbd 24b5 173d
00000010: 28c1 86bd 4a61 283d fa01 ddbc cd53 13be
00000020: 4cac e23c 753f a33d 5d29 11bd 2c04 1fbd
00000030: 27cb 50bd 6118 15be a184 13bd a768 4e3b
00000040: 78d5 c43d b2d5 47bd d827 ee3d ce66 e6bd
00000050: e990 713d d5be b3bd 8b1d 243d 85a2 c1bd
00000060: 1f6c 873c e44e 403d 257f 3b3d 2f4c 56bc
00000070: 6c6c e4bc 773c 81bd 5455 123b 7ba4 30bd
00000080: 8492 9dbd 9892 d63d 05fe ec3b b84b a93b
00000090: 7db2 803c 66d6 ebbd fb99 c9bc bef4 85bc
000000a0: 44bb 5ebd 4713 dc3d 82d3 acbc 2ed4 b63c
000000b0: ed7c 07bd cbca ae3d 0209 a7bb 1e00 8ebd
000000c0: b8b7 81bd 740e 00bd 4f05 08be 462d 9b3c
000000d0: cbc1 ab3c 7001 4cbc 2097 073e fdd9 a1ba
000000e0: 5116 273d 7034 963b 1168 b83d dd8e 04be
000000f0: f1ec 63bd 5fb2 cc3d cf1d 853d 38b3 8f3b
00000100: 0d04 39bd ec8f 93bd 0139 1c3e 0c05 c1bd
00000110: b985 24bc e364 55bd 10f9 aebc e2fa 3e3c
00000120: d83b aa3d 4523 043d a355 5d3d 5283 9cbd
00000130: 2b1f 3f3c 41b4 cebd 2b20 b6bd 80bf 4dbc
00000140: 36e8 58bd 1f9a 933b 5d58 8ebd 798d b53d
00000150: 9087 9abd bc63 38bd d832 febc f752 e43d
00000160: 2f1a 483d 5877 a8bd 9c78 b53c 35dc 1d3d
00000170: ef33 babd acb1 4e3c 9096 e4bd bea5 273c
00000180: 9fc0 b6bc f4ce 5bbc 36ef 763d 7812 493c
00000190: 0a0a c2ba 1b28 7abd d91f 0fbc ffee 95bd
000001a0: 9e86 0f3d 7ccf 0abe 681e 233d 909f e03c
000001b0: 06b3 b4bb fbf3 ccbc 517a f2bd 6a6e 223d
000001c0: 2063 053e ff66 ff3d ad9a 82bc 0bf2 4c3d
000001d0: a3e1 ff3d f3c5 9dbc 38f5 05be 7afc f6bd
000001e0: 4db9 1a3c 744b 103e 5069 4d3e 9692 82bd
000001f0: ee92 2e3c 5dfd 67bc c6fb abbc 2b73 81bd
00000200: 4f95 67bd 8a17 1c3d 0980 0f3d d0e5 973d
00000210: 569a 66bc 4385 2bbd f02a 833d b8ea 543a
00000220: 7a37 f43a c44e 96bd d654 9bbc 1238 e83d
00000230: 7edb a53c f567 26bd 620b 3fbc 1bd7 cc3d
00000240: 6692 b93c 0883 d1bc a7c9 a4bd 4179 c73c
00000250: 56a9 7c3d 2ea3 95bd bffb eebc c68d 9639
00000260: a9fa 94bc 88e6 993c 09be b6bd d9e4 3e3d
00000270: 3f06 5dbd c184 f43d a574 05be 7e9f 52bd
00000280: 6d2a 99bc 677e bdbc e49c 433d a5d3 5abd
00000290: b870 e13d f250 babc 8fdd 21bd 3e05 8ebd
000002a0: 9ed6 fb3c aa03 d43d 2425 8cbd 9f4f d1bd
000002b0: 2081 4dbd 9261 3c3d 6c59 d43c 9e03 2bbe
000002c0: fc0d 19bc c8ed 30be ca7d 153e b883 a33c
000002d0: e5de 3e3b b886 41bd d376 7a3d 6323 32bd
000002e0: b34f 75bd 3653 a3bc 2a91 41bd c38e 323a
000002f0: 1487 93bd 5843 5dbd 41f1 2ebd 341d 0ebd
00000300: 4d05 47bd e09b 38bd 0b33 423d 7429 f73d
00000310: 35cc 48bd 39d7 ae3c 9bf5 e1bd dff2 86bd
00000320: 83c1 9c3d 857f 9abc cbc9 8d3d 9e71 383d
00000330: 8996 e63d 156f d73c bb03 11bc 24e1 c0bd
00000340: b6fd c0bd 6bc9 bfbc 02ee 52bb aa2f c23d
00000350: 2db0 c5bc 12e0 1e3d c500 113e 6116 243e
00000360: 7064 c13c e9dd bc3b b501 f9bd f5e7 c3bb
00000370: d79f c5bd f07e e6bb 4c70 fb3c 708f 83bc
00000380: cd4b 0a3e 54ff c4bb 4095 b93c 4501 7b3b
00000390: 67c7 90bd cc39 b93c f70f ad3d e8fb bc3c
000003a0: 93db c3bd cb99 053d 85ff 10be 8d73 b9bd
000003b0: b3ea 3c3c 6848 423d 5002 113d 2ef9 c33c
000003c0: ec09 febc d7d1 92bc 6479 043d e723 54bc
000003d0: 04fd fdbc cbc4 b5bc 39ba a0bd e633 b83c
000003e0: 600b ac3d 2f77 333b e070 d0bd 5a94 82bc
000003f0: cf78 2a3d 14b0 223c 68d1 7ebc 1f7f 303c
-0.06431308 -0.05499996 -0.122724414 0.037037984 -0.065798104 0.041108407 -0.026978482 -0.14387436
0.027670048 0.07971088 -0.035439838 -0.038822338 -0.05097499 -0.14560081 -0.036015157 0.0031495483
0.096110284 -0.04878778 0.11628693 -0.11250077 0.058976088 -0.08776633 0.040067237 -0.09454826
0.016531048 0.046950236 0.04577555 -0.013079687 -0.02788373 -0.06310361 0.0022328692 -0.04312561
-0.07693961 0.10477179 0.00723243 0.005166497 0.01571011 -0.11515503 -0.024609556 -0.016352054
-0.05437781 0.10745864 -0.021096949 0.022317972 -0.033078123 0.085347734 -0.0050975094 -0.06933616
-0.0633387 -0.031263784 -0.13283275 0.018942486 0.020966431 -0.012451515 0.13241243 -0.0012348291
0.040792767 0.0045838878 0.09004224 -0.12945123 -0.055645887 0.09994959 0.06499826 0.004385378
-0.04516988 -0.07205185 0.1525612 -0.09424791 -0.010041648 -0.052098166 -0.021358997 0.011656495
0.083121955 0.0322602 0.054036748 -0.07642235 0.011665146 -0.100929745 -0.08892854 -0.012557864
-0.05295583 0.0045044567 -0.06950448 0.088648744 -0.07545388 -0.04501699 -0.031030104 0.11148637
0.048853096 -0.08225888 0.022152238 0.038540084 -0.09091937 0.012615602 -0.1116153 0.010232387
-0.022308646 -0.013416041 0.060286723 0.01227247 -0.0014804017 -0.061073404 -0.00873562 -0.073209755
0.03504049 -0.13555712 0.03982392 0.027419835 -0.0055145053 -0.025018683 -0.11839736 0.03965608
0.13026094 0.12470817 -0.015942896 0.050035518 0.12494209 -0.019259429 -0.13081825 -0.12059875
0.009443593 0.14091283 0.20059705 -0.06375615 0.010655148 -0.014159528 -0.020994078 -0.06320795
-0.056538876 0.038108386 0.035034213 0.0741688 -0.0140748825 -0.041875135 0.06404674 0.0008122134
0.0018632256 -0.07339242 -0.018961351 0.113388196 0.020246264 -0.040626485 -0.011660429 0.100019656
0.022652816 -0.025575176 -0.08046275 0.02434981 0.06168493 -0.07306515 -0.029172776 0.0002871586
-0.01818593 0.018786684 -0.08922965 0.046604965 -0.053961035 0.11939383 -0.13032778 -0.051421635
-0.018696988 -0.023131562 0.047757044 -0.053424496 0.110078275 -0.022743676 -0.039517935 -0.069345936
0.030741986 0.10352261 -0.068430215 -0.10220265 -0.05017197 0.045991488 0.025921546 -0.16700599
-0.009341713 -0.17278206 0.14598766 0.01996027 0.0029124555 -0.04724762 0.061148476 -0.04349078
-0.05989046 -0.019937139 -0.04725758 0.0006811434 -0.072034985 -0.054019302 -0.042710546 -0.03469582
-0.04858904 -0.04507053 0.04741196 0.120684534 -0.049022872 0.02134286 -0.11033174 -0.06589293
0.07654097 -0.018859634 0.069232546 0.04503023 0.11259181 0.026298085 -0.008850987 -0.09417942
-0.094233915 -0.023411473 -0.003218532 0.094817474 -0.024131859 0.03878791 0.1416045 0.16024162
0.023607463 0.0057637584 -0.12158529 -0.005978579 -0.09649628 -0.007034175 0.030693196 -0.016059607
0.13505478 -0.006011883 0.022654176 0.0038300317 -0.07069283 0.022610568 0.08450311 0.023069337
-0.09563365 0.03261737 -0.14159973 -0.09055243 0.011530566 0.047432333 0.035402596 0.02392253
-0.03101059 -0.017922325 0.03234233 -0.012948013 -0.031004436 -0.022188565 -0.07848019 0.022485685
0.08400607 0.0027384271 -0.10177779 -0.01593988 0.04161912 0.009929676 -0.015552856 0.0107724955

weight f4 [1, 512]
00000000: 892b fc3d 8f87 60bb 7f99 2f3e 6f0d be3d
00000010: 909d 87bd b7a8 7bbc ea03 c0bd 3f1d 05be
00000020: 2c67 4e3d b8ff 12be 32b4 abbc 213e 423d
00000030: 6246 9ebd bfb7 43be 97fb dbbd 86d5 1d3c
00000040: d92c fc3d eea7 6b3e 7f90 1cbe 5d3e 55be
00000050: 3cda 49bd b85d a4bd 950a e5bd bbed b3bd
00000060: 9254 503d 32dc f3bc 16b4 14bd 349c 263c
00000070: 5ce2 c43c c5a2 cfbd c120 b3bd ef48 cbbd
00000080: b7ca 103e aede 44be 0437 0abd 787e 753a
00000090: 7825 d53c 5db8 0c3e bea3 b13c e433 57bc
000000a0: 412f d2bd 3e50 2ebe 8664 69bc a004 6a3d
000000b0: a326 54bd dc51 5abd 07b8 d63d 335f ccbd
000000c0: 5932 a2bd aa6b 96bc af33 0bbe bfdf aa3d
000000d0: 3791 de3d 1af2 823c 768d 03be 91ca 22ba
000000e0: 70cf 923d 2445 dd3d 4c13 903d bc96 20be
000000f0: fa47 463e a636 663e 7ff4 1abe f5d2 913d
00000100: 9dd2 bd3d 2df2 f8bc 0e4d a1bd 9f80 3fbe
00000110: 69bf 47bd 5596 4b3d fc04 b23d f11d eb3c
00000120: 4edf 213e a5c0 0a3e 24d3 1a3e fac6 b9bd
00000130: dd21 7fbc 23a0 4ebe 7ed6 d4bd e555 7cbc
00000140: 6842 bbbd c641 143e 4ed6 e53c 8dc4 95bc
00000150: a97d b53d 910a 1a3d a657 3abc 0bc5 c2bd
00000160: 3b9d bf3d d2cb 5bbd 1f3d a4bd 3953 553e
00000170: 923e abbd 5a67 62bc e6ad 38be dcd7 d33d
00000180: fdce 963c f772 543d 7763 d9bd 7299 eb3d
00000190: c4bb 1c3e 4e98 febd a7d2 4dbb 3d00 cabd
000001a0: e1fa c1bd ed96 ccbd f144 223e f230 ebbd
000001b0: 7d27 b6bc 2fd2 863c 91e7 22be d280 18be
000001c0: c7bb dd3d 9f9f 4bbe 5b3b 093e cddf c13d
000001d0: 646b 2fbd c947 b13d e596 213e b128 86bd
000001e0: 7ad4 a5bd 0cb8 b2bc 7fab 20be 79a0 02be
000001f0: 3afd 0e3c ebfd 13bc e5b6 86bd a863 073e
00000200: 538d 813d 9d94 2c3e f616 893d eebc bc3d
00000210: b4f2 c93d 0b1d 863d 1549 353e 5cf4 3dbc
00000220: 5563 b63d fbd6 10bc 56a8 c1bd 44b6 09be
00000230: 744f 6e3c 08b4 2c3e d452 5b3b ca4c e53d
00000240: 2ac0 3f3d e651 91bb eb73 253e de66 71bd
00000250: 9e81 46bd 0f3d eebd 0815 1f3d 554a a33d
00000260: 93a1 303e 217b e9bd 352e d6bd dbe7 a93d
00000270: e96e 09bd 2a54 0bbe 5649 073e 5117 973d
00000280: 7ad8 4c3c 7a11 623d d2e7 883d fb0b 04be
00000290: 4e58 bcbd f146 3f3c 47f8 153d 4ef5 84bd
000002a0: 6ece 143d 4459 cabd 7077 b1bd e6a0 50bd
000002b0: bb22 d3bd 19b3 573e 44bb 82bd 661a 21be
000002c0: 43c3 b23d 18ae 19be d73f 55be 3c95 e43d
000002d0: 413f c23d 4960 393c da0b 39be 54e9 dabd
000002e0: b8e3 35bd 9eff 2abc 53b5 593e 047f 45bc
000002f0: 0951 b6bd ec71 a1bd 02b8 dc3d d27f 02bc
00000300: aedf a4bd cba7 cf3d f23f f93d 8b40 14be
00000310: 2b52 1ebd a53d a33d 1d14 053e c09c b4bd
00000320: 986f 1abe 189e 1f3c 3d75 093e e6ea 03be
00000330: c15c 17be 37a4 8e3d b471 893c dc9b 55be
00000340: 96e1 9bbd 6133 84bd 772f 0abe 0933 b6bd
00000350: 6a57 bc3d 7d8a ff3d de1d d1bd 6020 19be
00000360: 547c dabd ff12 20bc 6209 be3d bca0 98bc
00000370: a6cb 0abe b787 c83d 43a1 31bd 3c4a fe3d
00000380: f3fd 04be f2df 4dbc e15b f13d 7f4f 853d
00000390: 5240 263e 3418 f1b8 73dc acbd cc71 013e
000003a0: 7d76 10be 3050 5c3e 48c5 17be f269 fdbd
000003b0: 1850 83bd 8c8f 2b3e 38e9 b03d 85aa 4ebd
000003c0: f2fc 2b3e b459 103d 5ae8 d9bd 13a1 b63d
000003d0: 11f2 89bd 9e17 edbc 1415 09be 45eb 1f3e
000003e0: cd0b cbbd fe4d 0cbd bba5 d5bd a8ac 2fbc
000003f0: c971 863d 4929 cbbd 94f3 bd3d 2451 f33c
0.12312991 -0.0034260487 0.17148398 0.09279906 -0.066218495 -0.015360049 -0.093757465 -0.12999438
0.05039136 -0.14355361 -0.020959947 0.047422532 -0.07728268 -0.19113062 -0.10741346 0.0096334275
0.123132415 0.23013279 -0.15289496 -0.20824571 -0.04928039 -0.08025688 -0.11183659 -0.08785578
0.050861903 -0.029768083 -0.036304556 0.010169078 0.024033718 -0.10138468 -0.08746482 -0.0992602
0.1413983 -0.1922557 -0.033743873 0.00093648536 0.026018843 0.13742204 0.021684524 -0.01313493
-0.10262919 -0.17022797 -0.014245158 0.057133317 -0.05179466 -0.053300723 0.10484319 -0.09979095
-0.07919759 -0.018361885 -0.13593934 0.083434574 0.10867541 0.015984584 -0.12846932 -0.00062099943
0.07168472 0.10804203 0.070349306 -0.156825 0.19363394 0.22481784 -0.1513233 0.07120315
0.09268687 -0.030388916 -0.07876025 -0.18701409 -0.048766527 0.049703915 0.08692357 0.0287008
0.1580784 0.1355005 0.15119606 -0.09071155 -0.0155720385 -0.20178275 -0.10392474 -0.015401338
-0.09143525 0.14478216 0.02805629 -0.0182822 0.088618584 0.037607733 -0.011373436 -0.09510239
0.09356161 -0.053661175 -0.080194704 0.20832528 -0.08361544 -0.013818586 -0.18035087 0.10343906
0.018409247 0.05186745 -0.106146745 0.11503877 0.15306002 -0.124313936 -0.0031406076 -0.09863327
-0.094716795 -0.09989724 0.15846612 -0.11483945 -0.022235626 0.016457645 -0.15908648 -0.14892891
0.10826831 -0.1988511 0.13401549 0.09466515 -0.042827025 0.0865627 0.15780218 -0.0655073
-0.08097167 -0.021816276 -0.1569042 -0.12756528 0.008727366 -0.009032707 -0.06577853 0.1322161
0.063257836 0.16853566 0.066938326 0.09215723 0.09860745 0.06548508 0.1770366 -0.011593904
0.08905665 -0.008840318 -0.09455936 -0.13448435 0.01454531 0.16865551 0.0033466117 0.11196287
0.04681412 -0.004434812 0.161575 -0.058935992 -0.048463456 -0.1163274 0.038838416 0.07973162
0.17249136 -0.11400438 -0.10458032 0.08296176 -0.033553038 -0.13606325 0.13211569 0.07377494
0.012502784 0.05519245 0.06684841 -0.12895195 -0.0919653 0.011674629 0.03661373 -0.06492101
0.03632968 -0.09880307 -0.08665359 -0.050934695 -0.10309359 0.21064414 -0.06383374 -0.15732726
0.087286495 -0.15007818 -0.20825134 0.11161277 0.09484721 0.01131446 -0.18070927 -0.10689035
-0.044406623 -0.01043692 0.21260576 -0.012054209 -0.08902175 -0.07883057 0.10777284 -0.007965045
-0.08050476 0.10139426 0.121704 -0.14477746 -0.03865258 0.07970742 0.12995954 -0.0881896
-0.15081632 0.009742282 0.13423629 -0.12882575 -0.14781477 0.06964915 0.01677785 -0.20860237
-0.076113865 -0.06455112 -0.13494669 -0.08896453 0.091963604 0.124775864 -0.10210775 -0.14953756
-0.10668245 -0.009770154 0.092791334 -0.018631332 -0.13554248 0.097915106 -0.04336668 0.12416503
-0.12987499 -0.0125656 0.11785103 0.06509303 0.16235474 -0.00011496284 -0.08440485 0.12641066
-0.141077 0.21514964 -0.1482135 -0.12373723 -0.06411761 0.16753978 0.08638233 -0.05045559
0.1679571 0.035241798 -0.10640021 0.08917441 -0.06735624 -0.028941926 -0.13386947 0.15617092
-0.0991436 -0.034254067 -0.10432001 -0.010722317 0.065646715 -0.09919984 0.092749745 0.029701777
