LYAP_CP_m-fwd_d-20_s-0.005_seed4.pt (torch, 421641 bytes, 7 tensors)

W.0 f4 [200, 5]
000000 5d ae af 3e 38 69 6b be ac c5 a1 be 26 0a cb be
       0.34312716 -0.22989357 -0.31596124 -0.3965618
000010 bd 6f 61 bf 90 e8 10 bf b6 d2 40 3f 95 81 1a 3e
       -0.88061124 -0.5660486 0.7532152 0.15088494
000020 1c f3 a5 3e 10 e8 c6 bd b7 af bc be b3 85 0d bf
       0.3241204 -0.09712231 -0.3685281 -0.55282134
000030 dc 85 93 3e da d2 28 be 1d 97 b3 be 99 ef 20 3f
       0.28813064 -0.16486683 -0.35076228 0.62865597
000040 fe f2 84 3d e1 93 a8 be 5e 08 5d bd 36 7d 71 bf
       0.064916596 -0.32925323 -0.053963058 -0.9433168
000050 0c 21 5e be dc c4 12 bf ed 5f 30 3e b6 74 07 be
       -0.21692294 -0.57331634 0.17224093 -0.13228115
000060 d3 73 f0 bd 75 6f b5 bd 33 c9 fb 3e 1a e3 3a 3e
       -0.11740842 -0.08859149 0.4917694 0.18250695
000070 9b 1a 14 3f 87 9e 1b bf 85 4d 91 3d a2 63 17 3f
       0.57853097 -0.6078877 0.07094864 0.591364
000080 b4 a6 85 bd 87 d4 e5 3e 91 35 c1 bd 86 1c c4 be
       -0.06525937 0.44888708 -0.09434045 -0.38303012
000090 02 40 4e 3d ad d0 ec 3e 52 12 c0 3e b4 e8 cf be
       0.05035401 0.46252957 0.37513977 -0.40607226
0000a0 37 16 9a bc 0a f3 de 3d 6f 50 00 3e 39 96 2c bd
       -0.018809421 0.108862 0.12530683 -0.04213545
0000b0 72 2d 1e bf bb a0 e9 3e 60 8d 85 3d b7 6e 98 be
       -0.61788094 0.4563044 0.06521106 -0.2977197
0000c0 31 c8 10 bd 46 1e b7 bd 67 7d dc be d2 50 85 3d
       -0.035347167 -0.08941321 -0.43064424 0.06509556
0000d0 54 a2 59 3c 03 4d 37 be bc 1c 3f bf fd 2e a4 be
       0.013283331 -0.17900471 -0.7465322 -0.320671
0000e0 c8 32 8c 3d 09 ab 35 3e f6 e1 7f 3e 92 f1 83 be
       0.06845623 0.17741026 0.24988541 -0.2577024
0000f0 1f da fe bb 40 35 05 3f 05 de 38 be 5a f0 d6 3e
       -0.007777467 0.5203438 -0.18053444 0.4198025
000100 12 28 ca be a3 40 99 3e 99 6f ee 3e 2f ea 38 be
       -0.39483696 0.29932126 0.46569517 -0.18058084
000110 e0 66 0e 3e e9 c6 f8 be 07 36 80 3e 15 ac 3f bf
       0.13906431 -0.48589256 0.2504122 -0.7487195
000120 1f 6b 11 bd 96 2d d3 be e5 c1 2b bf ef 1f 12 3e
       -0.03550255 -0.41245717 -0.67092735 0.14269994
000130 14 af 49 3d 99 9f 3a bd 62 f4 a4 3d a7 26 4a bf
       0.049239233 -0.04556236 0.08054425 -0.7896523
000140 bb 60 d3 3b 38 de 46 3e 82 8f 4c bd 26 64 ed bd
       0.00645074 0.19420707 -0.049941547 -0.115913674
000150 0b e0 d7 be 1b 47 f7 bd 91 82 85 3d 6d 59 4d bd
       -0.4216312 -0.12074109 0.06519044 -0.05013411
000160 41 7f 99 bd ea 71 3d bf aa 0e 77 be d6 ca 00 3f
       -0.07494975 -0.74001944 -0.24126688 0.50309503
000170 ac a2 1e 3e 39 d8 fe 3e b2 8c 03 be 8f d1 7f be
       0.15491742 0.4977434 -0.1284664 -0.24982284
000180 59 4a 6e be 83 f5 d5 3e 48 96 6c 3e 54 c4 46 bf
       -0.23270549 0.41788873 0.23104203 -0.7764332
000190 41 3e c9 be 54 5a 52 3e b5 7e f7 3d 81 a5 38 3e
       -0.39305308 0.2054227 0.12084714 0.18031885
0001a0 c0 e3 3d bf e3 eb 85 3e ef 15 5d bf 7d 6c d6 3c
       -0.74175644 0.2615653 -0.86361593 0.026174778
0001b0 3a 77 89 be 7f 95 1e bf 92 c1 b6 3e 8f 1e 5e 3e
       -0.26848775 -0.6194686 0.35694557 0.21691345
0001c0 25 c6 3b be 38 6c c8 bd 5b 12 fa be 90 b2 23 3e
       -0.18337305 -0.09786266 -0.4884213 0.15986085
0001d0 e5 a7 89 3e 19 31 2c 3d 6f 70 6f 3e 49 d8 a5 be
       0.26885906 0.04203901 0.23382734 -0.32391575
0001e0 7e a6 83 be 2b ad 1c bf 68 7d 5f 3e 2c 76 b0 bd
       -0.2571296 -0.61201733 0.21825182 -0.086162895
0001f0 58 7c 89 be ce 8e 82 be 49 06 9a be 8b 4b b6 3d
       -0.2685268 -0.25499576 -0.3008292 0.089011274
000200 6c a8 64 bd 87 ab 74 be 74 bc 9f 3d 35 07 9d 3e
       -0.055824682 -0.23893557 0.077996165 0.3066956
000210 2e 60 35 be 20 cc eb 3d 16 d6 9d be ba b6 b8 3b
       -0.17712471 0.11513543 -0.30827397 0.005637017
000220 39 88 23 3f 3b d9 15 bd fc 5b fa 3e 2d c7 22 bf
       0.63879734 -0.03658412 0.48898304 -0.6358517
000230 0b fe 86 3e ee 6e cd 3e 2c d4 29 be 3a 13 34 3e
       0.26365694 0.40123695 -0.16584843 0.1758546
000240 80 a9 87 be c4 6a 09 3c 31 4a 85 3e b2 c0 c9 3d
       -0.26496506 0.008387271 0.26033166 0.09851207
000250 b2 d7 63 3e 26 e3 d0 be 31 84 23 3e e3 89 e5 3e
       0.2225025 -0.407983 0.15968396 0.44831762
000260 5d ba 31 be 19 b5 07 3e e9 d0 29 bf a4 ce ab be
       -0.17356248 0.13252677 -0.66334397 -0.33556092
000270 8b cc 39 bf d5 53 cf 3e 19 c3 0d be 00 93 ec be
       -0.7257773 0.40493646 -0.13843955 -0.46205902
000280 60 37 74 3e 32 18 2c 3c 52 93 f5 bd f5 f3 e6 bd
       0.23849249 0.0105038155 -0.1199099 -0.11277
000290 6a 53 4f bf e8 92 bb be 4b 06 2c 3c ea e4 09 3e
       -0.80986655 -0.36635518 0.010499547 0.1346623
0002a0 5e 8e ae 3d 95 33 4c bf 54 05 5b 3e 14 84 f4 3c
       0.08523248 -0.7976621 0.21388751 0.029848136
0002b0 57 90 97 3d 6d c4 fa 3d 61 fe 26 bf b4 72 a6 3d
       0.074005775 0.122444965 -0.652319 0.08127347
0002c0 d5 b1 06 be 03 bc 30 be 76 fc 32 be 35 71 79 bd
       -0.13153775 -0.17259221 -0.17479119 -0.06089898
0002d0 4b b9 e3 3e f4 6a b8 be 27 a9 77 be 49 de cb be
       0.44477305 -0.360191 -0.2418562 -0.39818028
0002e0 7a b5 22 bf 86 94 1f 3d 9b d1 c9 3e 47 d8 73 3d
       -0.6355816 0.038960002 0.3941773 0.05953243
0002f0 18 0a a1 3e fe 99 56 bf e5 6a a2 be fc 62 ca bc
       0.31453013 -0.83828723 -0.3172218 -0.024705403
000300 44 64 31 3e 19 98 12 be f5 7d 9f be 62 01 88 3d
       0.17323405 -0.14315833 -0.31150785 0.06640889
000310 5f be 47 3e 76 42 8d 3e 39 a8 c1 3e 07 b8 69 bf
       0.19506215 0.27589768 0.37823656 -0.9129643
000320 d9 c4 90 3e 10 af 64 be fe ff 85 3e d8 c0 a0 3d
       0.28275183 -0.22332406 0.2617187 0.07849282
000330 10 e2 42 bf 33 ae cd 3c 50 fa 78 be 70 45 39 3e
       -0.76126194 0.025107479 -0.24314237 0.18092895
000340 0a 21 11 3d 65 33 91 be 04 e6 4b 3e 8b a7 49 3e
       0.0354319 -0.28359523 0.19911963 0.19692819
000350 c1 cf 59 3d 13 7c b3 3e ae d7 ab be 3d be 99 3d
       0.053176645 0.350556 -0.33562988 0.07506988
000360 9c fd 1f 3f c1 3a 3d be 18 22 fa 3d 2f 9f ce bd
       0.6249635 -0.18479444 0.12213534 -0.100889556
000370 11 00 07 3f bf f5 5c bf 72 9d 25 be bf fe af be
       0.52734476 -0.8631248 -0.16173342 -0.34374043
000380 19 c6 cd be b9 36 09 3e dd 49 07 3f 8a e5 82 be
       -0.401902 0.13399781 0.5284708 -0.2556575
000390 9c 63 9c 3d 1e cd 61 be ae 82 05 be d5 eb ec 3d
       0.076361865 -0.22050902 -0.13038132 0.11568419
0003a0 04 a0 95 3e 20 c3 b0 3e 42 d5 d2 be 45 66 82 3e
       0.29223645 0.3452387 -0.41178328 0.2546865
0003b0 37 57 b6 be e6 8d 5f be ed 6d a6 be 8e 9b 9a bc
       -0.35613415 -0.21831474 -0.32505742 -0.018873002
0003c0 6c 58 34 bd df 75 fa 3e 60 f6 f4 ba 24 96 a7 3e
       -0.04402964 0.48918054 -0.0018689148 0.32731736
0003d0 e2 c7 aa be 3e a1 0b 3e 9b 68 10 bf fd 23 ed bc
       -0.33355623 0.13635728 -0.56409615 -0.028947825
0003e0 55 20 f6 be 12 c9 99 be 62 1f 37 3e b9 8d 57 3e
       -0.48071542 -0.30036217 0.17883065 0.21050157
0003f0 c2 35 4a be 19 a6 0a be d0 7b 5c bf db 02 24 be
       -0.1974707 -0.13539924 -0.8612642 -0.16016714

W.1 f4 [500, 5]
000000 1e d9 7d be 3f 18 aa 3e a0 24 a1 3e 6d d0 09 3f
       -0.24789855 0.33221623 0.31473255 0.5383366
000010 24 25 93 be 91 64 57 be 66 66 5f be 1f 66 32 bc
       -0.28739274 -0.21034457 -0.21816406 -0.010888605
000020 4f a7 ba be d7 fc 0c bf 17 41 3f be 65 f2 b6 be
       -0.3645577 -0.55073303 -0.18677174 -0.35731807
000030 ab fe cc 3c 0f f7 8d be 12 2f 39 be 12 72 82 3e
       0.025023779 -0.27727553 -0.18084362 0.25477654
000040 97 fa b1 3e 72 af 1b be e1 5c 38 3d 06 48 0e bf
       0.34761497 -0.15203646 0.04501045 -0.5557865
000050 59 e8 8f bd 43 cc 3a bf a4 7d 0c 3e 0a a0 ff be
       -0.07026739 -0.7296793 0.13719803 -0.49926788
000060 74 65 f9 bc e3 7e 22 3e 2f c0 e0 be f0 32 61 be
       -0.030443884 0.15868716 -0.43896624 -0.21992087
000070 7e 78 08 bf b1 86 88 be 7c 5c d2 3d 57 c3 53 3e
       -0.53308856 -0.2666526 0.10271546 0.20679985
000080 11 35 d7 bd c5 1b c0 3d a3 96 62 bf 14 d7 0f 3e
       -0.105081685 0.093802966 -0.88511103 0.1404689
000090 f9 a2 cd be b2 68 5c be 49 d8 14 bf 93 63 77 be
       -0.401634 -0.21524313 -0.58142525 -0.24159078
0000a0 98 f8 bc be 38 c5 23 bd fa bb 13 3d 99 e7 11 3d
       -0.36908412 -0.039983004 0.03606794 0.03562126
0000b0 2d 63 ce bd 1c 8f 9e be 6f 54 10 3f 64 94 cd 3d
       -0.1007751 -0.3096856 0.56378835 0.10038069
0000c0 da 63 c3 3e 5c c3 3e bf cc 25 a6 be f1 b2 e5 be
       0.38162118 -0.74516845 -0.32450712 -0.44863084
0000d0 e5 40 46 3e cf cd 58 be 9c 65 1c bf 82 29 80 3e
       0.19360693 -0.2117226 -0.61092544 0.25031668
0000e0 37 ff 9a 3b 12 83 c9 bd da 0c 57 be d5 44 c1 be
       0.004730131 -0.09839453 -0.21000996 -0.37747827
0000f0 06 ed 96 be 5b 66 59 be 6c 0f 88 bd 61 21 ae be
       -0.2947771 -0.21230452 -0.066435665 -0.3400984
000100 0a a9 40 be 82 93 90 bd 2b dc 1d bf 7d 25 3f 3e
       -0.18814483 -0.07059385 -0.61664075 0.18666644
000110 ab 75 d2 be 55 5e 12 bd ff 0e 83 3e b6 d9 1e 3f
       -0.411054 -0.035734493 0.2559738 0.6205095
000120 ea 16 83 be ef ef 11 3e 0b bb 32 bf 16 b5 b1 3e
       -0.2560342 0.14251684 -0.69816655 0.3470847
000130 86 d1 13 bf 0b d5 56 be 9d 49 12 bf 9a fc bc be
       -0.5774158 -0.20979707 -0.57143575 -0.3691147
000140 bb 73 24 3e 02 b7 6a 3f 58 73 ae be d6 24 d3 3d
       0.16059773 0.916855 -0.34072375 0.1030976
000150 8b 0e 7e bf e1 5e 25 bc b3 9f eb 3d f0 e0 ab be
       -0.9924094 -0.010093422 0.115050696 -0.3357005
000160 fc 1e af bd 15 ac 25 bf dc 94 52 be a1 ef 84 3e
       -0.08550832 -0.647157 -0.20564598 0.25964072
000170 5a 36 48 3e 49 3b 68 3e db 9c 3d bf 7c ba a2 3b
       0.19551983 0.22678865 -0.7406747 0.0049660783
000180 bf 25 33 3f f2 a4 1f be 3d 39 bf 3e 72 16 c9 be
       0.6997947 -0.15590265 0.37348357 -0.39274937
000190 c2 05 f7 3c 0b bc 29 3f 52 0e 6d 3c 09 4c 15 3f
       0.030154113 0.66302556 0.014468746 0.58319145
0001a0 3a a4 fc be 11 b1 18 3d 80 db ae be 66 0a 89 bd
       -0.49344045 0.03727824 -0.3415184 -0.066914365
0001b0 1e 89 9b be 35 69 4a bf ed 26 13 be e0 bf 9c bc
       -0.3037805 -0.79066783 -0.14370318 -0.019134462
0001c0 88 ba f1 3e 11 7e 8c 3e 29 67 1a bf b2 8f 02 be
       0.47212625 0.2743993 -0.6031366 -0.12750128
0001d0 34 37 6f be 47 bc 3d 3e ab b6 4e bd 8d 3c c1 be
       -0.23360902 0.18528853 -0.050467175 -0.3774151
0001e0 9f 2c 70 bd 2f d8 83 bd 46 d1 d4 be 7a 2c d5 be
       -0.058636304 -0.06437718 -0.41565913 -0.41635495
0001f0 78 9c 48 bf 97 fa 9e 3e 97 3d 93 3e fc b0 fd bd
       -0.7836375 0.3105056 0.28757927 -0.12387273
000200 c8 cd ca 3d de db bb be 49 c2 2f be 6f 3d 14 bf
       0.09902531 -0.36691183 -0.17163958 -0.5790624
000210 d8 0f 08 3e f3 74 11 bf 66 9f ed be 1d b4 b0 3e
       0.13287294 -0.56819075 -0.46410674 0.34512416
000220 24 e7 64 bd aa 3a 24 3e ad 97 0f 3e 8c 50 b1 be
       -0.055884495 0.16038004 0.14022703 -0.34631765
000230 05 c2 35 3d 97 f9 08 bf fd 35 16 3d f3 99 f7 be
       0.044374485 -0.53505844 0.03667258 -0.4835964
000240 8d c9 38 bf d5 7e f3 3c 32 ee 0a 3e 0a 48 87 bd
       -0.7218254 0.029723564 0.13567427 -0.06605537
000250 66 d9 8f 3d 92 9d 6b bf 49 19 2c be c6 1a a8 be
       0.07023887 -0.9203731 -0.1680652 -0.32832927
000260 92 fb 2a be 57 0b 07 bf ba 58 ce bd 3f 57 69 3e
       -0.16697529 -0.5275168 -0.10075517 0.22787188
000270 82 58 13 3d 89 0f 95 be 22 64 31 be 90 90 17 bf
       0.03597308 -0.29113415 -0.17323354 -0.5920496
000280 dc 62 df 3e 29 c1 e9 3d 3f 01 85 be 59 3c 32 3c
       0.4363011 0.114137955 -0.25977513 0.010878646
000290 3d f1 1a bf 3d ca a4 3d 26 8b 53 be dc 06 4d bd
       -0.6052435 0.080463864 -0.2065855 -0.05005537
0002a0 65 ec 25 be 7a 1e d9 be 60 c8 2c 3e d3 dd fa be
       -0.16203459 -0.42406064 0.16873312 -0.48997363
0002b0 e8 59 dd bd 5b 20 07 bf 43 d9 3e be 7a 17 1b 3b
       -0.10808164 -0.52783746 -0.18637566 0.0023665116
0002c0 5f 2e e1 bd 94 fe e4 3e b9 c7 8b 3e fa 72 b1 be
       -0.10995173 0.44725478 0.27300814 -0.34658033
0002d0 13 b9 5c be 10 f2 1f bf ee 19 02 3e e6 13 d7 be
       -0.21554975 -0.62478733 0.12705204 -0.4200737
0002e0 ad 22 04 be 9e 2f bb be 92 00 f1 3b 5d 7e 81 be
       -0.12903853 -0.36559767 0.0073548043 -0.2529172
0002f0 71 c5 66 be 86 a0 31 be e8 b3 de ba 5b c0 22 3f
       -0.22536255 -0.17346391 -0.0016990872 0.6357476
000300 c7 d8 9c bd c2 e0 94 3e 76 b5 3b bf de 21 ca bd
       -0.076585345 0.29077727 -0.7332376 -0.09869741
000310 21 0a 15 bf f4 ed 1a 3d 91 30 8b be 80 6e ea be
       -0.5821858 0.037824586 -0.2718549 -0.4578743
000320 b0 99 ef be b2 51 0f 3e d0 bb f2 3e 7b 68 e7 3e
       -0.46796942 0.13996008 0.47408915 0.451969
000330 18 16 dd be 66 f2 84 be 2f 8b 18 3e 26 3e ae 3b
       -0.4318092 -0.25966185 0.14896844 0.0053174673
000340 4f 5a 02 3d a0 12 ed be 62 6d 9a bc c9 7e dc be
       0.031824406 -0.46303272 -0.018850986 -0.4306548
000350 65 67 1c 3e c3 e3 d7 be 6a b6 88 be 7a bc 91 bc
       0.15273817 -0.42165956 -0.2670167 -0.017790068
000360 5a 48 18 3f 5d 2b 0c bd 97 8d cf 3e 78 6e f0 be
       0.594854 -0.034221042 0.40537712 -0.4695928
000370 c0 ea b1 3c a5 fc 33 bd 14 58 0f be 5c b2 6a be
       0.021718383 -0.043942112 -0.13998443 -0.22919601
000380 ec cf 39 bf 0b 5a 3c 3e d2 98 79 be a0 7e 72 be
       -0.7258289 0.18393724 -0.24374703 -0.23681116
000390 5b c4 e3 be 10 ed 19 bf 2a c4 64 be 60 09 4d bf
       -0.44485745 -0.60127354 -0.22340456 -0.8009243
0003a0 a4 c1 96 3e b5 be 95 be 4a 90 0e bf 44 69 74 be
       0.2944461 -0.2924706 -0.5568892 -0.2386828
0003b0 b2 d1 a9 3d 57 26 64 3d 89 f7 a6 3d 3e ed 10 bf
       0.08291949 0.055700626 0.08152682 -0.56612
0003c0 3a 26 42 bd 7a ff ce 3e d9 a7 c0 3d 25 64 b5 3e
       -0.047399737 0.40429288 0.094070144 0.35427967
0003d0 5f 7d f1 be 56 3c c4 3d 30 f9 3f 3e 05 07 c9 be
       -0.47165963 0.09581821 0.18747401 -0.39263168
0003e0 fd 9b e8 bd c8 31 8f be 36 01 c3 be cf b9 50 3e
       -0.113578774 -0.27967668 -0.3808686 0.2038338
0003f0 7e 8e 00 3f 8f 68 0b 3f be 26 78 bf 82 10 da 3c
       0.50217426 0.5445642 -0.96934116 0.0266192

W.2 f4 [1, 5]
000000 b5 9e 62 bd 18 c0 f9 be d9 19 a4 bd 33 ff be bc
       -0.055327136 -0.48779368 -0.080127425 -0.023315048
000010 b9 fa 21 be
       -0.158183

U.0 f4 [500, 200]
000000 40 91 5a be 30 42 9a 3e 4a 65 39 be 21 df 44 3e
       -0.21344471 0.30128622 -0.18105045 0.19225742
000010 0d 82 90 be ce c5 6f 3e 9d be 57 3e 55 e8 24 3e
       -0.2822422 0.234153 0.21068807 0.16104253
000020 b7 09 e2 bd 9c 23 24 3e 3a c8 50 be 09 db 8d 3e
       -0.11037009 0.16029209 -0.2038888 0.27706173
000030 2a 6c 1e 3e 96 82 59 3e df e6 38 be 8a af 9c 3e
       0.15470949 0.21241221 -0.1805682 0.30602676
000040 bd 3c 04 be 13 b7 1e be 9b 5f 96 3e 74 10 52 be
       -0.12913795 -0.15499525 0.29369816 -0.20514089
000050 f9 b3 9c 3e ec 5d 91 be f3 18 00 3d d2 c4 06 3e
       0.30606058 -0.2839197 0.031273793 0.13161018
000060 f9 bd 5c be 03 d3 d3 bd f7 d6 a4 3e 7f 3a 92 3e
       -0.21556844 -0.10342982 0.32195255 0.28560254
000070 5c 86 15 3e b6 7f 35 3e 23 57 4c 3e 13 2f 22 be
       0.14602035 0.17724499 0.19955115 -0.1583827
000080 6a 7e 5d be db 1d 1d 3e 60 7a 7a 3e 3e d7 4e be
       -0.21630254 0.1534342 0.24460745 -0.20199296
000090 e4 bc 72 be 1c 25 38 3e c2 26 fa bd 7b da 71 3e
       -0.23704869 0.17982906 -0.12214424 0.236185
0000a0 50 f9 76 be 16 e6 5f be a8 4b 0a 3e 94 cc 55 3e
       -0.24118543 -0.21865115 0.13505423 0.20878822
0000b0 79 ef 59 be 81 7d 85 3e f8 d6 03 3e f1 aa 3d be
       -0.21282758 0.26072314 0.12874973 -0.1852224
0000c0 70 77 9b 3e f0 8f 8d be 09 9a 88 3d 33 86 38 3e
       0.3036456 -0.27648878 0.06670005 0.18019943
0000d0 06 89 6f 3e b3 c8 5a be 0b 78 67 3e 46 08 49 3e
       0.23392114 -0.21365623 0.22604387 0.19632062
0000e0 55 fe 8c 3e 2f 2c 17 be da 30 80 3e ec de 67 bc
       0.2753779 -0.14762948 0.2503727 -0.01415227
0000f0 9e 85 46 3e 35 12 18 3e ee d3 79 be 24 02 69 be
       0.19386908 0.14850695 -0.24397251 -0.22754723
000100 d2 e9 21 be 97 0c 59 3e f8 1d 38 3e 5f 20 23 be
       -0.15811852 0.21196209 0.17980182 -0.15930317
000110 a0 6e 3f be 9b 2d 1e be 54 57 45 be 4e 6b 47 3e
       -0.18694544 -0.15447085 -0.19271594 0.19474527
000120 fb e2 86 be 30 96 35 be 50 3e 7a 3e 54 3a fd bd
       -0.26345047 -0.17733073 0.24437833 -0.12364641
000130 fa 63 47 be 6b 67 45 be 91 74 08 3e 8f e6 72 be
       -0.19471732 -0.19277732 0.13325717 -0.23720764
000140 44 8c 6d be 9b 1d 73 3e da 9f 22 be 88 77 26 be
       -0.23198038 0.23741762 -0.15881291 -0.16256535
000150 f3 cd 73 3e 2a c6 8b be c7 8f 54 be a4 7f 43 be
       0.23809032 -0.27299625 -0.20757972 -0.1909166
000160 e6 af 7b 3e 16 1c 70 be 2d 8c 1a 3e b6 73 3a be
       0.24578819 -0.23448214 0.15092535 -0.18208203
000170 5d 62 50 3e 91 17 54 be 22 a5 57 be c5 b5 96 3e
       0.20350023 -0.20712115 -0.21059087 0.29435554
000180 5d 69 7c be 4f 7a 40 be cb 31 35 3e 44 2f 16 be
       -0.24649568 -0.18796657 0.17694776 -0.14666468
000190 3f 0e 8a 3e 05 44 f0 3d d9 49 6c be bf f0 25 be
       0.26963994 0.11731724 -0.23075046 -0.16205119
0001a0 34 42 3a be ce d8 bb 3c 36 06 a5 3c b7 55 86 3e
       -0.18189317 0.022930529 0.020144563 0.2623727
0001b0 16 37 3f 3e 53 53 2f be 49 f4 6f be 20 87 7f be
       0.18673357 -0.1712163 -0.23433031 -0.2495389
0001c0 59 d5 20 be 3f 1c 3c 3e da e7 58 3e d3 51 1e be
       -0.15706386 0.1837015 0.21182194 -0.15460901
0001d0 ff 03 74 be 12 1d 19 3e aa a2 94 3e 18 3c 2a 3e
       -0.2382965 0.14952496 0.29030353 0.16624486
0001e0 a6 86 40 bb f0 84 13 be 4c ec 71 3e 25 6c 65 3e
       -0.0029377132 -0.1440618 0.23625296 0.22404535
0001f0 16 5e 42 3e 2f 87 2f 3e 08 5f 32 be a4 77 23 be
       0.18981203 0.17141412 -0.17419064 -0.15963608
000200 8a d7 42 be ed 01 2f be cc f0 6f be b2 18 65 3e
       -0.19027534 -0.17090578 -0.234317 0.22372702
000210 9f 1d b5 3a 4a a4 b0 bd c2 2f 92 3e 31 ea 64 3e
       0.0013818032 -0.08625086 0.2855206 0.22354962
000220 8f 2d 11 be 79 58 c1 bc 45 59 3f be 2a 0d 5d 3e
       -0.14177535 -0.023601757 -0.18686397 0.21587053
000230 d7 70 17 be 0d ee 7c 3e d7 ae 17 be 43 7a 03 be
       -0.14789139 0.24700184 -0.1481279 -0.12839608
000240 d6 f3 9b 3e 38 f5 55 3e 15 36 94 3e bc 49 7e 3e
       0.3045947 0.20894325 0.2894751 0.24832815
000250 b7 1d 64 3e 3a ae b5 3e 53 83 30 3e ce 08 41 be
       0.2227696 0.35484487 0.17237596 -0.18851015
000260 99 57 96 3e 08 53 17 be e2 51 e2 3d 5d 50 51 3e
       0.29363707 -0.14777768 0.11050774 0.20440812
000270 1c 1c 40 be aa dc 15 3e 17 15 6b 3e 10 92 82 bd
       -0.18760723 0.14634958 0.22957264 -0.063755155
000280 00 de 8f 3e 4e fd 54 be c9 e1 46 be c2 7d 93 3e
       0.2809906 -0.20799753 -0.19422068 0.28806883
000290 30 36 40 3c 6d 5f 1b be 53 fe 83 3e ea 4b ee 3d
       0.011731669 -0.15173121 0.2577997 0.11635573
0002a0 3b 88 57 3e 7f b6 1c be d0 11 86 be ae 3d 5b 3e
       0.21048062 -0.15303992 -0.26185465 0.21410248
0002b0 68 24 2d 3e 67 b3 57 3e 2a 43 99 be e4 1f 8b be
       0.16908419 0.2106453 -0.29934055 -0.27172768
0002c0 b6 ea 5d 3e 51 03 62 3e f2 b7 89 3e 40 35 7d 3e
       0.21671566 0.22071578 0.26898152 0.24727345
0002d0 61 2a 0c 3e 6e 47 98 bd 82 20 09 be 26 57 8e bb
       0.13688041 -0.07435499 -0.13391307 -0.004343885
0002e0 ae d5 7e be f3 1d 6d 3e d8 ea 3c 3e 9c 9e 21 be
       -0.248862 0.23155956 0.18448961 -0.15783161
0002f0 ab 52 99 3e 9a a4 37 3e 40 fb 8f bc d9 b4 3b be
       0.29945883 0.17933884 -0.01757586 -0.18330707
000300 07 ad 5b 3d 82 06 29 be 5f 70 82 be e3 b3 78 3e
       0.05363181 -0.16506389 -0.25476357 0.24287371
000310 bc 72 79 3e fa ef 82 bc 38 1c 95 3e e6 56 9b 3e
       0.24360174 -0.01598357 0.29123092 0.30339736
000320 07 b9 6a 3e 47 1e 22 be f8 f1 87 3e 9c f7 0f be
       0.22922145 -0.15831862 0.26551795 -0.14059299
000330 97 36 34 3e a9 13 74 3e 69 da e8 3b e6 9e ac 3e
       0.1759895 0.23835625 0.0071061146 0.3371498
000340 4e 94 62 be cb a7 15 be 40 39 60 be b8 aa 4c be
       -0.22126886 -0.14614789 -0.21896839 -0.19986999
000350 31 cc 57 3e 6a d4 ba bd 1f 48 54 3e 6c 1d 55 be
       0.21073987 -0.09122546 0.20730637 -0.20812005
000360 d0 b1 1e be 5e 7c 7f be 14 f7 4e be 86 5f aa 3e
       -0.15497518 -0.24949786 -0.2021144 0.33276004
000370 d4 54 22 be b3 80 5d 3e 62 c7 1d 3e f9 74 5e 3e
       -0.15852672 0.21631126 0.1540809 0.21724309
000380 81 07 94 3e 58 12 a8 bc cf e8 42 be 65 09 1f 3e
       0.28911975 -0.02051656 -0.19034122 0.15530927
000390 50 a0 b2 3d 08 c5 b5 3d 94 33 6f bc 18 fb 33 3e
       0.087219834 0.08875471 -0.0145996995 0.17576253
0003a0 53 c1 64 3e 3f c0 28 be 1c 4b 16 be b9 6e cb bd
       0.22339372 -0.16479586 -0.1467709 -0.09933228
0003b0 ac d6 46 3e 2e 1b 41 3b ab 95 2c be 7c 73 db 3e
       0.19417828 0.0029465663 -0.16853969 0.42861545
0003c0 ae 1b 63 3e 2f 61 95 3e 94 cf c6 3d f5 c6 44 be
       0.22178528 0.29175708 0.09707561 -0.19216521
0003d0 b6 5c 7b 3e f3 be 3e be 8f 7d a9 3e 68 c6 33 3e
       0.24547085 -0.18627529 0.33103606 0.17556155
0003e0 af 22 56 bd 5f d1 64 3e f1 79 a3 3d cf fc 28 be
       -0.05227917 0.22345494 0.07982243 -0.16502689
0003f0 e7 ff c3 3d 4c 77 48 be 3a 8f 33 3e ef 49 e9 bd
       0.09570294 -0.19576758 0.17535105 -0.11391055

U.1 f4 [1, 500]
000000 8f 77 6a 3e cc ab c0 bb 69 b6 2c 3e 5f 14 e1 3c
       0.2289717 -0.005879855 0.16866459 0.027475534
000010 60 43 81 3e b4 46 62 3e 6c 6f b7 bd d1 01 5e 3e
       0.25246716 0.22097284 -0.08956799 0.2168038
000020 98 c2 1c be 21 f7 8a 3e 7f de 45 3e a1 6c 3e be
       -0.15308607 0.2714167 0.19323157 -0.18596126
000030 3f 0a 99 3c 0f d4 1f 3e 2b 8a 87 3e 75 e5 5a 3e
       0.018681644 0.15608238 0.264726 0.21376593
000040 d8 2b eb 3e 5d 86 28 be 8b fd 74 3e c6 00 90 3e
       0.45931888 -0.16457506 0.23924844 0.2812559
000050 70 75 87 3e 44 14 4d 3e 27 61 26 bc 11 f3 eb bd
       0.26456785 0.20027262 -0.010154999 -0.115209706
000060 85 1d d1 bc dc 48 86 bd 00 c4 6d 3e 64 16 1f be
       -0.025526771 -0.065568656 0.232193 -0.15535885
000070 17 16 70 3e 38 b5 74 3e 42 3d df 3d 25 d8 13 be
       0.23445927 0.23897254 0.10900356 -0.14437921
000080 b4 34 2e be fc a7 31 3c ae e7 36 3e 24 a4 ed bd
       -0.17012292 0.010843273 0.17861816 -0.11603573
000090 0b a1 82 3e 1d a0 15 be 19 15 9d 3e a6 bf 82 3e
       0.2551349 -0.1461186 0.3068016 0.2553684
0000a0 7c a2 26 3e a2 bd 36 be 65 3f 1e 3e 72 a3 84 3e
       0.1627292 -0.17845777 0.1545387 0.2590595
0000b0 73 72 3f be cf 34 1b 3e 72 60 81 3e d1 a8 49 be
       -0.18696003 0.15156864 0.25268894 -0.19693305
0000c0 c7 31 4f 3e 73 58 41 be 5c da 55 3e 07 c1 b9 3e
       0.20233832 -0.18881397 0.20884079 0.3628008
0000d0 28 1a 52 3e e2 17 ae 3e d0 a0 22 be d7 c7 e7 bd
       0.2051779 0.34002596 -0.15881658 -0.11317413
0000e0 d5 11 ec bd 2f 5f 69 3d ed 26 40 be 6f 2a 67 3e
       -0.11526839 0.05697554 -0.18764849 0.22574781
0000f0 cb 34 8f 3d 1c 2e e9 bd 21 a3 5b be 0a 4d 2d be
       0.06992491 -0.11385748 -0.21448947 -0.1692392
000100 6d ae 72 be a2 5e 6d 3e 99 71 77 bd dd a5 13 3e
       -0.2369935 0.23180631 -0.06041107 0.1441874
000110 e2 6a 7c 3e 26 ff 7a 3e 36 dc 2b 3e de cc 74 3e
       0.24650148 0.24511394 0.16783223 0.23906276
000120 15 f9 56 3d 03 31 56 3e 45 df 07 3c fd d7 90 3c
       0.052483637 0.20917134 0.008292978 0.017681116
000130 9c a8 0c 3e 00 d1 84 3e 08 ac 2f be ba 08 1b 3f
       0.13736194 0.25940704 -0.17155468 0.6056019
000140 39 20 6e be 5c d7 20 3e 46 54 95 bd 55 69 a7 3e
       -0.2325448 0.15707153 -0.072914645 0.3269755
000150 90 6a 8b 3e 12 d0 7c bd 30 ff 8f 3e 22 28 32 be
       0.27229738 -0.06172187 0.2812438 -0.17398122
000160 3a a7 84 3e 6f d6 fb bd b4 10 51 be 0c e2 71 be
       0.25908834 -0.12296759 -0.20416528 -0.23621386
000170 92 1e bd bd c2 91 d1 bd ed 57 81 3d 5c 53 46 be
       -0.092343464 -0.10232879 0.06315599 -0.19367737
000180 76 7f 61 3d 60 e2 51 be 82 fe e8 bd 62 92 a4 3e
       0.055053197 -0.20496511 -0.113766685 0.3214293
000190 d5 0f 40 be c6 b5 5b 3e c5 02 40 be 5b 51 04 3e
       -0.1875604 0.2145606 -0.18751056 0.1292166
0001a0 a5 d3 28 3e 66 d7 50 bd 6b 25 5b 3e d0 02 02 be
       0.16486986 -0.05098667 0.21400993 -0.12696385
0001b0 a0 80 3c 3e 64 99 4e 3e 20 b4 ba 3c b1 dc 87 3e
       0.18408442 0.20175701 0.022790968 0.26535562
0001c0 36 ba be 3e 30 62 98 3e 49 0d 5d 3e d1 65 85 3e
       0.37251443 0.2976241 0.21587099 0.26054242
0001d0 bd 36 29 3d e3 b1 06 be 12 e9 43 3e 4c a7 0e 3e
       0.041311968 -0.13153796 0.19131878 0.13931006
0001e0 dc 2b 9f 3e 78 38 eb 3d 02 cb 2a be a7 08 84 3e
       0.3108815 0.1148538 -0.16679004 0.2578785
0001f0 5c 87 16 be d0 6c 5e 3e 3f 34 5d 3e e3 42 ce bc
       -0.14700073 0.21721196 0.21601962 -0.025178378
000200 dd 4c 5e be 91 32 03 be 80 bd 30 3e 22 7d 9e 3e
       -0.21709009 -0.12812258 0.17259789 0.30954844
000210 01 63 2c be 21 61 42 3e 19 88 21 bd dd 08 15 be
       -0.16834642 0.18982364 -0.039436433 -0.14554162
000220 41 bf dc 3b e2 33 65 3e cf c5 26 3e 7c 65 d5 3d
       0.0067366664 0.22383073 0.16286395 0.10419747
000230 55 db 47 3e c2 d1 01 3d 2e ef 5e 3e 8f d8 4d 3e
       0.19517262 0.03169418 0.21770927 0.20102142
000240 64 02 2b be a9 b3 5c 3e e0 75 67 3e b5 56 0c be
       -0.1670013 0.2155291 0.2260356 -0.13704951
000250 21 5d 93 3e 3d 89 41 3d b8 9f d3 3d 56 26 3c be
       0.2878199 0.04725002 0.10333198 -0.18373999
000260 2d 26 cd bd 9d b2 48 be 18 6e e2 bc 4b 89 29 be
       -0.10017047 -0.19599386 -0.027640387 -0.1655628
000270 ed e0 8b 3e 40 5f 42 be 68 24 73 be 13 c3 12 be
       0.27320042 -0.18981647 -0.23744357 -0.14332227
000280 d5 93 8f bd c7 a4 14 3e d4 a8 b0 3c 5e de 84 3d
       -0.070106186 0.14515983 0.021564879 0.06487726
000290 de a8 6a 3e d2 d5 84 3e 1d 5b f9 3e 62 6c 36 3e
       0.2291598 0.25944382 0.48702326 0.17814782
0002a0 2d 66 4e 3e e4 49 be bb 36 3e 4e bd 21 25 ab 3e
       0.20156164 -0.0058071483 -0.050352298 0.33426765
0002b0 25 35 b5 3c 60 cf 6f 3e 90 aa 31 3e 04 9d 4a 3e
       0.022120068 0.23418951 0.1735022 0.19786459
0002c0 31 cc c5 3e 2c 08 38 bd 75 43 1a 3d a4 90 9c 3e
       0.38632348 -0.04492967 0.03766199 0.30579102
0002d0 b5 ed 99 3e c7 a4 1b 3e 6c 00 90 3e 2c 01 b4 bc
       0.3006417 0.15199576 0.28125322 -0.021973215
0002e0 1a 1e 99 3a 7f 77 70 3e 77 aa 2a be ef 43 8b 3e
       0.0011681945 0.23483084 -0.1666659 0.27200267
0002f0 47 3f 63 3e 18 77 59 be 8d 25 82 3e e9 a5 39 3e
       0.22192107 -0.21236837 0.25419274 0.18129696
000300 ee 23 88 3e 99 46 fa bd 29 a7 96 3e d6 47 92 3e
       0.26589912 -0.12220497 0.29424408 0.2857043
000310 2a b5 20 be 17 11 2f be d8 18 58 3e f4 80 7d 3e
       -0.15694109 -0.17096363 0.21103227 0.24756223
000320 dd 92 a6 3e 53 19 c7 3e 26 4f 40 3e 33 34 b4 bd
       0.32533923 0.38886508 0.18780193 -0.08799019
000330 5a d7 7a 3e ee 52 ef bd fe 31 4f 3e d2 0f 3f 3e
       0.24496213 -0.116857395 0.20233914 0.18658379
000340 e6 ef e0 bd 3d af e2 3e cf ef 36 3e 0f b3 52 be
       -0.10983257 0.4427432 0.17864917 -0.20576118
000350 26 b8 8e 3e db 47 86 3e 91 b8 02 3d 0a e9 cb 3c
       0.2787487 0.26226696 0.031914297 0.024891395
000360 8c 27 97 bd a7 27 cb bc b9 d4 b5 bd 98 47 57 3e
       -0.0738059 -0.024799181 -0.08878464 0.21023405
000370 9c 2f 52 be 77 10 43 3e 6b 15 09 bd 13 e6 4b 3e
       -0.20525974 0.1904925 -0.03346769 0.19911985
000380 62 90 1c be 4b 96 f3 3c 2a 75 71 3e 90 86 7c 3e
       -0.15289453 0.029734751 0.23579851 0.24660707
000390 7a ac 94 3e b6 55 ca 3d 21 ee 97 3e 98 26 b3 3e
       0.2903784 0.09879629 0.29673865 0.34990382
0003a0 52 6e 8c 3e 04 8c 25 bd 04 9a 2a be 50 33 63 3e
       0.27427918 -0.040416732 -0.16660315 0.22187543
0003b0 0c e0 2e 3e b8 9f 0d be 08 f2 e2 3d 8b 34 10 3e
       0.17077655 -0.13830459 0.1108132 0.14082544
0003c0 38 93 cf 3d 28 34 90 3b 0d 8d 84 3e d6 d6 0b be
       0.101355016 0.0044007488 0.25888863 -0.13656172
0003d0 fc 06 02 3c 69 67 13 be 8a ee 5e be f8 95 c4 bd
       0.0079362355 -0.14394917 -0.21770683 -0.09598917
0003e0 9a 91 6a 3d 69 81 e4 bd 50 bb df 3e 23 87 3e be
       0.057267763 -0.111574955 0.43697596 -0.18606238
0003f0 6c 59 66 be af 8f ed 3d 8d 2a 0e 3e 3e b7 85 3e
       -0.22495049 0.11599671 0.1388342 0.26116365

bias.0 f4 [200]
000000 04 a3 3f 3d d8 79 ef 3e 81 ae db bd 88 f0 8d 3e
       0.046786323 0.46772647 -0.10726643 0.27722573
000010 3c 1f ab 3c b3 fa 16 3d e8 bb 0a 39 1e a0 d8 3e
       0.020888917 0.03686018 0.00013230706 0.4230966
000020 68 6c d3 3e 1c 88 a9 3e f5 4d 6b 3c ba 25 22 3f
       0.41293645 0.33111656 0.014361848 0.63338816
000030 a4 8a 78 3e 87 0e 85 ba a8 96 11 3e b5 d2 b8 be
       0.24271637 -0.0010151424 0.14217627 -0.36098257
000040 67 aa 71 3d 18 34 aa be f3 69 4c 3e 03 c3 fc 3e
       0.0590004 -0.3324287 0.19962291 0.49367532
000050 9c 2f ee 3e 59 e1 e0 3d 59 66 4f 3e 40 f1 12 3d
       0.46520698 0.10980482 0.20253886 0.035874605
000060 69 11 bf 3e 67 1a 60 3e fc 87 d2 be 1b 5f f7 3d
       0.3731797 0.21885072 -0.41119373 0.12078687
000070 46 c5 88 be 49 7a 01 3e f2 98 0a bd 25 db c6 bd
       -0.26713008 0.12644304 -0.033837266 -0.09709767
000080 b8 d0 5a be b7 43 49 be 3e 88 11 3f b0 43 a9 3e
       -0.21368682 -0.19654737 0.56848514 0.33059454
000090 29 4a 9c be 29 b0 b5 3b 15 48 af 3e 10 10 6e be
       -0.3052533 0.0055446816 0.34234682 -0.23248315
0000a0 87 88 0c 3f 79 30 3a be bd f2 9d 3e 5d 00 15 3e
       0.54895824 -0.18182553 0.30849257 0.1455092
0000b0 39 50 04 bd 4e 0c 52 3e 70 b1 cc 3e 76 14 87 3e
       -0.03230307 0.20512506 0.39979124 0.26382798
0000c0 15 8b 69 be 47 c1 ba bd 8b f9 98 3e 26 43 b2 3e
       -0.22806962 -0.09118896 0.29877886 0.34816855
0000d0 2b 04 98 bd 72 ae 84 be 7d cc 92 bd 33 f5 2a 3e
       -0.0742267 -0.2591434 -0.07167909 0.16695099
0000e0 79 51 6c be 34 97 03 3e 65 db 6e be 93 54 3b 3e
       -0.23077954 0.12850648 -0.2332588 0.18293981
0000f0 16 87 c4 3d 98 41 cc 3e 44 42 d6 3e c9 df 05 3d
       0.09596078 0.39893794 0.41847432 0.03268412
000100 53 32 2d 3e 51 a6 58 be b3 f5 51 3e 24 63 75 3e
       0.16913728 -0.21157195 0.20503883 0.239636
000110 8c 7d c0 be 7a 2d 82 bd b1 7c c0 bd 28 22 b9 3e
       -0.37595785 -0.0635633 -0.09398783 0.36158872
000120 7d df 30 3e 78 52 a6 be 9d d5 ac 3e 31 07 3c be
       0.17272754 -0.32484794 0.33756724 -0.18362118
000130 28 40 b4 be e8 1e 8c 3d 58 4f 8d bd eb db bf 3e
       -0.35205197 0.068418324 -0.06899899 0.37472472
000140 d2 b5 c6 3d ff c5 35 3e 4c b5 a8 3e 6b 68 31 3e
       0.09702648 0.17751311 0.3295082 0.17324989
000150 5f d0 bd 3d b5 7d b7 bd f0 b5 dc be 93 b1 e3 3d
       0.09268259 -0.089595236 -0.43107557 0.11117854
000160 97 bb ef 3e 77 95 71 bb f1 cc 5b be 2e 58 cc be
       0.46822807 -0.003686277 -0.21464898 -0.39911026
000170 87 05 dc 3e aa 2b 32 be d6 2f 64 3b 80 db 5a 3d
       0.42972967 -0.17399469 0.0034818552 0.053431988
000180 84 47 3c 3c 15 e5 80 be 11 35 95 bd bd 07 59 be
       0.01149166 -0.25174776 -0.07285512 -0.21194358
000190 b6 8a a0 3d 77 ce 0f 3e 02 55 f1 3c 05 d1 c0 3e
       0.07838957 0.14043604 0.02945948 0.3765947
0001a0 56 da 26 3d bd 29 03 3f 15 5b 9b bd 7c 57 35 be
       0.040735565 0.5123556 -0.07585732 -0.17709154
0001b0 b3 5c 8f bc 78 38 64 3e 5d c8 fc be 58 6c e0 3d
       -0.017500257 0.22287166 -0.49371615 0.10958165
0001c0 4a c4 c1 bd 5a 06 3a 3c 70 19 23 be d8 db 56 bd
       -0.09461267 0.011354053 -0.15927672 -0.052455753
0001d0 1a 69 2b 3e 25 33 6a be b6 d0 e7 bc a1 9e 19 3e
       0.16739312 -0.22871073 -0.028297763 0.15001918
0001e0 c0 0f 02 be a4 6c a4 3e fe 26 aa 3e 02 cb da 3e
       -0.1270132 0.32114136 0.33232874 0.42733008
0001f0 46 47 5c 3e 0b 79 82 3e d0 ff 5a 3e 09 87 63 bd
       0.21511564 0.25482973 0.21386647 -0.0555487
000200 26 a5 5a 3e 99 a9 05 bd 9e a8 16 3e 97 b8 c3 3e
       0.21352062 -0.032632444 0.1471276 0.38226768
000210 de be eb be 33 1d ee bd 83 00 b8 3d 7a 8f 7c bd
       -0.46044058 -0.11626663 0.089844726 -0.061660267
000220 fe 0b ba be be 87 98 3e 25 9b 07 3d 50 60 e3 3e
       -0.36337274 0.29791063 0.03310694 0.44409418
000230 85 73 67 bd 38 fb 59 be f6 df 1e 3e ed f1 85 bc
       -0.056506652 -0.21287239 0.15515122 -0.01635071
000240 b5 9c e5 3d 34 f7 ab 3e 35 01 2f be 01 3a 14 be
       0.1121153 0.3358704 -0.17090304 -0.14475252
000250 60 91 32 be dc 11 29 be ff 87 31 bd c6 59 da bd
       -0.17438269 -0.16510719 -0.043342587 -0.10661654
000260 97 6c 0b 3e 6c 3c 84 3e 1b a1 aa 3e bd 4d 93 3d
       0.13615642 0.25827348 0.3332604 0.07192562
000270 74 49 10 be 9d 62 fb 3d 07 7f 80 bb 6f bb 16 bf
       -0.1409052 0.12274668 -0.003921393 -0.5887975
000280 57 f9 bd bc 6d 65 42 3e 26 6f 10 3d fa dd 53 be
       -0.023190184 0.18984003 0.03526225 -0.20690146
000290 24 31 9d 3e ab 2d 0f 3d 25 6a 8d 3e 84 7c c1 3d
       0.30701554 0.03495566 0.27620044 0.094475776
0002a0 2f 8c 92 be 59 31 2f be 1f c7 c9 3e 58 93 2a be
       -0.28622577 -0.17108668 0.3940973 -0.1665777
0002b0 87 f8 95 bd 83 97 39 3d e1 47 d7 bd 81 9d c8 be
       -0.073227935 0.04531051 -0.10511757 -0.39182666
0002c0 92 a7 45 3e c6 0d dd ba ef 60 bb bc 0a 73 e4 3d
       0.19302204 -0.0016865067 -0.02287337 0.111547545
0002d0 f9 9f 97 bd d0 c2 7f be 49 b7 38 3e b5 ee e2 be
       -0.07403559 -0.24976659 0.18038668 -0.44322744
0002e0 0f ce 90 be 5a 5a 8a be ba 50 0d 3f fd 6a 00 be
       -0.2828221 -0.27022058 0.55201304 -0.12540813
0002f0 d1 d7 2d be 96 cc c2 bd 9f fc e9 3d 8a 99 46 be
       -0.16976859 -0.09511678 0.11425137 -0.19394508
000300 3d e0 88 3e fa fe 07 3f 9f bf 7c be 97 d5 5d 3e
       0.2673358 0.5312344 -0.24682473 0.2166351
000310 b3 71 c1 3d 87 b4 34 be f1 06 cc 3b 72 b3 f5 3d
       0.094455145 -0.1764699 0.0062264134 0.11997117

bias.1 f4 [500]
000000 0b 3b b0 be a2 3d b3 3e b3 f8 5e bd dc 70 e5 bc
       -0.34420046 0.3500796 -0.054436397 -0.028007917
000010 f2 19 c0 bd 05 01 25 3e 1d da 8f 3d c2 13 fa 3d
       -0.09379949 0.1611367 0.07024024 0.122108
000020 45 45 43 bd 0c 7b 4f 3e 9e 4c de 3d 88 a6 d6 be
       -0.047673482 0.20261782 0.10854457 -0.41923928
000030 f3 66 57 be e6 f2 a2 3c bd ae 82 be ea 8c d3 be
       -0.21035366 0.019891214 -0.2552394 -0.41318446
000040 4a 17 37 be 3f de 5e be 37 5c 02 3e 74 1b 34 be
       -0.17879978 -0.21764468 0.1273049 -0.17588598
000050 ce cd bb 3c 28 f1 42 3a cd 22 0e 3f 03 57 04 3f
       0.022925284 0.0007436448 0.5552185 0.5169527
000060 16 75 d8 3e 42 d4 6d 3d 5c 3a 56 3d a5 0f d7 3d
       0.4227683 0.058063753 0.05230175 0.10501031
000070 74 68 30 be ae 4c 49 bd 72 82 00 3e 84 96 30 3e
       -0.17227346 -0.049145393 0.12549761 0.17244917
000080 61 73 b7 be ac 6a e9 3e 10 b7 8a be 09 38 b1 3e
       -0.35830215 0.45589197 -0.2709279 0.34613064
000090 f0 3f 3d 3e 27 93 36 bd e1 29 53 be 0d 52 bd 3d
       0.18481421 -0.04457393 -0.20621444 0.092441656
0000a0 bc 04 ae be ad 25 07 3f cc f1 0a 3e 3d 2c 8e be
       -0.33987987 0.52791864 0.135688 -0.27768126
0000b0 9f 33 c6 be 24 d7 16 be 4c d5 38 3e 25 ea e0 3d
       -0.3871126 -0.14730507 0.18050116 0.109821595
0000c0 7b 75 a0 be f3 5a a2 3e 4d 6d aa 3e b9 e6 34 bd
       -0.3133963 0.31710014 0.33286515 -0.044165347
0000d0 f8 01 62 3e 3c da 92 3d 43 54 1d 3e cd 57 10 3f
       0.22071064 0.07170531 0.15364175 0.56383973
0000e0 3b b5 9b bd 85 d5 8d 3e 1d 73 ff 3e 89 70 0b be
       -0.07602926 0.27701965 0.49892512 -0.13617148
0000f0 97 b9 e1 3d d9 e8 f4 3e 7b 96 df 3e ed e4 a5 bc
       0.110217266 0.478339 0.43669495 -0.020250762
000100 7e f3 c8 3e ac ad 29 be ed ba e9 bd fa 6e b4 bd
       0.3924827 -0.16570157 -0.114126064 -0.088102296
000110 66 04 2f 3e d9 df ee bd 06 e3 a0 be eb 3e a4 be
       0.17091522 -0.11663789 -0.31423205 -0.32079253
000120 68 65 8c be fa 61 8b 3c e8 d1 e8 3d e6 b1 36 3d
       -0.27421117 0.017014492 0.113681614 0.04460325
000130 c7 0e 61 3e 79 ab bc 3e 52 8f 11 3f 2f 75 56 3e
       0.21978293 0.36849573 0.56859314 0.2094314
000140 54 cb e9 be e8 73 66 3e 75 ca ac 3d 86 21 87 3e
       -0.4566294 0.22505152 0.08437053 0.26392764
000150 45 f0 ab 3e 4f 13 20 3d 40 29 67 3d 27 9d 0d 3e
       0.3358175 0.039080914 0.056435823 0.1382948
000160 08 f2 3d 3e 1f 1c 86 bc e5 b0 ae 3e 12 be 40 bd
       0.18549359 -0.016370831 0.34119335 -0.047056265
000170 37 be 81 be 1e 86 8e bd 77 c2 2a be 50 42 42 3e
       -0.25340435 -0.069591746 -0.16675745 0.18970609
000180 b3 ae 39 bd a1 f6 72 3e aa 56 0b 3f 58 f8 06 be
       -0.04533262 0.23726894 0.54429114 -0.13180673
000190 df 1d 15 3f 1a 76 a8 bb 0c d8 8d be f9 6e 8c be
       0.58248705 -0.005141032 -0.27703893 -0.27428415
0001a0 c2 3a 5a 3e 31 42 c4 3e ca 14 d6 3d 25 6d 0e 3e
       0.21311477 0.3833175 0.10453184 0.13908823
0001b0 2f cd 2d be 3a c7 15 3e 2d 4a 5f be fd 2f ef 3d
       -0.16972803 0.1462678 -0.2180564 0.11679075
0001c0 0e 15 7c 3d ca 66 13 3e 6d 24 a9 bd 88 97 8e 3d
       0.061543517 0.1439468 -0.08258901 0.06962496
0001d0 cb 11 8e bd 50 73 bf 3e 8f 9c aa 3c 43 da aa 3e
       -0.069369875 0.37392664 0.020826606 0.33369645
0001e0 54 1f 5f 3e a6 8f ac be 76 30 93 3e 94 ce 0c 3e
       0.21789294 -0.33703345 0.2874791 0.13750678
0001f0 d2 b2 e4 be 41 cc 75 be 0e df 3e 3e f8 32 34 be
       -0.4466768 -0.24003698 0.18639776 -0.17597568
000200 51 5b 0e bf 10 8f c0 3e 12 d2 23 3e a1 78 3d be
       -0.5560809 0.37609148 0.15998104 -0.18503048
000210 59 e6 aa be 94 ac 80 be 92 d9 16 3e 3d 3a 1a be
       -0.33378866 -0.25131667 0.14731434 -0.15061279
000220 cc a4 ab be 77 9c 96 3c ef 03 40 be fd eb c0 3d
       -0.33524168 0.018385155 -0.187515 0.09420011
000230 d1 36 57 3c f1 a8 0d 3e d0 9b d1 bd f8 f0 d0 be
       0.013135628 0.13833977 -0.10234797 -0.40808845
000240 27 aa c4 be 1b b2 36 be b4 db cd bd e7 ad bc be
       -0.38411066 -0.1784138 -0.10051671 -0.36851427
000250 73 57 c1 3d 2a 18 5f 3e 65 3a 00 be 9f 4f 01 3e
       0.09440508 0.21786562 -0.12522276 0.1262803
000260 cf 39 e0 be 1f bf f3 be c1 2f a8 3e b8 34 47 3e
       -0.43794104 -0.4760675 0.32848933 0.19453704
000270 80 26 5d be 11 a3 76 be a8 27 cb be 15 6a 81 be
       -0.21596718 -0.24085642 -0.39678693 -0.25276247
000280 ce 96 95 be c7 b4 96 be 8b db 51 be db 61 3a bd
       -0.29216617 -0.29434797 -0.20493905 -0.04550348
000290 5c bb 3d be 80 13 b6 be dc a2 a3 3e 5e 54 22 be
       -0.18528503 -0.35561752 0.3196019 -0.15852496
0002a0 b3 0f 6c 3e ca c9 de be f8 3b c3 3e e3 e1 95 be
       0.23052864 -0.43513328 0.3813169 -0.292739
0002b0 b8 c4 21 3e 82 80 8c 3c d8 99 17 bb 04 25 05 be
       0.15797698 0.017151121 -0.002313247 -0.13002402
0002c0 a4 3a 35 3e 0c ee 31 3e ac 45 91 3e ba 88 6f 3c
       0.17698151 0.17375964 0.28373468 0.0146200005
0002d0 71 f5 1e bd 3e 0f c9 bd c0 03 d3 3e 6c 13 88 be
       -0.03880829 -0.0981736 0.412138 -0.26577318
0002e0 6a b2 bd 3e cc a1 fe bd 33 33 21 3f 76 a1 ae be
       0.37050182 -0.12433204 0.6296875 -0.3410756
0002f0 fe 23 27 3e 84 1e d7 3e 70 43 75 3d 81 0c 81 3b
       0.16322324 0.4201547 0.059878767 0.003938258
000300 e3 07 da bd 95 32 1c be e2 bd bb 3e 6c 25 9a 3e
       -0.106460355 -0.1525367 0.36668307 0.30106676
000310 29 ba 5b 3e 4a db ba be 58 e0 49 3d c0 76 c3 be
       0.21457733 -0.3649543 0.049286216 -0.38176537
000320 b9 81 da 3d f0 b9 ac bd 5a 47 3f be 2a be a1 be
       0.10669274 -0.08433902 -0.18679562 -0.31590396
000330 84 4a 70 be 56 cb c4 be b9 50 f7 3d 8b c2 dd bd
       -0.23465925 -0.38436383 0.120759435 -0.10828122
000340 a8 2e f4 3e d9 6f 98 bb 7f 9f 87 be e3 40 0a 3f
       0.47691846 -0.004652005 -0.26488873 0.5400526
000350 89 f4 a8 be fa e0 32 3e 58 6f 18 3f 11 c0 1b 3e
       -0.32999066 0.17468634 0.595449 0.15209986
000360 cd 3d e8 bd 27 fc 94 3e 1f 71 d5 3e 05 ff f3 bd
       -0.113399126 0.29098627 0.41687867 -0.119138755
000370 42 a2 04 bf 28 5f d9 bd 4f e2 06 3f 49 27 ad 3e
       -0.51810086 -0.10613853 0.5268907 0.33819035
000380 15 3b d9 be 1f b0 17 3c db c2 c7 bd 68 80 f5 bc
       -0.4242789 0.009258299 -0.097539626 -0.029968455
000390 9a e0 83 3e 17 23 e1 bc f4 d5 58 3e 68 a6 51 3e
       0.25757295 -0.027482552 0.21175367 0.20473635
0003a0 f6 94 43 3f c9 8e b3 be 3c 39 15 3f a6 6e 45 bb
       0.7639917 -0.35069874 0.5829046 -0.0030125766
0003b0 d8 9d bf be e6 87 41 be 99 0f 09 3f d7 cd 82 be
       -0.37425113 -0.18899497 0.53539425 -0.25547668
0003c0 cf 8f 68 3d 56 5a 3c 3d 72 09 a2 be f7 cf 54 3e
       0.05677777 0.04598459 -0.3164783 0.20782457
0003d0 90 21 11 3e f7 dc da 3e da 33 b5 3e 70 65 15 3f
       0.1417296 0.42746708 0.35391122 0.58357906
0003e0 ee b0 11 be ab 51 51 3e b4 b5 85 be bc 9a e0 be
       -0.1422765 0.2044131 -0.2611519 -0.43868053
0003f0 38 8e 12 3e e2 8e bd 3c 27 fa 1d be 42 18 5a bd
       0.14312065 0.02313942 -0.15427457 -0.05324579
