LYAP_CP_m-fwd_d-20_s-0.005_seed4.pt (torch, 421641 bytes, 7 tensors)

W.0 f4 [200, 5]
00000000: 41ea e13d f3fd 083e 3d3b 98be bd3a e1be
00000010: a8bd 48bf 760f 4abf c0ba d43e f212 a83e
00000020: 7ddd 0f3e 208d e6be c7fc bcbe 8ac0 46be
00000030: b445 203e f8d1 d93d a55d bcbe f367 903e
00000040: 49e3 713e 0269 57be 83dc 8fbe 66fb 6ebf
00000050: 4cb8 73bc ce1c f5bd e9b4 723d e267 c13d
00000060: d24f 08bf 06cb d13d 17b0 723d 6da0 873e
00000070: 33f9 0b3f 7b73 d2be d8c4 ae3e 6c0b 0f3e
00000080: 641c 03bd a301 9a3e f0f5 453d dafa 143d
00000090: 205a 58be 3b01 b73e f8c8 1e3f dcf6 88bd
000000a0: 32c2 8d3d 1d62 ee3e cbbd 323e 7f38 adbe
000000b0: f749 b9be 80ea e53e beb9 633e c0f4 39be
000000c0: 6a15 60be 5c73 8fbe ddeb 0ebf 1295 ab3e
000000d0: 39d5 bcbc 2d37 16bf cb44 1fbf 29ed b9be
000000e0: 8f21 b63e 2723 953e 0f6b d43d 6873 b1be
000000f0: f2b9 3a3e 631e 4b3e dd22 60be 15a1 973e
00000100: 549e 98bd cda4 253f fac1 4e3d 86df 44be
00000110: 2773 30bd e578 26bf a400 9e3e b1b5 43be
00000120: 2e9d 7fbe 707f a7be c164 27bf ad72 143e
00000130: ce7c b83e d142 863c 48c0 3fbe 80e3 1abf
00000140: 598d 89bd 5647 f53e f203 e03c 23ce eebe
00000150: bd45 a6be 8562 87be c827 b53e e610 5ebd
00000160: 30fb e8be 6792 18bf 7a1b 59bd b82d 233c
00000170: e466 963e 45d0 d73e a8a2 c5bd 5e1a 043e
00000180: 7975 b5be c30c b23e 73bc 3b3f 9038 89be
00000190: 4bc2 cbbe e204 033f c184 7e3e 0c27 2fbd
000001a0: ba2f 2abf 5d42 be3e b148 15bf 38a2 f6bd
000001b0: 3003 98bc d84d 90bf 1c46 273f 1114 8cbd
000001c0: b453 69be a418 d9bd 004f 43bf 4604 ff3e
000001d0: c060 c3bd 282c 59bc db36 733e cb01 dcbd
000001e0: 91d4 6a3e 03fb 7cbe 8be8 a43d 849d 433e
000001f0: 4d7b 36bf cfdf bfbe d509 133d 1856 d43d
00000200: e83e 33bd 80c9 26be f534 26be 3480 d23e
00000210: c1e8 42bc 3876 27be 3903 bcbe 75a0 ee3d
00000220: 5dc8 3b3e 3bdb a63d 4162 b23e 9cc3 dabe
00000230: ae07 003f 90b4 413d 6ea5 5cbe b770 383d
00000240: 310b 19bd 869c bf3e d964 dabd f829 303d
00000250: 676e 593e 3798 96be 6a8f c93e 8e34 aa3d
00000260: 7e66 55be 900a 4abd af73 1cbf f443 eabe
00000270: c449 83be 1f02 3d3e 9ae0 6b3e bfe0 19bf
00000280: 6162 6d3e 4653 a9be 09f2 dabd fd4d ca3d
00000290: 4226 23bf 3f70 fbbe 37be 9a3e d66f 0e3e
000002a0: 7f15 38be 83d8 1fbf 976a ee3e 29ae d13e
000002b0: d740 413e 5821 b3bd 03d2 ddbe 92a4 3ebe
000002c0: 8028 123e d6db 9abd da2f a4be 4661 c13c
000002d0: 3474 8e3e 4d75 fa3d f02d 9fbe c72f d5be
000002e0: 6cc3 09bf 8d76 803e fa9b dd3a 5190 433d
000002f0: 341b 533e d853 1abf f3d6 d5be 0d8d 913e
00000300: 6f1b e03d 9b34 f3be bb72 dabd 88d8 f13e
00000310: 98d9 97bd d3b3 493e e23f f93e 773f 0dbf
00000320: 0b80 ff3e 47af c6be 4227 483e ba05 093f
00000330: 373b a0be 16b4 663e 8b1d cebe 4bb6 2b3e
00000340: 4cfb 013f 352a d53d e7cf c53e ef34 1bbe
00000350: 811a 123d 8b00 f83e 1cb7 33bd df8b 793e
00000360: 2fa3 a63d e09e b9bd f95d 85bd 83f5 ffbe
00000370: 3e1f 453f 7e22 0ebf 6a7b 91be feec 3dbe
00000380: fccf 76bf 3251 fe3e 15bc 153e ba7b 89be
00000390: b624 01be fbbe 41bf a81c 2e3e b7de 4cbe
000003a0: cfd6 653e 4fd5 043f 1b92 e9bd 8cac b93e
000003b0: 2046 98bb a2f0 92be 5487 91be a6b6 a4be
000003c0: 350a fa3d 8527 993d 83e8 923b 97ae 2b3e
000003d0: afaf 00be b916 603e 6298 e1bd 5064 96be
000003e0: 098b f9be 0933 f2bd 86de ff3e 4f9d 983c
000003f0: d81f 75be b512 50be dbba a0bf a1cb e9be
0.110310085 0.13378124 -0.29732695 -0.43990126 -0.7841439 -0.7892984 0.4154873 0.32826954
0.14049335 -0.45029545 -0.36911604 -0.19409385 0.1565159 0.106357515 -0.36790195 0.28204307
0.23621859 -0.21036151 -0.28097925 -0.93352354 -0.014875483 -0.11968385 0.05925456 0.09443642
-0.53246796 0.10243802 0.059249964 0.26489583 0.5467712 -0.4110373 0.34134555 0.13969201
-0.032009497 0.30079374 0.048330247 0.036372043 -0.2112813 0.35743126 0.62025404 -0.0668771
0.069218054 0.4655923 0.17455213 -0.33832166 -0.36189243 0.44905472 0.22238824 -0.18159771
-0.21883169 -0.280177 -0.5582865 0.3351217 -0.023050891 -0.5867794 -0.62214345 -0.3631375
0.35572478 0.29128382 0.10371982 -0.3465836 0.18234995 0.1983581 -0.218883 0.29615083
-0.07452074 0.6470459 0.05047796 -0.19225892 -0.043078568 -0.6502822 0.30859864 -0.19112279
-0.24962303 -0.32714415 -0.65388113 0.1449687 0.36032718 0.016389282 -0.18725693 -0.6050339
-0.06716413 0.47905988 0.027345631 -0.46641645 -0.3247508 -0.26442352 0.35381913 -0.054215334
-0.4550414 -0.5959839 -0.05300472 0.009959631 0.29375374 0.42151085 -0.09650165 0.12900683
-0.35441187 0.3477536 0.73334426 -0.26800966 -0.3979667 0.51179326 0.24855329 -0.042761847
-0.66479075 0.37160006 -0.58314043 -0.120426595 -0.018556207 -1.1273756 0.65341353 -0.06839765
-0.22785836 -0.10600403 -0.7629242 0.49807948 -0.09539938 -0.013255157 0.23751394 -0.107425295
0.2293265 -0.24705128 0.080521666 0.19103056 -0.7128189 -0.3747544 0.03589805 0.103679836
-0.043761164 -0.16287804 -0.16231139 0.41113436 -0.011896313 -0.1635369 -0.3672121 0.116516985
0.18338151 0.08147284 0.34840587 -0.42727363 0.5001172 0.04729134 -0.21547481 0.04502937
-0.03736419 0.37424105 -0.106637664 0.043008775 0.21233521 -0.29413006 0.3936723 0.08310805
-0.20839879 -0.04932648 -0.6111402 -0.4575497 -0.25642216 0.1845784 0.23034897 -0.6010856
0.2318206 -0.33071345 -0.10690696 0.09878156 -0.6373025 -0.49109074 0.30223247 0.1390985
-0.1797695 -0.62439746 0.46565697 0.40953186 0.1887239 -0.08746594 -0.4332429 -0.18617466
0.14273262 -0.07561462 -0.32067758 0.023605954 0.2782303 0.122294046 -0.31089735 -0.41638014
-0.53813815 0.25090447 0.0016907447 0.047745053 0.20615846 -0.60284185 -0.41765556 0.28427926
0.109427325 -0.47501072 -0.10666414 0.47235513 -0.074145496 0.19697504 0.4868155 -0.55174965
0.49902377 -0.388056 0.19546226 0.53524363 -0.31295177 0.22529635 -0.40256914 0.16768758
0.50774074 0.10408441 0.3863518 -0.15156911 0.035669807 0.48437914 -0.0438758 0.24369763
0.081365936 -0.09063506 -0.065120645 -0.49991998 0.77000797 -0.5552138 -0.2841447 -0.18547437
-0.9641111 0.49671322 0.14622529 -0.26852208 -0.1261166 -0.7568204 0.17003119 -0.20006834
0.22445224 0.51887983 -0.114048205 0.36264455 -0.0046470314 -0.28699213 -0.2842356 -0.321706
0.12208978 0.07478241 0.004483284 0.1676582 -0.12567018 0.21883668 -0.11015393 -0.29373407
-0.48738888 -0.118261404 0.4997446 0.018629698 -0.23937929 -0.20319636 -1.2557024 -0.4566317

W.1 f4 [500, 5]
00000000: bc64 083a b7e5 94bc 754b 953e 4692 103f
00000010: ee1c abbc 6b06 f2be f4b9 c43d d9f6 0bbd
00000020: 0041 fabe 6d4c c7be 38b7 bdbe 4e9b d03c
00000030: 9c56 10bc f729 6abe 598e 91bd 6fa1 133f
00000040: 8db4 bd3c 8c28 53be 8a39 40bd 6b36 17bf
00000050: 7817 1c3d 4ea9 75be f5d5 61be 3777 e0be
00000060: 6e2c 9e3d 3de2 113d c598 94bd 5f1b acbe
00000070: 5fb3 0abf 35c8 91be 7dd8 7b3d 8780 f83e
00000080: 8668 493d 7aa1 27be 21e7 65bf 209b 853a
00000090: 69fb 5fbd 8829 a7be 4d86 20bf 0f1f 40be
000000a0: 8db8 0bbf c50e 813e b72e d53d c637 41be
000000b0: 32dc c0bb f168 6dbe d4c9 603d ed28 843e
000000c0: eade 833e dbc0 64bf d544 d0be 1f18 8cbd
000000d0: 9ebe e13d f108 92bd 5657 febe a2c7 3c3b
000000e0: 38f9 993e 4a71 13be 31f7 1bbf 8e5c 65be
000000f0: 189c d8be c2aa 043e 7ba7 b9bd 2f28 f3be
00000100: 7285 06bd c48c 4ebc 470f 5bbe 7e71 87bd
00000110: e5d4 95be cb11 743d 9c26 043f c282 493e
00000120: 5f83 59be 4662 f2bd 080f 72bf c73f b53e
00000130: 76f4 85bd 7014 e0be 99ce 25bf 10c5 1dbe
00000140: 4eb7 623e c3fc b63e 159e 1bbe 818e 4ebe
00000150: 0dda 93bf b579 7ebe d164 943e d914 39be
00000160: 4673 c7be 1f2c 2ebf fa10 313d 035f d5bc
00000170: d2d8 563e 8920 8c3e a5ea 90bf 6c6d 593e
00000180: 22f5 5d3e eaa0 a53b e911 3a3e 1a02 afbe
00000190: 26dc 473d ec79 2a3e 792a 023e 0edf e53e
000001a0: 70ea c1be 50aa 1ebd 810e a73d 2e65 05be
000001b0: 4606 8cbe 9a08 45bf 923c 093e 3e36 92be
000001c0: 23c3 aa3e 602d 003f f2ee dabe 74ce 8c3d
000001d0: b87d edbe c659 cb3d a64b 863e ecf9 99be
000001e0: 4afe dabe 95d5 013e 841f 8ebe d38e 11bf
000001f0: 605b 4bbf cea6 193f a3b2 29bd 0aa9 36be
00000200: 61ab b83d 17f0 38be 8c46 08be 0654 1abe
00000210: d128 1cbe 21d7 16bf 24e3 9abe 788f fe3e
00000220: 0bae a2be 61c6 203e 9e07 113f 2b16 a13c
00000230: 2a81 f03d 26d2 d8bd e0c7 5ebe fac2 f9be
00000240: 3e80 0abf a96d d9bd 167e 633e d622 8ebc
00000250: 9c3c 03be 7d6f 7dbf be4c bfbe e398 033d
00000260: 27bf 4cbe 91da 16bf 6951 4e3c 2b3f 12be
00000270: 4589 733e 41cd 1abe de94 ecbe 06dd 0ebf
00000280: 0380 1c3e f83d b33e a1e4 e0bd a58d 8abe
00000290: 1f7f 19bf b6c6 e93c 3023 073e 7be0 023c
000002a0: f377 62be bc7a 9abe d31d 363e a511 77bd
000002b0: d654 a7be ce14 11bf 01c9 bfbc 34dc 803e
000002c0: 75e3 a8be 3537 b53e b192 363f 0098 563d
000002d0: 4e02 81be 7578 1cbe 051b e6bd ac95 a8be
000002e0: f8bc 45bd 4f9d 0dbf 1baf 763e a31a 07be
000002f0: 79a2 06bf 21ee 21be 211e 00bc 6389 f63d
00000300: a3df b43d a734 c73d e327 51bf 6daf 403e
00000310: 2fd9 753d 24e1 d0bd 945b 10be fe2a 6abf
00000320: b969 90bd d6fe 96bd 785c bf3e 8097 1e3f
00000330: c528 86bb e73b 8cbe a586 eb3e 2813 123e
00000340: 0774 5ebe 197d e5be 060f adbd cef9 9bbd
00000350: 0d1f 453b c1e9 d3be 543c c1bd 458f cb3d
00000360: 2dee 2d3e 3828 183d 37ce 7a3e 1075 8abe
00000370: 5c20 c33e 730f a8be 6dbf 2fbe bfc3 cebd
00000380: b65f 51bf b51b 82bd 5862 c83d 0166 62be
00000390: c78b 08bf ee2a dcbe f644 34be 72d1 8bbe
000003a0: 2dfb 0e3d 5b9f 36bd 38ba 23bf db77 61be
000003b0: 16b6 d43e 84dd 173e ffc3 22be 74f2 e0be
000003c0: 23e7 883e 9fdf b2bc 2af9 f83d fcc1 8c3e
000003d0: 9ae1 95be 2ee3 5bbe 59bc 883e 1dce 4cbe
000003e0: 5ae4 cfbe 86f4 bfbe 108d 65bd 15ed 15be
000003f0: 9375 d93e 40b6 1d3f ddf3 2fbf 6e61 833d
0.0005202999 -0.018175943 0.29159132 0.56473196 -0.020887818 -0.47270522 0.0960578 -0.03417096
-0.48877716 -0.38925496 -0.37053847 0.02546468 -0.008809712 -0.22867571 -0.07107229 0.57668203
0.023157382 -0.20620936 -0.046929874 -0.5906741 0.03810832 -0.23990366 -0.22054274 -0.43840954
0.07723318 0.03561615 -0.07255701 -0.33614632 -0.5417995 -0.28473058 0.061485756 0.4853556
0.049171947 -0.16370192 -0.898058 0.0010193326 -0.054683123 -0.32648873 -0.62704927 -0.18761848
-0.5457848 0.2520658 0.10409301 -0.18868932 -0.0058856243 -0.23184563 0.05487998 0.25812474
0.25756007 -0.89356774 -0.40677515 -0.06840538 0.110226855 -0.07130612 -0.49676007 0.0028805514
0.3007295 -0.14398685 -0.6092406 -0.22398588 -0.4230659 0.12955764 -0.090651475 -0.47491595
-0.032842107 -0.012606803 -0.21392547 -0.06613444 -0.29263988 0.05958728 0.51621413 0.19678786
-0.2124152 -0.118351504 -0.94554186 0.3540022 -0.06540768 -0.43765593 -0.6476837 -0.15407205
0.22140238 0.35739717 -0.15197022 -0.20171548 -1.1550919 -0.24851115 0.28983167 -0.18074359
-0.38955134 -0.68036073 0.04322908 -0.026046282 0.20981148 0.27368572 -1.1321608 0.21233147
0.21675542 0.005054583 0.18170895 -0.3418129 0.048793934 0.16648072 0.12711515 0.4489674
-0.37874174 -0.03873664 0.08157063 -0.13026878 -0.27348536 -0.7696625 0.13402012 -0.28557009
0.33352003 0.50069237 -0.42760426 0.06875315 -0.46384978 0.09929232 0.2622959 -0.30073488
-0.42772132 0.12679131 -0.2775842 -0.5685856 -0.794363 0.6002015 -0.041430127 -0.17837921
0.09017063 -0.18060337 -0.13308161 -0.15071115 -0.15249945 -0.5892201 -0.3025142 0.49718833
-0.3177341 0.15700676 0.5665225 0.01966389 0.11743386 -0.10586958 -0.21755934 -0.48781568
-0.5410193 -0.10616619 0.22216067 -0.017350595 -0.1281609 -0.9899824 -0.37363237 0.032128226
-0.19994794 -0.58927256 0.012592652 -0.14281909 0.23782833 -0.1511736 -0.46207327 -0.55806005
0.15283208 0.35008216 -0.109811075 -0.2706119 -0.59959596 0.028537136 0.13197017 0.007988091
-0.2211607 -0.30171764 0.17784815 -0.06031956 -0.32681912 -0.5667237 -0.023411276 0.25168002
-0.32986036 0.35393682 0.71317583 0.052391052 -0.2519707 -0.15280326 -0.11235622 -0.3292669
-0.048275918 -0.5531816 0.24090235 -0.13193755 -0.52591664 -0.15813495 -0.007819683 0.12037923
0.08831718 0.097268395 -0.8170149 0.1881692 0.060021576 -0.10199192 -0.14097434 -0.9147185
-0.07051415 -0.07372825 0.37375236 0.6194992 -0.0040942156 -0.27389452 0.46001163 0.1426512
-0.21723948 -0.44822004 -0.08450131 -0.07616006 0.0030078322 -0.41389278 -0.09435335 0.09939436
0.16985388 0.03714773 0.24492727 -0.27042437 0.38110626 -0.32824287 -0.17162867 -0.10095929
-0.8178667 -0.06352941 0.097843826 -0.22109224 -0.53338283 -0.43001503 -0.17604432 -0.27308232
0.03490751 -0.044585567 -0.6395602 -0.22018377 0.4154517 0.14830595 -0.15895079 -0.43934977
0.26738843 -0.021835146 0.12156899 0.27491748 -0.29273683 -0.21473381 0.26706198 -0.20000501
-0.40603906 -0.37491244 -0.05604273 -0.14641221 0.42472515 0.61606216 -0.6873148 0.064150676

W.2 f4 [1, 5]
00000000: 6713 ce3e a213 acbe 72c2 03be 7ca8 6dbc
00000010: 444d 61bf
0.40249178 -0.3360873 -0.12867144 -0.014505502 -0.88008523

U.0 f4 [500, 200]
00000000: 383a bbbe d506 093e d103 893e d2a1 89be
00000010: 5ea6 793d 2b1a 5d3e 655c 603d f71a b53e
00000020: f8c2 9bbe 698a 47be 13ed 6dbe dd28 5e3e
00000030: ff88 39bd d7e7 b6bd 5d12 aabe 678c 76be
00000040: a45f aabe b6b9 a5be d8cc 853e f3f3 a63e
00000050: 4c80 31bd c62d afbc 93d8 cfbd 11bf 543d
00000060: 0f41 363e 68b9 04bd 6c33 01be 99cc 0c3e
00000070: 503d e9bd 8a64 cf3d 249f 06be bf47 d53e
00000080: 322e 9ebc 21b1 79be 9667 36bd 7405 d1be
00000090: 2797 b1be 4120 c13c 9524 19be f16a a43e
000000a0: c3c5 8e3e a134 903e d071 1f3e 5b08 d0bd
000000b0: aa21 babd 4b8c d6bd 0ff9 623e fdce 35be
000000c0: 8d40 b63d 0ed0 efbe 2815 17be cc0f 90be
000000d0: bc0d 9a3e 2204 c6be d755 983e be71 b73d
000000e0: 5163 66bd 9586 053e 3c2f a0bc be73 a63e
000000f0: 7dac c83d 49ee 123e 084f cb3d 38a4 ad3e
00000100: b5e7 b0be b3c4 aebd eb45 3c3e f840 92be
00000110: 017a 94be 5a49 d83e 74b9 543e f56f 4c3d
00000120: 80a3 fabe 8119 63be a8d1 803e d660 aabe
00000130: 75c6 9abe 1fdb feba 12b1 eb3c a3c1 8fbe
00000140: 47f9 67be e4f5 1f3d 2633 b5bd db41 a0be
00000150: eb2c c33e 2037 a4be 615f d1be 63cc 113e
00000160: 11b5 9ebe b79d b0be 15f7 c23d c701 cd3e
00000170: 122f 923c b23d 46be 1ed9 92be a418 ba3d
00000180: 73ae d1be ead3 bfbe a942 ff3c 94e3 f4bd
00000190: 9b80 3c3e 9f3d 9b3e 79e9 d7be d889 c5be
000001a0: 8ff0 27bc 8c39 0e3e 0b14 603e e234 773e
000001b0: e75c 633e aceb a5be 56c3 abbe dcdb 2c3e
000001c0: a9ce 1d3e 858b 83bd b52f 683e c639 2cbe
000001d0: 5ed9 85be aa6a 54bd 2cd5 c43d 2dae 663e
000001e0: e109 afbe 384e e1be abc7 5a3e c2b7 e23d
000001f0: 97b7 143e e3b5 d13c 11c5 823e d197 39be
00000200: f9a8 d4be a9c9 0ebe b815 d4be 8c08 f13c
00000210: dae3 c53d ea83 d8bc 0378 4c3e 36a3 bd3e
00000220: 4bc2 dd3e fad1 e83d 8dc7 a6be 7b87 313e
00000230: 79e8 c0be 66d8 083d 8aa9 a7be 3745 3a3e
00000240: 08ef 843d 5ef9 533d b2c5 c9bd 4e86 5e3e
00000250: 3d95 3f3e a321 8bbd 5d60 403e cba6 b6be
00000260: 6a00 9bbb 5ece 773d 57ca a23e 9e54 b8bd
00000270: acca e13e f73d b83d 4b3b f1bd bd2c 7bbe
00000280: 7ca0 e9bc 8f3d 033d 6ed9 943e 01cd 803d
00000290: ec08 4e3e 0be9 f5be f0ea e63d fbb6 db3d
000002a0: a40e 3f3e 2eb6 44be 71cf 513e 77ff 6d3e
000002b0: ab27 7dbc 7d86 70bd c8ff ccbe 199d 95be
000002c0: 1f02 5f3c 8400 363d 7514 5c3e 4161 d33d
000002d0: cb33 7b3d 5322 c3be 13a4 d3be 8d2c 8b3e
000002e0: 2d36 1bbc c57e 56be 3adb 883e 6482 e23d
000002f0: 0ca3 163e 05b0 5d3d 37f7 0a3e 4e5d f1be
00000300: d5ed 6ebd 55b5 c93e 463c 03bf 1682 46bd
00000310: e1b1 5dbd e01a b13e ac9c 353e 8377 853e
00000320: 9ecf 803e d27b 17bd 63cd 9dbd b006 d23d
00000330: f7f1 16be be23 b0be a13b a6be 5f46 8fbe
00000340: 0838 a73c 039a b73d 86c1 dc3d 6ad0 f4bd
00000350: d9d3 08be 9f69 aa3d 4f72 843d c048 0b3b
00000360: b693 1a3e a1e9 803d 179d acbe fd3c 223e
00000370: 49c7 933c f738 debd 4db5 ba3d c77b 8ebe
00000380: 0860 a7bd 5f1a d8bd 67cc 893d 4240 9ebe
00000390: 9dec df3c 3247 d7bd e0cd 073e 91bb 84be
000003a0: c383 66be 5c38 053d 6d0a 2cba df46 873d
000003b0: 4c1e 4c3e 537b 3ebe d70a b43d bc68 b8be
000003c0: f19e a4be 822b 90bd 5c77 7bbe e943 1b3c
000003d0: fd37 1d3d 3949 cb3d c2d9 9bbe c71f fa3d
000003e0: 5a1c 1fbe 632b 0c3e 6456 ff3d 5439 dc3c
000003f0: 21ee 8abe f540 0c3e cedc 93be ea75 08be
-0.36567855 0.13381512 0.26760724 -0.26881272 0.060949676 0.21592014 0.054775614 0.35372135
-0.30422187 -0.19486393 -0.23234968 0.21695276 -0.045296665 -0.08930939 -0.33217135 -0.24076997
-0.33276093 -0.3236825 0.26132846 0.32607993 -0.043335244 -0.021384131 -0.1014873 0.051940028
0.17798255 -0.03240338 -0.12617272 0.13749923 -0.113886476 0.10126598 -0.13146645 0.416563
-0.019309137 -0.24383976 -0.04453238 -0.40824473 -0.34685633 0.02357495 -0.14955361 0.3211284
0.27885255 0.28165153 0.1557076 -0.10157844 -0.09088452 -0.104759775 0.22165321 -0.17754741
0.08899031 -0.4683842 -0.14754164 -0.28137052 0.30088603 -0.38675028 0.2975299 0.089572415
-0.05624706 0.1303962 -0.019553773 0.3251018 0.097985245 0.14348711 0.099271834 0.3391435
-0.34551778 -0.08533611 0.18386047 -0.28565192 -0.28999332 0.42243463 0.2077387 0.049911458
-0.48952866 -0.22177698 0.25159955 -0.33277005 -0.30229536 -0.0019443965 0.028770957 -0.2807742
-0.22653686 0.03905286 -0.088476464 -0.31300244 0.38120207 -0.32073307 -0.4089308 0.14238124
-0.30997518 -0.34495327 0.095197834 0.40040419 0.01784471 -0.19359472 -0.28681272 0.09086731
-0.40953407 -0.37466365 0.031159716 -0.119574696 0.18408434 0.3032045 -0.42170313 -0.3858173
-0.010250225 0.1388914 0.21882646 0.24141267 0.22203408 -0.32406366 -0.33547467 0.16880745
0.15410866 -0.064230956 0.22674449 -0.16818914 -0.261424 -0.051859535 0.09610972 0.2252738
-0.34187225 -0.4400499 0.2136523 0.11070205 0.14523159 0.025599426 0.25540975 -0.1812432
-0.41535166 -0.13944115 -0.4142282 0.02942302 0.096626 -0.026430089 0.19967656 0.37038583
0.43312296 0.11368175 -0.3257412 0.17336838 -0.37677363 0.0334095 -0.32746536 0.18190466
0.06490904 0.051751487 -0.098521605 0.2173092 0.18709274 -0.06793525 0.1878676 -0.35674128
-0.004730274 0.06049954 0.31794998 -0.090005144 0.4409994 0.08996194 -0.11778887 -0.24528785
-0.028518908 0.03204113 0.29072136 0.062891014 0.20120591 -0.4802936 0.112752795 0.1072826
0.18657929 -0.19210121 0.20489289 0.23241983 -0.015451352 -0.058722008 -0.40038896 -0.29221418
0.013611346 0.044434085 0.21492179 0.10321284 0.06132869 -0.38112125 -0.41336116 0.27182427
-0.009473366 -0.20946796 0.26729757 0.11060026 0.14710635 0.054122943 0.13570867 -0.47141498
-0.058332283 0.39396158 -0.51263845 -0.048463903 -0.054124717 0.34590816 0.17735547 0.26067743
0.251584 -0.03698332 -0.0770519 0.10255182 -0.1474074 -0.3440227 -0.32467368 -0.27983376
0.02041246 0.08964922 0.10779099 -0.11953814 -0.13362063 0.08320927 0.06467115 0.002125308
0.1509541 0.06294561 -0.337136 0.15843578 0.018039363 -0.10850709 0.09116612 -0.2782881
-0.081726134 -0.10551905 0.0672844 -0.309084 0.027334506 -0.10511626 0.13262129 -0.25924352
-0.225112 0.03252445 -0.0006562833 0.066053145 0.19933432 -0.18601732 0.0879113 -0.36017406
-0.32152513 -0.070395485 -0.2455725 0.00947664 0.038383473 0.099260755 -0.30439574 0.12213092
-0.15538159 0.13688426 0.124676496 0.026882805 -0.27134803 0.13696654 -0.28879398 -0.1332623

U.1 f4 [1, 500]
00000000: 0f4d 3d3e 0094 3f3d f786 f43c 8627 c2bd
00000010: 6bf9 253d e08a 213e a59e 9d3d 0899 2c3e
00000020: 2e83 a03c e86d bf3d c818 44bd ca35 d73d
00000030: 2c53 c93d 94d7 c5bd c345 f3bd 2dd3 543e
00000040: a519 1f3d 5f26 f43d 16b4 753e 460a 6dba
00000050: ccf4 5c3d f533 a33d 639f 6d3e 41c3 e73d
00000060: d38e f73d 72c0 b9bd 0641 913d 06f4 303e
00000070: fae8 9d3d 480a e33d bb27 973d 4bed b13d
00000080: 687f 353d 7320 213c 8395 c23d 1b3f 9a3e
00000090: 140b 3c3d f696 fc3d 83b4 46bc 7a05 693c
000000a0: 3abe 8f3e d7be 913c 1deb d7bb 5dbd 45bb
000000b0: 3c86 14be b927 063e 82d1 c6bd 59a4 aabc
000000c0: 5dac 2e3d a79d 973d c56a 7c3e 5318 af3c
000000d0: b0e8 93bc 6444 3a3d 6d75 21bc f30c 313e
000000e0: 5bf8 d33d 331e 213d 751a d3bb 9af2 7cbd
000000f0: d9af ef3d d06e 5c3d 1c6e 283c 7330 9ebd
00000100: d74b 7f3d 0369 91bd 4f49 ea3c 1197 1e3e
00000110: d158 c03d cd54 febc 0e2b a43d 2c49 9abd
00000120: 4900 973c 20a5 2b3e 7d7f 82bd 302b dcbd
00000130: 533f 803e 4893 233e 3516 893d e290 8e3d
00000140: efc7 003d c2e9 e83d d900 3c3e 3fe6 8b3c
00000150: 2297 c33d ccf1 103d c338 a93d 0db8 8a3d
00000160: 637c bc3d 0f9b 9f3e 3b72 873c f510 bfbd
00000170: 9031 12bb 3b5c da3d 47ec b73d 557e cdbd
00000180: 5e74 02bd 7e41 04bd 443a 843d 7778 e53d
00000190: df13 3e3c 3a8c 273d 4ac4 b83c a9c3 3ebd
000001a0: 6ac5 d73c 537d 813d 1447 2a3e 1256 0e3e
000001b0: 30a4 8cbd 2bd3 813d 27b2 7ebc ab59 f4bc
000001c0: 53be 9c3e 3df5 65bc 9bc7 883c c47d 2c3d
000001d0: d9c4 a43e 0541 e0bc 4383 61bd 10c8 f03c
000001e0: e6e1 013e 1104 edbc 8f74 413d 5a46 45bd
000001f0: f6dd 973e d17f e3bd 1ba0 3c3d cea6 063e
00000200: e686 0e3e b30a 06bd 2e44 a1bd a227 b9bd
00000210: 7051 363e 0a16 5ebd ee1f b6bd 3404 7d3d
00000220: 68af cd3d d6dc c63d 3110 823e 40d8 103e
00000230: cf72 69bc 6a65 9bbc 6948 843d 1df6 f23d
00000240: e8ee 753e be3a 00bd 275c 793d 3101 153c
00000250: 8930 283e 1683 eb3d a2be a33e d837 973e
00000260: 7b82 b23d 6e4b 903d 4831 1d3d 835a 98bd
00000270: c1ea 41bd f7d0 933d 3b28 743c 4fca 4e3e
00000280: 94cb c33d 35e3 113e 0535 6a3d 8b0f 703d
00000290: 56f0 9d3d 5e1a a7bc c676 8c3d d1cc 063d
000002a0: b7af 673c 4250 553d 142a 0e3b 4b87 09bd
000002b0: 5f6a 073d 8de9 9f3c a8d9 133d 8a50 413e
000002c0: 2979 8f3e ad85 21be 0cb9 903d 80c2 bcbc
000002d0: 1b42 8f3e 9830 b73d 921a 433e dc0f 523e
000002e0: 0dde 6d3c 6d4d bd3d 0db7 803d d23e afbd
000002f0: ef74 6e3d 564c 1fbd d1ea 673d 6829 a13d
00000300: 21ce 063e 1d17 823d f27a 9b3e 6aff a13d
00000310: 522c 5abc f6da a03e fa3a 013e a5a5 b2bd
00000320: 5509 883c 31f8 203e 2b8a 2a3c c189 3fb8
00000330: a1d1 f33d 258b 983e 9c11 c1bc bc17 e13c
00000340: ce66 a4bd a86c 753e ded4 a13c 0b21 c13d
00000350: 95c9 6cbd 9eb4 f83d fa1e 4e3d 21a7 35bd
00000360: 499d 28bd 9a51 d43d 4a93 9a3d fb6c 27bc
00000370: 5070 753c 467a 1fbd ab22 993c 2306 3b3d
00000380: 9250 d5bc 939e 68bd e1bb f93c 76a8 843c
00000390: 1c25 a53d 8794 703c 5cdc 6f3e adfa 5d3e
000003a0: fac5 093c 8870 afbd ebd2 683d 27f4 28bd
000003b0: f339 ac3d bbfb 393e 4f88 2dbc 5397 b83d
000003c0: 8dc0 4d3e 9973 78bc afaa d33d d6b5 c03d
000003d0: b550 fbbb 7936 a33c 8ecc 473d bdf1 70bc
000003e0: 39f1 233e 0aad 443d 7b5a 91bd 350d cd3d
000003f0: a585 fa3b b9e9 5dbd 0e4b 483e e055 473c
0.18486427 0.046772003 0.029849513 -0.09480195 0.040521067 0.15775633 0.07696275 0.16855252
0.019593801 0.09347135 -0.047875196 0.10508306 0.09830317 -0.09660259 -0.1187854 0.20783682
0.038842816 0.11921381 0.23994479 -0.00090423634 0.053944394 0.079688944 0.23205332 0.113165386
0.120877884 -0.09069909 0.0709248 0.17280588 0.077104524 0.11085945 0.07380625 0.08687838
0.044310957 0.009834397 0.09501173 0.3012627 0.045909002 0.12333481 -0.012127998 0.014222497
0.2807482 0.017791195 -0.006589307 -0.0030172684 -0.14504331 0.1310109 -0.09707929 -0.02083032
0.042644847 0.07403117 0.24650104 0.021373903 -0.01805529 0.04547538 -0.009854657 0.17290096
0.103501044 0.03933544 -0.006442363 -0.0617548 0.11703462 0.053816617 0.010280158 -0.07724085
0.062328186 -0.071001075 0.02859941 0.15487315 0.093919404 -0.031046296 0.080160245 -0.07533488
0.018432753 0.16762209 -0.06371973 -0.10750425 0.25048313 0.15974152 0.06693689 0.06961228
0.03144067 0.11372711 0.18359698 0.017077563 0.09550311 0.035386845 0.082627796 0.06773386
0.092034124 0.31172988 0.016533962 -0.09329406 -0.0022307374 0.10662123 0.08980613 -0.100338615
-0.031849258 -0.03228902 0.06456426 0.112046175 0.011601417 0.040905215 0.022554535 -0.046573315
0.026339252 0.06322732 0.16628677 0.1390002 -0.06867254 0.06339105 -0.0155454045 -0.029827913
0.30613956 -0.01403552 0.016696742 0.042112127 0.32181433 -0.027374754 -0.05505682 0.029392272
0.1268383 -0.028932603 0.0472303 -0.048162796 0.2966153 -0.111083634 0.046051126 0.13149568
0.13918647 -0.032725047 -0.07874332 -0.090407625 0.17804503 -0.054220237 -0.08892809 0.061771587
0.10043222 0.0971009 0.25402978 0.14144993 -0.014248564 -0.018969256 0.06459124 0.11863349
0.24016917 -0.03130602 0.0608789 0.009094522 0.16424765 0.11499612 0.3198138 0.29534793
0.087162934 0.07045637 0.038377076 -0.07439139 -0.04734302 0.07217591 0.01490217 0.20194362
0.09560314 0.14246829 0.05717947 0.058608573 0.07711856 -0.020398315 0.06858592 0.032910172
0.014141015 0.052078493 0.002169256 -0.03357629 0.033060428 0.019520545 0.036096245 0.1887838
0.28022125 -0.1577365 0.07066545 -0.023041964 0.27980122 0.089448154 0.19053105 0.20513862
0.014518273 0.092432834 0.06284914 -0.08556904 0.058216985 -0.03889116 0.056620423 0.07869226
0.1316457 0.06352065 0.30367237 0.079100445 -0.013316231 0.31417054 0.12620154 -0.087230004
0.016606012 0.15719678 0.010408918 -4.5666242e-05 0.11905218 0.2979366 -0.023567967 0.027477138
-0.08027421 0.2396723 0.019754823 0.094301306 -0.05780943 0.12143825 0.05032251 -0.04434884
-0.041165624 0.10367127 0.075476244 -0.010218854 0.014980391 -0.03893497 0.018693289 0.04566015
-0.026039395 -0.056791853 0.030485095 0.01619361 0.08063719 0.014683849 0.23423904 0.21677656
0.008409018 -0.085663855 0.056841772 -0.041248467 0.084094904 0.18162434 -0.0105915805 0.09013238
0.20092984 -0.015164279 0.1033529 0.094096825 -0.007669533 0.019923436 0.048779063 -0.014706072
0.16009988 0.048016585 -0.07097336 0.10012285 0.007645326 -0.054177973 0.19559881 0.01216647

bias.0 f4 [200]
00000000: 8dbf 57bc ae92 e73e 578f acbe 942b 6b3d
00000010: 952e f5bd 94c0 ebbd ded1 5d3d 14b2 c93e
00000020: f48c a83e 4601 a23e a4aa 413d 9aa0 f83e
00000030: f64d b03e a579 ec3c 1cfe 873e e5dd 95be
00000040: f38a 263d d9d6 6bbe f5be 653e 21a9 e63e
00000050: c52c b13e 4193 98be 9881 2e3e 1cc5 8c3c
00000060: 9c37 303e 68b0 153e f74a b2be a604 0e3d
00000070: 8050 86be 84aa b43d dfdd 39bd 21e2 bdbe
00000080: 17d2 89be 6d72 f7bd 7d47 d93e 18f8 873e
00000090: 1168 b7be 20ae d6bd 42a6 8d3e e305 8dbe
000000a0: 79b2 d33e 7844 cfbd 94a8 823e 70d0 563e
000000b0: dac7 4abe 668b c73e d7a0 b23e 3a2f a33e
000000c0: 9d0d bdbe 0473 7cbd 1681 2d3e 5a27 753e
000000d0: d4bd d1bd bf5b 68be 05e7 a5bd 9e41 613e
000000e0: c9ff a4be f9c7 45be 2981 dbbe f6d6 1ebe
000000f0: a9b1 d93c a7ad 993e a85d 333e fd9a 863d
00000100: 54ba 403e 4d29 4ebe 832e b53d 4098 ba3e
00000110: 0f92 c1be d0e8 05be fe79 b9be 9c13 ed3e
00000120: 9e7f c93e f7a3 82be 2859 973e 7505 32be
00000130: f947 95be b3ad 123d 942e c6bd c826 c73e
00000140: ac18 533e 8d9b 723e cb5d b03e 50d8 7e3e
00000150: 5249 873d 8750 d4bd a7a9 cabe 34d9 7d3d
00000160: 704a 953e 804d 1bbd 0b79 99be 5755 40be
00000170: 53d6 823e a015 64be 9195 bcbc 962c e4bc
00000180: 7e90 923c 9404 ccbe 1d55 18be dd33 87be
00000190: ebd4 62bc cc7c 1f3e 0c76 053e 17e9 883e
000001a0: b358 7bbe 3a2b c93e f5ad 0bbd 3c80 c9be
000001b0: c207 81be ff84 1a3e 21e9 d4be 0bb8 22bd
000001c0: 77eb 95be 74b4 2fbd 445c 5dbe 47bf 07bd
000001d0: e267 313e 01dc 70be 6fdb b6be 2892 b03d
000001e0: 50a9 d2bd 858c 5c3e bcac 9b3e c039 e63e
000001f0: b8e6 f33d 8f49 c93e 6339 253e 0364 10bd
00000200: 41d4 913e 73c2 a9bc e3ce 323e 9a55 b63e
00000210: 1b33 d9be 3313 cebe 9f0f b23d 6aaf 12be
00000220: 2258 5bbe c083 ff3d 48de 373d bf1c 943e
00000230: 87b0 d9bd 3208 8ebe 7239 333e a363 58be
00000240: 3b28 c43c dace ba3e bf91 1cbe 4d06 8ebe
00000250: 7f00 8fbe f998 90be e503 6cbe 317f 74bd
00000260: 21b3 3e3e b414 263e 5d97 903e 9af0 0e3e
00000270: ecb9 90be 9738 bc3d ab78 aebd e9c9 d5be
00000280: 587e 52bd c2f8 14bc e179 da3d 3c0e d0be
00000290: 42f5 863e db57 1e3e 9012 b43e 65f4 a03d
000002a0: 4340 d2be 59ef 24be 00a0 783e 9fa1 b7be
000002b0: fd05 d8bd 9731 c73d 7e0a bcbd 4b6a cdbe
000002c0: 99df 7e3d bff4 69be 7b10 75be d63e 353e
000002d0: 0bf0 d2bd ce92 8abe 8f8f 913d 1612 a3be
000002e0: 50c4 9cbe c7b7 f5bd 0742 b53e d535 64be
000002f0: 1151 c8be 2185 ecbd 0878 443d 940b 7cbe
00000300: 2e3c a33d b148 d63e 9bc3 89be 40dd c63e
00000310: a9de f33d cf6b 65be 11e3 b33b 3e57 5cbd
-0.013168228 0.45229095 -0.3370311 0.057414606 -0.119717754 -0.11511341 0.054155223 0.39393675
0.3292004 0.31641597 0.047281876 0.4856003 0.3443448 0.028866598 0.26561058 -0.29270855
0.040659856 -0.23031177 0.22436126 0.4505091 0.3460447 -0.29799846 0.17041624 0.017183833
0.17208713 0.14618075 -0.3482282 0.0346724 -0.26233292 0.08821586 -0.04537761 -0.37086585
-0.26918098 -0.12082372 0.42437354 0.26556468 -0.35821584 -0.104824305 0.27665907 -0.27543554
0.413471 -0.10120481 0.2551924 0.2097795 -0.198028 0.3897354 0.34888336 0.31871969
-0.3692445 -0.061633125 0.16943774 0.23940793 -0.10241285 -0.22691248 -0.08100704 0.21997687
-0.322264 -0.19314565 -0.4287198 -0.15511689 0.026573973 0.300153 0.17516196 0.065725304
0.18821079 -0.20132942 0.08846762 0.36444283 -0.37806746 -0.13077092 -0.36225885 0.46304023
0.39355177 -0.2551572 0.29560208 -0.17384894 -0.29156473 0.035810184 -0.09676853 0.38896775
0.2061488 0.2369215 0.34446558 0.24887204 0.066057816 -0.10366922 -0.3958256 0.06197472
0.29158354 -0.037915707 -0.2997516 -0.18782555 0.2555414 -0.22273874 -0.023020538 -0.027853291
0.017891165 -0.39847243 -0.14876218 -0.26406756 -0.013844709 0.1557495 0.13033313 0.26740333
-0.24545555 0.39290792 -0.034101445 -0.39355648 -0.2520123 0.15089796 -0.41584113 -0.0397263
-0.29281208 -0.042896703 -0.21617228 -0.0331414 0.17324784 -0.23521425 -0.3571429 0.08621627
-0.102862 0.21537979 0.30405223 0.44965935 0.119092405 0.39313933 0.16135173 -0.03525163
0.2848225 -0.020722603 0.17461734 0.35612184 -0.42421803 -0.40249023 0.08694386 -0.14324728
-0.21420339 0.12476301 0.04488972 0.28928182 -0.10629373 -0.27740628 0.17502382 -0.21131758
0.023944965 0.3648594 -0.15289973 -0.27739182 -0.27930066 -0.2824171 -0.2304836 -0.05969161
0.1862302 0.16218835 0.2824048 0.1395897 -0.28266847 0.09190481 -0.08519109 -0.41755608
-0.051390022 -0.009092512 0.10667778 -0.4063586 0.26358992 0.15463202 0.35170412 0.078591146
-0.41064653 -0.16106929 0.24279785 -0.35865495 -0.10548017 0.097262554 -0.09181689 -0.40120158
0.062224958 -0.2284727 -0.23932068 0.17699751 -0.10299691 -0.27065128 0.0710746 -0.31849736
-0.30618525 -0.11997943 0.35401937 -0.2228616 -0.3912435 -0.1154883 0.047966033 -0.24613792
0.07970463 0.41852334 -0.26907048 0.38840675 0.119077034 -0.22404407 0.005489715 -0.053794138

bias.1 f4 [500]
00000000: fecb d4be c41e 903e 4fe3 84bd b242 3d3d
00000010: c2a8 c13d 7fd8 933e 1519 70bd 9c64 6e3e
00000020: ef6c aabd e845 203e 4ddd 1b3d ecad d0be
00000030: c450 5ebe 6a59 1f3e 61e6 61be cb44 a9be
00000040: 0686 d6be 1b3e 8dbe cd5c 0ebc 577a 1fbe
00000050: bca9 053e 1b69 63bd f3ec c93e 074c a83e
00000060: ab6a 933e 53d6 da3d f1ab 263e 4c3c 513c
00000070: 9d16 4bbe 3b1a b6be 2ac2 3c3e 584d 433b
00000080: 67c9 c4be 68f1 c33e 770d 3dbe 18fe 843e
00000090: a7ca c33e 6d2c debd 1435 c4be 347d 173e
000000a0: a74e 9fbe d025 ad3e 649a 1c3e e82a d1be
000000b0: a446 dfbe ccf2 3bbe da06 9e3e 3c9d 143d
000000c0: b01f c9be 4a3d 523c 9331 913e 2bb0 97bd
000000d0: ea21 cc3e 42ff 843d 74c0 193d 60cc bd3e
000000e0: 9099 15be 1868 9d3e c316 bc3e 4a61 5abc
000000f0: c45a 863d cbcc 873e 6958 6e3e 3743 24be
00000100: 5cd3 4c3e 24ad 8dbe 0b8e 00be 44b5 dcbd
00000110: 8c39 343e d9de 54be 3c0f aebe bf37 c6be
00000120: 7571 b4be 777f f03d bf51 f63c 49ad 793e
00000130: 2455 343e c346 c63e 6e72 853e 7df9 8cbe
00000140: 5f5f a6be 56c4 3f3e bda1 3a3d 9aca e63e
00000150: fad1 a43e c147 15bc e5d9 7e3e f44b 343d
00000160: 6a41 853e 8569 953b 47a2 3c3e 4d3f d93c
00000170: bb7f 81be 0666 1bbe 4695 39be f52d 663d
00000180: d99a 51be fb9e 093e 357f a43e e4e3 eebd
00000190: 6703 9b3e 5b6c 493b a41f 3fbe 243a bbbe
000001a0: ab39 1a3e a9c4 9d3e 44a5 0d3e 9764 4ebc
000001b0: ab23 79be 314d 3b3e 98ad 82be 05e1 983e
000001c0: 350b 4abe 9796 e63e 6135 1ebd ca70 f33d
000001d0: 9fae 2dbe 696b 083e 593c e1bd 479a c23e
000001e0: fd8a bd3d 62e8 b1be 56f1 b93d c744 983d
000001f0: 5242 89be 4d90 c8be d445 473e 47cd 3bbe
00000200: 7d2e 02bf ed8b af3e b341 cc3e 1a97 42be
00000210: d3d5 c0be 845f 80be f5e5 f53d 0128 6abe
00000220: 6a6f a5be f861 e5bd 43dc 30be 228c de3d
00000230: 25c7 f53d 1173 593e 9165 2fbe 8a6e b2be
00000240: cc83 90be 99ee 48be 8ac2 f0bd 186b a5be
00000250: a303 e43d 78fc 3f3e ef14 5bbe fbf5 843d
00000260: dac6 d9be 0e4c cfbe e4cb 9d3e 19b9 563c
00000270: 4fdc dabe 6d4f 81be bb9a 98be bb4a 80be
00000280: e2f3 97be c4bf a1be 54af 43be b6c8 aebb
00000290: 5ab2 4abe 54f2 dfbe ed10 babc 5d87 bfbe
000002a0: aa5e ad3e c02f d4be fb31 9d3e 89d7 7abe
000002b0: f178 dc3d c218 033e 4451 f3bd 82c4 90bd
000002c0: e6bb 013e 06a8 143e 1755 6f3e 152b 223b
000002d0: d023 66bd c2b8 0fbe 315b c23e 3698 a5be
000002e0: 40c9 963e 0e0e 9abd 4d61 cb3e 7d89 54be
000002f0: 7f27 7f3e 0f17 933e 7337 5b3e 09ac a6bc
00000300: 69c9 5fbe d0e4 23be 02a6 883e 4f53 9b3e
00000310: ee65 7a3e 4d98 94be c542 033e eb0b c9be
00000320: f22a 993e bdbf 40be 2c14 38be d7f0 acbe
00000330: 6600 95be e25a 82be 1de2 a53e c4f9 01be
00000340: 9521 b63e 600f f7bd c70b 90be 7c22 b33e
00000350: 6ce7 a2be 3240 c13d 3c13 c53e d070 7b3e
00000360: eac4 85be ce06 5c3e c15f 8d3e efa4 48be
00000370: ec2f d9be 3889 53bd 2bc9 dd3e 7b23 7f3d
00000380: 07f3 ccbe 5960 ff3d 4c36 8bbd 509d a43d
00000390: 84de 4c3e 0c1f 863c a50e 7b3e 9635 d03d
000003a0: d011 003f c99f ecbe 6dd1 a93e 2455 f33d
000003b0: c3ac d2be b357 49be 5f24 b43e 4ef5 88be
000003c0: ad01 083d 5931 5a3d 6077 72be f953 4ebd
000003d0: b360 ac3d fd51 9f3e 55ec 4f3e e18f b93e
000003e0: c941 2fbe 2412 193e 55ec 80be 2864 dabe
000003f0: cbef 873d 381c 06bd 4f03 55be 741e 69be
-0.41561884 0.28148472 -0.06488668 0.046206184 0.09456016 0.2887611 -0.05861767 0.23280567
-0.08321559 0.15651667 0.038052846 -0.40757692 -0.21710497 0.15561453 -0.22060539 -0.33060297
-0.41899127 -0.27586445 -0.008689118 -0.15574013 0.1305303 -0.05552016 0.3943859 0.32870504
0.2879232 0.1068541 0.16276528 0.012770724 -0.19832845 -0.35566887 0.18433443 0.002980074
-0.38434908 0.38270116 -0.18462168 0.25975108 0.3824055 -0.10848317 -0.38321745 0.14793855
-0.31114694 0.3381791 0.1529327 -0.40853047 -0.43608582 -0.18354338 0.30864602 0.036282763
-0.39281988 0.012831995 0.28358135 -0.07406648 0.39869624 0.06493999 0.037537053 0.37069988
-0.1460936 0.3074348 0.36736116 -0.01332886 0.06560281 0.26523432 0.23275913 -0.16041265
0.20002502 -0.27671158 -0.12554185 -0.10776761 0.17600077 -0.20788135 -0.33995998 -0.38714406
-0.3524281 0.11743062 0.030068276 0.2438251 0.17610604 0.38725862 0.26063865 -0.27534094
-0.32494637 0.1872724 0.045564402 0.45076448 0.3219145 -0.009111346 0.24887808 0.044017747
0.2602647 0.004559698 0.18421279 0.026519442 -0.25292763 -0.15175638 -0.1812335 0.05619617
-0.20469226 0.13439552 0.321283 -0.116645604 0.30276033 0.003073475 -0.18664414 -0.36567795
0.15061061 0.30814102 0.13832575 -0.012597225 -0.24330013 0.18291165 -0.25523067 0.29859176
-0.19730838 0.45036766 -0.038625125 0.11886747 -0.16961144 0.13322224 -0.109978385 0.3800833
0.092550255 -0.34747607 0.09079234 0.07434993 -0.2680841 -0.39172593 0.19460231 -0.18340026
-0.50852185 0.34286442 0.39893875 -0.19002953 -0.37663135 -0.25072873 0.120067514 -0.22866823
-0.32311565 -0.11200327 -0.17271523 0.10866572 0.120008744 0.212353 -0.17128588 -0.3484996
-0.28225553 -0.19622268 -0.117558554 -0.3230827 0.11133506 0.18748653 -0.21394704 0.064922296
-0.42534524 -0.40487713 0.3081962 0.013105654 -0.42746207 -0.2525591 -0.2980555 -0.25057015
-0.29678255 -0.31591618 -0.19109851 -0.005333985 -0.19794598 -0.4373957 -0.022713149 -0.3740796
0.33861285 -0.4144268 0.30702195 -0.24496283 0.10765255 0.12802413 -0.118807346 -0.07068731
0.12669334 0.14517221 0.23372303 0.0024744917 -0.056186497 -0.14035323 0.379602 -0.3234269
0.29450417 -0.07522212 0.39722672 -0.20755573 0.2491741 0.2872853 0.21407871 -0.020345705
-0.21854176 -0.16005254 0.26689154 0.30336997 0.24452946 -0.29022446 0.1281844 -0.39266905
0.29915577 -0.18823142 -0.17976445 -0.33777496 -0.29101866 -0.25459963 0.32399073 -0.12692934
0.35572496 -0.120634794 -0.28133985 0.34987247 -0.31817186 0.094360724 0.38491237 0.24554753
-0.26126796 0.21486971 0.27612117 -0.19594167 -0.42419374 -0.051644534 0.4331754 0.062289696
-0.40029165 0.12469549 -0.06797466 0.080378175 0.20006758 0.016372226 0.24517305 0.10166471
0.5002718 -0.46215656 0.33167592 0.11881474 -0.41147432 -0.19662361 0.35184 -0.26749653
0.033204723 0.053269718 -0.2367835 -0.05037305 0.084168814 0.3111724 0.20304997 0.36242583
-0.17114939 0.14948326 -0.25180307 -0.42654538 0.06637534 -0.032741755 -0.20802043 -0.22765523
