LYAP_CP_m-fwd_d-20_s-0.005_seed1.pt (torch, 421641 bytes, 7 tensors)

W.0 f4 [200, 5]
00000000: 2dff 983e 6c10 833c b28f 0a3e f4b0 8dbc
00000010: a943 39bf 6036 b33d 07f8 cdbe 82fa 043e
00000020: b73d 60bd 8c73 17bf c861 9d3d ba7f 57be
00000030: e939 babd 3733 58bc b87d 20bf 8bc8 b0bc
00000040: fe40 953e f9f1 443e 2201 063f 2115 8cbe
00000050: 9d1c f4bc e9a7 09bf 7932 923d 3d02 cabe
00000060: 8d1d 20bf 3a2e 293d d11f 633d 1e34 1b3b
00000070: e365 47be a2b7 41be 76bb 503e 0233 613e
00000080: 2de3 603d 6770 30be c7c1 d2be 0e9a 01be
00000090: 4535 293f d2fe 47be 3b6d c83e e324 1dbf
000000a0: 3b5d 883e be06 e8be 7d1e 803e 3e21 13be
000000b0: b0b9 40bf fe50 023e 05e3 fcbe 558d 1e3e
000000c0: d670 a0be b86a 1ebf 48c6 98be f0b7 edbe
000000d0: b83e 403e 1a04 92be 2967 29be 2931 d13e
000000e0: 3976 4c3e fa43 4dbd 4528 ea3c 2d41 6bbe
000000f0: 35ad 4ebe 19e6 093f 85be 0d3e cc51 193f
00000100: f17d 44bf bc29 b3bd 97d8 70be c161 36be
00000110: 51eb cebe 0156 43bf 45b5 fc3d 5c36 c6be
00000120: 5c1f ed3d 69a3 e3bd 0bed c6be 2484 fa3d
00000130: c884 55bd 432d b3bc 5aa9 27be ea21 4dbe
00000140: a1d6 a4bd 659a 27bf 1a19 4c3e 8100 90be
00000150: 9fb9 48be 3748 19be 9478 2dbf 2ccf d83e
00000160: 611a 85be fa18 47be 3758 0b3e a3ff 66be
00000170: 8944 8b3e 77d9 c6bd 83be 62bf cf35 8cbe
00000180: 52fb 7dbd ae99 13be 493d 363d 45f0 09bf
00000190: 9462 443e c0d5 083e 9ae5 8b3e a58f 7d3e
000001a0: 1832 4fbf e2f8 6fbe ed1c 313f 06d8 c9bd
000001b0: fcbe 013f 4523 4abe c786 513e 4ea7 023e
000001c0: 0871 363e d18a 76bd cb28 073e c6a7 ee3e
000001d0: ad15 ec3d 91e7 163d e028 b7bd 1e5a 27bf
000001e0: f294 b1be 2cfb 24be 04c1 413e 8a2a 0ebc
000001f0: 7e72 a6bc 4335 abbe e818 5fbe 9f44 063e
00000200: 4cbe 093d 54bf ac3d af25 71be 7e01 ae3e
00000210: 57c6 863e 3282 013f 3c79 47be 126f dd3e
00000220: 0f2c 923d 8b82 f2bd 2195 95bd 58d0 33bf
00000230: d85d 42be e263 2d3e 06c4 ecbc 5541 8cbd
00000240: 43fe aebe 6f20 acbd bba3 d43e f81d df3d
00000250: 34a8 f03e 6abb 04be a2da edbd 105d 5b3f
00000260: 2f94 76be f4b6 483e af5f 8dbf a0f5 c9be
00000270: 92af 46bd d0b0 353d eeea b33d 0985 1bbf
00000280: 8fe7 73be f1c1 d33e ab4d 0f3e 78ec f63e
00000290: 608b 25bf 0a98 933d 0daa ccbe c12b 2bbe
000002a0: 11c4 09bf ad6e 92be 7257 e5bd 9d02 ed3e
000002b0: 567b 71bd 10ce a13e 3884 27bb a432 0f3f
000002c0: c2b6 bf3d 9e80 5cbe aad4 a0bd 0f96 aebd
000002d0: 656d 243d 40a7 7f3d 8499 26be 89e2 9abe
000002e0: 15a4 61bf 8403 1f3f 181d 84be ad24 02be
000002f0: 3fac 6fbe a176 21bf c0d4 873e 4602 833c
00000300: 75b6 0c3b c08d 44be 5e48 37be 713f 62be
00000310: b7ec e53e a404 743e 8a3f 223f 144a 4abf
00000320: 56e7 0e3d b503 14bf 7717 a03e b2f2 afbe
00000330: f49c 80bd 6354 dfbd ff53 373e 31f8 c13d
00000340: 676d fc3c 6a92 a2be bab2 c83d a3f6 b83e
00000350: 13ba 3ebe bf04 c33e a30d 953d aabc d93e
00000360: dafe e93e 5ec5 f4be 0899 e03c da5f 48be
00000370: b059 d2be 368d 5b3e 6792 09bf 2b65 dfbd
00000380: 36b3 48be c56f acbe a09b f83d d057 063f
00000390: 2b00 ca3e 28e0 3bbc 7041 c3bd 9d4c 1abf
000003a0: 28ee d33e 90a9 8abe c6e8 2ebf 0fcc ca3d
000003b0: 24c0 e1bd 17ae f53e 5f03 9c3d 2106 5cbf
000003c0: 6d3e 7abe 9e67 abbe a65e 8abd 63b0 ccbd
000003d0: 13b6 58bf d036 fe3d 05b9 36bf 3aed dfbd
000003e0: fbd6 01bf 9fdf a4be a103 e33e 5a45 7d3d
000003f0: 9979 623e 1baf 0dbc ae9c f4be eca2 c9be
0.29882184 0.015999041 0.13531378 -0.017296292 -0.72368866 0.087506056 -0.40228292 0.12986186
-0.054746356 -0.59160686 0.07684666 -0.21044818 -0.09093077 -0.013195804 -0.6269183 -0.021580001
0.29151148 0.1923293 0.5234548 -0.2735987 -0.0297988 -0.53771836 0.07138533 -0.39454833
-0.6254509 0.04130385 0.055450264 0.0023682187 -0.1947246 -0.18917707 0.2038401 0.21992114
0.05490415 -0.17230378 -0.41163465 -0.12656423 0.6609691 -0.195308 0.39145836 -0.6138441
0.2663363 -0.45317644 0.2502326 -0.1436815 -0.75283337 0.12726209 -0.49391952 0.15483601
-0.31336087 -0.6188159 -0.29838777 -0.46429396 0.18773925 -0.28518754 -0.16543259 0.4085782
0.19966973 -0.050113656 0.028583655 -0.22974081 -0.2018326 0.53866726 0.13842209 0.5989044
-0.7675467 -0.087481946 -0.23520122 -0.17810728 -0.40413907 -0.76303107 0.12339262 -0.38713348
0.11578247 -0.111151524 -0.38852724 0.12232235 -0.052128583 -0.021872168 -0.16373196 -0.20032468
-0.0804875 -0.6546996 0.1993145 -0.28125384 -0.19602059 -0.14968954 -0.6776211 0.4234556
-0.25996688 -0.19443122 0.1360787 -0.22558455 0.27200726 -0.09709447 -0.8857195 -0.27384803
-0.062007256 -0.14414093 0.04449204 -0.5388225 0.1917823 0.13362789 0.2732361 0.24761827
-0.8093581 -0.23434785 0.6918476 -0.09855656 0.50682044 -0.19740017 0.2046157 0.12759134
0.17816556 -0.06019098 0.13199155 0.46612376 0.11527572 0.036841933 -0.08943343 -0.6537188
-0.3468395 -0.1611144 0.18921286 -0.008677134 -0.020318266 -0.33439073 -0.21786845 0.13112114
0.033628747 0.084349304 -0.23549531 0.33985513 0.26323196 0.5058929 -0.19479841 0.43248802
0.0713731 -0.11841305 -0.07303835 -0.7023978 -0.18981111 0.16932634 -0.028902065 -0.068483986
-0.3417836 -0.08404624 0.41531166 0.10894388 0.4700333 -0.12962118 -0.116139665 0.8568888
-0.24079965 0.19601041 -1.1044825 -0.3944521 -0.04850728 0.044358075 0.08785044 -0.6074987
-0.23818801 0.41358903 0.13994472 0.48227286 -0.64665794 0.072067335 -0.39973488 -0.1671591
-0.538148 -0.28600064 -0.111983195 0.46291056 -0.058955513 0.31602526 -0.0025560986 0.55936646
0.0936103 -0.21533439 -0.078530625 -0.08524715 0.04014339 0.06241536 -0.16269499 -0.30250958
-0.88140994 0.6211474 -0.25803447 -0.12709303 -0.2340555 -0.6307164 0.26529503 0.015992295
0.0021471058 -0.19194698 -0.178987 -0.22094513 0.44907162 0.23829895 0.633782 -0.79019284
0.034888588 -0.57818156 0.31267902 -0.3436485 -0.062799364 -0.10904767 0.17903136 0.09471167
0.030813886 -0.3175233 0.097997144 0.3612567 -0.18625669 0.38089558 0.072779916 0.42526752
0.4570225 -0.4780683 0.027416721 -0.19567814 -0.4108405 0.21440586 -0.5373902 -0.10907968
-0.19599614 -0.33679023 0.12139058 0.5247774 0.39453253 -0.011467017 -0.095339656 -0.6027315
0.41392636 -0.2708249 -0.68323934 0.09902202 -0.11022976 0.47984383 0.076178305 -0.8594685
-0.24437876 -0.3347749 -0.06756334 -0.099945806 -0.84652823 0.124127984 -0.7137607 -0.10933919
-0.5071866 -0.3220186 0.44338706 0.061833717 0.22116698 -0.008647705 -0.47775787 -0.39382112

W.1 f4 [500, 5]
00000000: bf4d a03d 3e99 21bf 7682 99bd 47d5 e1be
00000010: d770 e4be 9a0a 413e 71f8 063f cdd6 a9be
00000020: bf4a e53d 97ec 68bf b997 8abd de32 683f
00000030: 8f7b 4c3e 2b93 cd3e 0f07 1fbf b386 5b3d
00000040: 3e1e d13e 3781 5bbe 14da 1b3e e48f 61bf
00000050: 36d5 9ebe a03e 7bbe 9b34 bdbe 3038 efbe
00000060: 7b5c f9be d973 933c ac57 1fbe c8c6 f2be
00000070: 65a2 0abf 8d49 09bf 0817 68be 034c e3be
00000080: 67fa 853e 05f5 98bd 3b91 a9be bcd0 2bbd
00000090: 7599 1bbf a27c 133e b892 f9be 6f01 d2be
000000a0: f68d 5fbe 1bd9 123f 72e6 41be 78d4 0c3f
000000b0: 3e89 153d a554 553e 34ad 513e 32c0 dbbd
000000c0: 8ddf 463e 42cd 15bf 5997 14be 5f70 35bf
000000d0: 4c11 033f 7460 2ebe 76b2 86be ecc8 363d
000000e0: e828 b6bd 0e43 f6be 0178 56be 06db 39be
000000f0: dc1c 353e f083 f03e 923f 9dbe a066 3a3e
00000100: 2f45 68bf 18ce 86bc 5613 80be 4b42 f7be
00000110: 6113 21bf c3d1 cabe a3a6 2f3e 3eb5 493f
00000120: 73ca dfbe 7412 013e 1e48 6cbf 1c13 aabe
00000130: dfd0 b6be 2c4b 253e 29c9 50be 152e f5be
00000140: f7da 453e 050c a43e f843 523e 1a55 023f
00000150: 8317 aabb 907d 333e 2807 2dbf a3b6 2abe
00000160: 761b e3be daa2 6dbe d51d 9c3e 53aa b1bd
00000170: e3f6 07bf 3e75 8fbe c541 2bbe 3c31 813d
00000180: e2f4 49bf d940 0c3e 8aa3 a2be e297 37bf
00000190: f038 3f3e 3145 dd3e 26d8 6ebe 5833 1c3e
000001a0: 57fc 43bf edac ee3d 642d ed3e 5544 123e
000001b0: 3dc8 1b3f d940 82be b688 9fbe 61f8 b53e
000001c0: bcc2 fabd 4396 063e 08f6 02bf 52c0 f53e
000001d0: 2cdd 16bf d8ac 61be 28c3 a9be 9417 01bf
000001e0: ee3b 9bbd 5d53 4a3f 88ae ec3d da1b b83e
000001f0: 00d5 16bf 5d68 4dbd 8957 f8be e2a6 673c
00000200: 3d7e fabe e690 62be bcd3 483e c39a 1e3f
00000210: 2ce8 a4be 3874 083f ca11 2dbf c94f 7fbd
00000220: a2b6 5a3e ef0b 323c a75b ae3d 48db bb3d
00000230: b2cb 1dbf aef2 233e ab0b 4c3e 8d58 533e
00000240: 8f6e c8be 09b4 463d a805 eabe 38f1 0d3b
00000250: 4329 74be eefc 79bf 9fd2 4dbe 4844 3cbe
00000260: f9d3 bfbe b2df c7be 5bb0 09bf abc7 9bbe
00000270: 27df 5f3e 7a77 bbbe ca3b 01bd a895 3fbf
00000280: 028f 01bf 4ef5 953c 71f2 0f3e b074 82bc
00000290: 25fd 2cbf 68b9 873e c3b6 10bf b1d1 8f3d
000002a0: 597c 0abf 40a5 29bf 92cc d2bc 661c 01bf
000002b0: c7f1 453e dde3 a0be 98f5 d8be c8c3 b5be
000002c0: bf74 dabc 536d 2e3e 9d84 2d3e f78d 41bf
000002d0: 246e 9bbe 2f0e 3e3f fc76 21bc 4e89 cb3e
000002e0: 2d39 b4be 6429 903d d1f2 ce3e 833a d03d
000002f0: 7170 f83e f8aa babe ae2f f43e cdc6 923d
00000300: bc21 71be 9d0e ca3c 7bb9 fcbe 2670 8c3e
00000310: 866e f23e 6350 b0be 4955 d33d 7613 c9be
00000320: aae6 a3bd 18a0 4b3f 3796 b739 7ed7 b73e
00000330: c49b a9be 4f97 8cbe 79c2 ccbe 3f5a babd
00000340: f601 f9be e276 76bf c880 893e 0e88 cd3e
00000350: 97ab 3dbe a083 293e ba64 61be dc46 e93d
00000360: f5ed 2c3f 624c 92be 080a cc3e 7661 2bbf
00000370: 7ae8 a9bd 7829 96bd 6276 0f3e fbab ef3c
00000380: 15a0 89be db18 01be 6510 b8be c261 99bd
00000390: 59b6 b8be ec33 5cbf 1503 ce3e cfef cb3d
000003a0: d776 033e 86a7 16bc e258 cc3e 87c1 9cbd
000003b0: 76b0 a5be 522a 183d 199d 5ebe 5c6f 57bf
000003c0: 49c6 e23c ddc9 06bf 0737 a03d d24d 0bbf
000003d0: 62ea 10bf 00c3 d6be fecb b83d 4f94 883d
000003e0: c6b3 ebbd f0bb 33be 0ec7 f53e ec3a acbd
000003f0: 5906 723d a6d4 cabd 4c25 2b3e df16 a43e
0.07827329 -0.63124454 -0.074955866 -0.4410803 -0.4461734 0.188517 0.5272284 -0.33171692
0.11195897 -0.9098601 -0.0676722 0.9070262 0.19969009 0.40151343 -0.62120146 0.053595256
0.40843385 -0.2143601 0.15219909 -0.88110185 -0.31022042 -0.24535608 -0.36954197 -0.46722555
-0.4870337 0.017999576 -0.15560788 -0.47417283 -0.54154044 -0.53627855 -0.22665036 -0.4439393
0.26167604 -0.07468609 -0.33118615 -0.04194711 -0.6078103 0.14403012 -0.4874475 -0.4101672
-0.21831498 0.57362527 -0.18935564 0.550117 0.036507837 0.2083307 0.20476228 -0.10730018
0.19421215 -0.58516324 -0.1451086 -0.7087459 0.5119827 -0.17028981 -0.2630803 0.044625208
-0.08894521 -0.48098034 -0.20944215 -0.18149957 0.1768679 0.4697566 -0.30712563 0.18203211
-0.90730566 -0.016455695 -0.25014752 -0.48292765 -0.62920195 -0.3961316 0.1715341 0.7879218
-0.43709144 0.12604696 -0.9229754 -0.33217704 -0.3570623 0.16141957 -0.20389237 -0.4788672
0.1932181 0.3204042 0.2053374 0.50911105 -0.005190791 0.17528367 -0.67589045 -0.16671233
-0.4435689 -0.23206654 0.3049151 -0.08675065 -0.53111094 -0.28019136 -0.16724308 0.06308219
-0.78889287 0.13696612 -0.31765395 -0.7171613 0.18674064 0.4321685 -0.23324642 0.15253961
-0.76556915 0.11654077 0.46323693 0.14283879 0.60852414 -0.254401 -0.3115899 0.3554106
-0.12244174 0.13143258 -0.51156664 0.4799829 -0.5893123 -0.22038591 -0.33156705 -0.504266
-0.0757979 0.7903345 0.11556727 0.3595875 -0.5891876 -0.050148357 -0.48504284 0.014138909
-0.48924437 -0.22125587 0.1961202 0.619549 -0.32208383 0.53302336 -0.6760527 -0.06233195
0.21358731 0.010867103 0.08513575 0.09172684 -0.6163894 0.16010544 0.19926326 0.20639248
-0.3914685 0.04851154 -0.4570744 0.002165867 -0.23843865 -0.97651565 -0.20099877 -0.18385422
-0.3746641 -0.39037853 -0.5378472 -0.30425772 0.2186247 -0.3661459 -0.03155116 -0.7483773
-0.5060884 0.018305447 0.14057328 -0.015924782 -0.6757377 0.2650864 -0.5652887 0.07022417
-0.5409599 -0.66267776 -0.025732312 -0.5043396 0.19330512 -0.31423846 -0.42374873 -0.35500932
-0.026666997 0.17033891 0.16945119 -0.75607246 -0.30357468 0.7424039 -0.009855028 0.39753193
-0.35199872 0.07039145 0.4041963 0.1016741 0.48523286 -0.36458564 0.47692627 0.071668245
-0.23548025 0.024665171 -0.4936026 0.27429312 0.47349948 -0.3443633 0.10319001 -0.3927266
-0.0800298 0.7954116 0.000350164 0.35906595 -0.33126652 -0.2745919 -0.3999212 -0.09099244
-0.4863431 -0.9627515 0.26856065 0.40142864 -0.18522488 0.16554117 -0.2201108 0.113904685
0.67550594 -0.285739 0.39851403 -0.6694559 -0.082962945 -0.07332128 0.14010003 0.029256811
-0.26879945 -0.12607138 -0.35950008 -0.07489349 -0.3607662 -0.86016726 0.40236726 0.09957849
0.12838303 -0.009195214 0.39911562 -0.076541 -0.32361192 0.037149735 -0.21739615 -0.84154296
0.02768244 -0.5265177 0.07822996 -0.5441562 -0.5660764 -0.41945648 0.090232834 0.066689126
-0.115088984 -0.17552161 0.4800343 -0.08409676 0.059088085 -0.09903841 0.16713446 0.320487

W.2 f4 [1, 5]
00000000: 4aa2 833e 9785 e5bd 4fce b8be 44d0 0b3d
00000010: 4032 0cbf
0.25709754 -0.11207121 -0.360949 0.034134164 -0.54764175

U.0 f4 [500, 200]
00000000: 01bc 17be 2cc3 c63e 9759 393e 47ae 31be
00000010: dee7 883e f23c 74be 7b34 8bbe 177a 50be
00000020: 2cac 553e c9da 8c3e 075d 993e e46a 4ebe
00000030: 7696 8cbe c03a 613e 2490 aa3e e89b d43d
00000040: ed94 6c3e a6e6 833e da1f 5ebd 3320 dc3d
00000050: 6b6d 81be ca3b 60be c9ac a8be 8e4b 9dbe
00000060: 96c0 703e f1af 5abe 5607 9dbe db68 54be
00000070: 305f 89be c955 80be 326c 4ebe f4ce 81be
00000080: f6d8 97be 0af6 723e 9949 94be 97d8 4fbe
00000090: 85e4 f4bc 8393 14bd b217 13be 2aec 9cbe
000000a0: b703 3f3e 5a82 92be 7d4e 35be 435e 9bbe
000000b0: e04c 56be 6ac1 24be 1495 443e 48d4 28be
000000c0: 8434 863e bc4b a33e 2707 20be 955f 6dbe
000000d0: 40a6 65be 1414 82be 877c 7ebe f983 743e
000000e0: 6ce5 94be 9a17 3b3e 0bd6 54be c353 563e
000000f0: b035 973e 72c8 b53e e5a4 443e b333 91be
00000100: dcab 463e 116d 233e e8c5 e03d 0cbf 3abe
00000110: 3db1 65be 94cd 793e a347 4a3e 5219 a2be
00000120: 640c 5c3e 6170 80be c141 edbd cb14 8bbe
00000130: 2a17 953e 00fa 0fbe de1e 89be cdbf 9fbe
00000140: 103f 95be 0e45 56be f47b 49be cc3e 933e
00000150: 4254 63be f10d 52be 1bd8 0dbe 934e 93be
00000160: 6485 6abe 0120 783e 8885 71be 9c87 6ebe
00000170: 8c3e b53e b7f5 9c3e 6066 67be 1eec 14be
00000180: b381 7fbe 60aa 1abc ab08 133e 7e21 8fbe
00000190: 34fc 5a3e 9366 80be 88bc 3dbe f9c6 3f3e
000001a0: bbf9 923e 43c8 49bd 8b0e 94be 6afe 41be
000001b0: 290e ad3e bfd9 3f3e 8603 613e 964f 91be
000001c0: b1aa 2b3e dd96 1dbe 309c 8b3e 8ca8 35be
000001d0: 5422 8fbe 16f8 67be ba08 5cbe a62d 98be
000001e0: 8d67 39be 9707 a2be c8b2 4dbe e0a7 5cbe
000001f0: c445 a23e e748 7a3e a783 4a3e 5140 903e
00000200: 9b69 7fbe 56dd 673e 43e4 96bd dc86 4d3e
00000210: 2191 4dbe dff6 7cbe a3d7 51be d80b 75be
00000220: d062 a3be 409d 2f3e 937f 863e 575c 49be
00000230: 6d12 81be 308b 4bbe 240e 5e3e b1c1 8b3e
00000240: df1f 23bd b1f9 45be 97cf 93be d2ff 92be
00000250: 7140 41be 256d 80be a73a 58be ec51 96be
00000260: 4d87 803e ca20 a43e d540 5cbe bbfd 3d3e
00000270: a5a8 40be 6406 75be 9ad1 60be 8d23 9dbe
00000280: 0319 65be 7277 d83d d729 953e 62a3 9bbe
00000290: 9dc7 abbe a96f 4c3e 597f 26be 09b2 7abe
000002a0: 4313 61be e48f 9b3e c8ef 0ebe 303d 6a3e
000002b0: e4a8 91be 8c12 78be bcdf 4abe b67b 453e
000002c0: a14d 22be 16fe 8bbe af66 a1be 3eb2 3f3e
000002d0: 59e0 753e cf1f 7d3e 513e 6bbe 6584 66be
000002e0: 8d4b 88be b824 85be 19fa 3cbe eef7 89be
000002f0: 6f3d 4cbe f691 a13e 77cd 16be 4d2c 3fbe
00000300: e552 323e e6df 87be 68c8 9c3e e354 4ebe
00000310: 1757 7dbe c6a7 693e 448e 7cbe 04f5 803e
00000320: ee3f 60be 24ae 4ebe 3951 41be 1503 8d3e
00000330: 40e9 573e c1ee 29be 703f 0bbe 6455 893e
00000340: c973 87bc 40c3 6e3e e686 dd3d d844 f73d
00000350: 485b 893e bef9 84be bfe7 83be cbaa 71be
00000360: 9794 2c3e 63ea 583e e7e7 37be efe1 4dbe
00000370: 635e 463e df94 483e f564 16be e644 18be
00000380: 4402 80be 13bd 8cbe e455 6d3e 3138 7bbe
00000390: 7dde 473d 4ca5 3e3e b02b d03e 8703 7bbe
000003a0: 2406 963e 6acb 6a3e e9df 853e be2f 6bbe
000003b0: 5555 823e cfdd 6bbe fab2 52be e7ca 853e
000003c0: dbf2 013e 2609 be3e f9b6 463e bc0b 45bd
000003d0: d3b9 59be 029e 7b3e 792e 443e 50b8 2fbe
000003e0: 4387 63be ce47 5d3e 7d3a a73d c35f b3bd
000003f0: c9c5 443e ad7a 353e 6d18 943e 1ba5 953e
-0.14817812 0.3882078 0.18100582 -0.17351638 0.267394 -0.23851374 -0.27188477 -0.20359074
0.2086646 0.2751067 0.29953787 -0.20157963 -0.27458543 0.21995068 0.33313096 0.10381299
0.23103686 0.25761908 -0.054229595 0.10748329 -0.25278792 -0.21897808 -0.32944325 -0.30721706
0.23510966 -0.21356179 -0.3066966 -0.20743124 -0.26830435 -0.2506545 -0.2015846 -0.25353205
-0.29657716 0.23726669 -0.289624 -0.20297466 -0.029894123 -0.03627349 -0.14364508 -0.3064893
0.18653761 -0.28615075 -0.17705722 -0.30345353 -0.20927763 -0.16089407 0.19197494 -0.16487229
0.2621194 0.31893718 -0.15627728 -0.23180993 -0.224267 -0.25405943 -0.24852191 0.23878469
-0.29081285 0.18270722 -0.20784776 0.2093039 0.29533148 0.3550449 0.19203527 -0.28359756
0.19401497 0.15959574 0.109752476 -0.18236941 -0.22430892 0.24394828 0.1975389 -0.31659943
0.21489102 -0.25085738 -0.11584807 -0.271643 0.29119235 -0.14060211 -0.26781362 -0.3120102
-0.29149675 -0.2092478 -0.1967619 0.28758848 -0.2220011 -0.2051313 -0.13851969 -0.28770885
-0.22902447 0.24230959 -0.23586094 -0.23293918 0.35399282 0.30656216 -0.22597647 -0.14543197
-0.2495182 -0.009440035 0.14358775 -0.2795524 0.2138527 -0.25078258 -0.1852895 0.18728246
0.28706154 -0.04926325 -0.28917345 -0.18944708 0.33799866 0.18735407 0.21974 -0.28381032
0.16764332 -0.15389581 0.272676 -0.17740077 -0.27955878 -0.22653231 -0.21487704 -0.29722327
-0.18105908 -0.31646416 -0.20087731 -0.21548414 0.31693852 0.24441873 0.19776784 0.2817407
-0.24942629 0.22643027 -0.07367756 0.20070976 -0.20074894 -0.24703549 -0.20492415 -0.239303
-0.31911325 0.1714983 0.26269206 -0.19664131 -0.2520937 -0.19877315 0.21685082 0.27296212
-0.039825317 -0.19333531 -0.28869316 -0.287108 -0.18872239 -0.2508327 -0.21116124 -0.29359376
0.25103226 0.32056266 -0.21509106 0.18553822 -0.18814333 -0.23928219 -0.21954957 -0.30691186
-0.22372822 0.105696574 0.29133484 -0.3039809 -0.3355073 0.1996447 -0.16259517 -0.24481978
-0.21980004 0.30383217 -0.13958657 0.22874904 -0.28449166 -0.24225825 -0.1981191 0.19285473
-0.15849926 -0.2734229 -0.31523654 0.18720338 0.24011363 0.24719165 -0.2297299 -0.22511442
-0.2662014 -0.26004577 -0.1845478 -0.26946968 -0.1994531 0.31556672 -0.14726816 -0.18669243
0.17414434 -0.26538008 0.30621648 -0.20149569 -0.24740253 0.22817907 -0.24663645 0.25186932
-0.21899387 -0.20183617 -0.1887864 0.27541414 0.21085072 -0.16594984 -0.13598418 0.2682296
-0.016534703 0.2331667 0.108167455 0.12073678 0.26827455 -0.25971788 -0.25762746 -0.23600309
0.16853558 0.21183161 -0.17959557 -0.20105718 0.19371943 0.1958804 -0.1468695 -0.14870033
-0.2500173 -0.27488002 0.23177296 -0.24533154 0.048796166 0.18617743 0.4065833 -0.24513064
0.2930156 0.22929159 0.26147392 -0.22967431 0.25455728 -0.23033832 -0.20576087 0.26131365
0.12690298 0.37116355 0.19405736 -0.048106894 -0.21262293 0.24571994 0.19158353 -0.17160153
-0.22219567 0.21609423 0.08165453 -0.087584995 0.19216074 0.17722578 0.28924885 0.29227528

U.1 f4 [1, 500]
00000000: 88e0 793e 520e b03e 4c5e ab3e fe6c 473e
00000010: cfed 543e 3715 2d3e 9b1e 813e f6b9 803e
00000020: bb68 6b3e 498f a5bd be57 573e 4d8a 03bd
00000030: f550 693e 572d 543e ca24 b63e 3912 213e
00000040: e07f 833e 759e 953e a3e3 11bd 370d 9b3e
00000050: aa0e 943e dc1d 8b3e 169c 3d3e 3e52 853e
00000060: 3e35 8c3e 8cac 803e e80b 7c3e 8d32 2cbe
00000070: 790c 4bbe 9e5f e53d 8abf 0e3e 700f 30be
00000080: 2117 6bbe 01c1 423e 4c5a 5d3e 3c55 46be
00000090: dbbb 7f3e 0305 5c3e 478a 2abe c818 073e
000000a0: 03eb 953e 34cd 503e 48ac 373e 4d95 873e
000000b0: 612e 29be 8716 513e 7988 5ebe 6a5e 703e
000000c0: 5ca0 513e 9d55 7bbe b49d 52be 438b 5abe
000000d0: bf6f 7d3e bbdd 30be 4df6 5b3e 166b 6ebe
000000e0: 893f 803e 7ff5 5d3d 627c 31be fbba 76be
000000f0: d977 333e bee7 3d3e f125 3bbe bb29 ff3e
00000100: 8cfd f63d f2de 26be cc5e 98bd 3187 4fbe
00000110: eb64 9c3e bf8c 493d b9ee 8f3e 0bc0 943e
00000120: 26b0 4a3e ed25 8c3e 8c2a 4abe a100 743e
00000130: 43e1 d9bd a0b6 0cbe c101 71be 39c8 a73e
00000140: bdf4 893e c514 65be be34 1cbe cfa9 6f3e
00000150: 0a5a 2fbe 66ea 293c fbb7 573e cfe0 833e
00000160: 0413 64be aa39 773e 1099 46be 3236 9f3e
00000170: 40d1 6f3e ae4a 543e 9bf5 bdbd 350f 633e
00000180: 972c 5bbe 9546 6b3e 42da 873e 688c eabd
00000190: 0e6d 573e 4896 acbd 6760 7fbc 9533 36be
000001a0: 652f a13e 192d 323e f0ea 413e b934 edbd
000001b0: 4d6b 013e 213d 83be 4ec4 733e 1b8e 853e
000001c0: 008e 7c3e c6e0 7cbb 8b0b 533e 4683 bf3d
000001d0: c178 83bc 3f13 76be 2a87 883e ab7b 813e
000001e0: db8e c4bd d9c1 61be ff43 693e 58ab 3ebe
000001f0: 12ac 393e fd24 923e f710 893e 0418 30be
00000200: 4879 13be f5f5 34be 5240 81be 8d6e dbbd
00000210: d749 4ebe aefa 05be dad4 30bd 9093 43be
00000220: 4a3e 723e 779a 5cbe c36d 29be 03ff 4c3e
00000230: e2b5 423d 831f 963e 07f5 5d3e faaa 773e
00000240: b205 64be f3bd adbd 0096 e8bd 1101 4bbd
00000250: 681a 7cbe 4be3 533e 7797 3ebe 2035 6a3e
00000260: 02e2 7abe a120 9abd 86a4 5b3e f64e 8b3e
00000270: 0ac3 3fbe a07e 59be 66e0 803e c744 743e
00000280: 5277 6e3e 5141 863e 65dd 6ebe 907b 5ebe
00000290: 5d6a c33d 901b 6cbe 0aaa 69be 1084 2fbe
000002a0: ed6c 643e f284 5d3e 373b 3abe beb1 543e
000002b0: ab7d 1cbe e4ba 23bd 725c 4ebe 824c 823e
000002c0: 2d87 a23e 7d76 813e 01f2 41be 1a24 843e
000002d0: e51b 6b3e a8df 3b3e fc63 663e 85b4 60be
000002e0: 6ad5 8a3e be6b 843e d38c 48be 7ce7 24be
000002f0: f9c9 34be 0266 31be 16dc fdbd c200 d9bd
00000300: fb77 49be ce5a 4d3e 4ef2 4fbe 11fc 21be
00000310: 9195 91bd 831e 8d3e b65b 38be 0ba3 163e
00000320: 6973 883e 29ba 4a3e 6cb3 613e 3370 8bbd
00000330: b2d8 86be ef98 543e 012a 71be 6baa 153d
00000340: 3ce1 953e 19f9 5c3e 5037 3ebe 0a4c 893e
00000350: 0329 4abe b855 73be a4c0 243e 9356 69be
00000360: 01a5 893e 53bf 843e 3953 56be 4c21 78be
00000370: d3db 733e 9324 6a3e c261 6a3e 4a17 6e3e
00000380: 1e80 803e 2c93 b6bd faf4 823e 6a1d 40be
00000390: 1261 4dbe cf0a 683e 5864 0ebe b2c4 853e
000003a0: 02fc 8b3e cb13 22be 960f 84bc 6d4e 2f3e
000003b0: 685a 4bbe d268 6e3e 0809 673e 14a9 603e
000003c0: 2915 653e 8f1f 38be 83c9 4d3e f96f 63be
000003d0: 3156 f4bd 7165 e8bd bc03 34be 31aa 31be
000003e0: c61e 31be be16 27be cbc2 5ebe b68f 6e3e
000003f0: 316f 02be 7648 7ebe c4cd 37be df10 273e
0.24402058 0.34385926 0.3347038 0.19475171 0.20793842 0.16902624 0.25218663 0.25141877
0.2298917 -0.0808397 0.21029565 -0.032114316 0.22784789 0.20720421 0.35574943 0.15729608
0.25683498 0.29222456 -0.035617482 0.3028352 0.28917438 0.27171218 0.18516573 0.26039308
0.2738437 0.25131643 0.24613917 -0.16816159 -0.19828977 0.11199878 0.13940254 -0.17193389
-0.22958042 0.19018938 0.21616477 -0.19368452 0.24974005 0.21486287 -0.16654311 0.13193047
0.29280862 0.20390779 0.17936814 0.26481095 -0.16521598 0.2041875 -0.21731748 0.23473516
0.20471328 -0.24544378 -0.20567971 -0.21342187 0.24749659 -0.17272083 0.21480675 -0.23283038
0.25048473 0.0541892 -0.17332605 -0.24094765 0.17526187 0.18545434 -0.18276192 0.49836525
0.12060079 -0.16295984 -0.07439956 -0.20266415 0.30545744 0.04920649 0.28111818 0.29052767
0.19793758 0.27372685 -0.19742793 0.23828365 -0.106386684 -0.13741541 -0.23535825 0.32769945
0.26944533 -0.22371204 -0.15254495 0.2340462 -0.17124191 0.010370826 0.21066277 0.25757453
-0.22272879 0.24143091 -0.19394326 0.31096035 0.23419666 0.20731613 -0.09275361 0.2217377
-0.21403728 0.22976144 0.26533705 -0.114525616 0.21037695 -0.084271014 -0.015586949 -0.17793114
0.31481472 0.17400016 0.18937278 -0.11582322 0.12638588 -0.25632575 0.23805353 0.2608498
0.24663544 -0.0038586124 0.20609872 0.0935121 -0.01604879 -0.2403078 0.26665622 0.25289664
-0.0959756 -0.22046603 0.22779845 -0.1862005 0.18132046 0.28543845 0.26770756 -0.17196661
-0.14401734 -0.1767195 -0.25244385 -0.10714445 -0.20145355 -0.13083908 -0.04317174 -0.1909926
0.23656574 -0.21543299 -0.16545777 0.20019154 0.04753674 0.29320917 0.21675502 0.24186316
-0.22267798 -0.084834956 -0.11356735 -0.049561564 -0.24619448 0.20692174 -0.18612467 0.22871828
-0.24500278 -0.07525755 0.2144948 0.2720868 -0.18726745 -0.2123971 0.25171202 0.23854361
0.23287705 0.26221707 -0.23326643 -0.21726823 0.095417716 -0.2305739 -0.22818771 -0.17140222
0.22307177 0.21632746 -0.18186651 0.20770928 -0.15282314 -0.039973155 -0.20152453 0.25448996
0.31743756 0.25285712 -0.18939973 0.25808793 0.2295986 0.18347037 0.22499079 -0.21943863
0.27115947 0.2586345 -0.1958497 -0.1610393 -0.17655171 -0.17324069 -0.12395494 -0.10595848
-0.19674675 0.2005417 -0.20307276 -0.15818812 -0.07108606 0.2756234 -0.18003735 0.14710633
0.2665055 0.19797577 0.220411 -0.0680851 -0.263372 0.20761465 -0.2355118 0.036539476
0.29273403 0.21579398 -0.18575788 0.26815826 -0.19742207 -0.23763168 0.16089112 -0.22786932
0.268837 0.2592722 -0.20930184 -0.24231452 0.23814325 0.22865514 0.22888854 0.23251072
0.25097746 -0.089147896 0.25577527 -0.1876122 -0.2005656 0.22660373 -0.13905466 0.2612663
0.27340704 -0.15827863 -0.016120713 0.17119761 -0.19858706 0.23282173 0.22562039 0.21939498
0.22371353 -0.17980789 0.20096402 -0.22210683 -0.11930502 -0.113474734 -0.1757955 -0.17350079
-0.17296895 -0.16317269 -0.21753995 0.23297009 -0.12737729 -0.24832329 -0.17949587 0.1631503

bias.0 f4 [200]
00000000: 3e50 d5be 6b45 e03e 71e1 0c3f 1ec9 efbd
00000010: 5e07 ae3d 7900 bfbd ef4b 023f 5cbf f53d
00000020: 5c92 4a3e ad3f 0d3e 8295 5ebe 8e71 acbe
00000030: 7825 133e bd84 303c ca17 df3d 2c7f 763c
00000040: b4df d63d 0694 1bbd e33c 4c3f c4f1 fcbe
00000050: 621c bfbc d045 10bd 43b7 1c3f ad5f f1be
00000060: 5b90 803e a760 0ebf 6d36 47bd d547 f6be
00000070: 265b 983d 4651 63bd dce4 153e 1523 8a3e
00000080: 2836 c23d 15b9 adbd 9e10 75bc 18c7 993e
00000090: 4b88 333f 50fd 8bbe 914c b4bd 73d5 d13d
000000a0: ce01 743e 5c7b fd3e f792 5ebe 97ce b73e
000000b0: 9c05 0d3f d42d 38be 90d5 d53d 504e df3e
000000c0: ce8c 39be 59cd 5bbd 0a46 eb3e d784 103f
000000d0: 5bf6 ce3d 9949 283e 0570 c43d 6d9b 0a3e
000000e0: 69c5 ac3e a5ea a6bd 74cd 01be 1096 e1bd
000000f0: 29ad ca3d 7837 81bc 8d39 89bd 71aa b43e
00000100: 8919 653e b19c a23d b822 203f 622e eebe
00000110: 40fb 113f 86d8 29be 0437 9c3e ac73 223e
00000120: 8ff7 c6bc 46ea d6be f130 f93e 2a5b 12bf
00000130: 794d 1d3e 88df 843e 88b3 ac3d 210f 4b3d
00000140: 5b9c 443e e3c8 cd3e 33fd f8be 23a1 d43d
00000150: 25eb e83d 75a5 cebe 9905 e6be 9cc3 26bd
00000160: a802 0f3c 98f6 7b3e 2703 183f e11e 2f3f
00000170: a828 173e 9d24 693e 191c 023f 1c6e b3be
00000180: d906 eabe 1df2 1bbc 59b8 f7b9 aab0 0a3f
00000190: bef6 493e 741d 053f 2df3 563d e053 343e
000001a0: 881d 113e 73f0 a83e 3997 713e fe81 b9be
000001b0: 9962 433e 2401 6b3e b4e4 773d dfa0 fb3e
000001c0: 5711 963d f2ef 01bf 457e 3a3e 3f7b d13d
000001d0: 1905 743d 3a41 1dbf 686d 5a3e 288d 0a3e
000001e0: 3b85 5a3e a779 c53e 68cf 883e d16c 713e
000001f0: 2d15 063d 6270 bb3d eb27 463e 4218 913e
00000200: 9896 0cbf ab48 c43d d029 153f 366a 0d3e
00000210: 4679 47bd 53a1 273f b1b1 00bf 25df bc3e
00000220: 4a00 0d3f 6800 d23e 55ae 0ebe 9bfb 29be
00000230: 66af e1be 6091 07bd ac27 173d b149 123c
00000240: 05cc d0bc 7fea 813e 7b12 973e 5765 813e
00000250: f6a5 97be f36f 9c3d f45d 003f ed40 ed3e
00000260: ac31 513d 454f 923c fd62 abbe df9a 86be
00000270: 8e88 ba3e f920 ec3e 0576 f03e 9582 3f3e
00000280: 388b 203d bf15 8d3e d39e 493d 237e 5f3d
00000290: 5ef4 22be d02d eb3d 721b 083f 5025 573e
000002a0: e16b 213f 136e 103d d049 843d d510 7c3e
000002b0: b195 01bf b97c b03e 9067 d73d 1123 543e
000002c0: 9ae7 cdbe d3f0 313e 078d 35bd f18d 3b3c
000002d0: 066a 133e b268 bdbd 7839 263e 645c e13e
000002e0: 675d 8f3d 8f24 383d a1bf 273f 0c79 753e
000002f0: 3309 1abd 4ce1 c13d 1258 99be be87 a33e
00000300: b994 c0bd ef8f 1f3e c410 cd3e 2cf4 4abe
00000310: 760d 42be e505 c2bb 718d 473e 64d1 ab3e
-0.41662782 0.43802962 0.55031496 -0.11708282 0.08497499 -0.09326262 0.50897115 0.119993895
0.19782394 0.13793822 -0.2173672 -0.33680385 0.14369762 0.010773835 0.10893209 0.015044969
0.10491887 -0.037982963 0.79780406 -0.49403203 -0.023328964 -0.03522283 0.61217135 -0.47143307
0.25110134 -0.5561623 -0.04863589 -0.48101678 0.0743926 -0.05549743 0.14638084 0.2697989
0.09482986 -0.08482567 -0.014957575 0.3003471 0.7012984 -0.273417 -0.088036664 0.1024579
0.23828813 0.49508178 -0.2173575 0.35899803 0.55086684 -0.17986232 0.104411244 0.43614435
-0.18120119 -0.05366263 0.45951873 0.564527 0.10105582 0.16434325 0.095916785 0.13535853
0.33744362 -0.08150224 -0.1267603 -0.1101495 0.09896309 -0.01577352 -0.0670043 0.35286286
0.22373022 0.07940043 0.62552977 -0.46519762 0.57024 -0.16586503 0.30510724 0.15864438
-0.024287967 -0.4197561 0.48670152 -0.57170355 0.15361585 0.2595179 0.0843268 0.049574975
0.1920027 0.40192327 -0.48630676 0.10382297 0.11372975 -0.4036061 -0.44926146 -0.04071389
0.008728661 0.24605787 0.5937981 0.6840649 0.14761603 0.22767873 0.50824124 -0.35044944
-0.4570835 -0.0095181735 -0.0004724886 0.5417582 0.19723031 0.51998067 0.052478004 0.17610121
0.14171422 0.32995948 0.23592843 -0.3623199 0.19080581 0.22949654 0.060520843 0.49146172
0.07327526 -0.5075675 0.1821223 0.102285855 0.059575174 -0.6142765 0.21330798 0.1353041
0.21339886 0.38569376 0.26720738 0.23576666 0.03273504 0.09152295 0.19351165 0.2833882
-0.5491729 0.09584173 0.58266926 0.13810048 -0.04869964 0.65480536 -0.50271136 0.36888996
0.55078566 0.41015935 -0.1393369 -0.16599886 -0.4407913 -0.033097625 0.03690307 0.008928702
-0.02548791 0.2537422 0.29506287 0.2527263 -0.29618806 0.0763854 0.5014336 0.46338597
0.05107276 0.017860064 -0.3347396 -0.26290032 0.36432308 0.46118906 0.46965042 0.18702157
0.03919527 0.27555653 0.049223732 0.054563653 -0.15913531 0.114833474 0.5316688 0.21010327
0.63055235 0.035261225 0.06459391 0.24615796 -0.50619036 0.34470156 0.105178 0.20716502
-0.4021576 0.17377023 -0.044323947 0.011447416 0.14395913 -0.09248485 0.1623286 0.440158
0.07000237 0.04495674 0.6552678 0.23971957 -0.03760643 0.094668 -0.29950005 0.319395
-0.094033666 0.1558225 0.40051854 -0.19819707 -0.18950447 -0.005921113 0.1948755 0.3355819

bias.1 f4 [500]
00000000: da2a fa3d 8203 df3e d17c 3fbe b51e bfbc
00000010: 5cd4 94be 98ac b1bb 9567 a13d 729f 78be
00000020: 3111 ea3d a8f2 1c3f 86dd 6ebe e66e 003f
00000030: 11d7 21bd 2716 42be 193d 873d b538 213e
00000040: dcef c3be 7b7d 01be 7173 e83e 6084 0dbe
00000050: 3cf6 303c d623 68be 4637 d0bc a93a b23d
00000060: 898a 183d e868 d2bd 75ad 19be 4d7a d23e
00000070: d0a0 b23e 2f6c 363e eec9 963e d622 2b3e
00000080: 7b94 9dbd 48d4 1bbe 11cd f7bd 472a a13e
00000090: be21 2cbe 6b79 8abe d209 10be fef6 e13e
000000a0: e756 c4bd e583 7abd ac9b e2bd b963 22be
000000b0: 7515 82be b1b3 c43b 9d09 233f 06e6 82bd
000000c0: 632d 3ebe 9256 e43e 7fb1 c43e ad18 debe
000000d0: c8f2 92be 1311 ba3e 4c3e 2a3e 0f91 15bf
000000e0: e4af 3d3d 6fff 913e 4cb9 cc3e d48d 20bf
000000f0: b910 d33d 53da 3c3e 2489 ba3e b2ae de3e
00000100: f281 bdbd 3f42 b43e cbae ec3c c4ae 57be
00000110: b8b9 8cbd 36ab 973e 4a81 0a3e b4b6 f0bd
00000120: 0104 543e ce9c 2dbe 47d7 1bbf 44d7 03be
00000130: 52c2 06be d9de 043f 255a 1dbf 3479 d4bd
00000140: b1d5 283e 4261 d5be f6ce 5e3e 9ce7 943d
00000150: 74cb b6be 11d4 60be 8072 7ebe 6989 18be
00000160: 4d78 f53e 3c76 55be b6c7 013f 4b63 063f
00000170: 5891 24bd 69d5 b03d 96dc bb3e ab58 25bd
00000180: cf29 a6be 8746 34be f53b 37be dc0c 023e
00000190: 23c7 b83d bda8 7f3e 1c60 b63e 4aaf c83e
000001a0: 866f ea3e 98b9 5d3d 06c1 94bd 722f 5dbe
000001b0: b439 003f e980 173f 4b8c b2bd f0aa 2abe
000001c0: 61dc 463b 76d8 4b3e dd6f 76be 479f 93be
000001d0: 23e1 ad3d 719b bb3e c65b 9b3e 2a55 0cbe
000001e0: 810d 083f cdb8 b63e 278f 82be 7c8b be3e
000001f0: ead5 ac3e 2c79 70bd da3a 913e d507 f53e
00000200: fb3c c73d 85c4 b13e f515 b83e 9277 ae3e
00000210: fb11 f93e c697 0f3f 5675 da3e 243a 21bf
00000220: 851f 35be 92b2 bf3e 5ba9 97be 9e5a 39be
00000230: 3746 bdbd 4b4b 2dbe 2ec4 12be e061 80bc
00000240: 2948 fc3e a46d 283f 8409 153f ae7e 653d
00000250: db08 4ebe e131 6dbe ad04 143f e6d7 9cbe
00000260: bf73 dfbd a670 dcbe e907 3bbe 0843 40be
00000270: 108c 1d3f b28d 673e 1985 473e bba0 243a
00000280: 6d3d acbd d13e 263e bd1a 003f 998e ffbe
00000290: 7827 a13e b4b0 10bf 6e7b 1c3f 4bae be3e
000002a0: 5104 9c3c 2b46 09be 9c87 b9be 895e 5cbe
000002b0: 7dd2 063f dd02 7f3e 7a0a fdbe c932 31be
000002c0: e935 a0bd f647 cdbd 066c 9d3e a925 6bbe
000002d0: e861 2bbe 2b81 26be 0b0f d1bd 5128 b63d
000002e0: 21a1 a4bd e88e eabc a83d f43d 4832 953e
000002f0: 1dad f0bc 716d 47bd 4256 8e3e cc8a a4be
00000300: 8a02 4abe 9d59 e3bd 2498 403e 7db8 c73e
00000310: c509 2bbe a6a3 9bbe 0fd8 0f3f 1cb5 ffbd
00000320: 2be6 34bd be2b 3bbe 92d0 dcbd 2009 5abb
00000330: 3db5 20bf afc7 ddbd 9cf9 f03e 0e37 d53b
00000340: 9e51 d9bd 6c50 373d 6674 2e3e 2249 55be
00000350: 530b 9d3d 29b0 0bbf 6348 79be aa9a a63d
00000360: 6407 843d a481 d3bd bf9a 933e bd15 013e
00000370: aa41 8a3d 74b4 5f3e 43a2 25be 1cd9 d53b
00000380: 1535 1d3e b3de 933e c3dd 813d e7d7 8ebe
00000390: f187 483d 1c04 e1bd fcee 003f e4c7 6ebe
000003a0: 6007 873e dedd c4be 60d9 2fbe 4c01 50be
000003b0: 7bcc 5abe 2bb1 733e 5bd1 343d e216 78be
000003c0: 0b9c 91be e662 5bbe 5ba0 ae3d 79e3 f7bd
000003d0: e878 153e ce3e d13d 6766 0f3f 8b60 0d3f
000003e0: c9fe d73e 5cdf 1abf 1ba3 b6bd c7d7 993c
000003f0: 606e 553e 0a31 543d cf42 443e f4a8 54be
0.122152045 0.43557364 -0.18699957 -0.023330072 -0.29068267 -0.005422186 0.07881085 -0.24279574
0.1142906 0.61307764 -0.23326692 0.5016922 -0.039511744 -0.18953763 0.0660345 0.15744288
-0.38268936 -0.12645523 0.45400575 -0.13820028 0.010800894 -0.2266992 -0.025416981 0.08702595
0.037241492 -0.102739155 -0.15007575 0.41108933 0.34888315 0.17814706 0.29450935 0.16712508
-0.07694336 -0.15217698 -0.1209966 0.31477568 -0.16809747 -0.2704576 -0.14066246 0.44133753
-0.09586888 -0.06116094 -0.11064848 -0.15858354 -0.25406995 0.006002866 0.63686544 -0.0639153
-0.18572001 0.44597298 0.3841667 -0.433782 -0.28700852 0.36341152 0.16625327 -0.58424467
0.04631032 0.28515193 0.3998512 -0.6271641 0.10305924 0.18442659 0.36432755 0.43492657
-0.09253301 0.35206792 0.028891942 -0.21062762 -0.068713605 0.2962281 0.13525882 -0.11753598
0.20704652 -0.16954347 -0.6087536 -0.12875086 -0.13160065 0.5190254 -0.61465675 -0.1037468
0.16487767 -0.41675764 0.21758637 0.072707385 -0.35702097 -0.21955897 -0.24848366 -0.14896168
0.47943345 -0.20845884 0.5069536 0.5249526 -0.040177673 0.08634455 0.3669173 -0.040367763
-0.32453772 -0.17605029 -0.17893966 0.12700218 0.09022357 0.24966712 0.356202 0.39196235
0.4578821 0.054132074 -0.07263379 -0.2160013 0.5008805 0.59181076 -0.08718165 -0.1666677
0.0030343758 0.19906792 -0.2406611 -0.28832456 0.08490207 0.3664203 0.30343455 -0.13704363
0.53145605 0.35687867 -0.25499842 0.37215793 0.33756953 -0.05870931 0.28365213 0.47857538
0.09728428 0.34720245 0.35954252 0.340756 0.4864653 0.5609096 0.42667645 -0.6297934
-0.17687805 0.37440926 -0.29621395 -0.18100974 -0.09241908 -0.16923253 -0.14332649 -0.01567167
0.49273804 0.657923 0.58217645 0.056029014 -0.20120566 -0.23163559 0.57819635 -0.30633467
-0.10910749 -0.43054694 -0.18264736 -0.1877557 0.61541843 0.22612646 0.19484366 0.0006280054
-0.084101535 0.162349 0.500408 -0.4991348 0.31475425 -0.5651963 0.6112584 0.3724235
0.019045027 -0.13405673 -0.36236274 -0.21520437 0.5266493 0.24903436 -0.49422055 -0.17304529
-0.078227825 -0.10023491 0.30746478 -0.22963585 -0.16736567 -0.16260211 -0.10207947 0.088944085
-0.080385454 -0.028632596 0.119258225 0.29139924 -0.029379422 -0.048688356 0.27800184 -0.32137144
-0.19727531 -0.11101077 0.18808037 0.3900794 -0.16702946 -0.3039829 0.56189054 -0.12485716
-0.044164818 -0.18278405 -0.10781969 -0.00332696 -0.6277655 -0.10829102 0.47065437 0.006506807
-0.1061127 0.04475443 0.1703659 -0.20828679 0.076681755 -0.54565674 -0.2434402 0.081349686
0.06446722 -0.10327461 0.28829 0.12605949 0.06750806 0.21846181 -0.16175179 0.0065261256
0.1535228 0.28880844 0.06341126 -0.27899095 0.04895777 -0.10987112 0.5036466 -0.2331844
0.26372814 -0.3845052 -0.17172766 -0.20312995 -0.21367066 0.23798053 0.04414497 -0.24227479
-0.28439364 -0.21424446 0.08526679 -0.12103934 0.14596903 0.10217057 0.5601563 0.5522544
0.42186573 -0.6049707 -0.08917829 0.018779648 0.20842886 0.05180458 0.1916611 -0.20767576
