LYAP_CP_m-fwd_d-20_s-0.005_seed1.pt (torch, 421641 bytes, 7 tensors)

W.0 f4 [200, 5]
00000000: ff43 8b3e 4aaa 5a3c 8493 fa3d a97d f8bc
00000010: edff 58bf 4fee 803e 1b67 02bf 936a 803d
00000020: 4c80 97bd 5540 19bf 7791 1f3e d1d0 6abe
00000030: dca6 9fbd b54d 28be 32a8 18bf 94f0 d3bd
00000040: 0061 a33e 6579 7a3e 373d 0a3f ce69 bebe
00000050: 9c5e 023e 6809 16bf cec3 2f3d 335b ccbe
00000060: bc36 31bf e90b 8c3c d12c 2d3d 3b47 45bc
00000070: 86ea 2bbe a2e0 6abe 1151 233e 432b 513e
00000080: 4c1d 133d eb41 1bbe d66c 86bf 970c 3cbe
00000090: 1f82 343f 5011 07be 3632 c73e 294e 29bf
000000a0: 2d31 9e3e eb2f 01bf 93eb de3d e49b 23be
000000b0: cbfe 45bf b6b1 4c3e 539a 09bf 1876 243d
000000c0: de24 a5be f585 1dbf a764 16be cf21 00bf
000000d0: 1372 533d f3ad 93be 9235 16be 55a7 c03e
000000e0: 44c0 623e 3858 0abd e54c 0f3e 3b47 93be
000000f0: 4c40 89be 86f1 133f 533a 213e 9a26 183f
00000100: 7ae8 4abf 0769 f8ba 5ed7 84be c09c 3ebe
00000110: 55c2 e9be 6a74 6cbf 78ce 653e d7bb e6be
00000120: b4f5 d83c 8672 0ebe 1ef6 c5be c8fc e83d
00000130: b76b 8cbd d911 0ebd 6689 3ebe e501 9bbe
00000140: 78b3 063e 988d 38bf 6653 3e3e 2ce6 93be
00000150: 4c9b 88be f0ac d7bc 2a32 38bf c8cb 953e
00000160: 8654 86be 2a82 8bbe 5ba4 4b3e 550e 9cbe
00000170: 3a6e 733e 6627 cebd e9cf 5dbf 5432 43be
00000180: 0c0e 69bd 7f90 e6bd 7b23 bb3c 9ec9 23bf
00000190: c0f2 783d 56cf 493e 779e 5e3e 9b6b 9d3e
000001a0: 75df 4abf 6ae4 89be 6320 3b3f a7d7 3fbd
000001b0: c36d 013f 6994 00bf 18a5 153e c211 e93d
000001c0: 6783 223e d1c9 31bd fab8 ddbe e000 e43e
000001d0: da6f d03d 97c2 9b3c 54b0 94bd bf8e 34bf
000001e0: c743 b0be 3d4c 34be 2817 373e adcc 3dbd
000001f0: 1b30 b1be 14a0 8dbe 19c0 57be f7ed 123e
00000200: fb8f 943c b604 e7bb 3a31 b1be 19ce c63e
00000210: d063 753e cf6b ff3e e206 55be 6107 cf3e
00000220: 7972 813d fc2a ffbd bee2 83bd 778b 47bf
00000230: 6e90 22be ca2c 393e 20cc 97bc 76b2 26bd
00000240: 286a c5be 66e9 37be 6226 e93e a02d 073e
00000250: b68a ed3e f210 25be 6de2 b9be 83a7 663f
00000260: 9d1d 67be a45d 4e3e cabc 80bf cd01 b7be
00000270: 5178 14bd f99c 813d 547e 863d 7f56 2bbf
00000280: f62e 98be c72e e83e fc63 233e 44dd f33e
00000290: 93da 31bf 0d3b 243e 2084 dcbe 07c0 51be
000002a0: 6879 0bbf 2e9a 5abf 6ae0 6cbe 96bd 073f
000002b0: 3402 b2bc 964e a03e 7c25 12bd 9840 0e3f
000002c0: 6ebe b33d fbcb 59be e55f 9ebd e896 5bbe
000002d0: 6469 5b3e b15d c03c 5293 1cbe 3b90 94be
000002e0: 3b22 61bf c220 393f 0272 95be 90fb e9bd
000002f0: 5672 7cbe 3866 37bf ab8e cc3e 1eb0 d5bc
00000300: 93aa 37bc 9684 41be b4df 49be 52a8 8ebe
00000310: 292a f83e 1e18 7d3e 2489 203f df5a 48bf
00000320: 1493 ce3d 1b41 1cbf 5727 2a3e 3f7a b1be
00000330: d3b6 51be 812d 47be 0cc3 813e fd87 cc3d
00000340: 1723 e43d 8ba3 9bbe b270 923d 0fb7 c63e
00000350: 1149 debd e09b cd3e a1da 86bd b9df 993e
00000360: 41a5 0e3f e152 cbbe f78c 2a3b ca4d 0ebe
00000370: 56b7 8ebe b684 7d3e a60d f5be 54f9 01be
00000380: 4793 bebe f9cf d1be 7d45 193e d937 fb3e
00000390: e657 073f 4033 25bd 9058 01bd 05fe 22bf
000003a0: 59e6 6c3e eb36 8cbe 8036 3cbf 25d2 6fbd
000003b0: 773d 02be 5767 d73e 7eef a83d 7da0 5ebf
000003c0: 5ece 92bd 8fea b2be 24e2 17bc 28ea febd
000003d0: 6599 53bf 6333 963e 981d 42bf 8060 acbd
000003e0: 690e 04bf 77d5 8ebe eacf 8c3e 1365 733d
000003f0: 974e 343e f002 733c f5a2 e8be 0133 e8be
0.27200314 0.013346264 0.122351676 -0.030333357 -0.8476551 0.25181815 -0.50938576 0.062703274
-0.073975176 -0.5986379 0.15582834 -0.2293122 -0.07795498 -0.16435893 -0.59631646 -0.10348621
0.31909943 0.24460371 0.53999656 -0.37190098 0.12731403 -0.586081 0.042911343 -0.3991333
-0.69224143 0.017095523 0.04227907 -0.012040908 -0.16788682 -0.22937253 0.15948893 0.2042666
0.03591661 -0.15161864 -1.0501964 -0.18364178 0.7051105 -0.13190198 0.38905495 -0.6613489
0.30896893 -0.5046374 0.10884776 -0.15977436 -0.7734191 0.19989666 -0.53751105 0.040151685
-0.3225469 -0.6153253 -0.14686833 -0.5005159 0.05162246 -0.2884365 -0.14668873 0.37627664
0.22143656 -0.03377554 0.13994177 -0.28765282 -0.26806867 0.5779041 0.15744905 0.594339
-0.7926098 -0.0018952199 -0.25945562 -0.18614483 -0.45656076 -0.92365134 0.22442043 -0.45065185
0.026484348 -0.13910875 -0.38664335 0.11376339 -0.068564825 -0.03468499 -0.18607101 -0.30274883
0.131544 -0.72091055 0.18586501 -0.28886545 -0.26680982 -0.02632758 -0.71951544 0.29257035
-0.2623636 -0.27247745 0.19886915 -0.30479684 0.23772517 -0.100661084 -0.8664537 -0.19062167
-0.05689816 -0.11258029 0.022844067 -0.6397952 0.06077838 0.19707999 0.21740137 0.3074616
-0.7924722 -0.2693208 0.73096293 -0.04683652 0.5055811 -0.50226456 0.1461376 0.1138034
0.15870439 -0.043405358 -0.43305188 0.44531918 0.10177584 0.019013686 -0.072601944 -0.70530313
-0.3442671 -0.17607208 0.17879927 -0.046337772 -0.34607014 -0.27661192 -0.21069373 0.14348589
0.018135061 -0.007050122 -0.3460787 0.38829115 0.23963857 0.4988694 -0.20803407 0.40435317
0.06320662 -0.124593705 -0.06439732 -0.7794718 -0.15875408 0.18083492 -0.018529952 -0.040697537
-0.38557553 -0.17960128 0.45537096 0.13200998 0.4639489 -0.16119745 -0.36305562 0.9009935
-0.2256989 0.20152909 -1.0057614 -0.3574356 -0.036247555 0.06328768 0.06567064 -0.6692886
-0.29723328 0.45348188 0.1595611 0.4762975 -0.6947414 0.16038151 -0.43069553 -0.20483409
-0.54482126 -0.8539151 -0.23132482 0.5302366 -0.021729566 0.31309956 -0.03568028 0.5556731
0.08776556 -0.21269219 -0.07733134 -0.21444285 0.21426922 0.023482176 -0.15290573 -0.2901629
-0.87942857 0.7231561 -0.29188544 -0.11424935 -0.2465299 -0.7164035 0.39952597 -0.026084956
-0.011210102 -0.18898234 -0.19714242 -0.27862793 0.48469666 0.24716231 0.6270926 -0.7826366
0.10086647 -0.61036843 0.1661657 -0.3466358 -0.20479898 -0.19450952 0.2534412 0.09986875
0.11139505 -0.3039821 0.07150401 0.38811538 -0.1085378 0.40157986 -0.06584669 0.300535
0.5572091 -0.3971167 0.0026023963 -0.13896862 -0.2787425 0.24757656 -0.47861975 -0.12692767
-0.3722174 -0.40978983 0.14967914 0.49066046 0.528685 -0.04033208 -0.0315786 -0.63668853
0.23134746 -0.2738565 -0.7352066 -0.05855002 -0.1271876 0.4207103 0.082488045 -0.86963636
-0.07168268 -0.3494458 -0.009270225 -0.124470055 -0.82655936 0.2933608 -0.75826406 -0.084168434
-0.5158449 -0.27897236 0.27502376 0.059422564 0.17608105 0.014832243 -0.45436826 -0.45351413

W.1 f4 [500, 5]
00000000: cd27 8d3e 300f 2fbf 185f 4bbd 730a e7be
00000010: 60e9 0abf 4fb5 e23b 7993 1f3f eba2 69be
00000020: c755 ae3d 6777 6dbf 0894 4fbe 0ce2 773f
00000030: 56fb 273e 68b0 d33e 598c 1abf 2913 bb3c
00000040: 6fa3 e33e 898d f6bd de4a 0f3e ec8c 6bbf
00000050: 0d63 0bbe 09ea 8abe 921d 9cbe 27e8 f1be
00000060: 6c4f 0bbf cc37 fa3d f522 36be 0262 e9be
00000070: 16f8 18bf e9d7 0fbf 184c 92bd 4da7 00bf
00000080: f821 023e 2990 9cbd f7f7 acbe 475a 853d
00000090: e57b 23bf 66aa 3f3d ba99 fabe 4102 fcbe
000000a0: 8cb8 5abe 75f9 1a3f ca9b cabd 56cc 0a3f
000000b0: 926a 9ebd 0ec3 293c e637 803e 6d21 bcbd
000000c0: 05e7 3a3e cce4 0bbf 4fd8 0abd 29e9 41bf
000000d0: ddcf bd3e 5619 33be 1656 a5be b8cb 183e
000000e0: 7a49 ebbd 8835 e9be 114c f4be 8757 34be
000000f0: c954 0f3e 7c72 013f 27f8 44be 202e 233e
00000100: d793 74bf 48cc d23d 286d 8dbe f06a dfbe
00000110: abcd 21bf 8288 22bf 768e febd b9b5 613f
00000120: e57d c7be 1c17 ff3d 47d0 70bf eded 97be
00000130: 44be c2be c329 1a3e e0ab 39be 29fa 07bf
00000140: 67b0 9e3d e74b ba3e 7b84 403e a7ee fd3e
00000150: 4e42 1ebd b4bf c13e 9cea 3bbf a474 04be
00000160: c3a5 e9be 60a7 6abe e38c ca3e fe11 eebd
00000170: 92e0 f9be a27a fcbe 3112 22be 626e 8f3e
00000180: 933d 59bf 608b 163e e446 a9be a4f8 1fbf
00000190: 3646 023e 3ff1 f23e 180c 03be 4d9d 023e
000001a0: 315d 46bf 2ff6 953c c8c3 fe3e 011d 253e
000001b0: b395 193f e11c 85be 3d49 94be 1b33 c93e
000001c0: 5205 f5bc 323a 2b3e ae24 0cbf d225 433f
000001d0: b107 09bf 5d14 43be 227a b1be fdbc 00bf
000001e0: a18b 60be e631 523f 0726 b23d 97d3 bb3e
000001f0: 29d5 1ebf 1e7d 5b3d 7773 03bf 4a06 87bd
00000200: 56d0 fcbe 5825 b1be f86b 143e 4b28 253f
00000210: 2d0a 62be 4106 053f 7ba6 34bf d0dd 14be
00000220: 68c3 5a3e bb23 8f3b bf0e bf3d e7fa c5be
00000230: bc4c 24bf 0e72 2e3e 64e4 443e 1479 593e
00000240: 4fc3 05bf 3a90 a63e 260b e7be 8a77 6b3c
00000250: b8ce 7ebe 57a9 77bf 0323 72bc 70e3 59be
00000260: dca4 93be b98c dfbe 16a4 11bf a8ce 7cbe
00000270: 3dad 733e 7317 aebe bcd0 f8bc a48c 31bf
00000280: beb9 03bf 8b28 373c c85b 053e fbc5 0c3b
00000290: c44d 2ebf c5f4 923e 09a6 18bf 3d51 dcbc
000002a0: bc1b 0cbf 7bba 86bf 6079 763d 49e2 09bf
000002b0: 4880 893d 470b a5be e512 06bf 8587 cabe
000002c0: 2bb0 c3bc 2fed 2b3e 13bb 2b3e 88b9 5cbf
000002d0: 9765 c2be 812c 4d3f 9dd5 8dbc 929a cf3e
000002e0: 74c8 cebe 8efd 77bd 018b e43e efeb e23d
000002f0: c978 f33e 159c cebe 477b e13e f13f 9b3d
00000300: 8df9 64be 5d2b 8d3c 1fcf ecbe c931 1f3c
00000310: ca48 143f d8a1 90be a6f5 aa3d 9593 bdbe
00000320: daa7 96be cc56 5e3f 5537 a7bc 2573 bc3e
00000330: fc09 c0be 76b4 20be a783 dabe 16b1 0ebe
00000340: ba06 fcbe 3c93 7fbf df33 283e e83a e13e
00000350: 9203 9ebd 2f81 283e 62bd 80be 208c 493c
00000360: 261e 363f c0b7 4bbe 222b c93e cc63 7bbf
00000370: c16a 31bd f1b5 91bd b3bb 123e ef1a 683c
00000380: 1a68 88be 2415 203d 4e64 cdbe 213a c7bd
00000390: 6410 bcbe f7ef 58bf 10bf b73e 76f4 b33d
000003a0: 2934 e63d aa0d 353a e0b1 7dbe 248b 083e
000003b0: b4f4 c4be 5cc1 953c 8919 55be c71b 4fbf
000003c0: a926 bb3d f0ae 0dbf 06c9 1abc 4a35 0cbf
000003d0: 0c9c 2fbf ae37 ddbe 13c1 a63d 6b2b 6c3d
000003e0: d36b c1bd 9086 55bf 4551 f03e 14a6 cfbd
000003f0: 5196 2e3d 1281 13be 5dd5 c5be 7e91 753e
0.27569428 -0.6838255 -0.049651235 -0.4512516 -0.5426235 0.0069185863 0.623344 -0.22816055
0.085124545 -0.9276032 -0.20271313 0.96829295 0.16404471 0.41345525 -0.60370404 0.022836285
0.44460627 -0.120387144 0.13993403 -0.92011905 -0.13612004 -0.2713168 -0.3049131 -0.4724743
-0.54418063 0.12217674 -0.17786773 -0.45582587 -0.5975355 -0.5618883 -0.0714342 -0.5025528
0.1270827 -0.07644684 -0.33782932 0.0651136 -0.63860923 0.046793364 -0.4894541 -0.4922047
-0.21359462 0.6053689 -0.09892996 0.5421804 -0.077351704 0.010361446 0.25042647 -0.09186063
0.1825219 -0.5464599 -0.033897694 -0.757464 0.3707265 -0.17490134 -0.3229224 0.14921463
-0.11488624 -0.45548654 -0.47714284 -0.17611514 0.13997187 0.50565314 -0.19235288 0.15935564
-0.95538086 0.1029287 -0.27622342 -0.43636274 -0.6320445 -0.63489544 -0.12429516 0.8816791
-0.38963237 0.1245558 -0.94067806 -0.2967371 -0.38035786 0.15054993 -0.18131971 -0.5311609
0.0774849 0.36386034 0.18800537 0.4959614 -0.03863745 0.3784157 -0.7340486 -0.1293512
-0.4563428 -0.22915411 0.39560613 -0.116245255 -0.48804146 -0.4931231 -0.15827252 0.28013903
-0.8485958 0.14701605 -0.33061898 -0.6248877 0.12722096 0.4744968 -0.12797582 0.12755318
-0.7748595 0.018305866 0.49758744 0.16124345 0.5999405 -0.25998595 -0.28962126 0.39296803
-0.029909763 0.16721418 -0.5474347 0.76229584 -0.5352736 -0.19050737 -0.34663492 -0.50288373
-0.21928264 0.8210739 0.086986594 0.36684868 -0.62044007 0.053586118 -0.5134806 -0.065929964
-0.49377698 -0.34598804 0.14494312 0.6451461 -0.22074194 0.5196267 -0.7056653 -0.1453774
0.21363604 0.004368273 0.093289845 -0.38667986 -0.6417959 0.17035696 0.19227749 0.21237594
-0.5225114 0.3253191 -0.45125693 0.014371762 -0.24883544 -0.9674277 -0.014778855 -0.21278167
-0.28836715 -0.4366205 -0.56891 -0.24688208 0.23796554 -0.34002265 -0.03037297 -0.69355226
-0.51455295 0.0111791 0.13023293 0.002148031 -0.6808741 0.2870237 -0.5962835 -0.026894206
-0.5472982 -1.0525659 0.060174346 -0.5386091 0.06713921 -0.32235166 -0.5237258 -0.39556518
-0.023887714 0.16789697 0.16770582 -0.862206 -0.37968132 0.8014603 -0.017313773 0.40547615
-0.4038731 -0.060544543 0.44637302 0.11080157 0.4755309 -0.40353456 0.44039366 0.07580555
-0.22360821 0.017232591 -0.4625177 0.00971646 0.5792357 -0.28248477 0.08347635 -0.3702666
-0.29424936 0.8685119 -0.020412127 0.36806598 -0.37507617 -0.1569384 -0.42678568 -0.1393474
-0.49223882 -0.99834037 0.16426037 0.43990254 -0.07715525 0.1645553 -0.25144488 0.012301475
0.7113975 -0.19894314 0.3929072 -0.9819915 -0.0433147 -0.07114781 0.14329414 0.014166578
-0.26641923 0.03908266 -0.4011559 -0.09727884 -0.36731255 -0.8474116 0.35887957 0.087868616
0.112404175 0.0006906638 -0.24774885 0.13334328 -0.38467944 0.018280677 -0.20810522 -0.8090176
0.09138233 -0.5534506 -0.009447342 -0.5476881 -0.68597484 -0.43206543 0.08142295 0.057658594
-0.09444394 -0.8340845 0.46937004 -0.10139099 0.04262382 -0.14404705 -0.38639346 0.23981282

W.2 f4 [1, 5]
00000000: 5433 e03e 6530 5ebd 492a b9be def5 713d
00000010: b88f 09bf
0.4378916 -0.05424537 -0.36165074 0.059072368 -0.5373492

U.0 f4 [500, 200]
00000000: f977 0ebe 9c1f 4b3f 0aeb 653e 5771 48be
00000010: 69a5 a03e 8a98 acbd ce88 88be dbc1 62be
00000020: 4bf9 aa3e 66c4 ab3e 3427 ac3e d5c7 60be
00000030: b17a 99be 5c70 7c3e 3b2f 043f 13b4 0b3e
00000040: 2046 963e b718 9e3e 7ac6 d63d 2f5e 0a3e
00000050: 51a7 88be 86af 6cbe 9f6f 90be 7ef2 92be
00000060: 58cc 7b3e daca 5fbe a421 adbe fc1c a3bd
00000070: e3f8 91be 8b8e 8dbe a501 67be 19cd 85be
00000080: 81ce a1be 81e0 893e 28a2 a3be 5870 7abd
00000090: 59ce 5a3c db43 7c3d 733f ffbd 5113 aabe
000000a0: 6376 693e db6f a2be b3a1 49be 418b b9be
000000b0: 2645 b1be ea72 44be 75ba 7b3e 3f64 1abe
000000c0: 7c0b b03e 177c b63e f139 1ebe 9a77 81be
000000d0: 9c2b 78be 5c5c 8bbe c0f4 89be f9b5 8f3e
000000e0: ef29 a1be daa7 713e c7f8 54be 9e03 7d3e
000000f0: f3f1 b33e 069e e93e 67c8 703e 01c7 9fbe
00000100: eec6 673e afa2 433e cf21 1a3e 40d7 3abe
00000110: 7aab 71be 4bc1 883e ada8 7d3e a4be adbe
00000120: 5908 8a3e 5e2b 6ebe 8dbe 72be 4842 97be
00000130: 8af3 af3e 787c aabd 1d16 95be b4a7 aebe
00000140: 6dfa 55be be05 64be 86a2 c6bc 7578 a63e
00000150: 46b6 74be 6f18 4cbe b458 0abe 7148 a0be
00000160: ed4c 8fbe 9734 943e a628 6dbe d720 6bbe
00000170: db45 173f fcf0 e53e 4f3f 82be b1a4 37bd
00000180: cabb 7abe 7f47 923d abd7 2f3e 4c32 bcbc
00000190: d535 883e 7fa4 86be fc17 53be c6ed 643e
000001a0: 42d3 a93e c8c6 87bc f881 9fbe a6f9 7ebe
000001b0: 5a19 d63e 5330 6a3e 77f0 803e 75c7 99be
000001c0: 3be1 483e bad2 11be d563 9c3e f17d 45be
000001d0: 3226 99be 45f3 81be dc80 70be 846e a6be
000001e0: df1b 4dbe d708 9cbe bb66 55be 1f04 74be
000001f0: 4888 fb3e b40c 9f3e e9e2 803e cd0f 993e
00000200: d5d6 91be a0ff 823e 048b 913c 5296 833e
00000210: d1c5 92be b696 a8bd a5ab 56be f317 77be
00000220: b2a0 bcbe 9138 613e 1704 c13e 8435 60be
00000230: c4e2 84be 4458 64be 0204 823e 60d1 243f
00000240: f270 da3d ea74 52be 0493 95be dc75 99be
00000250: de05 22be 0452 8bbe 2199 05be 13b4 89be
00000260: ed71 8d3e 47ab c83e cb30 74be 968f 4d3e
00000270: f29b 53be b25b 80be 281b 7cbe 4d9c a9be
00000280: 7a16 82be cfc7 073e fbca c43e 5c60 a8be
00000290: 87bf b2be e573 663e 4d0a bb3d b475 98be
000002a0: c1e4 42be 4133 ba3e 1c60 2dbe f904 913e
000002b0: f60d 9abe 7662 7abe 8145 6ebe d8b9 6a3e
000002c0: 502e 2abe f16a 9bbe 9199 aabe 4012 713e
000002d0: 44d9 793e 6c59 833e 4421 82be 89c6 6bbe
000002e0: 13d3 91be f1fe 95be 3a2c 35be bac0 97be
000002f0: 6d67 6cbe d7d4 bd3e c2e0 18be 18e8 56be
00000300: ccd9 4c3e b391 91be eb11 cd3e b7ed 65be
00000310: b95c 86be a289 823e faac 80be c86c a13e
00000320: 8718 2abe 1abe 2dbe d968 2abe 0cec 983e
00000330: cae4 7e3e c673 32be 2748 08be 2880 a33e
00000340: a72e 0a3e 8118 9b3e d201 c93d 488d 803d
00000350: 82ff 9a3e 89d6 15be 65b3 52be 4619 7cbe
00000360: 5371 5a3e 8c0e 7d3e d613 45bd 0813 48be
00000370: 7aa8 643e 9c74 723e 27a5 16be c1ed 1abe
00000380: 6f4f 82be b5ea 92be bca3 8a3e 70b1 76be
00000390: 5112 8a3d 870e 633e 2fd0 193f d4b4 74be
000003a0: 91eb ac3e 5e04 853e d218 ab3e 7d8f 6ebe
000003b0: db17 1b3f 4ee3 52be 7e71 73be cbf3 943e
000003c0: 1da2 203e a4ed 023f 95aa 4a3e ebb3 1a3d
000003d0: e037 63be 9035 7f3e 0b85 823e 8344 8bbd
000003e0: 01ad bebd 917c 6e3e c419 563e c4ae 50bc
000003f0: 803a 563e 0e89 483e b727 a13e 8434 a53e
-0.13912953 0.7934511 0.22452942 -0.19574486 0.31376198 -0.08427532 -0.26666874 -0.22144262
0.3339332 0.33548278 0.3362366 -0.2195123 -0.2997642 0.24652237 0.5163457 0.13642912
0.29350376 0.3087823 0.10487075 0.1351249 -0.26690152 -0.23113832 -0.2821016 -0.28700632
0.2458967 -0.21854725 -0.33814728 -0.07964513 -0.28510198 -0.27647814 -0.22559221 -0.2613304
-0.31602862 0.26929095 -0.31959653 -0.061142296 0.013354861 0.06158815 -0.12463274 -0.33217862
0.22799067 -0.31725964 -0.1969059 -0.36239055 -0.3462307 -0.19184461 0.24582846 -0.15077303
0.34383762 0.35641548 -0.1545179 -0.2528656 -0.24235386 -0.27218902 -0.26944542 0.28068522
-0.31477305 0.23599187 -0.20798026 0.24708411 0.3514553 0.45628375 0.23513947 -0.31206515
0.2263448 0.19105028 0.1505196 -0.18246174 -0.2360057 0.2670997 0.24771376 -0.3393451
0.26959494 -0.23258731 -0.23705502 -0.29542756 0.34365493 -0.08324522 -0.29118434 -0.34112322
-0.20896311 -0.22267815 -0.02424742 0.32513776 -0.23897657 -0.19931196 -0.135104 -0.31305268
-0.27988377 0.28946373 -0.23160037 -0.22961746 0.59090966 0.4491042 -0.25438926 -0.044834796
-0.24485698 0.07142543 0.17172115 -0.022973202 0.2660357 -0.26297376 -0.20614618 0.22356328
0.3316899 -0.016574278 -0.31153846 -0.24899921 0.41816217 0.22869997 0.2518346 -0.30034986
0.19617169 -0.14240542 0.30544916 -0.19286324 -0.29911953 -0.25380912 -0.23486656 -0.32506192
-0.20030163 -0.30475494 -0.2083997 -0.23829697 0.49127412 0.3106438 0.2517312 0.29894868
-0.28484216 0.2558565 0.017766483 0.25700623 -0.28666547 -0.08231871 -0.20963915 -0.2413023
-0.3684135 0.21994235 0.37698433 -0.21895415 -0.25954258 -0.22299296 0.25393683 0.6438198
0.10666074 -0.20552412 -0.29213727 -0.29972732 -0.1582255 -0.2721101 -0.13046695 -0.26895198
0.2762598 0.39193174 -0.23846738 0.20074305 -0.20664957 -0.25069958 -0.24619734 -0.3312706
-0.25407773 0.13259815 0.38436112 -0.32886016 -0.3491175 0.22505148 0.09132824 -0.297773
-0.19032575 0.3636723 -0.16931194 0.28324106 -0.30088776 -0.24451622 -0.23268701 0.22922456
-0.1661923 -0.30355027 -0.33320287 0.23542118 0.24399287 0.2565416 -0.25416005 -0.23024954
-0.2848135 -0.29296067 -0.17692652 -0.29639226 -0.23086329 0.37076446 -0.14929488 -0.20986974
0.20004958 -0.28431472 0.40052733 -0.22453962 -0.26242617 0.2549563 -0.2513197 0.31528306
-0.16610919 -0.16967049 -0.16641559 0.2986759 0.24891964 -0.17426977 -0.13308774 0.31933713
0.13494359 0.30292132 0.098148 0.06276947 0.30273062 -0.1463262 -0.20576246 -0.24619016
0.21332292 0.2471258 -0.04811462 -0.1953851 0.22329894 0.23677295 -0.14711438 -0.15129758
-0.25451228 -0.28694692 0.27078044 -0.24091125 0.06741775 0.2217351 0.6008329 -0.23897105
0.33773473 0.25979894 0.33417374 -0.23296924 0.60583276 -0.20594522 -0.23773763 0.2909225
0.15686841 0.5114386 0.19791634 0.03776924 -0.22189283 0.24922776 0.2549213 -0.06800177
-0.093103416 0.23289706 0.20908266 -0.01273698 0.20920753 0.19583532 0.31475613 0.3226663

U.1 f4 [1, 500]
00000000: 7a77 943e fa47 fc3e 1d15 c83e 01c2 8d3e
00000010: 29ae 573e a841 433e 97a7 b73e ee63 8f3e
00000020: e413 743e 922d 5cbd 7497 8a3e 1bd2 cc3d
00000030: 0cf0 933e 11a5 5d3e 4677 f03e 6b27 013e
00000040: 44e1 793e ec93 ab3e f9ca c73d 6a2d c03e
00000050: a272 bd3e 4b0c 8e3e 40ce 7d3e 3975 983e
00000060: 272d 9b3e e770 8e3e 5287 833e 4b86 27be
00000070: 3b38 44be 8aa5 803e afc3 433e 679f 27be
00000080: c35c 6bbe 475c 6b3e 3374 8a3e 4aac 34be
00000090: 492c 993e 3858 683e d985 23be dd86 5e3e
000000a0: ed35 b63e 4f64 723e 3938 5e3e d986 963e
000000b0: 1820 2dbe acde 823e 10cb 62be 5de0 c63e
000000c0: 0386 703e 2d64 79be a106 4bbe c59d 4fbe
000000d0: 2077 793e 5541 31be 29bb 6d3e 1ecb 78be
000000e0: e25b 373e caea b73d 63a4 31be 3e50 7cbe
000000f0: 4370 3a3e 5c62 723e 9822 31be 24cc 003f
00000100: 35a3 1e3e 3d29 d8bd a218 e1ba 5ae0 f8bd
00000110: 704d e13e 41aa da3d 1528 9c3e 24ec e83e
00000120: 6c06 533e a6ee 933e 9c86 6ebe 30d6 8d3e
00000130: a38b b8bc 5e8e 2abd e4f9 75be 373c e03e
00000140: 63ab 9e3e 4727 73be 5e87 efbd 478f 7c3e
00000150: 38bd 21be 0cea 4cbe 0ffb 9d3e cce0 903e
00000160: 4938 0ebe 0f8b 943e 9ee1 2abe eb06 083f
00000170: 4f99 773e 1212 943e 1199 13be 69f4 613e
00000180: 92dd 65be 3a63 8e3e b038 933e ed53 a3bd
00000190: f636 703e 721d 773d ba34 8c3c 7884 29be
000001a0: 30db 013f d2d0 283e 3524 623e 041a 6b3c
000001b0: dcb5 8c3e e9b9 86be b237 963e 65d7 903e
000001c0: af26 853e 22d4 f43d 4ad8 663e 8c5f b63d
000001d0: 9f17 fe3d d875 54be 38f8 b33e fe6d 8a3e
000001e0: 9b92 043b c75f 64be b0ca 843e f9f3 1ebe
000001f0: 491a 573e 5919 b33e 0513 fc3e d892 25be
00000200: 6eba 03be 8612 29be ce3c 80be 3700 653c
00000210: 0041 43be 092d 0bbe 3b8d 8a3b 44fc 41be
00000220: fd04 783e 8068 62be 3f45 91bd f17b 4c3e
00000230: 7d03 c13c e8f5 c33e 762c 7f3e 5d91 943e
00000240: c6fe 67be 2fb3 163e 3c5a dfbd 49eb 223c
00000250: ea4b 83be f4a1 dc3d 6ad1 b7bd 00fb 7d3e
00000260: 391c 82be e9af a0bd 032f 633e 2efc 963e
00000270: f034 45be 2e7c 4abe bb71 873e e6b7 773e
00000280: ac28 813e 1122 c23e eab0 6fbe 1bc0 68be
00000290: 4566 153e 7953 72be 57fa 56be 3161 0ebe
000002a0: 4817 843e 0f72 7c3e 8c6a 37be 06ae 633e
000002b0: 513a d5bd 18f2 913d 19ee 54be 12e1 8b3e
000002c0: d670 d73e b010 903e 9ff8 40be 7a76 8c3e
000002d0: 96a3 783e af6c 5f3e f0d6 873e 6d8c 69be
000002e0: b9ed a13e 685d 953e a1f5 17be de5a 0ebe
000002f0: b6e2 34be 7720 d1bd ee22 c0bd fc8f 693d
00000300: 4d8b 7bbe 6c89 543e afb7 1bbe de58 0bbe
00000310: 1814 593d db1e 953e e389 17be 473c 883e
00000320: e99d 893e 0c37 753e 6d19 803e 7294 003b
00000330: b723 8cbe 49db 703e 21cd 6fbe d19f 403e
00000340: 576c 8c3e 3fa0 7e3e f8a8 42be 11c0 a53e
00000350: f669 4dbe ea3e 78be 5c8d 253e e0fc 6abe
00000360: ee90 943e adeb 963e 49c6 4fbe e70a 6dbe
00000370: 02f4 823e 92aa 7e3e 2dcd 843e 8bd0 8a3e
00000380: f093 873e 2814 443e c415 ac3e 7038 4ebe
00000390: 92bb 2bbe 090a 303e 7994 20be 6d35 913e
000003a0: 3bd6 ad3e a97d 21be 490c f43d f7ee 263e
000003b0: a2b0 4abe f505 893e ccf5 913e ffd8 743e
000003c0: 7723 7e3e ce7d 48be 9f7f 413e 06ab 6cbe
000003d0: 8e44 eebd a38a d6bc 2813 33be f121 e1bd
000003e0: bb06 0fbe 7a59 26be 7800 5cbe 1303 a43e
000003f0: c81c 0dbe 7cf4 11be 8a5a 3ebe 00be 513e
0.28997403 0.49273664 0.39078608 0.27687076 0.2106253 0.19068015 0.35870048 0.28005928
0.23835713 -0.053754397 0.27068675 0.10001012 0.2889408 0.21644999 0.46965998 0.12612693
0.24402338 0.33511293 0.09755511 0.37534648 0.3700152 0.27743754 0.2478571 0.29776934
0.30307886 0.27820513 0.2568918 -0.16359822 -0.19162075 0.25126296 0.19117616 -0.16369401
-0.22984605 0.2298442 0.27041778 -0.17643848 0.299166 0.22689903 -0.15969028 0.21731134
0.35588017 0.23671077 0.21701135 0.29399756 -0.16906774 0.2556051 -0.22147775 0.3884305
0.23488621 -0.2435462 -0.19826747 -0.20275028 0.24361849 -0.17310078 0.23215927 -0.24296233
0.17906144 0.08980329 -0.17347865 -0.24639985 0.18206887 0.23670334 -0.17298353 0.50311494
0.15491946 -0.105547406 -0.0017173479 -0.12152167 0.44004393 0.106770046 0.3049933 0.4549266
0.20607919 0.28893012 -0.23293537 0.27702475 -0.022527521 -0.04163968 -0.24021107 0.4379594
0.30990133 -0.23745452 -0.11695741 0.24664031 -0.15794837 -0.20011157 0.30855605 0.28296506
-0.13888659 0.29012343 -0.16687629 0.53135556 0.24179576 0.28920037 -0.14413859 0.22065891
-0.22447804 0.2781008 0.28754187 -0.07974992 0.23458466 0.060330816 0.017114986 -0.16554439
0.5072508 0.16485909 0.22084124 0.014349464 0.27482498 -0.26313713 0.29339367 0.28289333
0.26006076 0.119545236 0.22543445 0.08904943 0.12406849 -0.20748079 0.35150313 0.27037042
0.0020228985 -0.22302161 0.25935888 -0.15522756 0.2100612 0.34980276 0.4923326 -0.16169298
-0.12864086 -0.16510972 -0.2504639 0.013977102 -0.19067764 -0.13591398 0.0042282618 -0.18943888
0.24220653 -0.22110176 -0.07093286 0.19969155 0.023561234 0.3827355 0.24919304 0.29017153
-0.22655782 0.1471679 -0.10905883 0.009943792 -0.25643855 0.107730776 -0.089754894 0.2480278
-0.25412157 -0.07846052 0.22185902 0.29489273 -0.19258475 -0.19773933 0.26453957 0.24191245
0.25226343 0.37916616 -0.23407331 -0.22729532 0.14589794 -0.23664655 -0.20993935 -0.13904263
0.25799012 0.24652885 -0.17911738 0.22234353 -0.104115136 0.07126254 -0.20793952 0.27320153
0.42078274 0.28137732 -0.18844841 0.2743414 0.24281153 0.21818803 0.26531172 -0.22807474
0.3162668 0.29172826 -0.14839794 -0.1390185 -0.17664608 -0.1021127 -0.09381662 0.05702208
-0.24564858 0.20755547 -0.15206788 -0.13608119 0.05299768 0.29125103 -0.14798693 0.26608488
0.26878288 0.2394678 0.25019398 0.001961973 -0.27370998 0.2352115 -0.23418094 0.18810965
0.27426407 0.24865817 -0.19009769 0.32373098 -0.20059952 -0.2424275 0.16167206 -0.22948027
0.29016823 0.2947668 -0.20290484 -0.2314869 0.25576788 0.24869755 0.25937787 0.2711223
0.26480055 0.19148314 0.33610356 -0.20138717 -0.16770771 0.17191328 -0.15681638 0.28361073
0.33952507 -0.15770592 0.11916406 0.16302095 -0.19793943 0.26762357 0.2850784 0.23910902
0.24818216 -0.1957924 0.1889634 -0.23112115 -0.116341695 -0.026189154 -0.17487776 -0.10992802
-0.13967411 -0.1624507 -0.21484554 0.32033595 -0.1378051 -0.1425342 -0.18589225 0.20482635

bias.0 f4 [200]
00000000: d40e 92be 9549 293f 8245 123f 4023 01be
00000010: 32b0 563e 9941 4abe 9ca6 0f3f 817f 443e
00000020: f2c8 a63e 0d3a 2b3e 2bc4 72be 8dba 8bbe
00000030: de24 103e 4e87 0f3d 52a2 293e b5ce 61bd
00000040: bae5 243e a192 0f3d 9aab 813f 07be cebe
00000050: 9414 c13d 15a7 8cbc 027f 253f e57c d6be
00000060: 3627 683e b843 10bf fe6c 77bd 2f32 cdbe
00000070: 81db 2a3e 4956 43bc b1b1 733e 09ef a63e
00000080: c1c3 4a3e 3db5 e1bc 17c1 973c 1bb9 a53e
00000090: 6e82 523f a132 18bd ee60 373e 16e8 1e3e
000000a0: fdad 843e c45c fe3e 330a 71be cead c83e
000000b0: 79c8 1c3f 0bb3 3ebe a319 1b3e 97c1 233f
000000c0: 1d16 5bbd 022c 6dbc 8758 173f cde4 233f
000000d0: d1b9 023e 1b34 733e 7c89 2b3e 5190 3b3e
000000e0: cb8d 073f ed2e edbc 3b34 da3d 9750 3cbd
000000f0: b2e7 073e ed0a 31bd e11a 94bb 2c0a 843e
00000100: 7e92 ac3e 2835 c43d 4537 2c3f d241 d7be
00000110: 8877 123f 2ff1 03be 6e75 843e e300 4b3e
00000120: 59dc 523d 8166 bebe f506 173f 544e f1be
00000130: bab1 763e b0e8 f13e 8745 88bc ce7c 8c3c
00000140: cf48 313e 448f d33e fc05 ddbe af16 313e
00000150: b3a2 b73d 8c30 98be 3caf b9be e32b b0bc
00000160: 31e0 683b 288b ad3e d0bf 213f 8ffd 343f
00000170: 1327 ac3e 8dfa 0d3f 96a4 9e3e f1b7 24be
00000180: b0fe dcbe cf09 223e 3f8c 86bc a616 1c3f
00000190: fbaf 853e 4e44 033f a8d2 ed3d 6b1a 713e
000001a0: d2f4 263e 5435 ed3e 6d19 473e 7fc9 bcbe
000001b0: ff74 943e 5933 833e 9a00 9c3d 7077 163f
000001c0: 5a4b 8a3d 0fd5 ebbe 39bb 6e3e 0d32 173e
000001d0: 5ec3 573d aee8 1bbf d1c7 933e 69c0 c53d
000001e0: e5be ab3e 6ff3 d63e 8c6c d43e acb3 803e
000001f0: 0b47 a03d dbbe 9c3d 46a3 a43e 3e1d 9e3e
00000200: 90f4 e0be 587f 1f3e b794 4c3f c458 683e
00000210: fa8c ddbd 7e7f 363f 208c d3be ee6e cc3e
00000220: 070c 2d3f 71f7 1f3f 641a 6f3c 33aa 37be
00000230: 97ed d0be eb6d 01bb ca2c 793d ff32 513e
00000240: 0d51 a1bd 0a85 8c3e 7303 ab3e 956d b83e
00000250: 49d8 4f3e ef96 233e 4de9 0d3f 460f 083f
00000260: a551 653d 8e0a 733d 10cb 9bbe 19ad 1bbe
00000270: c255 d23e dae6 eb3e 046e a93e fa89 803e
00000280: f257 d53d d763 7b3e 661e 183e 6a6f c03d
00000290: 4ddf 0dbe 6374 433e 03f4 0f3f f497 323e
000002a0: 07c4 343f ec91 7e3d 4337 b63e 54fe c23e
000002b0: afe2 d5be 6466 c33e 7a3a 993d 4c3e 5f3e
000002c0: 78e8 bfbe eea2 513e 5456 2c3b cf8b 973c
000002d0: f1b3 793e 2c5e afbd 32e2 323e faad 113f
000002e0: 929a ca3d ec0c 94bd 3c97 2f3f e692 633e
000002f0: 6e56 73bd 8af4 d93d b632 53be 9a5f ac3e
00000300: 1ad4 5abd 8874 0a3e 7047 073f f4d1 54be
00000310: 3aa2 24be 2edf 213b 8809 433e 1987 c53e
-0.28526938 0.661279 0.5713731 -0.12611103 0.2096565 -0.19751586 0.561136 0.19189264
0.32575184 0.16721363 -0.23707645 -0.27290764 0.14076564 0.035041146 0.16565827 -0.05512877
0.16103259 0.035051946 1.0130494 -0.40379354 0.09427753 -0.017169515 0.64646924 -0.41892162
0.22671208 -0.5635333 -0.060406677 -0.4007735 0.16685297 -0.011922427 0.23798253 0.32604244
0.19801237 -0.027552241 0.01852469 0.32367787 0.8223027 -0.03715766 0.1790807 0.15518221
0.25913993 0.4968015 -0.23539047 0.39195102 0.61243397 -0.18622987 0.15146498 0.6396727
-0.053487886 -0.014475824 0.59119457 0.64021 0.12766196 0.23750345 0.16751665 0.18316771
0.52950734 -0.02895304 0.106544934 -0.045975294 0.13271978 -0.04322331 -0.004519806 0.2578901
0.33705515 0.09580451 0.67271835 -0.42042404 0.5721364 -0.12884973 0.25870842 0.19824557
0.05147967 -0.3718758 0.5899499 -0.47130072 0.24091235 0.4724784 -0.016634716 0.017149355
0.1731293 0.4132024 -0.43168628 0.1729381 0.08966579 -0.29724538 -0.36266506 -0.021505302
0.003553402 0.3389523 0.6318331 0.706994 0.3362356 0.55460435 0.30984944 -0.16085793
-0.4316306 0.15824054 -0.016424296 0.6097206 0.26110825 0.512761 0.11612445 0.23545234
0.16304329 0.4632975 0.19443293 -0.3687248 0.2899551 0.25625113 0.07617302 0.58776
0.067526534 -0.46060988 0.23313607 0.14765187 0.05267655 -0.60901916 0.28863385 0.0965584
0.33544078 0.419826 0.41489065 0.2513708 0.0782605 0.0765359 0.32155818 0.30881685
-0.43936586 0.15575922 0.7991442 0.22690111 -0.10817905 0.7128829 -0.41317844 0.39928383
0.6759648 0.6248694 0.014593694 -0.1793602 -0.40806267 -0.0019749354 0.06083373 0.2042961
-0.07876787 0.2744525 0.3340107 0.36021104 0.2029735 0.15975545 0.55434114 0.53148305
0.055986065 0.059336238 -0.30428362 -0.1520275 0.41081053 0.46074563 0.33091748 0.25105268
0.10417165 0.24549805 0.14855346 0.093962505 -0.13854714 0.19087367 0.5623171 0.17440778
0.70611614 0.06215088 0.35589036 0.38084662 -0.41774508 0.38164055 0.07481857 0.21801108
-0.37482047 0.20472309 0.0026296573 0.018499283 0.24385048 -0.08562884 0.17469099 0.5690609
0.09892763 -0.07229027 0.6859014 0.22224006 -0.059408598 0.10642345 -0.20624813 0.33666688
-0.053424932 0.13521016 0.5284338 -0.20783216 -0.1607751 0.0024699676 0.19046605 0.38579634

bias.1 f4 [500]
00000000: ea05 0d3e 42d7 283f 2ac4 09be ac61 d73d
00000010: fcc7 78be 17f1 01bd 25ca cb3d dbfe 36be
00000020: 65b7 c63d a7d6 2c3f 30b2 2dbe bf25 b13e
00000030: 1f93 393e 9f40 2bbe 9e5d 873e 493b 7c3e
00000040: 09e4 c3be 8068 edbd dac4 933e e373 d0bd
00000050: 3bee e73d 1957 82be c786 a63d d099 aa3e
00000060: 7287 9b3d 7645 97bd 7121 6dbd 13aa d73e
00000070: 9792 b63e 78e3 953e e126 9c3e d205 533e
00000080: 5201 30be 15b7 c0bd 6775 72bd 50da bc3e
00000090: fb68 2cbe 8acb 46be a42b 1bbe d977 d83e
000000a0: 6bb2 c6bd 6c06 0bbc 7447 95bc a893 08be
000000b0: 6cee 4cbe 9139 8a3d 2108 283f 2899 323d
000000c0: 60e5 dfbd 346a f13e 345c d13e 7683 abbe
000000d0: abd0 a6be 990e c63e e96c 6b3e 7a69 14bf
000000e0: 3dc2 0bbd a974 943e b8f1 fb3e 9b8c 1cbf
000000f0: bb6a 133e 32f6 3b3e 6a22 c33e 6a95 1c3f
00000100: 4e5f febc ff73 ca3e c5bd 1d3e 43a4 5cbe
00000110: 865c 47bd 38d3 d73e 9f55 493e 50c8 9bbd
00000120: 8bcf 403e 678b 3abe 5276 1fbf 3f1b c2bd
00000130: c6d3 c6bd a5f9 dc3e 165c 13bf e38e 193d
00000140: e583 563e 35e7 e3be a722 8d3e e3f9 3c3e
00000150: 0cba 02be facb 99be d736 a1be 4874 7fbd
00000160: f3dc 013f c62a 35be 8541 0c3f 8f3d 153f
00000170: b5e1 c839 978f 7f3e 0546 ac3e 2d59 a03c
00000180: 9f6b d8be 1713 adbd 4f26 55be 6062 763e
00000190: 79d8 ed3d bb1a f63d e157 ba3e fe78 da3e
000001a0: 1922 303f 46f3 893d 70c8 90bd 72b2 65be
000001b0: f304 083f 3383 183f 9131 213d 3a17 42be
000001c0: f820 483d af37 843e d13f 27be 6dbc 94be
000001d0: 54a7 3e3d 72db 953e 478e f73e f943 ffbd
000001e0: 44c5 003f 7ff3 c13e 9f8f 62be 6e80 e93e
000001f0: ad27 c53e 71ed 9cbd fd9b e83e 4550 ca3e
00000200: b2f4 2b3e 7f4b c23e 2576 bf3e 4b6b a83e
00000210: c914 033f 01b8 133f 426c 0b3f 7241 17bf
00000220: f586 31be bff2 bf3e 6575 7cbe 88b1 30be
00000230: 6df9 2ebd 19c0 06be 2a12 19be 8c05 6bbd
00000240: 4f56 063f c688 443f 34be 183f 8026 5a3e
00000250: e60b 2a3c e41e 6ebe d5da 863e df92 81be
00000260: d888 62bd d441 d2be 8767 bbbd 8817 22be
00000270: 7eee 1b3f 6744 753e ad99 403e f666 ee3c
00000280: 6d61 27bd 7514 663e 6c14 043f 62bb e9be
00000290: 4406 b73e 3452 03bf 260d 223f 8810 d93e
000002a0: 1095 143d 46a5 dabd bc73 dabd 414d eebd
000002b0: eb6b 113f fd59 ac3e 180a eebe 2981 28be
000002c0: 8c68 47bd a0cc 77bd 998f 9e3e b472 83be
000002d0: c9c0 d0bd 0705 33be 8348 aebc 7180 113d
000002e0: 259b 1b39 0110 82ba 95ef 8e3d 39db bb3e
000002f0: f8d8 6bbc 561e 09bc f680 b63e 81d3 bdbe
00000300: 2452 71be 14c7 d7bd 29d9 933d 8d6d de3e
00000310: 3419 febd 523d a2be a70f 1b3f 70e9 6abd
00000320: 42b0 4138 15be 07be 30f9 d6bd e797 093e
00000330: 4ff9 18bf acbf cebd 89a5 f43e d9e8 8c3c
00000340: 5f17 94bd 0752 463d 0ae9 3b3e 77cd 70be
00000350: 1f5c 403d ef19 07bf 644d 7abe 87db 073e
00000360: 191f 963d a622 c7bd 1c50 963e d165 223e
00000370: de9e a03d 5fec 713e f94b 22be 9478 243d
00000380: 4a07 1d3e 79e1 e83e 7815 0c3e c298 01be
00000390: 43aa b73d 00ce b0bd 2bf4 033f 4bd1 2dbe
000003a0: e53e db3e c7d3 c0be d4f9 40be a42d 79be
000003b0: 0d82 0fbe f170 d23e c26c 7e3e 0c79 52be
000003c0: df07 74be 76a2 0dbe e299 a73d 0027 74be
000003d0: 9da1 313e faea 883e afca 113f 8174 1f3f
000003e0: 7a97 ec3e cd66 0ebf f75f 01be e865 133e
000003f0: b385 883e 676c 9c3d c22f 283e 68c4 52be
0.13771787 0.6595346 -0.13453737 0.10516676 -0.24295038 -0.03172406 0.099506654 -0.17870657
0.097029485 0.67515033 -0.16962504 0.3459911 0.18122528 -0.1672387 0.26438612 0.2463199
-0.38259915 -0.115921974 0.28861123 -0.10178354 0.11324736 -0.25457075 0.081311755 0.33320475
0.075941935 -0.073862955 -0.05789322 0.42121944 0.35658714 0.29275107 0.30498412 0.20607689
-0.17188004 -0.0940992 -0.059193995 0.3688531 -0.16836922 -0.19413581 -0.15153366 0.42278937
-0.09701999 -0.008485418 -0.018222548 -0.13337576 -0.20012826 0.06749261 0.65637404 0.043603092
-0.10932422 0.4715134 0.40890658 -0.33498734 -0.32581076 0.38683012 0.22990765 -0.57973444
-0.034120787 0.28995255 0.49207854 -0.61152047 0.14396183 0.18355635 0.38112193 0.6116549
-0.031051304 0.39541623 0.15404423 -0.21547036 -0.04867222 0.42153335 0.19661568 -0.07606566
0.18829171 -0.1821724 -0.6228992 -0.09477853 -0.09708361 0.43159214 -0.57562387 0.037489783
0.20948751 -0.44512334 0.275655 0.18454699 -0.12766284 -0.30038434 -0.31487152 -0.062366754
0.50727767 -0.17692098 0.54787475 0.58297056 0.00038315137 0.24957119 0.3364717 0.019573772
-0.42269608 -0.08450907 -0.20815395 0.24060965 0.116135545 0.12016817 0.3639517 0.42670435
0.6880203 0.06735854 -0.070694804 -0.22431353 0.5313255 0.59575194 0.03935391 -0.18954173
0.048859566 0.25823733 -0.16332938 -0.29050007 0.046546295 0.29268986 0.48350736 -0.12464137
0.50301003 0.37881085 -0.221251 0.45605797 0.38506833 -0.07662476 0.4543151 0.39514366
0.16792563 0.37948224 0.37394825 0.32894358 0.5120359 0.5770264 0.54462063 -0.59084237
-0.17336638 0.37489888 -0.24654157 -0.17255223 -0.04271834 -0.13159217 -0.14948335 -0.057378337
0.52475446 0.767712 0.59665227 0.21303749 0.010378813 -0.23253971 0.2633883 -0.25307366
-0.055306286 -0.41065848 -0.09150606 -0.15829289 0.60910785 0.23951875 0.18808623 0.02910183
-0.040864397 0.22468741 0.5159366 -0.45650774 0.35746968 -0.51297307 0.6330131 0.42395425
0.03627497 -0.10676055 -0.10666606 -0.11635829 0.56805295 0.33662406 -0.46492076 -0.1645552
-0.048683688 -0.06049788 0.3096893 -0.2567345 -0.10193021 -0.17482387 -0.02127481 0.035522882
0.00014839748 -0.0009922982 0.069792904 0.3669069 -0.014394991 -0.008369049 0.35645264 -0.37075427
-0.2356649 -0.10536018 0.072191544 0.43442956 -0.12407151 -0.3168741 0.6057076 -0.05735153
4.617894e-05 -0.13256104 -0.104967475 0.13436852 -0.59755415 -0.10095152 0.47782543 0.017200874
-0.0723102 0.04841807 0.18350616 -0.23515879 0.046962854 -0.52773947 -0.24443585 0.13267337
0.0733015 -0.097234055 0.29357994 0.15859152 0.078428015 0.23625325 -0.15849294 0.040154055
0.15334812 0.45484522 0.13680065 -0.12655929 0.08968022 -0.086330414 0.51544446 -0.1697437
0.42821422 -0.37661573 -0.18845302 -0.24333817 -0.14014454 0.41101792 0.24846175 -0.20553988
-0.23831128 -0.13831505 0.08183648 -0.23843002 0.17346807 0.26741773 0.56949896 0.62287146
0.46209317 -0.5562561 -0.12634264 0.14394343 0.26664504 0.076378636 0.16424468 -0.20582736
