LYAP_CP_m-fwd_d-20_s-0.005_seed0.pt (torch, 421641 bytes, 7 tensors)

W.0 f4 [200, 5]
0.0789924 -0.008971262 -0.41464108 -0.27424118 -0.599518 -0.005773787 -0.299683 0.2281591
0.008206262 -0.4053077 0.029801184 -0.4423292 -0.28194016 -0.41653585 -0.5873724 -0.014093858
-0.09102859 0.08003083 -0.19340795 -0.5046065 0.09222141 0.72566617 -0.11575093 0.48019013
-0.29709646 0.15736328 0.27311397 -0.48079324 -0.1511382 -0.6092482 -0.04536158 0.3136554
-0.36059633 -0.06541934 -0.82515407 -0.42454442 -0.28066853 0.42086127 0.15655039 -0.3772488
0.038611498 -0.54668474 0.018018963 -0.53385556 -0.5749972 -0.2694488 0.042928647 0.07581233
-0.03975377 -0.36384326 -0.0009441551 0.9749891 -0.0060371533 0.24256013 -0.18830329 -0.12754124
-0.21725936 -0.29658407 -0.3571812 -0.5828609 0.18885651 0.524001 -0.18897846 0.23609792
-0.044762842 -0.07745466 0.33904183 0.16374828 0.3463325 0.046787612 -0.329464 0.11554247
0.31240273 0.34326717 0.06238075 0.39525017 0.42878687 -0.29386804 0.08408671 -0.6652287
-0.46238625 0.14590386 0.12724201 -0.2737696 -0.1778894 -0.018091507 0.21028404 -0.01828846
0.12372342 -0.6165799 0.0024831323 0.7030604 0.14634189 0.33531317 -0.7773026 -0.28681275
-0.04283052 -0.078487985 -0.27866837 -0.5344438 0.29201257 0.52064216 -0.2661833 -0.007855717
-0.9982348 0.23800857 -0.3753318 -0.12692136 -0.1977353 -0.5149149 -0.1341594 0.58584356
-0.0878294 0.5162061 0.045704957 -0.14935118 -0.011593461 0.09190964 0.0313374 -0.4686612
0.17446819 0.33312774 -0.03133142 0.25848284 -0.627933 -0.06062411 -0.51740885 -0.07723753
-0.276761 -0.77426547 0.06203557 0.513885 -0.21425247 0.026877962 -0.24938132 -0.031256434
0.37223294 0.018562343 0.14719264 -0.1940706 0.22332157 0.070653565 0.23136324 0.10887269
-0.9087656 -0.20159899 0.083161786 -0.14307262 -0.07920934 -0.7182178 -0.3514061 -0.13250874
0.11779099 0.12750779 -0.21039829 -0.014013941 0.93391985 -0.32166883 0.010420434 -0.7464539
0.02978348 -0.4173909 -0.29691356 -0.50674427 -0.40944174 0.00916624 -0.51235527 0.06968121
-0.49585328 -0.301177 0.11960888 0.1266269 0.32969728 0.19729869 -0.92052287 0.28076857
0.23733722 0.047782425 0.37207747 -0.49600637 -0.15152399 0.21076657 0.2631219 0.16792093
-0.34680372 0.17345032 -0.41829687 -0.15836787 -0.47131234 -0.07823871 0.30364126 0.71407866
-0.33816284 0.15033574 -0.62552464 -0.18104409 -0.5895935 0.1553189 -0.36290413 -0.35787734
0.10049346 0.057227954 -0.39944282 -0.22848547 -0.7172818 0.07785821 0.1784711 0.3066638
0.20307273 -0.45204955 0.021700086 -0.4306167 0.05909485 -0.16873361 -0.43827167 0.09103729
-0.09529278 0.018531062 0.19814405 -0.5630315 -0.17211291 0.8307462 -0.006666976 0.20026419
-0.87251806 0.2415662 -0.76553196 0.018116653 -0.34091532 -0.48967737 -0.034710113 0.7202995
-0.0033903904 0.56766605 0.14549676 -0.07297975 -0.05117937 -0.30237442 -0.1771495 -0.35980004
0.10376065 0.84410435 -0.23835547 0.15627262 -0.24153998 -0.2085374 0.74062973 -0.29657865
0.13044035 -0.55314535 -0.26118273 -0.224056 0.20214045 -0.09499949 -0.61077136 -0.09247976
00000000: c4c6 a13d 33fc 12bc d64b d4be 5769 8cbe
00000010: 037a 19bf 0932 bdbb 0d70 99be 8aa2 693e
00000020: 8f73 063c 7e84 cfbe 9d21 f43c f978 e2be
00000030: 765a 90be 3044 d5be 0a5e 16bf ede9 66bc
00000040: 336d babd 34e7 a33d bc0c 46be e42d 01bf
00000050: 94de bc3d 42c5 393f d30e edbd 7bdb f53e
00000060: 071d 98be d723 213e 98d5 8b3e 882a f6be
00000070: f9c3 1abe b1f7 1bbf 10cd 39bd 7197 a03e
00000080: 15a0 b8be 93fa 85bd 4c3d 53bf e35d d9be
00000090: c9b3 8fbe 217b d73e bf4e 203e c126 c1be
000000a0: 1727 1e3d 88f3 0bbf 819c 933c c2aa 08bf
000000b0: 0433 13bf 31f5 89be f3d5 2f3d 7f43 9b3d
000000c0: d9d4 22bd aa49 babe 2d81 77ba e398 793f
000000d0: 50d3 c5bb af61 783e 94d2 40be 2c9a 02be
000000e0: 3d79 5ebe ded9 97be 74e0 b6be 5f36 15bf
000000f0: 9a63 413e ee24 063f 9283 41be a7c3 713e
00000100: 3e59 37bd 8ca0 9ebd e496 ad3e a1ad 273e
00000110: 7e52 b13e 5ea4 3f3d 81af a8be 88a1 ec3d
00000120: 40f3 9f3e b7c0 af3e f582 7f3d 3b5e ca3e
00000130: f489 db3e df75 96be a735 ac3d 6e4c 2abf
00000140: e4bd ecbe d267 153e bb4b 023e 872b 8cbe
00000150: a428 36be a434 94bc b354 573e aed1 95bc
00000160: b462 fd3d 2ed8 1dbf 0cbc 223b c4fb 333f
00000170: a6da 153e 2bae ab3e 4efd 46bf 1fd9 92be
00000180: 0e6f 2fbd 4fbe a0bd 9fad 8ebe 4fd1 08bf
00000190: ac82 953e ce48 053f 2d49 88be 44b5 00bc
000001a0: 518c 7fbf 85b8 733e 7d2b c0be acf7 01be
000001b0: 1f7b 4abe 76d1 03bf 1561 09be d8f9 153f
000001c0: e7df b3bd 1526 043f 1f35 3b3d 84ef 18be
000001d0: 80f2 3dbc 1f3b bc3d a55b 003d 5cf4 efbe
000001e0: caa7 323e b88f aa3e 6055 00bd dd57 843e
000001f0: 38c0 20bf fd50 78bd e874 04bf b62e 9ebd
00000200: 9eb3 8dbe 4336 46bf 0319 7e3d f88d 033f
00000210: 0065 5bbe 2c2f dc3c d15d 7fbe bf06 00bd
00000220: 5195 be3e 0e10 983c abb9 163e 72ba 46be
00000230: 69ae 643e d1b2 903d 7cea 6c3e a5f8 de3d
00000240: dda4 68bf f76f 4ebe ba50 aa3d a181 12be
00000250: 8238 a2bd 1fdd 37bf 80eb b3be 5fb0 07be
00000260: 673c f13d 6791 023e a672 57be bb9a 65bc
00000270: 5f15 6f3f c7b1 a4be 78ba 2a3c 9a17 3fbf
00000280: 7cfc f33c 43b4 d5be 0e05 98be feb9 01bf
00000290: 59a2 d1be ff2d 163c b729 03bf 06b5 8e3d
000002a0: 7be0 fdbe df33 9abe 80f5 f43d 7baa 013e
000002b0: 15ce a83e ab08 4a3e 63a7 6bbf e6c0 8f3e
000002c0: 8708 733e 81b7 433d f080 be3e 8cf4 fdbe
000002d0: 1b29 1bbe 31d3 573e eab7 863e 77f3 2b3e
000002e0: 4290 b1be f69c 313e 022b d6be 302b 22be
000002f0: da4f f1be 9e3b a0bd de76 9b3e dccd 363f
00000300: ae23 adbe 9df1 193e 6222 20bf 9f63 39be
00000310: 9aef 16bf eb0b 1f3e 92ce b9be b33b b7be
00000320: 84cf cd3d dc67 6a3d c583 ccbe 18f8 69be
00000330: c89f 37bf 2074 9f3d 21c1 363e 0a03 9d3e
00000340: 4cf2 4f3e 0a73 e7be 61c4 b13c cb79 dcbe
00000350: 710d 723d 81c8 2cbe 2565 e0be c271 ba3d
00000360: dc28 c3bd 74ce 973c 46e6 4a3e d522 10bf
00000370: 5e3e 30be c8ab 543f a676 dabb 0e12 4d3e
00000380: 585d 5fbf 215d 773e e7f9 43bf 6069 943c
00000390: 748c aebe feb6 fabe 312c 0ebd 8c65 383f
000003a0: 5031 5ebb 9052 113f 1afd 143e 6876 95bd
000003b0: 76a1 51bd d2d0 9abe ae66 35be b637 b8be
000003c0: 7780 d43d 3917 583f 7513 74be ee05 203e
000003d0: 4256 77be d48a 55be e999 3d3f 28d9 97be
000003e0: 2892 053e ef9a 0dbf beb9 85be f06e 65be
000003f0: e8fd 4e3e 188f c2bd 835b 1cbf 0766 bdbd

W.1 f4 [500, 5]
0.015270377 -0.6918228 0.04661652 -0.51095015 -0.44348726 0.41970566 -0.9181195 -0.10459931
-0.2905032 -0.7063953 0.051290266 -0.20566413 0.05980383 -0.25020087 -0.3701358 0.24858509
0.16155191 -0.19068171 -0.10978992 -0.2976636 0.30343372 -0.041428473 -0.03533479 0.052379068
-0.39491636 -0.3038139 -0.6168243 0.21658604 -0.2435801 -0.10029441 0.28811064 -0.21480694
-0.09846981 -0.1059708 -0.5924941 0.11604592 -0.68395084 -0.03371204 -0.51222897 -0.119920425
-0.25076598 0.20050612 -0.24113835 -0.111996815 -0.24258329 0.055426635 0.048292123 -0.015196792
-0.27908033 -0.0037711035 -0.118721366 0.061382845 0.3648029 0.29137868 -0.76825625 -0.09046626
0.72866046 0.0647312 0.54785645 -0.26052198 -0.23444456 0.73591065 0.099656016 0.60582584
-0.26708576 -0.18153961 0.23078158 -0.19370052 0.1183169 -0.07680077 0.084999055 -0.33883432
0.07199037 -0.3045751 0.07079976 -0.425255 -0.17575727 0.13731219 0.2212054 -0.24535628
0.104142964 -0.7712985 0.21661146 -0.20715983 -0.29962263 0.1158332 0.58924776 -0.11308059
0.06785405 -0.87515235 -0.11736998 0.6252688 -0.09717886 0.4089168 -0.41256583 0.07867445
0.30328244 -0.23504399 -0.04726428 -0.60113513 -0.10533432 0.20712887 0.379935 0.38705438
-0.61452276 0.29125533 -0.12589155 -0.14415425 -0.020305594 -0.42945436 -0.11993718 -0.24026485
0.050129183 -0.016513763 -0.9162918 -0.32392144 -0.24686639 -0.2922928 -0.43298 -0.5276621
0.10941282 -0.3112942 -0.06998276 -0.15494092 -1.0020761 0.0117611885 -0.04841472 -0.0701014
0.027743476 -0.72254074 -0.29415298 0.5819533 0.1361855 0.558363 -0.26718336 -0.18898085
0.24429563 0.15184723 0.33509612 -0.71190655 0.07254963 -0.049935084 -0.28015324 -0.17306788
-0.29680154 -0.31204954 0.4073919 -0.15030053 0.22381985 -0.74631065 0.4046329 -0.3089235
-0.15170604 -0.17472982 -0.2734658 -0.34274524 -0.5415085 0.34348166 -0.13398738 -0.18389256
-0.36196142 0.1363236 0.0090841 0.31371254 -0.07057661 -0.25017363 -0.22715741 -0.024366736
-0.18556869 -0.668792 -0.07673813 0.13661936 -0.4067495 -0.20123507 -0.5600957 0.03194734
-0.14281936 -0.047964685 -0.053079285 -0.8362277 -0.08440487 -0.48043817 0.1813899 -0.49602333
-0.53645545 -0.36786917 0.20082103 0.39602864 0.4029389 -0.7690628 -0.084496334 0.60839736
0.1285172 0.5044277 -0.31639746 -0.21843287 0.6398489 -0.073932365 0.36871582 -0.40026933
0.17342864 0.14141753 0.1754063 -0.22341181 -0.5441945 -0.19989036 -0.65253824 0.38758364
-0.1336044 -0.6735012 -0.14378294 -0.5719884 0.118440315 -0.4962869 -0.63985115 -0.4454634
-0.07787552 0.053229317 -0.21508019 -0.20919605 0.24310702 0.44518518 -0.10742199 0.08965407
-0.60365856 0.16998796 -0.08986417 0.32015142 0.1710332 -0.75998694 0.28112027 0.61763614
-0.28396612 0.009376351 -0.37582165 -0.30511183 0.512247 0.13545936 0.40821034 -0.63475937
-0.37022078 -0.07392334 -0.006686187 -0.36746866 -0.52314484 -0.37620786 -0.05729059 0.052821904
0.24103747 -0.34210616 0.26178154 0.16685039 -0.010572071 -0.22827192 -0.07306534 0.16774121
00000000: 9a30 7a3c 4d1b 31bf f7f0 3e3d a1cd 02bf
00000010: c310 e3be a9e3 d63e e109 6bbf 2a38 d6bd
00000020: d6bc 94be 53d6 34bf be15 523d 9e99 52be
00000030: dcf4 743d 541a 80be 7182 bdbe 178d 7e3e
00000040: dd6d 253e 1142 43be 8ad9 e0bd 5d67 98be
00000050: aa5b 9b3e e7b0 29bd 36bb 10bd 6f8b 563d
00000060: 7a32 cabe 7f8d 9bbe 33e8 1dbf bbc8 5d3e
00000070: 106d 79be 2867 cdbd 3d83 933e 5af6 5bbe
00000080: 8aaa c9bd 3807 d9bd b1ad 17bf 7ca9 ed3d
00000090: 6717 2fbf a315 0abd 7021 03bf d798 f5bd
000000a0: 6664 80be 7a51 4d3e f9ec 76be 965e e5bd
000000b0: c167 78be 0a07 633d f6cd 453d f7fb 78bc
000000c0: 9ee3 8ebe 9e24 77bb 3024 f3bd 946c 7b3d
000000d0: 72c7 ba3e 962f 953e 71ac 44bf 6046 b9bd
000000e0: 7e89 3a3f cb91 843d 5240 0c3f 2363 85be
000000f0: 3c12 70be a464 3c3f 7418 cc3d 6717 1b3f
00000100: 77bf 88be 85e5 39be 0252 6c3e 6e59 46be
00000110: 2250 f23d b949 9dbd fc13 ae3d b17b adbe
00000120: b06f 933d 44f1 9bbe 77ff 903d 06bb d9be
00000130: b7f9 33be 919b 0c3e ab83 623e ad3e 7bbe
00000140: e848 d53d d273 45bf 65cf 5d3e b521 54be
00000150: 2368 99be f539 ed3d f1d8 163f cc96 e7bd
00000160: 10f7 8a3d fc09 60bf ac5f f0bd 9e11 203f
00000170: b605 c7bd 8b5d d13e d43b d3be 1220 a13d
00000180: d647 9b3e 5faf 70be 3198 41bd fee3 19bf
00000190: 85b9 d7bd 9719 543e d786 c23e fe2b c63e
000001a0: 5d51 1dbf 6b1f 953e b7e9 00be 2c9d 13be
000001b0: eb57 a6bc 71e1 dbbe a0a1 f5bd fd07 76be
000001c0: 4254 4d3d df47 87bc 1992 6abf 08d9 a5be
000001d0: 8bca 7cbe 67a7 95be 8eaf ddbe dd14 07bf
000001e0: d413 e03d f461 9fbe 1f53 8fbd d5a8 1ebe
000001f0: 0844 80bf 00b2 403c 834e 46bd 5391 8fbd
00000200: 4946 e33c 6ef8 38bf 389b 96be e4fa 143f
00000210: 3674 0b3e e1f0 0e3f 42cc 88be 3284 41be
00000220: a228 7a3e d77d 1b3e b891 ab3e 823f 36bf
00000230: e794 943d bb88 4cbd 3f70 8fbe b538 31be
00000240: 5ff6 97be f5c4 9fbe ac95 d03e 62e8 19be
00000250: 0831 653e 370e 3fbf 0b2c cf3e 392b 9ebe
00000260: d458 1bbe 60ec 32be b603 8cbe 4e7c afbe
00000270: 4da0 0abf d4dc af3e fd33 09be 554e 3cbe
00000280: 0253 b9be 6a98 0b3e 7ad5 143c ee9e a03e
00000290: 788a 90bd c216 80be f49b 68be c09c c7bc
000002a0: b805 3ebe f435 2bbf e128 9dbd f2e5 0b3e
000002b0: 7841 d0be 9110 4ebe 6f62 0fbf 37db 023d
000002c0: 3d3f 12be 9e76 44bd aa69 59bd 0513 56bf
000002d0: 76dc acbd fefb f5be 46be 393e c5f6 fdbe
000002e0: 2555 09bf 5959 bcbe 07a4 4d3e 44c4 ca3e
000002f0: 024e ce3e 4de1 44bf 6a0c adbd eebf 1b3f
00000300: 039a 033e 2c22 013f d9fe a1be deac 5fbe
00000310: 23cd 233f da69 97bd 52c8 bc3e 1af0 ccbe
00000320: 4797 313e c2cf 103e b69d 333e 11c6 64be
00000330: 5550 0bbf 0fb0 4cbe bf0c 27bf 5d71 c63e
00000340: 98cf 08be 936a 2cbf d63b 13be d56d 12bf
00000350: d690 f23d 5119 febe 49cd 23bf c713 e4be
00000360: 337d 9fbd fc06 5a3d fb3d 5cbe 7d37 56be
00000370: 0cf1 783e 50ef e33e 0f00 dcbd 8e9c b73d
00000380: 5e89 1abf 5311 2e3e b50a b8bd e3ea a33e
00000390: 5423 2f3e 818e 42bf ffee 8f3e 671d 1e3f
000003a0: 0264 91be 449f 193c b26b c0be 9e37 9cbe
000003b0: 9f22 033f dcb5 0a3e f200 d13e 977f 22bf
000003c0: 948d bdbe 1f65 97bd cd17 dbbb da24 bcbe
000003d0: d2ec 05bf 519e c0be 8aa9 6abd c85b 583d
000003e0: 87d2 763e 8a28 afbe 3b08 863e d4da 2a3e
000003f0: 7b36 2dbc 1dc0 69be 48a3 95bd 5ac4 2b3e

W.2 f4 [1, 5]
0.39479828 -0.24562408 -0.077167004 -0.271302 -1.0260726
00000000: 0023 ca3e e184 7bbe bc09 9ebd 19e8 8abe
00000010: 5956 83bf

U.0 f4 [500, 200]
-0.029405823 -0.04851979 0.20695035 -0.053261768 -0.2856349 -0.2553854 -0.20580482 -0.063880295
0.17310312 -0.16099355 -0.23893215 0.013448969 -0.30852517 -0.26616913 -0.2746949 -0.21024637
-0.10813181 -0.32992944 -0.28479683 -0.045531087 -0.16055535 0.09289939 -0.21917605 -0.10427372
-0.33156964 0.14209355 -0.31212464 -0.294881 -0.13364843 -0.14082043 -0.30874833 -0.3045652
0.2004143 0.12864476 -0.22845939 -0.3060419 -0.11921642 0.16448718 -0.3112886 0.13491508
-0.052525118 -0.2208462 0.13856089 -0.20368178 -0.20934042 0.3254022 -0.25335845 -0.099080935
-0.27253303 -0.3658712 -0.0075530615 0.33486202 -0.35137138 -0.32561904 -0.30542877 -0.28148884
-0.308625 0.13494089 -0.082516424 -0.29369682 -0.26870728 -0.26017594 0.023344165 -0.22365443
-0.35510266 -0.32775694 -0.08156935 -0.32021266 -0.15852952 -0.15597509 -0.37141013 0.23858513
-0.3042397 -0.070231505 -0.13143674 -0.35842928 -0.23871021 -0.15970209 0.15864135 -0.1961092
-0.3246131 -0.17777002 -0.02385168 -0.10369232 -0.22581312 0.11900161 -0.16499476 -0.26739722
-0.20720851 0.11725096 -0.2935308 -0.004353982 0.1583732 0.05427591 -0.24922517 0.14583322
-0.29517013 -0.24212064 0.09399456 -0.18700111 -0.2877373 0.009483208 -0.12881887 -0.32370976
0.16492563 -0.27792066 -0.17414646 0.18087259 -0.002899975 0.2144119 0.21475956 -0.3253221
-0.18861215 -0.23491314 -0.023000777 -0.288228 -0.15741101 -0.3058709 -0.29707795 -0.24752142
-0.2942216 -0.13914607 0.19416052 -0.34781948 -0.16341478 -0.11486045 -0.23495817 0.25477058
-0.08400443 0.18989557 0.14206298 -0.04300359 0.1150685 -0.026446015 -0.32830432 -0.2967811
0.18146853 -0.32288226 -0.24486919 -0.27109596 -0.37048775 0.03645397 0.18204823 -0.3204694
0.33288395 -0.2680173 -0.33902165 -0.21362723 0.006752672 -0.27611318 -0.33701906 0.2259828
-0.24427342 0.15396413 -0.064075075 -0.19350098 -0.24057692 -0.27618718 -0.16972002 0.17757253
0.23000689 -0.2627908 0.19301343 0.09674888 0.09032798 -0.23174883 0.16892941 -0.018733349
-0.26653993 -0.23233864 -0.17108361 -0.24323629 -0.1910725 0.053220395 -0.2316496 -0.15734686
-0.27228162 -0.33943784 -0.31901094 0.023382068 -0.27556354 0.31040618 -0.23636848 -0.16961527
-0.2030796 -0.27031037 -0.27960458 -0.23953056 -0.056931622 -0.24786258 0.2492698 -0.30833724
-0.012532276 -0.39462888 -0.3662846 -0.049195427 0.22897074 0.20341884 -0.22668485 -0.17882772
0.058203254 0.21019521 0.28874993 0.03266463 0.010880723 -0.18182644 -0.13424918 -0.07018792
0.19572943 -0.0030220945 -0.37590164 0.13250926 -0.13703045 -0.29723108 -0.24598292 -0.21564339
0.03425041 -0.21497186 -0.11984105 0.013892041 -0.37288755 -0.06498275 -0.13046528 -0.16163307
-0.23625809 0.3280373 -0.37444758 -0.35933238 -0.14562118 -0.012147043 -0.20263632 -0.4290202
0.26113322 0.2950354 -0.2920126 -0.20161335 -0.3799089 0.26875263 -0.1109093 0.23574525
0.014690559 -0.32486966 0.20171773 -0.20141192 -0.38183814 0.3857027 0.05575404 -0.010782519
-0.24186839 -0.35902512 0.15519543 0.3380305 -0.025461111 -0.21316862 -0.23442632 -0.47574866
00000000: 7be4 f0bc b0bc 46bd cbea 533e 0329 5abd
00000010: bd3e 92be e0c1 82be 80be 52be acd3 82bd
00000020: f241 313e 7edb 24be a1aa 74be 1159 5c3c
00000030: 03f7 9dbe 5247 88be cfa4 8cbe d34a 57be
00000040: 3674 ddbd 83ec a8be e4d0 91be ce7e 3abd
00000050: 9f68 24be 0942 be3d b06f 60be 768d d5bd
00000060: 7fc3 a9be f980 113e cdce 9fbe a4fa 96be
00000070: 22db 08be 3b33 10be 4314 9ebe f8ef 9bbe
00000080: 6839 4d3e 74bb 033e 42f1 69be 86b1 9cbe
00000090: bd27 f4bd 546f 283e 3861 9fbe 2e27 0a3e
000000a0: 9424 57bd 8225 62be e8e2 0d3e f591 50be
000000b0: 565d 56be 1e9b a63e 33b8 81be f2ea cabd
000000c0: 7389 8bbe 7853 bbbe ac7f f7bb 0973 ab3e
000000d0: f3e6 b3be 8ab7 a6be 2961 9cbe 4e1f 90be
000000e0: 1904 9ebe f22d 0a3e 5ffe a8bd 6e5f 96be
000000f0: 0094 89be c835 85be 433c bf3c ab05 65be
00000100: 04d0 b5be c2cf a7be d50d a7bd eaf2 a3be
00000110: 9055 22be efb7 1fbe 7829 bebe a94f 743e
00000120: 4ec5 9bbe 89d5 8fbd 5a97 06be 0b84 b7be
00000130: 7370 74be f288 23be e172 223e dad0 48be
00000140: b033 a6be 5809 36be 9964 c3bc a45c d4bd
00000150: 8e3b 67be 1eb7 f33d 63f4 28be 4ae8 88be
00000160: 782e 54be 4521 f03d ab49 96be d9ab 8ebb
00000170: 962c 223e 6b50 5e3d e234 7fbe 4e55 153e
00000180: 8a20 97be 79ee 77be 3880 c03d 387d 3fbe
00000190: 4e52 93be 755f 1b3c 18e9 03be 49bd a5be
000001a0: 44e2 283e 9e4b 8ebe 7353 32be aa36 393e
000001b0: 820d 3ebb cb8e 5b3e eee9 5b3e 9e90 a6be
000001c0: 8b23 41be 128d 70be 206c bcbc 9f92 93be
000001d0: 5a30 21be 1c9b 9cbe 9a1a 98be 4176 7dbe
000001e0: 37a4 96be 4f7c 0ebe 04d2 463e 6515 b2be
000001f0: 3456 27be f53b ebbd e098 70be 4a71 823e
00000200: 840a acbd fc73 423e f578 113e 8824 30bd
00000210: 09a9 eb3d 50a5 d8bc 8117 a8be b1f3 97be
00000220: e3d2 393e d350 a5be fdbe 7abe 17cd 8abe
00000230: 92b0 bdbe c250 153d da6a 3a3e 9114 a4be
00000240: c46f aa3e 9039 89be 3f94 adbe 19c1 5abe
00000250: 8545 dd3b b55e 8dbe c38d acbe 0968 673e
00000260: d022 7abe c6a8 1d3e cb39 83bd 1f25 46be
00000270: cc59 76be 6868 8dbe 16cb 2dbe 93d5 353e
00000280: ed86 6b3e 848c 86be 50a5 453e 4724 c63d
00000290: e0fd b83d 914f 6dbe d5fb 2c3e ae76 99bc
000002a0: ec77 88be 2eea 6dbe 8b30 2fbe ef12 79be
000002b0: 82a8 43be a1fd 593d 8e35 6dbe 891f 21be
000002c0: 7f68 8bbe ccca adbe 6755 a3be c08b bf3c
000002d0: aa16 8dbe 8fed 9e3e 940a 72be a0af 2dbe
000002e0: 19f4 4fbe 1f66 8abe 5528 8fbe 8047 75be
000002f0: 2231 69bd b0cf 7dbe 9540 7f3e 61de 9dbe
00000300: 2d54 4dbc cc0c cabe a889 bbbe 2581 49bd
00000310: 4e77 6a3e 074d 503e 1320 68be 9d1e 37be
00000320: 8966 6e3d 6a3d 573e 08d7 933e 59cb 053d
00000330: 0f45 323c b630 3abe 9e78 09be afbe 8fbd
00000340: 4c6d 483e 550e 46bb 2e76 c0be 82b0 073e
00000350: b651 0cbe ac2e 98be f2e2 7bbe 9fd1 5cbe
00000360: 284a 0c3d 9521 5cbe 396f f5bd 719b 633c
00000370: 1eeb bebe ad15 85bd b198 05be 2483 25be
00000380: a4ed 71be 81f4 a73e 98b7 bfbe 6afa b7be
00000390: b81d 15be 6404 47bc e57f 4fbe 89a8 dbbe
000003a0: 41b3 853e e10e 973e ad82 95be bb73 4ebe
000003b0: 6b83 c2be f299 893e 6a24 e3bd 3467 713e
000003c0: acb0 703c 5155 a6be 188f 4e3e ed3e 4ebe
000003d0: 4a80 c3be d37a c53e 595e 643d 2aa9 30bc
000003e0: 59ac 77be 24d2 b7be 8deb 1e3e 5512 ad3e
000003f0: d293 d0bc e048 5abe 740d 70be 5495 f3be

U.1 f4 [1, 500]
0.1259147 0.1576224 -0.038084533 -0.19334534 -0.19398198 0.09615847 -0.052676484 0.14557017
-0.20438565 -0.153158 0.0063946885 0.16624515 0.19798045 -0.1220161 -0.046355877 -0.14333178
0.23501194 0.044349622 0.115691096 -0.07894729 0.09654783 -0.13710447 -0.11692523 0.0377316
-0.15256669 -0.168213 0.13922131 0.0061875745 -0.101212256 -0.049088966 -0.1707456 0.038662124
-0.07506668 -0.030290317 -0.13549088 -0.024650037 0.075237505 0.023673924 0.19137566 0.14923136
-0.18997037 0.16075307 0.15731749 -0.04542026 0.034452964 -0.100371994 -0.082391344 0.18661787
-0.08185125 -0.11617635 -0.14110671 0.1809172 -0.015861407 0.112739325 -0.17400843 0.1596154
-0.07300014 0.046260152 0.009320379 0.08886647 0.091031626 0.17512223 0.042924758 -0.1602753
-0.02614976 0.14316222 0.013223009 0.11851867 0.06539122 0.08321434 0.17126174 -0.10112175
0.15232292 -0.088312894 0.04325388 -0.043597747 0.17133789 -0.042623445 0.2058811 0.06774475
-0.14702079 0.1742986 0.026492508 -0.20761779 0.20608832 -0.15254213 -0.004558062 0.028852047
0.075103946 0.30818295 -0.14730544 0.10190348 0.020811314 0.14973707 0.13329339 -0.15755175
-0.16883776 0.13166255 -0.16325478 -0.07959809 0.21920358 0.1021017 0.10545456 0.06780187
-0.19560023 0.3140982 -0.10458616 -0.03202804 -0.03830573 0.016743785 0.07203772 0.152453
-0.023894021 0.051136434 0.14161304 0.079497606 0.062262148 -0.05178859 -0.0067551313 -0.12511653
-0.15239502 -0.031575937 0.023655064 -0.13063769 -0.18195565 0.13295814 0.06990292 0.19324541
0.18162356 0.102857694 -0.014985602 0.054205813 -0.12009005 -0.1185357 0.11294901 -0.0961851
-0.1823205 0.084687 -0.015054093 -0.12692747 0.15664306 -0.28907153 -0.07265214 0.18248619
-0.023733366 0.17940317 0.14886704 0.024625527 0.12140932 0.02039934 -0.18081284 0.08614157
-0.06726774 0.066282116 -0.070328355 -0.14306286 -0.04522967 0.1296516 0.23105589 0.18546502
-0.068493456 0.14995304 0.17242375 0.20151322 0.020639757 -0.09073376 -0.0389799 -0.1317787
-0.052817523 0.19091612 0.056125026 -0.11597824 0.21022074 0.04199279 -0.019235894 -0.049424432
0.18168671 -0.035622567 -0.14568458 -0.10955743 0.024211088 0.011835994 0.17369814 0.08242127
-0.105067916 -0.039216142 -0.10606721 -0.09931653 0.031474844 0.090448566 -0.117163435 -0.22089604
-0.0054886513 0.14461647 0.06358404 -0.08665767 -0.1122737 0.12218861 0.11825587 -0.05367117
0.11877566 0.018133266 0.05381641 0.05470389 0.15085043 -0.1262053 0.2035943 0.08284293
0.09043007 -0.12226031 -0.12035603 -0.15485807 0.12944046 0.26778623 0.08767569 0.047696583
-0.15981455 0.15420899 0.09787014 -0.0488682 -0.05549271 0.022013342 -0.060032696 -0.13477308
0.095948614 0.15772577 0.0056941803 0.09645328 -0.24489619 -0.024376065 0.11523441 -0.1552272
0.02498534 -0.24714881 0.16929181 -0.08998957 0.019778378 0.115004145 -0.06311473 -0.079341866
0.019489681 0.23625071 0.08998861 -0.16171117 0.13725065 0.12673357 0.08029244 0.14306806
0.1992026 0.20868407 0.22202298 -0.21444325 0.18839727 -0.030959882 0.15463461 -0.03874334
00000000: c8ef 003e c467 213e 87fe 1bbd 52fc 45be
00000010: 36a3 46be bbee c43d 4cc3 57bd 5910 153e
00000020: 794a 51be 73d5 1cbe 898a d13b 2b3c 2a3e
00000030: 63bb 4a3e 94e3 f9bd a9df 3dbd 91c5 12be
00000040: f8a6 703e f3a7 353d 74ef ec3d 1eaf a1bd
00000050: deba c53d 1d65 0cbe 7f76 efbd 738c 1a3d
00000060: 713a 1cbe 0740 2cbe 0890 0e3e 23c1 ca3b
00000070: 5f48 cfbd 8311 49bd efd7 2ebe 2d5c 1e3d
00000080: 8fbc 99bd 6623 f8bc 1fbe 0abe e0ee c9bc
00000090: 1f16 9a3d d1ef c13c fbf7 433e 1bd0 183e
000000a0: 9887 42be 749c 243e d617 213e 980a 3abd
000000b0: 8d1e 0d3d d58f cdbd cbbc a8bd c118 3f3e
000000c0: a1a1 a7bd deed edbd 477e 10be 5c42 393e
000000d0: c8ef 81bc e0e3 e63d 442f 32be 3872 233e
000000e0: 1981 95bd 497b 3d3d 81b4 183c a0ff b53d
000000f0: ca6e ba3d 3e53 333e dfd1 2f3d 351f 24be
00000100: 0538 d6bc 1e99 123e 52a5 583c ebb9 f23d
00000110: d5eb 853d 486c aa3d 3d5f 2f3e ec18 cfbd
00000120: 8afa 1b3e 64dd b4bd fb2a 313d 8d93 32bd
00000130: 3373 2f3e ec95 2ebd 7fd2 523e c2bd 8a3d
00000140: 9e8c 16be 557b 323e d106 d93c c299 54be
00000150: d108 533e 0134 1cbe cc5b 95bb 215b ec3c
00000160: 19d0 993d 28ca 9d3e 3dd7 16be c6b2 d03d
00000170: 7d7c aa3c ad54 193e 107e 083e 3f55 21be
00000180: cee3 2cbe 8cd2 063e 432c 27be 5304 a3bd
00000190: e776 603e b21a d13d 8ff8 d73d b5db 8a3d
000001a0: 6d4b 48be 7bd1 a03e 4531 d6bd d62f 03bd
000001b0: 78e6 1cbd 432a 893c 8388 933d a41c 1c3e
000001c0: 65bd c3bc 7074 513d 0203 113e a4cf a23d
000001d0: 9806 7f3d 4620 54bd 265a ddbb 8c1e 00be
000001e0: 710d 1cbe c555 01bd 44c8 c13c e3c5 05be
000001f0: 9552 3abe 2e26 083e 4329 8f3d 20e2 453e
00000200: 87fb 393e 0ea7 d23d 2c86 75bc ea06 5e3d
00000210: c6f1 f5bd d8c2 f2bd d051 e73d b2fc c4bd
00000220: 3ab2 3abe 6170 ad3d 71a5 76bc 46f9 01be
00000230: 0a67 203e 2f01 94be a5ca 94bd a9dd 3a3e
00000240: 7a6c c2bc 77b5 373e 9a70 183e 79bb c93c
00000250: 73a5 f83d 841c a73c 0027 39be fe6a b03d
00000260: abc3 89bd ebbe 873d 5008 90bd 127f 12be
00000270: bf42 39bd 64c3 043e ea99 6c3e 8bea 3d3e
00000280: 4c46 8cbd 4a8d 193e da8f 303e 7b59 4e3e
00000290: b514 a93c 9fd2 b9bd 63a9 1fbd fff0 06be
000002a0: 3057 58bd 847f 433e 5be3 653d 0086 edbd
000002b0: 1b44 573e a200 2c3d 9894 9dbc 4671 4abd
000002c0: 150c 3a3e f8e8 11bd 572e 15be a55f e0bd
000002d0: 5556 c63c c2eb 413c eddd 313e 7ccc a83d
000002e0: d92d d7bd 1ba1 20bd c439 d9bd 7766 cbbd
000002f0: c4eb 003d 193d b93d 62f3 efbd 9232 62be
00000300: 25da b3bb 5716 143e 5938 823d 9479 b1bd
00000310: c1ef e5bd 063e fa3d 2230 f23d 4dd6 5bbd
00000320: a740 f33d 378c 943c 996e 5c3d 3011 603d
00000330: 8978 1a3e f63b 01be 067b 503e 8ea9 a93d
00000340: 6733 b93d 9d63 fabd 397d f6bd 1d93 1ebe
00000350: 0a8c 043e 471b 893e 508f b33d 7e5d 433d
00000360: 6da6 23be f6e8 1d3e 2470 c83d 062a 48bd
00000370: 534c 63bd 5355 b43c d8e4 75bd f401 0abe
00000380: b580 c43d dd82 213e 3f96 ba3b 4c89 c53d
00000390: 11c6 7abe 50b0 c7bc 0500 ec3d e1f3 1ebe
000003a0: 0eae cc3c 9414 7dbe d55a 2d3e 744c b8bd
000003b0: 4406 a23c 4b87 eb3d 4c42 81bd fd7d a2bd
000003c0: d3a8 9f3c b5eb 713e f34b b83d 9d97 25be
000003d0: 6f8b 0c3e 72c6 013e 5d70 a43d 6f80 123e
000003e0: c4fb 4b3e 47b1 553e fe59 633e 0397 5bbe
000003f0: 37eb 403e 949f fdbc 8958 1e3e 56b1 1ebd

bias.0 f4 [200]
0.0545922 0.2582364 0.062280893 0.20466834 0.20872183 -0.32704496 -0.49466184 0.32824638
0.0741866 -0.36849737 -0.22188336 -0.37519717 -0.12959051 0.3163151 -0.014145462 0.37061304
0.1110635 -0.13483 -0.32257682 -0.13812187 0.3515659 -0.20526661 0.33462542 -0.15495616
-0.15119149 -0.38063017 0.25494987 -0.26855797 0.2236077 -0.5330668 0.49367294 0.07807839
-0.05712477 0.0811408 0.17345014 -0.33115548 0.24899645 -0.16553126 -0.16871943 0.34617946
0.28534514 -0.08336586 -0.14001708 0.26367095 -0.2576334 -0.21851456 -0.24421126 -0.2116625
-0.09053259 -0.014689497 0.0898668 -0.2915223 -0.17791717 -0.22043788 -0.37633288 -0.04513808
0.26557067 -0.25327426 -0.07167148 0.1880692 -0.31775862 0.21565644 -0.015472334 0.026531242
0.17410985 0.11852091 -0.10442402 -0.039914582 0.08344785 -0.13411298 -0.016981993 0.09531872
0.5121497 0.37532854 0.07623597 -0.14254251 -0.28055272 -0.5246247 0.05607113 -0.18460907
-0.08527896 0.2581143 0.33676764 -0.36170754 0.39201343 0.10307073 -0.14662434 0.10798886
0.4595383 0.26772642 0.0588016 -0.4236687 -0.09511801 0.25079104 0.097095646 -0.17575575
0.33837035 -0.13757165 -0.4073649 -0.22127604 -0.3138049 0.30881226 -0.13421716 -0.11206125
-0.073164165 0.2417627 0.380635 -0.0503614 -0.34737384 -0.22185235 -0.30063254 -0.2304045
0.06363725 0.30185083 0.19865248 -0.09076679 -0.2608568 -0.22052012 0.5251366 0.054971464
0.10685223 -0.4105852 -0.26482078 -0.38197827 -0.5317022 0.12990616 -0.43358877 -0.29916164
0.14830704 0.16306733 0.0156855 -0.21462342 0.002000761 0.31921363 -0.42104572 0.09386742
0.14346366 -0.11654889 -0.4237074 0.25821024 -0.3390436 0.0520741 -0.37233374 0.345315
0.055168398 -0.054626066 0.033725884 -0.2658841 0.24867846 -0.22826381 -0.42436194 0.38377795
-0.085428715 -0.3978807 -0.53586864 -0.1295939 -0.3058105 -0.43697983 -0.254327 -0.41381425
-0.19615 -0.29956573 0.23486577 -0.38096562 0.3324593 0.068326786 -0.18344916 -0.42054707
0.32819957 -0.08976022 -0.26628545 0.02938239 -0.13505203 -0.014444426 0.20088394 -0.37931502
0.18813255 -0.3549705 -0.22678418 -0.26876864 -0.27784926 -0.08941641 0.25797987 -0.20097919
0.49125004 -0.2560355 -0.2704444 -0.23607358 -0.37687415 -0.10262695 -0.32422176 0.33414194
0.1208906 -0.27353612 -0.17800939 0.49368715 -0.14970657 -0.28259632 -0.20803599 0.18188302
00000000: 129c 5f3d 9037 843e 401a 7f3d 9494 513e
00000010: 2dbb 553e 7072 a7be 5144 fdbe e90f a83e
00000020: 25ef 973d b0ab bcbe 6435 63be d819 c0be
00000030: 60b3 04be 0ef4 a13e 5ec2 67bc fec0 bd3e
00000040: 4375 e33d e010 0abe ca28 a5be d26f 0dbe
00000050: 7200 b43e 6931 52be 0654 ab3e d4ac 1ebe
00000060: f1d1 1abe f5e1 c2be ca88 823e 6e80 89be
00000070: 6bf9 643e 1177 08bf b3c2 fc3e 90e7 9f3d
00000080: aafb 69bd 262d a63d ea9c 313e 368d a9be
00000090: edf8 7e3e 0781 29be c9c4 2cbe 6f3e b13e
000000a0: c218 923e b8bb aabd a360 0fbe e1ff 863e
000000b0: 86e8 83be 48c2 5fbe 8412 7abe 0ebe 58be
000000c0: 2769 b9bd 37ac 70bc 160c b83d 6942 95be
000000d0: eb2f 36be 78ba 61be b4ae c0be b5e2 38bd
000000e0: e1f8 873e 2aad 81be 7fc8 92bd 3695 403e
000000f0: 42b1 a2be 0bd5 5c3e ac7f 7dbc 0c58 d93c
00000100: da49 323e 17bb f23d 43dc d5bd 797d 23bd
00000110: b5e6 aa3d ea54 09be d21d 8bbc 7636 c33d
00000120: 3e1c 033f 102b c03e 9b21 9c3d aaf6 11be
00000130: 9ba4 8fbe ce4d 06bf d7aa 653d 290a 3dbe
00000140: bca6 aebd 8f27 843e cf6c ac3e bb31 b9be
00000150: fcb5 c83e bf16 d33d b124 16be 4329 dd3d
00000160: 9b48 eb3e 7013 893e f2d9 703d 1beb d8be
00000170: 3bcd c2bd af67 803e 15da c63d 51f9 33be
00000180: e13e ad3e 95df 0cbe 2292 d0be 3096 62be
00000190: 09ab a0be a41c 9e3e 3970 09be 5e80 e5bd
000001a0: 18d7 95bd a490 773e 97e2 c23e c147 4ebd
000001b0: fcda b1be 432d 63be 82ec 99be 28ef 6bbe
000001c0: 3f54 823d 318c 9a3e 8e6b 4b3e f0e3 b9bd
000001d0: 068f 85be 07d0 61be 5a6f 063f c229 613d
000001e0: 58d5 da3d 3938 d2be 9796 87be a892 c3be
000001f0: a31d 08bf 1f06 053e 59ff ddbe b72b 99be
00000200: cddd 173e 1ffb 263e e17e 803c 3ec6 5bbe
00000210: 331f 033b f86f a33e 4e93 d7be 903d c03d
00000220: 23e8 123e 2fb1 eebd 2df0 d8be 2234 843e
00000230: 1f97 adbe a74b 553d 87a2 bebe 21cd b03e
00000240: 42f8 613d 95bf 5fbd 2724 0a3d f621 88be
00000250: 91a5 7e3e fdbd 69be f845 d9be 8b7e c43e
00000260: 40f5 aebd 05b7 cbbe b02e 09bf 43b4 04be
00000270: 3293 9cbe d2bb dfbe 2637 82be 76df d3be
00000280: 8cdb 48be ae60 99be a780 703e ed0d c3be
00000290: 1b38 aa3e eaee 8b3d 19da 3bbe f251 d7be
000002a0: c609 a83e 35d4 b7bd 9156 88be 57b3 f03c
000002b0: 144b 0abe 50a8 6cbc 85b4 4d3e 9435 c2be
000002c0: d2a5 403e b2be b5be 1d3a 68be 0b9c 89be
000002d0: 4242 8ebe f31f b7bd f015 843e 7dcd 4dbe
000002e0: 2085 fb3e 1617 83be b077 8abe 46bd 71be
000002f0: a6f5 c0be 142e d2bd 6500 a6be a714 ab3e
00000300: 7e95 f73d ed0c 8cbe 1848 36be 90c4 fc3e
00000310: ae4c 19be 77b0 90be 6307 55be 8b3f 3a3e

bias.1 f4 [500]
0.17397822 -0.08420682 0.12957275 -0.31798968 -0.06508317 -0.017103795 0.066416174 0.21233387
-0.121231616 -0.20209643 0.17323911 -0.30390003 -0.2850457 0.30412018 0.033494197 0.20688167
-0.35507953 0.19195005 -0.018916767 -0.36315688 -0.066930585 0.3331098 0.16084743 0.2220833
-0.09228192 0.076675504 -0.25255674 0.20489894 -0.036878157 0.4315632 0.062374894 -0.35173282
0.47905114 0.17788455 -0.49887022 0.24490102 0.15169773 0.45181033 0.16939946 -0.04671522
-0.2799118 -0.113035716 -0.15091036 -0.092268065 0.3547134 0.27515686 0.0024388412 -0.10982956
0.4029961 0.1652397 -0.2777604 -0.39881706 0.23575947 0.11697485 0.3401169 0.0927399
-0.18173806 -0.3569128 0.15205324 0.3373318 -0.070584826 -0.08297997 -0.09579703 0.44471258
0.24403779 -0.003004718 0.52568334 -0.4164804 -0.05863 0.013291174 0.14400835 0.0739867
-0.07020906 -0.16224031 0.12326127 0.09877004 -0.44287413 0.3431142 -0.36129075 0.035680708
-0.042518318 0.33733436 -0.13364582 -0.41418222 -0.15877698 -0.47691944 -0.37956518 0.21733566
-0.33313692 -0.27422866 0.46679062 -0.3577083 0.19019435 -0.24450174 -0.01666095 -0.37825322
-0.10982336 -0.3998438 -0.30755305 0.43321598 -0.009433393 -0.2945489 -0.30136272 0.29891786
-0.11639063 -0.20530911 -0.023479793 -0.29598573 -0.0028134377 0.31375667 0.27292413 0.15906863
0.32204673 -0.29908094 0.12859659 -0.030752216 -0.052806973 0.50271636 0.101754814 -0.23395278
-0.13431698 -0.032897785 0.14024429 -0.29735202 0.2350247 0.097635575 -0.276365 -0.21857086
-0.14812939 0.22353391 0.3041073 -0.2626092 -0.035270378 0.0601644 -0.433544 0.4281979
0.213564 0.04370419 0.07779166 0.4906428 0.11596328 -0.44126645 -0.235236 -0.061261248
-0.24487628 -0.3225122 -0.19498195 0.2890609 0.18281822 0.24256769 -0.4093828 0.113879874
-0.38391984 0.24442698 0.3488204 0.21481791 -0.27556676 -0.27957004 -0.13263886 -0.050777357
0.073015854 -0.0838828 0.09906266 -0.037079535 -0.23606266 0.3360261 -0.08363531 0.40075415
0.0034005945 -0.27049145 -0.03546744 -0.43727568 0.059106432 0.391664 0.0074689407 0.39029625
0.029355012 0.17937344 0.08779351 -0.16906455 0.21044447 0.35225013 0.083549544 0.24718827
0.48465937 0.51865566 -0.29963055 -0.27982777 -0.07451937 0.009058499 -0.07890444 -0.4682147
0.3282146 0.21060072 -0.08207198 0.51229036 -0.2398887 -0.2626159 0.15440741 0.35209474
-0.29379705 -0.074906945 0.2383378 -0.13763353 0.18467602 -0.5859126 0.15929082 -0.082173795
-0.41085762 0.19193864 0.02651023 -0.41115755 0.21331045 -0.25756195 -0.06875916 -0.022461204
-0.08307236 -0.2792759 0.26171097 0.45511797 -0.13449955 0.31518012 0.33128393 0.3682299
-0.019204115 0.17347838 0.43353814 0.2825806 -0.37002608 0.12561154 -0.27659425 -0.009707412
-0.018627461 0.19137546 0.19546382 0.39215922 0.19720227 0.24616446 -0.38706344 0.3601128
0.44365856 -0.16746607 -0.06513555 0.19441618 0.17893569 0.21156876 0.12018156 -0.0056245173
-0.37578988 0.299941 -0.11250747 -0.41274098 -0.35140315 -0.36816272 0.07153214 0.19169728
00000000: 5927 323e a074 acbd b8ae 043e 8bcf a2be
00000010: 534a 85bd 421d 8cbc 3405 883d 0d6e 593e
00000020: 4848 f8bd 5ef2 4ebe 9865 313e c998 9bbe
00000030: 83f1 91be a4b5 9b3e 3631 093d cad8 533e
00000040: fccc b5be 8e8e 443e 56f7 9abc b3ef b9be
00000050: e712 89bd 5e8d aa3e 30b5 243e ce69 633e
00000060: 4efe bcbd 0c08 9d3d 1e4f 81be 07d1 513e
00000070: 8d0d 17bd daf5 dc3e d17c 7f3d 5316 b4be
00000080: 3146 f53e 5e27 363e eb6b ffbe 55c7 7a3e
00000090: a656 1b3e af53 e73e 0d77 2d3e 7558 3fbd
000000a0: 9950 8fbe 457f e7bd 3f88 1abe 0af7 bcbd
000000b0: ff9c b53e 5ce1 8c3e f7d4 1f3b 52ee e0bd
000000c0: 8155 ce3e 9934 293e 9c36 8ebe c031 ccbe
000000d0: ee6a 713e 8390 ef3d cd23 ae3e 6bee bd3d
000000e0: 8b19 3abe 46bd b6be d8b3 1b3e c1b6 ac3e
000000f0: c78e 90bd 67f1 a9bd 3c31 c4bd 5eb1 e33e
00000100: 0be5 793e ceea 44bb 2f93 063f eb3c d5be
00000110: 0326 70bd 39c3 593c ed76 133e 5786 973d
00000120: c5c9 8fbd 5322 26be 6870 fc3d f247 ca3d
00000130: 66c0 e2be aaac af3e 1afb b8be ef25 123d
00000140: b027 2ebd 17b7 ac3e 73da 08be b10f d4be
00000150: 6f96 22be c92e f4be 5e56 c2be 3d8d 5e3e
00000160: ec90 aabe b367 8cbe 2eff ee3e 8b25 b7be
00000170: 4fc2 423e aa5e 7abe 8b7c 88bc 68aa c1be
00000180: 12eb e0bd 54b8 ccbe 9877 9dbe 7cce dd3e
00000190: 858e 1abc 1dcf 96be 374c 9abe c30b 993e
000001a0: 365e eebd 8d3c 52be b258 c0bc 718b 97be
000001b0: a761 38bb b7a4 a03e b6bc 8b3e e3e2 223e
000001c0: 4fe3 a43e 2321 99be d3ae 033e 12ec fbbc
000001d0: 204c 58bd 05b2 003f d464 d03d 5191 6fbe
000001e0: 648a 09be d4bf 06bd 339c 0f3e 863e 98be
000001f0: 51aa 703e 29f5 c73d b77f 8dbe 0ad1 5fbe
00000200: 3baf 17be 13e6 643e f4b3 9b3e b774 86be
00000210: ac77 10bd f26e 763d 7bf9 ddbe c13c db3e
00000220: 85b0 5a3e 2a03 333d 3c51 9f3d 8835 fb3e
00000230: 287e ed3d aded e1be b5e1 70be 13ed 7abd
00000240: d9c0 7abe 5220 a5be 59a9 47be caff 933e
00000250: b334 3b3e aa63 783e 9f9a d1be da39 e93d
00000260: 2491 c4be 114b 7a3e 9698 b23e 3af9 5b3e
00000270: 1617 8dbe ce23 8fbe 7bd2 07be ebfb 4fbd
00000280: 5689 953d bfca abbd 5de1 ca3d b6e0 17bd
00000290: 69ba 71be 9d0b ac3e fd48 abbd a62f cd3e
000002a0: 82dc 5e3b db7d 8abe 4e46 11bd 99e2 dfbe
000002b0: 9619 723d 2f88 c83e 04be f43b e9d4 c73e
000002c0: ec79 f03c acad 373e 15cd b33d 421f 2dbe
000002d0: c17e 573e 215a b43e 061c ab3d ec1e 7d3e
000002e0: 4625 f83e 9ec6 043f 2d69 99be 9645 8fbe
000002f0: 9d9d 98bd 196a 143c a798 a1bd d6b9 efbe
00000300: be0b a83e b7a7 573e 5b15 a8bd 7625 033f
00000310: 62a5 75be 9775 86be fa1c 1e3e c345 b43e
00000320: 916c 96be d068 99bd d30e 743e ceef 0cbe
00000330: b61b 3d3e 5efe 15bf 221d 233e bc4a a8bd
00000340: ee5b d2be 908b 443e fb2b d93c 3e83 d2be
00000350: 0e6e 5a3e 29df 83be 9ad1 8cbd 8f00 b8bc
00000360: d721 aabd 40fd 8ebe fbfe 853e 3905 e93e
00000370: 40ba 09be 4a5f a13e 0c9e a93e a188 bc3e
00000380: f351 9dbc 51a4 313e b6f8 dd3e 68ae 903e
00000390: 0f74 bdbe 50a0 003e c39d 8dbe d60b 1fbc
000003a0: 9e98 98bc eef7 433e ab27 483e 18c9 c83e
000003b0: 64ef 493e 8912 7c3e 2e2d c6be b460 b83e
000003c0: 3727 e33e 3a7c 2bbe ca65 85bd 0915 473e
000003d0: eb3a 373e 7ba5 583e c021 f63d df4d b8bb
000003e0: 8867 c0be de91 993e 516a e6bd c952 d3be
000003f0: 1deb b3be d37f bcbe 717f 923d 4b4c 443e
