LYAP_CP_m-fwd_d-20_s-0.005_seed0.pt (torch, 421641 bytes, 7 tensors)

W.0 f4 [200, 5]
0	0x3e28ed94	0.16496879
1	0x3d76c145	0.06024291
2	0xbee3b75e	-0.44475836
3	0xbe2ea5e1	-0.17055465
4	0xbf2ef7b7	-0.6834673
5	0xbdf98cb8	-0.12185043
6	0xbe5d87ff	-0.2163391
7	0x3e30feb5	0.17284663
8	0x3dc695c7	0.096965365
9	0xbed3527d	-0.4127387
10	0x3d5cf83b	0.05394767
11	0xbec2eebd	-0.38072768
12	0xbe34209f	-0.17590569
13	0xbeed6763	-0.4636794
14	0xbf377acf	-0.71671766
15	0xbd9b9fd8	-0.07598847
16	0xbcfaf87c	-0.030636065
17	0x3d6d3c0f	0.057918604
18	0xbd8e0c57	-0.069359474
19	0xbf329eec	-0.69773746
20	0x3da80abc	0.082051724
21	0x3f25f592	0.64827836
22	0xbde7b88a	-0.11314495
23	0x3f006fcc	0.5017059
24	0xbf0038bd	-0.50086576
25	0x3eb440f1	0.35205796
26	0x3e979e67	0.2961304
27	0xbf069c77	-0.52582496
28	0xbdaaefec	-0.08346543
29	0xbf1c82ee	-0.6113728
30	0x3e0074e1	0.12544586
31	0x3ea24144	0.3169042
32	0xbecdcceb	-0.40195403
33	0xbad544a7	-0.001627107
34	0xbf4e365c	-0.80551696
35	0xbf1ced22	-0.61299336
36	0xbe9f7a2b	-0.31147894
37	0x3ef3a489	0.47586468
38	0x3d97ba17	0.07408541
39	0xbea2be96	-0.3178603
40	0x3c27d5fb	0.010243888
41	0xbef4b021	-0.47790626
42	0xbd8315fe	-0.06400679
43	0xbf11a4b8	-0.56891966
44	0xbf55662a	-0.83359015
45	0xbea4b6e0	-0.32170773
46	0x3db2f9e3	0.08739068
47	0x3d6c7e04	0.057737365
48	0x3d0e2ef0	0.03471273
49	0xbedbd451	-0.42935422
50	0xbc3b03b4	-0.011414457
51	0x3f626788	0.88439226
52	0xbd0975b7	-0.033559527
53	0x3e8719bb	0.26386818
54	0xbe6a5d06	-0.22887048
55	0xbd8828e5	-0.06648425
56	0xbe22fa4c	-0.15915793
57	0xbead343a	-0.33828908
58	0xbed54609	-0.41654995
59	0xbf43d656	-0.76498926
60	0x3e866691	0.26250127
61	0x3ee53382	0.4476586
62	0xbdffb08f	-0.12484848
63	0x3e8b65ca	0.27226096
64	0xbe9928aa	-0.29913837
65	0xbd6d03b8	-0.057864875
66	0x3e88eb99	0.26742247
67	0x3e893a05	0.26802078
68	0x3ed480ca	0.41504508
69	0xbd5da04e	-0.054107957
70	0xbe992385	-0.29909912
71	0x3d3e493d	0.046456564
72	0x3ebc6ac5	0.3680021
73	0x3e7f2a76	0.24918541
74	0xbe0f690b	-0.14004914
75	0x3ee0af30	0.43883657
76	0x3eb42c86	0.3519022
77	0xbe232364	-0.15931469
78	0x3db839eb	0.08995422
79	0xbf5611ca	-0.83620894
80	0xbf061d96	-0.52388895
81	0x3e43754e	0.19087717
82	0x3dfcdf93	0.12347331
83	0xbe3b3726	-0.18282756
84	0xbede81a8	-0.43458295
85	0x3daa32e8	0.08310491
86	0x3e0880e7	0.13330422
87	0x3c4cf094	0.01250853
88	0xbc063d1b	-0.00819328
89	0xbf4ed0db	-0.8078744
90	0xbdae226b	-0.085026585
91	0x3f1f460f	0.62216276
92	0x3deab496	0.11460225
93	0x3eb92466	0.36160582
94	0xbf84d1c2	-1.0376513
95	0xbeb0263a	-0.34404165
96	0x3ca62c65	0.02028484
97	0xbdc4ecd7	-0.09615486
98	0xbdb24d31	-0.08706129
99	0xbf360e37	-0.7111544
100	0x3ed7b759	0.4213207
101	0x3ef2f4a1	0.47452262
102	0xbe9ed589	-0.3102229
103	0x3d5471c7	0.05186632
104	0xbf7da3a2	-0.9907781
105	0x3e95bd39	0.29245928
106	0xbe817f56	-0.25292462
107	0xbded9008	-0.115997374
108	0xbe6b5dc1	-0.22984983
109	0xbef0dec7	-0.47044966
110	0xbd4c2180	-0.049836636
111	0x3f03e0b1	0.51514727
112	0xbd675cb2	-0.056484886
113	0x3f0c0f5b	0.5471093
114	0xbde8d71c	-0.11369154
115	0xbdc50976	-0.09620945
116	0xbd829039	-0.063751645
117	0x3e24e84c	0.16104239
118	0xbcfdfd89	-0.031004684
119	0xbed8ce26	-0.4234478
120	0x3e75a99d	0.23990484
121	0x3e889b54	0.26681006
122	0x3c5fb58f	0.013654127
123	0x3e731d23	0.23741584
124	0xbf7cdb12	-0.98771775
125	0xbcf57169	-0.029961305
126	0xbeeb0301	-0.4590073
127	0x3c066547	0.008202857
128	0xbea75beb	-0.32687315
129	0xbf6d2286	-0.92630804
130	0x3e2ff476	0.17183098
131	0x3ed16822	0.4089976
132	0xbdaacb8a	-0.08339603
133	0x3ddd4ecc	0.10806045
134	0xbe5e0966	-0.21683273
135	0xbc7f1a3a	-0.015570218
136	0x3e9371b8	0.28797698
137	0x3e0822ba	0.13294497
138	0x3e657abc	0.224101
139	0xbe817c95	-0.2529036
140	0xbc83429c	-0.016022973
141	0x3de5db11	0.11223424
142	0x3e5137b0	0.204314
143	0x3e23139c	0.15925449
144	0xbf6d4768	-0.9268708
145	0xbe5a4f7d	-0.21319385
146	0x3e009159	0.12555446
147	0xbe32c022	-0.17456105
148	0x3b07cad0	0.002072025
149	0xbf4337de	-0.7625712
150	0xbe5db9d3	-0.21652918
151	0xbe41c7e0	-0.18923903
152	0x3e106686	0.1410161
153	0x3d1be35a	0.038058616
154	0xbeb3298e	-0.3499264
155	0x3d99fc7e	0.07518862
156	0x3f37e6a7	0.7183632
157	0xbe92b50a	-0.28653747
158	0x3df170ef	0.117891185
159	0xbf33fd52	-0.7030841
160	0x3d35218a	0.04422144
161	0xbeb4e5e1	-0.35331634
162	0xbe667f12	-0.22509411
163	0xbf0aa33b	-0.5415532
164	0xbf19c791	-0.6007014
165	0xbca20c10	-0.019781142
166	0xbee50caf	-0.4473624
167	0xbcf8ca97	-0.03037004
168	0xbf0a3966	-0.53993833
169	0xbf057f77	-0.5214762
170	0xbde45941	-0.11149836
171	0xbea48079	-0.32129267
172	0x3e8c494c	0.2739967
173	0x3dcf0657	0.10108631
174	0xbf752cc7	-0.9577145
175	0x3eb8f5bc	0.3612498
176	0x3e3473f4	0.17622358
177	0x3cec6fa1	0.028861823
178	0x3e894ddc	0.26817214
179	0xbf58b637	-0.8465304
180	0xbe65cac7	-0.22440635
181	0x3e19bdaf	0.15013765
182	0x3e831d9f	0.25608537
183	0x3e4ba0a1	0.19885494
184	0xbe9b913e	-0.30384248
185	0x3e18f961	0.1493888
186	0xbeb408e6	-0.3516304
187	0xbe720aa3	-0.2363687
188	0xbf05b70f	-0.5223245
189	0xbe8f1601	-0.27946475
190	0x3ed4ed83	0.41587457
191	0x3f23c665	0.639746
192	0xbeb78883	-0.35846338
193	0x3e3d21a8	0.1846987
194	0xbf678a19	-0.90445095
195	0xbe4d3dd1	-0.20043112
196	0xbf065f02	-0.5248872
197	0x3dc77bdb	0.097404204
198	0xbed65098	-0.41858363
199	0xbefa0804	-0.4883424
200	0x3e4b44f8	0.19850528
201	0x3df8d3b2	0.12149753
202	0xbedf455f	-0.43607613
203	0xbdfcf393	-0.123511456
204	0xbf489c0d	-0.78363115
205	0xbdf9100e	-0.12161265
206	0x3dbbbe04	0.09167102
207	0x3e6d3e11	0.23168208
208	0x3e31a16f	0.17346738
209	0xbeed17fd	-0.46307364
210	0x3bff8969	0.007798363
211	0xbebda4c8	-0.3703978
212	0xbc2e9bae	-0.010657234
213	0xbe83089f	-0.25592515
214	0xbf097cb1	-0.5370589
215	0x3e1f9c76	0.15587029
216	0xbe14b614	-0.14522582
217	0xbb1cc1fd	-0.0023919337
218	0x3de9f3b9	0.114234395
219	0xbf701322	-0.93779194
220	0xbdf97b2d	-0.12181697
221	0x3f200dfc	0.6252134
222	0xbcea66e2	-0.028613511
223	0x3e5f45f0	0.21804023
224	0xbf5c518b	-0.86061925
225	0x3e2b2d68	0.1671654
226	0xbf2c56fb	-0.6732022
227	0x3da5ef32	0.081022635
228	0xbeb68f19	-0.3565605
229	0xbf25d12c	-0.64772296
230	0xbc526392	-0.012841122
231	0x3f24b183	0.6433336
232	0xbc75081d	-0.014955548
233	0x3f12e025	0.5737327
234	0xbeac100a	-0.33605987
235	0x3dfdecaf	0.123986594
236	0x3dd4ab98	0.103842914
237	0xbe822fce	-0.25427097
238	0xbd601b3e	-0.05471348
239	0xbebd19d8	-0.3693378
240	0x3e4dfe31	0.20116498
241	0x3f432d6d	0.7624119
242	0xbe91ddc7	-0.28489515
243	0x3e4ae0f2	0.19812372
244	0xbe9914cf	-0.29898688
245	0xbdb62a08	-0.088947356
246	0x3f22ed51	0.63643366
247	0xbe6fb015	-0.23407014
248	0x3e52e0e1	0.20593597
249	0xbf18cb04	-0.5968478
250	0xbeb2fc7f	-0.34958264
251	0xbe17e3f5	-0.14833052
252	0x3e34d9d3	0.17661218
253	0x3db3652d	0.08759532
254	0xbf41579d	-0.7552431
255	0xbdebe55f	-0.115183584

W.1 f4 [500, 5]
0	0xbc0444e8	-0.008073069
1	0xbf1ebad8	-0.6200385
2	0x3d89e578	0.06733221
3	0xbf0abf3c	-0.5419805
4	0xbf11994e	-0.5687455
5	0x3ec2ee77	0.3807256
6	0xbf4adb99	-0.7924133
7	0xbd7f041c	-0.06225978
8	0xbea90b60	-0.3301649
9	0xbf33e2fe	-0.7026824
10	0xbca1f285	-0.019768963
11	0xbe0b55ee	-0.13606998
12	0x3cc21393	0.023690974
13	0xbdc84fd4	-0.09780851
14	0xbf0c7545	-0.5486644
15	0x3e8ebe2d	0.27879468
16	0x3e51fe8f	0.20507263
17	0xbe676291	-0.22596194
18	0xbd411762	-0.04714144
19	0xbeb98560	-0.3623457
20	0x3ebae74d	0.36504593
21	0xbdab3f39	-0.08361668
22	0xbd1d87a2	-0.038459428
23	0xbd29a118	-0.041413397
24	0xbf1ac9b5	-0.6046403
25	0xbeaa158a	-0.33219558
26	0xbf0cbffc	-0.54980445
27	0x3e7ada6c	0.24497384
28	0xbe9a2ac5	-0.30110756
29	0xbe5790ad	-0.21051283
30	0x3e817317	0.2528312
31	0xbe003789	-0.12521185
32	0xbe136643	-0.14394478
33	0xbda55ee0	-0.080747366
34	0xbf111396	-0.5667051
35	0x3da6d808	0.081466734
36	0xbf1d7a0a	-0.6151434
37	0x3c668807	0.014070517
38	0xbf0c5ee5	-0.548323
39	0xbe47f897	-0.19528423
40	0xbe80a7b0	-0.25127935
41	0x3e724c60	0.23661947
42	0xbe8e7aea	-0.2782815
43	0xbcde557d	-0.027140373
44	0xbe9da160	-0.30787182
45	0x3c63661d	0.013879326
46	0x3dd2499c	0.10267946
47	0xbce7f3a1	-0.028314414
48	0xbe3d6297	-0.1849464
49	0xbe658a51	-0.22416045
50	0xbe1a8331	-0.15089108
51	0xbb96a584	-0.0045973677
52	0x3edbc0ac	0.42920434
53	0x3e3cd7e0	0.18441725
54	0xbf75093e	-0.9571723
55	0xbd9e4b58	-0.077292144
56	0x3f260ae9	0.648604
57	0x3d02980f	0.031883296
58	0x3f0e9c4a	0.5570723
59	0xbf4ca20e	-0.79934776
60	0xbe3b7f9a	-0.18310395
61	0x3f28609f	0.6577243
62	0x3d908e17	0.070583515
63	0x3f1caf91	0.61205393
64	0xbf4e28eb	-0.80531186
65	0xbd1acb2e	-0.037791423
66	0x3e217a0c	0.15769213
67	0xbe29aa30	-0.16568828
68	0xbb413aaa	-0.002948443
69	0xbe77fd93	-0.24217825
70	0x3d0537ce	0.032523923
71	0xbe8c927e	-0.27455515
72	0x3c275003	0.010211947
73	0xbe8e96a8	-0.27849317
74	0xbd8db722	-0.069196954
75	0xbee19576	-0.44059342
76	0xbe6a326f	-0.22870801
77	0x3e09da25	0.13462122
78	0x3e16bd4c	0.14720649
79	0xbefb61d2	-0.49098068
80	0xbd151151	-0.036393467
81	0xbf2ebc0a	-0.68255675
82	0x3e87e4f7	0.26541874
83	0xbe8291e8	-0.25501943
84	0xbec7aa40	-0.38997078
85	0x3e2acb7f	0.1667919
86	0x3f192577	0.5982279
87	0xbe232e41	-0.15935613
88	0x3e0abd6c	0.13548821
89	0xbf5d341e	-0.8640765
90	0xbd1ee33b	-0.038790923
91	0x3f0d0c5a	0.5509697
92	0xbd599d0f	-0.0531283
93	0x3ee36e66	0.44420165
94	0xbf2a4920	-0.6651783
95	0x3e5b4f20	0.21416903
96	0x3e54708e	0.20746061
97	0xbe358525	-0.17726572
98	0xbe10c764	-0.14138561
99	0xbf13d8af	-0.5775251
100	0xbe0dbf3f	-0.13842486
101	0x3e13bc11	0.1442721
102	0x3eeefff0	0.4667964
103	0x3ee5ffa2	0.44921595
104	0xbf5fe2ef	-0.8745565
105	0x3eb8f8a8	0.3612721
106	0xbe222bd8	-0.15837038
107	0xbe14a38a	-0.1451551
108	0xbdbb7dad	-0.0915483
109	0xbf105f99	-0.5639587
110	0xbc3127c3	-0.010812703
111	0xbe857b4d	-0.26070634
112	0x3d60ef0f	0.054915484
113	0xbd8423c7	-0.064521365
114	0xbf7de053	-0.99170417
115	0xbe9713ab	-0.29507193
116	0xbe3d7c90	-0.18504548
117	0xbec0c12c	-0.37647378
118	0xbf003b15	-0.5009015
119	0xbf2d5fa4	-0.6772406
120	0x3e515882	0.2044392
121	0xbe8b316e	-0.2718615
122	0xbd8dbe88	-0.069211066
123	0xbe3a2b33	-0.18180542
124	0xbf74bf63	-0.9560453
125	0x3de60e8f	0.112332456
126	0xbdbe1033	-0.092804335
127	0xbd992325	-0.074774064
128	0xbd3d7b0a	-0.046259917
129	0xbf6c7f35	-0.923816
130	0xbe6e12cd	-0.2324936
131	0x3f02528c	0.50907207
132	0x3e1990b7	0.1499661
133	0x3f1468ec	0.579726
134	0xbf2c6760	-0.6734524
135	0xbe1c5872	-0.15268114
136	0x3e3f00a2	0.18652585
137	0x3e609668	0.21932375
138	0x3eb69f09	0.3566821
139	0xbf80b3c0	-1.0054855
140	0x3e2ad936	0.16684422
141	0x3d03fac1	0.03222156
142	0xbe9eddaf	-0.31028506
143	0xbd8f4b26	-0.06996755
144	0xbe95e5c0	-0.29276848
145	0xbe511df8	-0.20421588
146	0x3eb05fdc	0.34448135
147	0xbd891d12	-0.06694998
148	0x3e8de1f0	0.2771144
149	0xbf70050f	-0.9375772
150	0x3ee56a38	0.448076
151	0xbe8e4975	-0.27790418
152	0xbe152f62	-0.14568856
153	0xbe58f978	-0.21188915
154	0xbe65358e	-0.2238371
155	0xbebdc6ef	-0.37065837
156	0xbef0d70a	-0.47039062
157	0x3e7b5b96	0.24546656
158	0xbe46c4a2	-0.19410947
159	0xbeb3785c	-0.35052764
160	0xbe796c0b	-0.24357621
161	0x3d8e6aef	0.0695399
162	0x3c9d0a49	0.019169943
163	0x3e363e51	0.1779721
164	0xbea8e513	-0.3298727
165	0xbe7d914e	-0.2476246
166	0xbe1aa1bc	-0.1510076
167	0xbdd44be4	-0.103660375
168	0xbe0a78af	-0.135226
169	0xbf45db1c	-0.7728746
170	0xbcda2f4f	-0.026633887
171	0x3e3b10f7	0.1826819
172	0xbee7474e	-0.4517159
173	0xbdca7bea	-0.09886916
174	0xbf1f83a3	-0.62310237
175	0x3d853df2	0.06505956
176	0xbd311721	-0.043234948
177	0xbdaafe39	-0.083492704
178	0x3d2bc6f0	0.04193777
179	0xbf5116b3	-0.8167526
180	0xbe0d70ef	-0.13812612
181	0xbed69000	-0.41906738
182	0x3e07d05d	0.13263078
183	0xbf056d6f	-0.5212011
184	0xbf42b078	-0.7605052
185	0xbeb81e72	-0.35960728
186	0x3e172860	0.14761496
187	0x3f016605	0.50546294
188	0x3f0188b5	0.50599223
189	0xbf6415d1	-0.8909579
190	0xbd84388d	-0.06456099
191	0x3f093de3	0.53610057
192	0x3db85090	0.08999741
193	0x3f09b4d7	0.53791565
194	0xbee1a71a	-0.440728
195	0xbe00c76b	-0.12576072
196	0x3f100afc	0.5626676
197	0xbd2ad620	-0.04170811
198	0x3ed2ea89	0.4119456
199	0xbf1be356	-0.6089376
200	0x3e163e48	0.14672196
201	0x3e4674cb	0.1938049
202	0x3e337817	0.1752628
203	0xbe304e40	-0.1721735
204	0xbf3357e2	-0.70055974
205	0xbe8e6f99	-0.27819517
206	0xbf136c26	-0.57586896
207	0x3e9b1f36	0.3029725
208	0xbe54bd34	-0.207753
209	0xbf5754b1	-0.84113604
210	0xbe1f1dff	-0.15538786
211	0xbeff8d23	-0.49912366
212	0x3d1cae34	0.03825207
213	0xbf07d941	-0.5306588
214	0xbf719055	-0.9436086
215	0xbf0464eb	-0.5171649
216	0xbc410b32	-0.011782454
217	0x3cf0697b	0.029347172
218	0xbc5cef57	-0.013484797
219	0xbec9e1f4	-0.394302
220	0x3e7226ff	0.23647688
221	0x3ec2429d	0.37941447
222	0xbdb3bc57	-0.08776157
223	0x3e09a24b	0.13440816
224	0xbf19c7c7	-0.6007046
225	0x3df4c2d2	0.119512215
226	0xbe115dee	-0.14195988
227	0x3ebfe3aa	0.3747838
228	0x3cc42b76	0.023946505
229	0xbf55a0d0	-0.83448505
230	0x3ee21984	0.44160092
231	0x3f031418	0.51202536
232	0xbeabdfaa	-0.3356908
233	0x3d886443	0.066597484
234	0xbea2a850	-0.31769037
235	0xbe74bd27	-0.23900281
236	0x3ee02ea2	0.43785578
237	0x3e274e03	0.16338353
238	0x3eeb4edc	0.45958602
239	0xbf728731	-0.94737536
240	0xbee4c4b1	-0.44681314
241	0xbc026918	-0.007959627
242	0xbd0881d9	-0.033326957
243	0xbe11f9c5	-0.14255436
244	0xbf483cb9	-0.78217655
245	0xbe943270	-0.2894473
246	0xbdebb301	-0.11508752
247	0x3d289b0b	0.041163485
248	0x3e1653ce	0.14680406
249	0xbf1f50d1	-0.6223269
250	0x3e93c75d	0.2886304
251	0x3e6130f7	0.21991335
252	0xbcb914dc	-0.022592954
253	0xbe2e284e	-0.17007563
254	0xbe8666c0	-0.26250267
255	0x3e7513a3	0.23933272

W.2 f4 [1, 5]
0	0x3f13ea2e	0.57779205
1	0xbe8bc946	-0.27301997
2	0xbdd695b8	-0.10477775
3	0xbe87613a	-0.26441365
4	0xbf6cca5a	-0.92496264

U.0 f4 [500, 200]
0	0xbe3a45e2	-0.1819072
1	0xbc82440a	-0.015901584
2	0x3e855f9d	0.2604951
3	0xbe47e1a8	-0.19519675
4	0xbe5ab383	-0.21357541
5	0xbea3912a	-0.3194669
6	0xbe81e466	-0.25369567
7	0xbe00cba8	-0.12577689
8	0x3e42a590	0.1900847
9	0xbe826b56	-0.25472516
10	0xbe5df2ef	-0.21674703
11	0x3d72be07	0.059263255
12	0xbe5a5552	-0.2132161
13	0xbe2e565d	-0.17025132
14	0xbe3e3907	-0.18576442
15	0xbe1026d3	-0.1407731
16	0xbe7bcb11	-0.24589182
17	0xbe79d605	-0.24398048
18	0xbe780090	-0.24218965
19	0xbe93b8ce	-0.28851932
20	0xbe39dd47	-0.18150817
21	0x3e622481	0.22084238
22	0xbe283013	-0.16424589
23	0xbe566ed7	-0.2094072
24	0xbe7e56bf	-0.24837779
25	0x3e7a160e	0.24422476
26	0xbea303ab	-0.31838736
27	0xbe7deccf	-0.24797367
28	0xbe291464	-0.16511685
29	0xbe76919f	-0.24078988
30	0xbe5e4452	-0.2170575
31	0xbeacdecc	-0.3376373
32	0x3e69c40e	0.22828695
33	0x3e24363d	0.16036315
34	0xbdd96c87	-0.10616403
35	0xbe81a254	-0.2531916
36	0xbe1084b9	-0.1411313
37	0x3e4a9f14	0.19787246
38	0xbe78950c	-0.24275607
39	0x3e3b8001	0.18310548
40	0xbe59672c	-0.21230763
41	0xbe456bee	-0.19279453
42	0x3e98618c	0.29761922
43	0xbe18359d	-0.14864202
44	0xbe466c39	-0.19377221
45	0x3eb5d873	0.355167
46	0xbe5d63ed	-0.2162015
47	0xbe9e2643	-0.30888566
48	0xbe6efc6f	-0.23338483
49	0xbe9edf35	-0.31029668
50	0xbda45e3b	-0.080257855
51	0x3eaa8220	0.33302402
52	0xbe88ee1f	-0.26744172
53	0xbe7c8c62	-0.24662927
54	0xbe7bc233	-0.245858
55	0xbe8235c3	-0.25431642
56	0xbe806b7b	-0.25082
57	0x3e99d394	0.30044234
58	0xbe232bf6	-0.15934739
59	0xbe4824f5	-0.19545348
60	0xbe4229b1	-0.18961217
61	0xbe575bce	-0.21031114
62	0x3df8137c	0.12113091
63	0xbe387ed8	-0.18017137
64	0xbe95fd11	-0.29294637
65	0xbe82ffd4	-0.25585806
66	0x3d029474	0.031879857
67	0xbe7866fe	-0.24258038
68	0xbdf43555	-0.11924235
69	0xbe82057d	-0.25394812
70	0xbe906225	-0.28199878
71	0x3e9c1928	0.30487943
72	0xbe7c2233	-0.24622421
73	0xbe25da11	-0.16196467
74	0xbe864b28	-0.26229215
75	0xbe9260e9	-0.28589562
76	0xbe2cc8ba	-0.16873446
77	0xbe638d45	-0.22221859
78	0x3e61ebc0	0.22062588
79	0xbe8e1933	-0.277536
80	0xbe8f84e7	-0.28031084
81	0xbe6e6ef4	-0.23284513
82	0x3e94c8a7	0.29059336
83	0xbe43350d	-0.19063206
84	0xbe219488	-0.15779316
85	0x3e65f2ff	0.22455977
86	0xbe6211b9	-0.22077073
87	0xbe3d84fb	-0.1850776
88	0xbe0ca67a	-0.13735381
89	0x3f020a76	0.5079721
90	0xbe8061ee	-0.25074714
91	0x3e3b5d97	0.1829742
92	0x3e508c94	0.20366126
93	0x3e226ada	0.15861073
94	0xbe86fea5	-0.26366153
95	0x3e3095dc	0.17244667
96	0xbe5a6b61	-0.21330024
97	0xbe7e825f	-0.2485442
98	0x3e1fab76	0.15592751
99	0xbe0c8d73	-0.13725834
100	0xbe56236c	-0.2091195
101	0xbe31c06c	-0.1735856
102	0xbe6461e2	-0.22302964
103	0xbe7393d7	-0.23786865
104	0x3e6d32ef	0.23163961
105	0xbe7886ce	-0.24270174
106	0xbe81f0fe	-0.25379175
107	0x3e950ce6	0.29111403
108	0x3c9f7d96	0.019469064
109	0x3e81c43c	0.25345027
110	0x3e718bcc	0.23588485
111	0xbe7a36ce	-0.24434969
112	0xbddef5b0	-0.10886705
113	0xbe29ffb1	-0.16601445
114	0xbe02148f	-0.12703155
115	0xbe518e8a	-0.2046453
116	0xbdf50d09	-0.11965377
117	0xbe639c87	-0.22227679
118	0xbe7b9c26	-0.24571285
119	0xbe137388	-0.1439954
120	0xbe7c34dc	-0.24629539
121	0xbea2fb45	-0.31832328
122	0x3e67c14e	0.22632334
123	0xbe9a7d01	-0.30173495
124	0xbe81f9da	-0.25385934
125	0xbe920026	-0.28515738
126	0xbe61e392	-0.22059467
127	0x3e8a6656	0.270312
128	0xbe5eed0a	-0.2177011
129	0x3e71a45e	0.23597857
130	0x3e592168	0.2120415
131	0xbe2a14ea	-0.1660954
132	0x3e408f19	0.18804587
133	0x3e7084e3	0.23488192
134	0xbe8b68a4	-0.27228272
135	0xbe60ed94	-0.21965629
136	0x3ec8d53d	0.39225188
137	0xbe77c365	-0.24195631
138	0xbe1ef4a3	-0.15523009
139	0xbe3b4ef8	-0.18291843
140	0xbe89d9b3	-0.26923904
141	0xbcb09366	-0.02155466
142	0x3e388972	0.18021181
143	0xbe65b545	-0.2243243
144	0x3eaf05f5	0.34184232
145	0xbe5529b0	-0.20816684
146	0xbe9410ed	-0.28919163
147	0xbdff485c	-0.12464973
148	0xbcefb070	-0.029258937
149	0xbe816e91	-0.25279668
150	0xbe7e68a2	-0.24844602
151	0x3ea891f2	0.32923847
152	0xbe65c9cb	-0.22440259
153	0x3e60e2a8	0.21961462
154	0xbcb0c6dc	-0.021579199
155	0xbe714a8c	-0.23563594
156	0xbe6ea97b	-0.23306839
157	0xbe7de468	-0.24794161
158	0xbe186abe	-0.14884469
159	0x3e876ace	0.26448673
160	0x3e929b0b	0.28633913
161	0xbe49a251	-0.19690825
162	0x3e811d15	0.252175
163	0x3e9ac963	0.3023177
164	0x3ea376f1	0.31926683
165	0xbe3a0dc6	-0.18169317
166	0x3e9cff7f	0.30663678
167	0x3e2904e6	0.16505775
168	0xbe43a5a6	-0.19106159
169	0xbe8673f5	-0.26260343
170	0xbe89e9c9	-0.26936176
171	0xbe2fae1b	-0.1715626
172	0xbe3fb36e	-0.1872079
173	0x3e30cc77	0.17265497
174	0xbe5055b4	-0.20345193
175	0xbe5b8da5	-0.21440752
176	0xbe63bf40	-0.22240925
177	0xbe7c96aa	-0.24666849
178	0xbe781521	-0.2422681
179	0x3d8cfa31	0.06883658
180	0xbe65f33f	-0.22456072
181	0x3ed88863	0.42291555
182	0xbe4147c6	-0.18875036
183	0xbe0a879f	-0.13528298
184	0xbe1cfe6e	-0.15331432
185	0xbe694106	-0.2277871
186	0xbe75f177	-0.24017893
187	0xbe5a87dc	-0.21340889
188	0xbc0a224e	-0.00843103
189	0xbe54eb62	-0.20792916
190	0x3e8c7997	0.27436516
191	0xbe60c9fc	-0.21952051
192	0xbc91bb02	-0.017789368
193	0xbe997c32	-0.29977566
194	0xbe910dc7	-0.28330824
195	0xbe6410c7	-0.22272025
196	0x3e6ae977	0.22940622
197	0x3e7a6b0f	0.24454902
198	0xbe89b7a7	-0.26897928
199	0xbe337b25	-0.17527445
200	0x3df435a0	0.11924291
201	0x3eb11860	0.3458891
202	0x3ea389a1	0.3194094
203	0x3e3a6765	0.18203504
204	0xbdd9c91b	-0.10634061
205	0xbe791109	-0.24322905
206	0xbe8ae1c0	-0.2712536
207	0x3d9b79e7	0.075916104
208	0x3e3f4941	0.18680288
209	0xbdc99a6a	-0.09843905
210	0xbe8dd069	-0.27698067
211	0x3e2531c0	0.1613226
212	0xbe73689a	-0.23770371
213	0xbea54004	-0.32275403
214	0xbe692058	-0.22766244
215	0xbe444b4c	-0.19169348
216	0xbe194d99	-0.14971007
217	0xbe229163	-0.15875773
218	0xbe3148ac	-0.17312878
219	0x3de2ac64	0.11068037
220	0xbe70c8f4	-0.23514158
221	0xbdce25bd	-0.10065792
222	0xbe677634	-0.22603685
223	0xbd862f97	-0.06552046
224	0xbe806e80	-0.25084305
225	0x3ed0c64d	0.4077629
226	0xbe7e1df7	-0.24816118
227	0xbe9bcc6f	-0.30429408
228	0xbe469769	-0.19393696
229	0xbce9246a	-0.028459746
230	0xbe25e0ce	-0.16199037
231	0xbebefe05	-0.37303177
232	0x3e87d4b6	0.26529473
233	0x3e97139f	0.29507157
234	0x3e823258	0.25429034
235	0xbe5ab2df	-0.21357296
236	0xbe7c058b	-0.2461149
237	0x3e8a324b	0.26991495
238	0xbe6cfc62	-0.23143151
239	0x3e7c9679	0.24666776
240	0x3dc0631d	0.09393904
241	0xbe72ef61	-0.23724128
242	0x3e8de4e1	0.27713683
243	0xbe22f2e2	-0.15912965
244	0xbe979516	-0.2960593
245	0x3ed662fd	0.41872397
246	0x3d91a25f	0.07111048
247	0xbdd33b96	-0.103140995
248	0xbe86b8a8	-0.26312757
249	0xbea97a26	-0.33101004
250	0x3e944146	0.2895605
251	0x3ea47c36	0.32126015
252	0xbe2118fb	-0.15732186
253	0xbe595c20	-0.21226549
254	0xbe43c564	-0.19118267
255	0xbec8b88c	-0.39203298

U.1 f4 [1, 500]
0	0x3e452c08	0.19255078
1	0x3ec7839a	0.38967592
2	0xbe09a7fa	-0.13442984
3	0xbe5b14af	-0.21394609
4	0xbe70c0b7	-0.23511015
5	0x3e58b68c	0.21163386
6	0xbc94dba5	-0.01817114
7	0x3e60473c	0.21902174
8	0xbe7660d2	-0.24060372
9	0xbe53d8a7	-0.20688115
10	0xba8fa5a2	-0.0010959397
11	0x3e5097e5	0.20370443
12	0x3e6be2dc	0.23035759
13	0xbe6e4f22	-0.23272374
14	0xbd8318bd	-0.06401203
15	0xbe414b09	-0.1887628
16	0x3ec0e3da	0.37673837
17	0x3ee36806	0.444153
18	0x3e53d947	0.20688353
19	0xbe03cfa9	-0.12872185
20	0x3e592a49	0.21207537
21	0xbe242518	-0.16029775
22	0xbe094952	-0.13406876
23	0x3d9d316c	0.07675442
24	0xbe2eba24	-0.17063195
25	0xbe4b8cd7	-0.19877945
26	0x3e5100e2	0.20410493
27	0x3e21abdb	0.15788214
28	0xbe6d1aac	-0.23154706
29	0x3db4fe95	0.0883762
30	0xbe1cb7f0	-0.15304542
31	0x3e4dbbd9	0.2009119
32	0xbe406e64	-0.1879211
33	0xbdd1353c	-0.10215232
34	0xbe425673	-0.1897829
35	0x3c1f745a	0.00973233
36	0x3e3e5b27	0.1858946
37	0x3e701f74	0.23449498
38	0x3e88bc36	0.26706094
39	0x3e807500	0.25089264
40	0xbe600dfe	-0.21880338
41	0x3eb3d9f2	0.35127217
42	0x3e730d46	0.23735532
43	0xbe4a0696	-0.19729075
44	0x3e7a060f	0.24416374
45	0xbe2fbe08	-0.17162335
46	0xbcfb2978	-0.030659422
47	0x3e9b8344	0.30373585
48	0xbe7bade9	-0.2457806
49	0xbe34cb80	-0.17655754
50	0xbe30407b	-0.17212097
51	0x3e7c874c	0.24660987
52	0xbe5518c9	-0.20810236
53	0x3e44a1d8	0.19202363
54	0xbe2fb400	-0.17158508
55	0x3e6a8807	0.22903453
56	0xb88d918d	-6.750515e-05
57	0x3e8d356d	0.27579823
58	0x3e641af4	0.22275907
59	0x3e7129bd	0.23551078
60	0x3e463710	0.19356942
61	0x3e786f5d	0.24261232
62	0x3e7aa943	0.2447863
63	0xbe4d58f2	-0.20053461
64	0xbd55c5cf	-0.052190598
65	0x3ecffe5a	0.40623742
66	0x3dc64a79	0.09682173
67	0x3e89356a	0.26798564
68	0x3e425729	0.18978561
69	0x3e66c729	0.22536911
70	0x3e5f1ba0	0.21787882
71	0xbe5382d0	-0.2065537
72	0x3e63fff7	0.22265612
73	0xbe3490f2	-0.17633417
74	0x3eba510a	0.36389953
75	0xbd5e413c	-0.05426143
76	0x3e8bfd25	0.2734157
77	0x3de1551c	0.110025615
78	0x3e727449	0.23677172
79	0x3e75fb4e	0.24021646
80	0xbe283da4	-0.16429764
81	0x3e98aa43	0.298174
82	0x3d493274	0.04912038
83	0xbe9801e0	-0.2968893
84	0x3e88737e	0.26650614
85	0xbe393e88	-0.1809026
86	0xbe08adbf	-0.13347529
87	0x3dc099b7	0.09404319
88	0x3e1b6f14	0.15179092
89	0x3f138ea8	0.5763955
90	0xbe31829f	-0.17334984
91	0x3e596fc6	0.21234044
92	0x3ddbf3b8	0.10739845
93	0x3e5574d2	0.20845345
94	0x3e567a83	0.20945172
95	0xbe3d5b81	-0.18491937
96	0xbe52246e	-0.2052171
97	0x3e49a36f	0.19691251
98	0xbe6a1146	-0.22858152
99	0xbe8481d6	-0.25880307
100	0x3ea988f3	0.33112296
101	0x3e8fb99b	0.28071293
102	0x3e40fad4	0.18845683
103	0x3ebded4d	0.3709511
104	0xbe52244e	-0.20521662
105	0x3f0baf60	0.54564476
106	0xbdf3ca3b	-0.11903807
107	0xbd86219a	-0.06549378
108	0xbe5e930a	-0.21735778
109	0x3e548ba0	0.20756388
110	0x3e815df1	0.25266984
111	0x3e696870	0.22793746
112	0xbd50c3d2	-0.050968
113	0x3e142812	0.1446841
114	0x3e867dee	0.26267952
115	0x3e8ad468	0.27115178
116	0x3e0d9193	0.13825063
117	0xbde51c51	-0.111870416
118	0x3e84f5d9	0.25968817
119	0xbe1b928d	-0.15192623
120	0xbe220833	-0.1582344
121	0xbe177e8c	-0.14794368
122	0x3e818413	0.25296077
123	0xbe4941ce	-0.19654009
124	0xbe6917bc	-0.2276296
125	0x3e67699c	0.2259888
126	0x3ea7abec	0.32748353
127	0x3e85673d	0.26055327
128	0x3e522a64	0.20523983
129	0x3e8b3c41	0.27194408
130	0x3d0f4ff0	0.034988344
131	0x3de1d92c	0.110277504
132	0xbe359828	-0.17733824
133	0xbea57f20	-0.3232355
134	0x3ea3c2d9	0.31984594
135	0xbe1ed792	-0.15511921
136	0xbe9156e0	-0.28386593
137	0x3e3975fb	0.18111412
138	0xbdbbb244	-0.09164861
139	0xbe5b5b49	-0.21421541
140	0x3e82dc15	0.25558534
141	0x3e8e6534	0.27811587
142	0xbdfea0db	-0.124330245
143	0x3e6b496b	0.22977225
144	0x3df42aa3	0.11922195
145	0x3e812678	0.25224662
146	0x3e46cc88	0.1941396
147	0x3e05d2dd	0.13068719
148	0x3ed829cc	0.42219388
149	0x3dcc1d4d	0.09966526
150	0xbe56b641	-0.20967962
151	0x3e62ced5	0.22149213
152	0xbe173167	-0.14764939
153	0x3ea42994	0.32062972
154	0xbe10d1e9	-0.14142574
155	0xbe6da670	-0.23208022
156	0xbdd3c3ba	-0.10340066
157	0x3e452b2a	0.19254747
158	0x3ea09473	0.31363258
159	0x3ea4c8c0	0.3218441
160	0xbd003acf	-0.031306084
161	0x3e822a37	0.25422832
162	0x3e8c1e88	0.27367043
163	0x3e9c0c94	0.30478346
164	0x3da69ade	0.08135007
165	0xbe44b8c2	-0.19211105
166	0xbd7acd97	-0.061231222
167	0xbdf097e0	-0.11747718
168	0x3cc6a88f	0.024250297
169	0x3e8c32f3	0.2738262
170	0x3ea475bb	0.3212107
171	0xbe100433	-0.14064102
172	0x3e7eea79	0.24894132
173	0x3e801356	0.25014752
174	0xbe43530e	-0.19074652
175	0x3e5ca7ac	0.21548337
176	0x3e613334	0.21992189
177	0xbdf1c5bf	-0.11805295
178	0xbe1f54b2	-0.15559652
179	0xbe3aaec6	-0.18230733
180	0x3e8e349e	0.2777452
181	0x3d987124	0.07443455
182	0x3e8a5a17	0.27021858
183	0x3e06702d	0.13128729
184	0xbe4d0ba7	-0.20023976
185	0x3e22c5e4	0.15895802
186	0xbe0962e8	-0.13416636
187	0xbe356747	-0.17715178
188	0x3e2d3f70	0.1691873
189	0x3e26e8d2	0.16299751
190	0xbe3d4009	-0.18481459
191	0xbe6ec8a2	-0.23318723
192	0xbd996dec	-0.07491669
193	0x3e5d08df	0.21585415
194	0x3e155f8f	0.14587234
195	0xbdfa08db	-0.1220872
196	0xbda9baf6	-0.08287613
197	0x3e817c45	0.25290123
198	0x3e9635e7	0.29338
199	0xbdea7e64	-0.11449888
200	0x3e51af49	0.20477022
201	0x3cca71d1	0.024712475
202	0x3e678f09	0.22613157
203	0x3d9a96c2	0.07548286
204	0x3e8644bb	0.26224312
205	0xbd9c2398	-0.076239765
206	0x3eca952a	0.39566928
207	0x3e354448	0.17701828
208	0x3e383246	0.17987928
209	0xbe1f1730	-0.15536189
210	0xbe53e8da	-0.20694295
211	0xbe38c152	-0.18042496
212	0x3e90bee5	0.2827064
213	0x3e969cb9	0.29416445
214	0x3e33bb1f	0.1755185
215	0x3ea337af	0.3187842
216	0xbe4c973d	-0.19979568
217	0x3e921655	0.28532663
218	0x3e450a71	0.19242264
219	0xbe35a8bb	-0.17740147
220	0xbe57830f	-0.21046089
221	0x3da412c7	0.08011394
222	0xbe1e40be	-0.15454385
223	0xbe3b28fa	-0.1827735
224	0x3ec4bd51	0.38425687
225	0x3e691c28	0.22764647
226	0x3d6f75a5	0.058461804
227	0x3e346332	0.17615965
228	0xbe90abf1	-0.2825618
229	0xbd801350	-0.062536836
230	0x3e88a061	0.2668486
231	0xbe927422	-0.28604227
232	0x3e1c1259	0.15241374
233	0xbdf1404e	-0.11779843
234	0x3f0f657e	0.5601424
235	0xbde3b79c	-0.11119005
236	0x3ddac2d2	0.1068169
237	0x3e7e3690	0.24825501
238	0xbe6c2f76	-0.2306498
239	0x3eaa0af1	0.33211473
240	0x3e4c9146	0.19977292
241	0x3e88d9c0	0.2672863
242	0x3e4b8730	0.19875789
243	0xbe3d0a81	-0.18461038
244	0x3ec1af5e	0.37829107
245	0x3e564d66	0.20927963
246	0x3ead522a	0.3385175
247	0x3e442c30	0.19157481
248	0x3e69d74e	0.22836038
249	0x3f04ea94	0.5192044
250	0x3e86ef6c	0.2635454
251	0xbe77d952	-0.24203995
252	0x3f0208c7	0.50794643
253	0xbdfa672a	-0.12226708
254	0x3ead9498	0.3390243
255	0xbe1aa3d1	-0.15101553

bias.0 f4 [200]
0	0x3e0170e2	0.12640718
1	0x3ed35110	0.41272783
2	0x3e24ecb6	0.16105923
3	0x3eb3f1ea	0.35145503
4	0x3e1a018a	0.1503965
5	0xbe998c4a	-0.29989845
6	0xbed4bcbe	-0.4155025
7	0x3f3825aa	0.7193247
8	0x3dec7428	0.115455925
9	0xbedab441	-0.42715648
10	0x3d46dfc2	0.048553236
11	0xbe847537	-0.25870678
12	0xbce103ef	-0.027467696
13	0x3e9412a4	0.28920472
14	0x3d297b2b	0.041377228
15	0x3f01f347	0.50761837
16	0x3eab9ff2	0.33520466
17	0x3d759ead	0.05996578
18	0xbc717081	-0.014736296
19	0xbe352e94	-0.1769355
20	0x3f564604	0.83700585
21	0xbcb474df	-0.022028385
22	0x3e789cff	0.2427864
23	0x3e97e627	0.2966778
24	0x3c876585	0.0165279
25	0xbdd860dd	-0.1056535
26	0x3ea9d1a1	0.33167747
27	0xbde34f62	-0.110991254
28	0x3f02f2bd	0.5115164
29	0xbf138e5c	-0.576391
30	0x3f216e6e	0.6305913
31	0x3e954a92	0.29158455
32	0x3d5a0da8	0.05323568
33	0x3d58f46e	0.05296748
34	0x3f12001a	0.57031405
35	0xbeb07f8b	-0.34472308
36	0x3ed5fe9b	0.4179581
37	0xbde0884d	-0.10963497
38	0x3dd84087	0.105591826
39	0x3e9176de	0.28411
40	0x3f0e528f	0.55594724
41	0x3d5a2f0e	0.05326753
42	0xbc6332f7	-0.013867131
43	0x3ee4419e	0.44581312
44	0xbd104ccd	-0.035229493
45	0x3d60868b	0.05481581
46	0xbd8b756b	-0.06809505
47	0xbeb60f12	-0.35558373
48	0x3d9687e5	0.073501386
49	0x3da93dcf	0.08263742
50	0x3e5eae2d	0.2174613
51	0xbde5d385	-0.11221985
52	0x3cb03ec0	0.021514297
53	0xbe09fff9	-0.13476552
54	0xbee4121a	-0.4454506
55	0x3d9a9f9b	0.075499736
56	0x3ecf95dd	0.40544024
57	0x3c1c0248	0.009522028
58	0x3e5204f9	0.2050971
59	0x3e4219a6	0.18955097
60	0xbddd6e37	-0.108120374
61	0x3e9888d6	0.29791898
62	0x3c5dda24	0.013540778
63	0x3e8b97e7	0.2726433
64	0x3e971b8e	0.2951321
65	0x3e345998	0.17612302
66	0x3e7fbf77	0.24975382
67	0x3be23255	0.0069029727
68	0x3ec68c5c	0.3877896
69	0xbdf06a0b	-0.11738976
70	0x3df63d21	0.12023378
71	0x3da160d7	0.07879799
72	0x3f1d02f4	0.6133263
73	0x3f21c4f5	0.6319116
74	0x3f0852f6	0.5325159
75	0x3d381d9c	0.044950113
76	0xbe995771	-0.29949525
77	0xbf100e61	-0.5627194
78	0x3e580b0f	0.21097969
79	0xbe6223bc	-0.22083944
80	0xbd16b51c	-0.036793813
81	0x3ef69e55	0.48167673
82	0x3f1344cd	0.57526857
83	0xbe7a4315	-0.24439652
84	0x3f19b880	0.6004715
85	0x3e208d61	0.15678932
86	0x3c03d835	0.008047153
87	0x3e87473d	0.26421538
88	0x3f20eddf	0.6286296
89	0x3f1912dc	0.597944
90	0x3e91b00f	0.28454635
91	0xbed629db	-0.41828808
92	0x3c89c63c	0.016818158
93	0x3e8e2926	0.2776577
94	0x3edeea9b	0.43538365
95	0xbb2505c9	-0.002518045
96	0x3efc34ac	0.49258935
97	0x3dbc3838	0.091904104
98	0xbefe9376	-0.4972188
99	0xbea39bab	-0.31954703
100	0xbdc5c939	-0.09657521
101	0x3f1360bd	0.57569486
102	0xbdc15a6b	-0.09441074
103	0xbbc9fcee	-0.006164185
104	0x3ce7e334	0.028306581
105	0x3eaf5676	0.34245652
106	0x3f1bac40	0.6080971
107	0x3d83d08e	0.06436263
108	0xbec30b69	-0.38094643
109	0xbd9d3593	-0.07676234
110	0xbdfd5574	-0.123698145
111	0xbe126099	-0.14294662
112	0x3e8be8d2	0.27326065
113	0x3ed35af5	0.41280332
114	0x3ecc0d98	0.3985412
115	0xbb1873cb	-0.0023262377
116	0xbeb04ba5	-0.34432712
117	0xbdb70bc3	-0.0893779
118	0x3f201218	0.6252761
119	0x3e6b9781	0.23007013
120	0x3e4234dc	0.18965477
121	0xbef6a27d	-0.48170844
122	0xbda58635	-0.080822386
123	0xbe73b1e1	-0.23798324
124	0xbf1c4785	-0.6104663
125	0x3ea85c55	0.32882944
126	0xbe8f96c0	-0.280447
127	0xbdf3ec57	-0.119103126
128	0x3eee7f59	0.46581534
129	0x3e5d0d36	0.21587071
130	0x3e0b5873	0.1360796
131	0xbe821402	-0.2540589
132	0x3c218969	0.009859421
133	0x3ed1af08	0.4095385
134	0xbed62dda	-0.41831857
135	0x3e49bb7f	0.1970043
136	0x3e6a8dfd	0.22905727
137	0xbd83bfd0	-0.0643307
138	0xbef4e0a2	-0.4782763
139	0x3e446d4e	0.19182321
140	0xbde9c9dc	-0.11415455
141	0x3dbceb42	0.09224559
142	0xbe58d842	-0.21176246
143	0x3e9f03ba	0.3105753
144	0x3e4b0897	0.19827496
145	0x3e07f77b	0.13278
146	0x3ea5cb99	0.32381895
147	0xbe2fe617	-0.17177616
148	0x3ecb53f6	0.39712495
149	0x3e0ea764	0.13931042
150	0xbe51940d	-0.20466633
151	0x3ec02d27	0.37534449
152	0xbc890a8b	-0.01672866
153	0xbe9d463c	-0.30717647
154	0xbf0dd196	-0.5539793
155	0x3ce4e0c1	0.027939202
156	0x3d4491cd	0.04799061
157	0xbefa07ec	-0.4883417
158	0xbd8a97c6	-0.0676723
159	0xbdf2a928	-0.1184867
160	0xbd9d59d5	-0.0768315
161	0xbd1bcb5e	-0.038035743
162	0x3e3f54bf	0.18684672
163	0xbe3f1884	-0.18661696
164	0x3ecdfc85	0.4023172
165	0x3e9eda0e	0.31025738
166	0x3dc17c17	0.094474964
167	0xbe9e9145	-0.30970207
168	0x3e83d8b6	0.25751275
169	0x3dcc8029	0.09985382
170	0xbe9d6285	-0.30739227
171	0x3e077047	0.13226424
172	0xbc321275	-0.010868658
173	0x3e43ee94	0.19133979
174	0x3ee0ac42	0.43881422
175	0xbee2a420	-0.44265842
176	0x3e9db030	0.30798483
177	0xbe552db4	-0.20818216
178	0xbd1451b7	-0.03621074
179	0xbe6f6850	-0.23379636
180	0xbcd54d6c	-0.026037894
181	0x3e962750	0.29326868
182	0x3e539382	0.20661739
183	0xbe93c672	-0.2886234
184	0x3f176f14	0.59153867
185	0xbe3a8a1c	-0.18216747
186	0xbeeb5fd2	-0.45971543
187	0xbdb670f7	-0.08908265
188	0xbea659ee	-0.32490486
189	0xbe212023	-0.15734915
190	0xbe20e67d	-0.15712924
191	0x3edc06f0	0.42974043
192	0x3e103bcf	0.14085315
193	0xbd9aa9ab	-0.07551893
194	0x3d827f0d	0.06371889
195	0x3f2b1e3a	0.66843
196	0x3d263d98	0.040586084
197	0xbd86fb01	-0.06590844
198	0xbe4f2c5a	-0.20231763
199	0x3ed2002c	0.41015756

bias.1 f4 [500]
0	0x3d9f939f	0.07791828
1	0x3d674fd7	0.056472626
2	0x3e7a6d7c	0.24455827
3	0xbeb66505	-0.35623947
4	0x3db6ff32	0.089353934
5	0xbd880c9d	-0.06643031
6	0x3e9a8db1	0.30186227
7	0x3dfc0403	0.12305453
8	0x3d04715c	0.03233467
9	0xbdcb9bb0	-0.099418044
10	0x3ed9e495	0.42557207
11	0xbdfc62a5	-0.123235025
12	0xbdcf3152	-0.10116829
13	0x3ed68dea	0.41905147
14	0xbc942149	-0.018082278
15	0x3ea448c4	0.32086766
16	0xbe3e502f	-0.18585275
17	0x3ec45bdc	0.38351333
18	0xbd49e171	-0.049287263
19	0xbe34a5b4	-0.17641336
20	0x3d4fadae	0.050702743
21	0x3ede596e	0.43427604
22	0x3eadb185	0.339245
23	0x3e8d3ef4	0.27587092
24	0x3e1e084f	0.15432857
25	0x3e80a5e2	0.2512656
26	0xbde5ee75	-0.11227123
27	0x3ea9c9db	0.33161816
28	0x3cae0733	0.021243667
29	0x3ee45caf	0.44601962
30	0x3e22323d	0.15839477
31	0xbe65b5f2	-0.22432688
32	0x3f177efa	0.59178126
33	0x3eb9776f	0.36223933
34	0xbf1a5011	-0.6027842
35	0x3f1da21f	0.615755
36	0x3df12920	0.11775422
37	0x3ef5a3b3	0.47976455
38	0x3d8e2c09	0.06941993
39	0xbd9ee0bb	-0.07757708
40	0xbea43d9f	-0.32078263
41	0x3d07f33b	0.033190947
42	0xbd07fe7c	-0.03320168
43	0x3c8d7afd	0.01727056
44	0x3eb7909c	0.35852516
45	0x3f0cef57	0.55052704
46	0x3ca3ff18	0.0200191
47	0x3caead9f	0.021323023
48	0x3f194427	0.5986962
49	0x3e9715cd	0.2950882
50	0xbe92b02b	-0.2865003
51	0xbea6224f	-0.3244805
52	0x3ed5633e	0.41677278
53	0x3c1d37c2	0.009595813
54	0x3f08167c	0.5315931
55	0xbc8d72ed	-0.017266715
56	0xbde33818	-0.110946834
57	0xbe433297	-0.19062267
58	0x3ee0106f	0.43762538
59	0x3e892dbd	0.26792708
60	0xbdf159f4	-0.11784735
61	0xbe141168	-0.14459765
62	0xbdc3137d	-0.095252015
63	0x3f072f2e	0.52806365
64	0x3eadfb6c	0.33980882
65	0x3e5a7747	0.21334563
66	0x3f381e6e	0.7192143
67	0xbe8632d2	-0.26210648
68	0xbd0281f3	-0.03186221
69	0xbe0a0d26	-0.13481578
70	0x3d15ce5f	0.036573764
71	0x3e9c397c	0.30512607
72	0xbe2e53e7	-0.17024194
73	0xbe3646a6	-0.17800388
74	0x3ce8a29d	0.028397853
75	0x3e9bf35c	0.30459106
76	0xbe97e66f	-0.29667994
77	0x3e440339	0.19141854
78	0xbe62782a	-0.22116151
79	0x3d05fb44	0.03271033
80	0x3daa4857	0.08314579
81	0x3e7e3305	0.2482415
82	0xbe14464f	-0.14479946
83	0xbf0445bb	-0.516689
84	0x3d4dafd0	0.050216496
85	0xbf080097	-0.531259
86	0xbea2e728	-0.31816983
87	0x3e17c78a	0.14822212
88	0xbe659c7f	-0.2242298
89	0x3db3ab76	0.08772938
90	0x3f1176d5	0.5682195
91	0xbe73f69d	-0.23824544
92	0x3e09fecb	0.13476102
93	0xbdb862de	-0.090032324
94	0xbd2e4a33	-0.04255123
95	0xbf03b414	-0.5144665
96	0x3c2eb0f8	0.01066231
97	0xbeac55ee	-0.3365931
98	0xbea5a46c	-0.32352006
99	0x3f25e9d5	0.64809924
100	0xbc6cc7ae	-0.014451904
101	0xbe9c5066	-0.3053009
102	0xbe372eda	-0.17888966
103	0x3ef363f3	0.47537193
104	0xbd2c1626	-0.04201331
105	0x3cea39ec	0.028592072
106	0x3e5e3b72	0.21702364
107	0xbdc0c15d	-0.09411881
108	0x3e515723	0.20443396
109	0x3e459a28	0.19297087
110	0x3e873475	0.2640721
111	0x3dad9458	0.0847556
112	0x3e91ce52	0.28477722
113	0xbe5b6296	-0.21424326
114	0x3de5c43c	0.11219069
115	0xbd921422	-0.07132746
116	0xbba7262f	-0.0051009874
117	0x3f210ed9	0.6291328
118	0xbd9c2127	-0.07623511
119	0xbe5170b2	-0.20453146
120	0x3dea1f27	0.11431723
121	0x3d17f25e	0.037096374
122	0x3eaf5d33	0.34250793
123	0xbeab36b9	-0.33440188
124	0x3ea9fd64	0.33201134
125	0xbc86e764	-0.016467758
126	0xbd871274	-0.065953165
127	0xbe1d0aca	-0.15336147
128	0xbe89deb4	-0.26927722
129	0x3e26a935	0.16275485
130	0x3e594522	0.21217778
131	0xbe7ad2ac	-0.24494427
132	0x3e209b1d	0.15684171
133	0x3ea6eb6b	0.32601485
134	0xbe93b0cc	-0.28845823
135	0x3f127f40	0.5722542
136	0x3ec6e10b	0.3884357
137	0xbcf6bdf6	-0.030119877
138	0x3ded9cdb	0.116021834
139	0x3f274fc9	0.6535612
140	0x3cd179d6	0.025570791
141	0xbe905b58	-0.2819469
142	0xbe86e250	-0.26344538
143	0xbd33b206	-0.04387095
144	0x3e94617a	0.2898062
145	0xbdeb68cf	-0.114946
146	0xbe74a951	-0.23892714
147	0x3e502904	0.20328146
148	0x3e1355a2	0.14388135
149	0x3e5bad42	0.21452811
150	0xbefa6540	-0.48905373
151	0x3be7d67a	0.007075128
152	0xbee00c04	-0.43759167
153	0x3eadd62e	0.3395247
154	0x3f00ae3f	0.5026588
155	0x3ec22dcc	0.37925565
156	0xbe7565cb	-0.23964612
157	0xbe5d40f0	-0.21606803
158	0xbe3519db	-0.17685644
159	0xbd5d76da	-0.054068424
160	0x3e8c15bc	0.27360332
161	0xbe52a9b0	-0.20572543
162	0xbc4c6533	-0.0124753
163	0x3d096886	0.033546947
164	0xbdadbf87	-0.084837966
165	0x3efe6628	0.49687314
166	0x3d484828	0.04889694
167	0x3f01e0aa	0.50733435
168	0x3ee692c7	0.45033857
169	0xbe0533f6	-0.13008103
170	0xbdf7a54a	-0.12092073
171	0xbef4bca8	-0.47800183
172	0xbd3b7a68	-0.045771033
173	0x3e91d049	0.2847922
174	0x3e4ef897	0.20212017
175	0x3f31b474	0.69415975
176	0xbdab15b1	-0.08353747
177	0x3eb91f2f	0.36156604
178	0x3ebf0415	0.37307802
179	0xbd61005c	-0.054931983
180	0x3e19b392	0.15009907
181	0x3e950936	0.2910859
182	0xbccd626a	-0.025071342
183	0x3e31f69a	0.17379227
184	0x3f1c015a	0.6093956
185	0x3f587426	0.8455223
186	0xbea6a57f	-0.32548138
187	0xbea0e758	-0.314265
188	0x3ded21b4	0.11578694
189	0xbd174905	-0.03693487
190	0x3cff0ccc	0.031134032
191	0xbf236548	-0.6382642
192	0x3ee317a9	0.4435399
193	0x3df5ed88	0.12008196
194	0xbcf7f31f	-0.030267296
195	0x3f27ec96	0.65595376
196	0xbd10b34e	-0.03532725
197	0xbe8e8164	-0.27833092
198	0x3e56b411	0.20967127
199	0x3e9d214e	0.30689472
200	0xbe93557e	-0.28776163
201	0xbdfffd85	-0.12499527
202	0x3dc5f9b7	0.0966677
203	0xbdc46fba	-0.09591623
204	0x3dc92c76	0.098229334
205	0xbf1d0931	-0.6134215
206	0x3d514f14	0.051100805
207	0xbdd04747	-0.10169845
208	0xbea6417d	-0.3247184
209	0x3ecaf383	0.3963891
210	0x3e5852f5	0.21125396
211	0xbefff4cf	-0.49991462
212	0x3deea2ff	0.11652183
213	0xbd6462a1	-0.055758122
214	0xbe330a16	-0.17484316
215	0x3dc6b18c	0.09701833
216	0x3c9e379e	0.01931363
217	0xbe1dd1de	-0.15412089
218	0x3e2eb227	0.17060147
219	0x3f1eb50e	0.6199502
220	0xbdf75c3a	-0.12078138
221	0x3e7a3091	0.24432589
222	0x3f01e846	0.50745046
223	0x3eef4944	0.46735585
224	0x3dab9345	0.08377699
225	0x3da6dc65	0.08147506
226	0x3f18068f	0.5938501
227	0x3e4355a3	0.19075637
228	0xbee9fe66	-0.45701903
229	0x3e028680	0.1274662
230	0xbe2892c7	-0.16462241
231	0x3ea8bee9	0.32958153
232	0x3e3e5910	0.18588662
233	0x3e834846	0.25641078
234	0x3e859584	0.26090634
235	0x3f0e684d	0.556279
236	0x3e49ad06	0.1969491
237	0x3e694e91	0.22783877
238	0xbee1c915	-0.44098726
239	0x3f52edaf	0.82393926
240	0x3f51c771	0.8194495
241	0x3c9f4af0	0.019444913
242	0xbe1cbc12	-0.15306118
243	0x3ebe02ff	0.3711166
244	0x3dca119a	0.098666385
245	0x3dd863bc	0.10565898
246	0x3e88223d	0.26588622
247	0xbdf29727	-0.11845236
248	0xbe44563e	-0.19173524
249	0x3f0747ad	0.52843744
250	0xbe0773d2	-0.13227776
251	0xbf0fe300	-0.5620575
252	0xbe52d83d	-0.20590301
253	0xbe9456bc	-0.28972423
254	0x3c16fe29	0.00921587
255	0x3ec6dfd1	0.38842633
