LYAP_CP_m-fwd_d-20_s-0.005_seed3.pt (torch, 421641 bytes, 7 tensors)

W.0 f4 [200, 5]
00000000: e390 38be f353 34bf f356 95bd cabf 15bf
00000010: 0099 68be 2e4d d5be a4d9 093f fbee c43d
00000020: d034 563e 8932 72be db93 a73d f34f 1f3f
00000030: 3ceb acbe 2b11 983b 22fa 73bf dc89 a3bd
00000040: 4986 3dbc 56e5 ec3e d0c8 943e a83c 42bd
00000050: 19b7 8a3d a24a 12bf 3d99 553e 3fbb 0bbf
00000060: b029 c2be 2526 4fbe 27a3 02bf 2053 593d
00000070: 237b e8be 58ce e2be 317d 58be 6798 8bbc
00000080: c702 d2be b257 b7be d653 29bf 76be ff3d
00000090: 7dc3 0cbf ef7c 91be 553c aebe 7d56 0dbf
000000a0: 783e 843d 9eba c6be 3b28 cabd 200c c1be
000000b0: 35d1 56bd d0fc 133e a982 4ebf 8684 fa3c
000000c0: 5911 50be 53b5 3fbe 81a4 8b3e 5b83 e93d
000000d0: f91b ff3d 5dbd b83e 8324 c73d a48a 78bc
000000e0: d89e 003e 3eb1 a73e 783b 5e3e 52ad 3bbf
000000f0: 981c e93e e650 9cbe feed 91be 9537 71be
00000100: 0dbd 6bbf 5e05 94be 1400 a23e f598 41be
00000110: aece 793e 873c 4abd fc94 b53c 754b 493f
00000120: a6f5 9cbe 9de7 3d3e 5c9c 82be a19d 69be
00000130: 9bbc 0a3e ed58 6a3e d7ef 493e aa7f 9dbe
00000140: bc0f 6ebe b242 1fbe d892 3ebe 1e91 0ebe
00000150: 821e 01bb 420c 75be a51e f6bd 7d28 c5be
00000160: 4a2b 97be 94fb 1abf 841c f1bd bf4e e13e
00000170: ac0b 3ebe bc5d 023f d551 43bd c908 9c3d
00000180: dbec 29bf 5599 823e 335a 6bbe 05e1 14bf
00000190: fca3 58ba 451f c3bd c06b c4bd fb12 92bd
000001a0: b242 99be 9639 04be e2af 103e 79b4 e73c
000001b0: 55c5 623e 4f87 f5be 1834 4d3e 2074 68bd
000001c0: 1c05 cbbe 799a 96be 2c2a 13bf 7a75 12bf
000001d0: 3c1f 033e 170d 283e 20d4 fc3d 84ed 123d
000001e0: 44d2 a03e 6f2a 67bf eeb9 53be d241 cabe
000001f0: 8c9e 80bf 8efb f5bd 31f8 06be 5d25 4dbd
00000200: 96c0 3dbd 3521 0abf 4428 893e 285c 9fbe
00000210: b2e9 a43d ba8c acbd 7f48 38bf 0312 e83c
00000220: 00bd b2bd 404d ef3b 4b00 a2be 38e4 60be
00000230: 1585 bdbe da77 a33e 170a 7a3d 83d1 473e
00000240: c196 edbe e545 0fbb 31b8 d53e fce6 a0be
00000250: dbaf 803e e375 1f3e e004 88be 948e 463f
00000260: 77c1 a2bc e43b 253f eeee 293e ee2d 9dbe
00000270: 65ec 333f de3f aabd 1396 883e 2d24 25bf
00000280: 7e34 9ebe 62a1 b83e e425 013e df7f 9a3e
00000290: 6df2 33bf 6633 8cbe c24c 063f 2cc3 fcbd
000002a0: 3ade 913d 8f56 2abf 742e 8a3d 1531 c43e
000002b0: 06a1 8fbe ec55 403e cd11 4fbe 70fa 2b3e
000002c0: c8e8 713d 615c c33e 0417 983e 5de2 11bf
000002d0: cd31 553e 446a c73e f08a 9a3e f214 0c3f
000002e0: bddb 5dbe ffe4 443c f4d6 1fbe 6e0a 343d
000002f0: ed48 abbe 570c 1fbe 7974 0e3f 1815 b5bd
00000300: 2e0b a7bd 9306 e1bd 4285 91be a903 2a3e
00000310: ed8b 92be ecd6 03bc 2132 48be d936 2e3d
00000320: 3f5a 8fbe 26a7 203f 75b3 fb3d ffad 143f
00000330: eccb 093e ca58 bfbd 4c1b 263f 86b6 60be
00000340: a3bd ec3e 1e13 c5be a3f7 aebe da64 4ebf
00000350: 85c9 f03e 1382 473d 9761 6abf 518a 85be
00000360: 9092 ba3e ad86 29bd ce88 2b3e d192 6dbd
00000370: f3d8 97be 2f24 0dbe afb8 6c3e 4bae 223e
00000380: 94fa d2bb 8c74 16bc 70e8 3a3e 2ac1 783e
00000390: 002a ac3e d42c 19bf ad2f fbbd 4148 2c3f
000003a0: c535 423e 014c 173f efd8 72be 7d11 943e
000003b0: 38a9 34bf 194e 3f3e 43c4 a1bd 0cb6 a0be
000003c0: 8ff3 fc3d a304 293f 1854 cdbe d2da 763d
000003d0: 6e78 a5be 05c8 273e ea55 43be b818 b43d
000003e0: a9f7 6fbd adc0 bdbe 3e88 d43e dc11 393c
000003f0: 344d 633d f916 82be 6c9c 4cbe 61f5 cabe
-0.1802402 -0.70440596 -0.07291975 -0.5849577 -0.22714615 -0.41660446 0.5384772 0.096158944
0.20918584 -0.2365209 0.08182498 0.6223137 -0.3377322 0.0046407185 -0.9530355 -0.07985279
-0.011567661 0.4626872 0.29059458 -0.047421128 0.06773204 -0.5714513 0.20859237 -0.5458259
-0.3792243 -0.20229395 -0.510302 0.05305779 -0.45406446 -0.44298053 -0.21141507 -0.017040445
-0.41017744 -0.35809094 -0.6614355 0.124874994 -0.5498579 -0.2841563 -0.34030405 -0.55210096
0.064572275 -0.38814253 -0.098709546 -0.37704563 -0.05244561 0.14451909 -0.8066812 0.03058077
-0.20319118 -0.18721513 0.27273944 0.11402007 0.12456507 0.36081973 0.09723761 -0.015169773
0.12560594 0.32752413 0.21702373 -0.7331134 0.45529628 -0.3053047 -0.28501886 -0.23556359
-0.92085344 -0.28910345 0.31640685 -0.18906005 0.24395248 -0.04937413 0.022165768 0.78630763
-0.30656165 0.18545385 -0.25509918 -0.22814037 0.1354851 0.22885485 0.19720398 -0.30761462
-0.2324819 -0.15552786 -0.18610704 -0.13922545 -0.0019702022 -0.23930457 -0.12017564 -0.38507453
-0.29525214 -0.6054013 -0.11773017 0.4400539 -0.1855914 0.5092428 -0.047685463 0.07618863
-0.6637704 0.25507608 -0.22983627 -0.5815585 -0.00082641817 -0.095274486 -0.09590864 -0.071325265
-0.29933697 -0.12912592 0.14129594 0.028284298 0.22145589 -0.47954795 0.20039403 -0.05675137
-0.39652336 -0.29414728 -0.57486224 -0.57210505 0.12804884 0.16411243 0.12345147 0.035871044
0.3141042 -0.90299124 -0.20676395 -0.39503342 -1.0048385 -0.12010871 -0.13180615 -0.05008446
-0.046326242 -0.5395692 0.26788533 -0.31124997 0.08052386 -0.08425279 -0.7198562 0.028328901
-0.08727455 0.00730291 -0.3164085 -0.21962059 -0.37015596 0.31927377 0.06104478 0.19513516
-0.4640408 -0.0021861729 0.4174209 -0.31426227 0.25134167 0.15572314 -0.2656622 0.77561307
-0.019867642 0.6454451 0.1659505 -0.30699104 0.70282584 -0.08312963 0.26676998 -0.64508325
-0.30899423 0.36060625 0.1261211 0.30175683 -0.7029179 -0.27382964 0.52460873 -0.123419136
0.071224645 -0.6653833 0.067471415 0.38318697 -0.2805254 0.18782777 -0.20221634 0.16794753
0.059059888 0.38156417 0.2970506 -0.5698603 0.20819779 0.38948262 0.30184126 0.5471946
-0.21665855 0.012017488 -0.15609342 0.04395526 -0.33454075 -0.15532051 0.55646473 -0.08841914
-0.08156429 -0.10987582 -0.2842198 0.16602959 -0.2862238 -0.008046847 -0.19550373 0.042532776
-0.2799854 0.6275505 0.12290088 0.58077997 0.13456696 -0.09343107 0.648854 -0.21944627
0.4623843 -0.38491148 -0.34173307 -0.8062264 0.47028747 0.048708033 -0.9155516 -0.2608209
0.36439943 -0.041388202 0.16751406 -0.058001343 -0.29657707 -0.13783334 0.23117326 0.158868
-0.0064385626 -0.00918306 0.1825273 0.24292436 0.33625793 -0.5983403 -0.12264953 0.6729775
0.18965824 0.5910035 -0.23715566 0.28919592 -0.7057071 0.18682136 -0.07898762 -0.3138889
0.123511426 0.660227 -0.4010322 0.060267277 -0.32318443 0.16384895 -0.19075742 0.08793777
-0.058585797 -0.37061062 0.41510195 0.011295762 0.05549355 -0.25408152 -0.19981545 -0.39640334

W.1 f4 [500, 5]
00000000: 9dc6 b3be 0619 bc3d 4744 7dbc 1334 ec3d
00000010: 9503 22bf 546e 153e b6ca 963e fab9 bfbb
00000020: ce56 003e 3e3f 64be 9e10 f0be b4f5 f8bd
00000030: 8332 903e 1b45 0c3e 7761 2dbe aedc 2cbe
00000040: a298 fd3d f507 ec3d 9b49 cd3e 3d9b b7be
00000050: e393 513d d63e ddbe 97be 1f3d ab4e 96be
00000060: b749 adbe 0e1f 5f3e f5d5 01bf 8668 bfbc
00000070: 6bda c0be 530f 2bbf 3dfd a8be 9111 3e3f
00000080: 9ad3 1e3e b1b7 ab3e 8189 d3be 8673 3d3e
00000090: fec2 22be 9ab6 343e 818e 353d b690 36bf
000000a0: fbb3 b13d 9017 33be d54c 793c 80fa b4bd
000000b0: f7d3 74bf 22ec 673d 2650 64be 324e 1a3e
000000c0: c710 47be ad88 a4be 76f3 833e c766 bc3d
000000d0: fabb 8bbe 2977 98bd eed1 5cbf 6434 d73a
000000e0: 41da 3f3f b8c3 bdbe 35fd 163e 7410 38bd
000000f0: 88c9 973e ff6e 1abe 1221 e83e 457b 673e
00000100: 7182 87bd 5323 4cbe aab4 0fbe bd8b f13c
00000110: ee24 c9bd 950a 93be e51c 0c3e 19db 253d
00000120: 3a10 073e ed95 86bd 901a a8be eb6e d53d
00000130: 4715 c93e 85a8 77bd 9277 af3e ffd9 06bf
00000140: 61a2 9ebe 0be1 7b3e 2741 813e 3cd1 aa3e
00000150: bc82 e8be eb7f d83e c261 8cbd 2c79 2dbe
00000160: 32c4 9ebd 7929 67be eb26 de3c 6328 b8be
00000170: c7cb 0d3e c4e2 ecbe f6ee 00bd 0216 993e
00000180: 1f10 0a3f 2aa4 acbe b7f2 ccbd dcfc 73bf
00000190: 664b d63d f5a8 eb3e 40bf cc3d 7a02 033f
000001a0: 88d9 953d 0694 a5be 4fea 9e3d 9fb9 4b3e
000001b0: 8204 9c3d db41 21bf c622 1bbe 0742 0a3f
000001c0: 8be4 463e 157b 7d3e ef4e e9be f50e 8dbe
000001d0: 71f7 1e3f 2685 293d 1a6d bf3e e9a0 bebe
000001e0: 8e0c fdbe 3b73 49bd e74e 473e 5a7b 193e
000001f0: e8bd 17bf b95a 09bf ac77 453d f243 00be
00000200: 33df 9dbe ebb5 0bbf 59f0 a4bd 123d 203f
00000210: 0802 aebe d22f 69bd e6ab 67bf e835 03be
00000220: 0759 443f b5a7 87be 4594 f53e cd4f 2fbe
00000230: 1dc4 4abc e940 06bf 1e9b 443d e973 05be
00000240: e303 fbbe 2a64 92bd cf48 1b3e 39ac f9be
00000250: 2e6c 9fbe 2212 9fbd 2f2b cebd 2baf b53d
00000260: ef81 a8bd f4b3 54bc 508e fdbe 8a54 833e
00000270: 5f7d d93e 2e8f 813c 2eed e93e da50 ef3d
00000280: d227 113e 5170 a73e cc6e 21be 861b 4b3e
00000290: 59cb c9be 3b33 d7be 37fb ba3d 3878 793e
000002a0: a22f aa3e b825 fdbe 474d 7d3e 2f03 1cbf
000002b0: 2c59 d53d 96ee 0abf 2d81 543e 1397 463e
000002c0: 6c67 1a3f e818 b0be 9b82 b43e e004 1fbf
000002d0: 4bae 9c3e 29dd afbe afd9 2b3e 98f7 39be
000002e0: cb94 8dbe f492 943e bc94 b13d 41bf 263d
000002f0: fbf2 b0bd e160 e9be 9b7a d9bd 0f5c ff3e
00000300: ce12 643e d15b e33e 1fbf 9ebe 55c6 803c
00000310: 1cb2 2dbf b4ea 063e f776 78be 8c96 85be
00000320: d6c0 50be c35f 24bf b4f9 aa3e 93ac 50be
00000330: 3cad bfbe 2d99 503c 311b d7be 56fc 2c3e
00000340: 1163 f7be cd65 253e 6248 773d e650 0f3f
00000350: f61a a2be 8ec9 793e 27c8 49be 2f62 66bd
00000360: 1fe3 91bd 7e94 94be 036c 9bbe 1f85 f2be
00000370: 552e 74be 85a9 c7be 716d 3cbb 52b8 22be
00000380: b851 9ebe 8bfe 5e3e 5abf 493e 2ec6 fd3c
00000390: 94ac f73d 85c6 4dbf 7c7e 433d 71b2 0c3f
000003a0: 3ab3 5ebe 4410 833d 7b98 dcbe 9f8d 393e
000003b0: 8117 39bf d37b 773d 5499 1abf d31f 41be
000003c0: 3618 283e 2158 d03b be4c 963d 7057 88bc
000003d0: 2b7d 42bf e71c a0be fdc9 273f 4cfe 3a3e
000003e0: 5c68 1c3f 70cd 53be 83d5 8d3e 8e19 bb3e
000003f0: 0f89 57be da89 213e 293f 2bbf cde5 66be
-0.35112467 0.0918446 -0.015458173 0.1153337 -0.63286716 0.14592868 0.2945153 -0.0058510276
0.12533113 -0.2228975 -0.46887678 -0.12156239 0.28163537 0.13698237 -0.16931711 -0.16881058
0.12382628 0.11524955 0.4009522 -0.35860625 0.051166426 -0.43212003 0.03900012 -0.29356894
-0.33845302 0.2178919 -0.507171 -0.02336527 -0.3766664 -0.6682026 -0.33005705 0.74245554
0.15510407 0.33538583 -0.41315845 0.185011 -0.15894696 0.17647782 0.044325355 -0.7131456
0.08676907 -0.17489457 0.015216072 -0.088368416 -0.9563593 0.05662168 -0.22296199 0.15068892
-0.19439994 -0.32135525 0.25771683 0.09199291 -0.27291852 -0.07444603 -0.8625783 0.0016418812
0.74942404 -0.37063384 0.14745028 -0.044937566 0.29645944 -0.15081404 0.4533773 0.22605617
-0.066166766 -0.1993535 -0.14033762 0.029485578 -0.09821497 -0.2871901 0.13682897 0.04049215
0.13189784 -0.06571565 -0.32832766 0.104215465 0.39274046 -0.060463447 0.34270912 -0.52676386
-0.3098326 0.24597566 0.2524502 0.33362758 -0.45412242 0.42285094 -0.06854583 -0.16940755
-0.07752265 -0.22574414 0.027118167 -0.35968313 0.13847266 -0.46266758 -0.03147789 0.29899603
0.5393085 -0.33718997 -0.10007232 -0.9530771 0.104636 0.4602734 0.099974155 0.51175654
0.073168814 -0.32339495 0.077595346 0.19895028 0.07618047 -0.6299111 -0.15149984 0.54007
0.1942312 0.24753983 -0.45568034 -0.27550474 0.62096316 0.041386746 0.37387925 -0.3723214
-0.4942364 -0.049182158 0.19463693 0.14988461 -0.5927415 -0.53654057 0.04820983 -0.12525919
-0.3083435 -0.5457446 -0.08053655 0.62593186 -0.33985925 -0.05693037 -0.9049667 -0.12813532
0.76698345 -0.26495138 0.47964683 -0.17120285 -0.012375859 -0.52442795 0.047999494 -0.13032497
-0.49026403 -0.07148011 0.15164493 -0.48764208 -0.31137222 -0.077671304 -0.1006683 0.08871301
-0.08227908 -0.012982357 -0.49522638 0.25650436 0.42478463 0.015815344 0.45688766 0.11685343
0.14175346 0.32702878 -0.15764922 0.19834718 -0.39412954 -0.42031273 0.09129947 0.24362266
0.33239466 -0.4944284 0.2473651 -0.6094236 0.10417399 -0.54270303 0.20752402 0.19393568
0.6031406 -0.34394002 0.35255894 -0.62116814 0.30601725 -0.3434842 0.16782258 -0.18160856
-0.27652583 0.29018366 0.08670947 0.040709738 -0.08640095 -0.45581725 -0.10619088 0.49874923
0.22272798 0.44405988 -0.3100519 0.015719572 -0.678499 0.1317547 -0.24264131 -0.2609142
-0.20386061 -0.6420862 0.33393633 -0.20378332 -0.37436855 0.012731832 -0.42012933 0.16893134
-0.4831777 0.16152115 0.060371764 0.55982816 -0.31661195 0.24393293 -0.19705258 -0.05624598
-0.07123398 -0.2901954 -0.30355844 -0.47367188 -0.238458 -0.3899652 -0.0028751756 -0.15890625
-0.3092172 0.21776788 0.19701901 0.030978289 0.120934635 -0.8038104 0.047728047 0.5495978
-0.21748057 0.06399587 -0.43085083 0.1812043 -0.7230149 0.060420822 -0.6039021 -0.18859796
0.16415486 0.006358162 0.07338856 -0.016643256 -0.7597224 -0.3127205 0.65542585 0.18261069
0.6109674 -0.20683837 0.2770196 0.36542934 -0.21048377 0.15775242 -0.6689325 -0.225486

W.2 f4 [1, 5]
00000000: 39e8 3cbe a2fc c5be f3d0 793d 3d07 84be
00000010: 2527 3bbf
-0.18447961 -0.38669306 0.060990285 -0.25786772 -0.73106605

U.0 f4 [500, 200]
00000000: 6d4a 043e 7939 d43d 06e7 1d3e e2c8 abbd
00000010: 9e91 2d3e e214 463e 6631 393e 131f eabd
00000020: a556 ee3d f6bc 55be 7984 8ebd a58f 48ba
00000030: 8d47 c1bd c43b f3bb 86e6 713e 0965 1e3e
00000040: 772d 62be 1191 ed3b 9696 90bd fac3 603e
00000050: d61f 733e 3cc1 bebd bbb1 5f3e ca3c 893e
00000060: f5b8 4abe b483 f83c ebff 943e 8bfd c03d
00000070: 4a6f c5bc 71c3 e6bc efa5 4a3e af86 253e
00000080: e800 44bb 95e4 f43c cf71 6abd 2a9d bfbd
00000090: 0c07 2b3e 8059 233e b422 7bbe bf33 743e
000000a0: 0e58 743e 71ff 883d 3c2e 40bd ddbc 8abc
000000b0: aac2 f3bd 5044 5abd a2fe 013e cd08 3cbe
000000c0: e7cf af3d b5a1 af3e 6efc 50bb c0f5 493e
000000d0: 0735 48bd a49f d5bd 1901 75bd 6fc5 53be
000000e0: 9aaf 253e 9ad8 bebc 0695 133d 871b c3bd
000000f0: 4ddd 04bd 2728 2cbe ec5e 843e a77a 5c3d
00000100: 4ab9 043e 394f 003e 9185 ff3a bcff f8bc
00000110: d46c 163e 4a8d 313e 34d3 e1bd aa44 183e
00000120: a4fe a8bd bc4e 703d b3e9 823d 803b 45be
00000130: 3228 a33c 284e 6c3e 453f a23c d2a7 1b3e
00000140: 4492 923d d5fb 483e 80c9 753e 72a2 1c3e
00000150: 66eb b33d aaca 4c3e b778 4a3e 9654 3fbe
00000160: 8968 873e f1af 243e 4cc1 e23d 2361 563e
00000170: f1fa f73d 6179 0f3e 78fb 053e c1d6 92bd
00000180: 0b62 4abd 48f0 ee3d 569c 153e f905 96bb
00000190: a9c0 1c3e c864 2b3e 283b 083e 3cc5 8c3c
000001a0: 3dd8 18be bf28 e43d a116 bb3d b67f 6dbc
000001b0: a6fd 4f3d 9ab9 903d 684a 0fbe 9c59 00be
000001c0: c668 f83c 282f 743e 8539 0bbe ca65 df3d
000001d0: 10b8 f63d f06b 5a3d 5156 d8bd deaa 753e
000001e0: 01d4 3e3e c7e0 013e d36d 753e a11f 743d
000001f0: 42fa 1abb c811 643e ba50 173e a59d 6bbe
00000200: d5ae a5bb e1f8 66be 309c 963d b229 5b3e
00000210: 033f 313e 9253 31bd 6d39 f03d d953 a83e
00000220: e005 473e 715c 0ebe bb62 843e 584c 0cbe
00000230: 9e17 5a3e 6508 703e f3e6 f7bd 1488 4dbd
00000240: 671d 143e c750 f43d 7c80 583e dab9 fa3d
00000250: 1345 c0bd e47b a23d f8ca d93d 9a7b 713d
00000260: c670 d8bc 7444 ec3d 7818 673e b541 8bbc
00000270: 5da7 763e 1950 273e 3417 a23d 1d1c 9e3d
00000280: fdcd d9bc d89c 183e bf43 423e 01b5 ac3e
00000290: 1827 533e 5dbe 443e 1c80 0f3d 1489 9c3e
000002a0: 1f48 8d3e f57f 953e 720f ab3d e775 2dbd
000002b0: 3e07 b1bc 301f 493e fe4b 32be 066a eb3d
000002c0: f31b 05be a25a 583e 9b5e 7d3e 96ba 073d
000002d0: d1de 1e3e 744d 0f3e 2d2a 29be a94a d23d
000002e0: 281c 5b3d 77e8 143d 45f3 423e 884b 3c3d
000002f0: ec14 c03d 05a4 d63d 372a 23be 25fa 4bbe
00000300: 5c21 2bbe b16a 44bd 95ea f53d fa28 2d3e
00000310: 3998 1fbe 3e98 d53c 9388 41be a381 44bd
00000320: f331 5f3e 704d 843e 4462 133e e7ef ddbd
00000330: b2de 903d 2146 bc3d 3728 03be 6e33 2ebe
00000340: 7944 913c faec 72be 65ad 4ebd fbd3 483d
00000350: 7445 4ebd 7fd7 4c3d 1082 653e dd7f f33c
00000360: ef1e ffbd c2bc 0bbe 532b d93d dffb 373c
00000370: e70b 5bbd 9ed1 21bd 7cc9 8dbd 258d 81bd
00000380: 0863 61be 75f4 1fbd bed6 66bd bccf 0cbe
00000390: 3a06 433c d364 343d 227f 8c3e 714b 893e
000003a0: 08c2 ab3d dabc ba3d 4a30 bc3d 8f4c 0d3d
000003b0: 025d 203e d441 26bd d12a 18be 25e1 20be
000003c0: 94ea 813e b896 0e3e bf05 02be 262c 853d
000003d0: 4276 bdbd bd0b d3bc 860d 463e 74e3 56be
000003e0: 9855 073e 3b3f ebbd ef05 5dbe ac64 ad3e
000003f0: dda7 01be c2b0 1ebd 327f 5dbd 9b6e 3ebe
0.12919016 0.103625245 0.1542016 -0.08387925 0.1695008 0.19343904 0.1808525 -0.11431708
0.1163762 -0.20872864 -0.06958861 -0.0007650799 -0.09437475 -0.007422896 0.23623094 0.1546823
-0.22087656 0.0072499593 -0.07059972 0.21949759 0.23742613 -0.093142 0.21845143 0.2680419
-0.19797118 0.030336238 0.291015 0.094233595 -0.024100918 -0.028169366 0.19789861 0.16164659
-0.0029907767 0.029894153 -0.057237443 -0.093561485 0.16701907 0.1595211 -0.24524957 0.23847865
0.23861715 0.066893466 -0.046919093 -0.01693576 -0.119023636 -0.053287804 0.12694791 -0.18362732
0.08584576 0.3430306 -0.003188874 0.19722652 -0.048878696 -0.1043084 -0.0598155 -0.20680784
0.16180268 -0.023296643 0.03603079 -0.09526735 -0.03243761 -0.16812192 0.2585367 0.053827908
0.12961307 0.12530221 0.0019494762 -0.030395381 0.14689952 0.17339054 -0.11026612 0.14869943
-0.08251694 0.058668837 0.06392231 -0.19260979 0.019916628 0.23076689 0.01980556 0.15200737
0.07156804 0.19627316 0.24002647 0.15296343 0.08785133 0.19999185 0.19772612 -0.1868461
0.26446941 0.16082741 0.11072025 0.20935492 0.1210841 0.14011146 0.13084209 -0.07169867
-0.049409907 0.11666924 0.14610419 -0.0045783487 0.15307869 0.16737664 0.13303816 0.017183892
-0.14926238 0.11140584 0.091351755 -0.014495781 0.050779007 0.07066651 -0.13993227 -0.12534183
0.030323397 0.23846114 -0.1359616 0.109080866 0.12046826 0.053325593 -0.105633385 0.23990962
0.1863556 0.12683402 0.23967676 0.059600476 -0.00236477 0.22272408 0.14776888 -0.23009355
-0.005056242 -0.22555877 0.07354009 0.21402624 0.17309193 -0.04329259 0.11729703 0.3287647
0.19435835 -0.13902451 0.25856575 -0.13700998 0.21298072 0.23440702 -0.12104597 -0.050178602
0.14464341 0.119294696 0.21142763 0.122424796 -0.09388175 0.079337865 0.10634416 0.058955766
-0.026420962 0.11536494 0.22567928 -0.016999105 0.24087282 0.16339149 0.07914582 0.07720206
-0.02658748 0.14903581 0.18971156 0.33731845 0.20620382 0.19213243 0.035034284 0.30573332
0.27594087 0.29199186 0.08352555 -0.04234877 -0.021609899 0.19640803 -0.17411801 0.11494832
-0.12998943 0.21128324 0.2474312 0.033136927 0.15514685 0.1399439 -0.16519995 0.102681465
0.05349365 0.03635451 0.19038112 0.04597047 0.093789905 0.10480503 -0.15934072 -0.19919641
-0.16711944 -0.04795331 0.120076336 0.16910163 -0.15585412 0.026073571 -0.18899755 -0.047975194
0.21796398 0.2584033 0.14392954 -0.10836773 0.07073726 0.091930635 -0.1280831 -0.17011806
0.017732846 -0.23723212 -0.05045833 0.049030285 -0.050359204 0.0500102 0.22412896 0.029724056
-0.12457072 -0.13646224 0.106039666 0.011229484 -0.053478148 -0.039506547 -0.06923196 -0.06325749
-0.22010434 -0.03905149 -0.056357138 -0.1375112 0.01190334 0.044041466 0.27440745 0.2681537
0.08386618 0.09118052 0.09188898 0.03449684 0.1566048 -0.040590122 -0.14860083 -0.15710886
0.2537428 0.13924682 -0.12697504 0.06502561 -0.092510715 -0.025762433 0.19341096 -0.20985204
0.13216245 -0.1148667 -0.21584295 0.3386587 -0.12661691 -0.038742788 -0.05407638 -0.1859688

U.1 f4 [1, 500]
00000000: 8ed8 63bd f2f9 793c 695e 9ebd fe10 66bd
00000010: dd78 ea3d 6c3c 363e 3be8 413e 458f b2bd
00000020: 32cc 053e cd03 5dbd 9fda aebc 61ac 323e
00000030: 9a9c 07be b849 90bd cf52 3dbe d119 2d3d
00000040: 02a4 983d 9cd8 eebd 7c7e fdba cc72 553e
00000050: 7ea9 ea3d c9af c5bc 4b11 aabc 45ae 7a3e
00000060: 0d0d 58bd ba3c 9bbd 8d8f 1e3e 29e3 193e
00000070: 27e8 df3d 326e f9bd 047d ccbd ca4a 023e
00000080: 82ce 0b3d d2fb 823c d8b3 fc3d 7cce fb3d
00000090: 3e14 18bc b8da 32be eb27 263e b298 573e
000000a0: 7ff3 043e b0c8 f53b d63e 9b3d aad8 07bd
000000b0: d57c 173d 643a 8ebc 8ea3 ea3d f832 653e
000000c0: 21f4 fcbd 61a2 483e b056 163d e9f9 9d3d
000000d0: c12b f43d 5cc5 eabd fc87 3abd 71ad 29be
000000e0: 6b30 c63d 10f6 053e 7fc8 a93d 6998 b9bd
000000f0: 6c35 33bc c9c0 133c ec8f 173e 5c2e 6d3d
00000100: 18b4 2e3d b7f6 543e 6b87 ae3d ca8f 71bd
00000110: f3bf f13d 2375 4e3c b74f 7d3d d92f 8cbd
00000120: 0a31 6d3e 0959 2e3e 5212 0bbe c30d 933c
00000130: d8d9 283e cfef 2637 69be 253d 09fc 8f3e
00000140: 5091 123d f439 b53c 41df 053e c89e afbd
00000150: 6e16 de3e 5002 643d 32e8 6c3e aa56 033d
00000160: e465 093e 16b0 a7bd 46c4 c4bd c954 063e
00000170: a127 ff3d 4b40 893e ffeb 7dbd 5523 3d3e
00000180: d390 07be 0137 92bc 525e 1dbd 2144 873e
00000190: 6cf4 a9bd 0092 a23e 82e3 693e 2da6 2cbc
000001a0: f7c6 8b3e 80ee 223e 9f88 05be 5a61 c9bd
000001b0: 1562 05be 9e74 28be 0b54 85bc 514c 0fbe
000001c0: 24c0 243d a77a fd3d e53e 113e 9aeb d93c
000001d0: a3d4 5dbd 75cf e7bd 8ebb 9cbd 9610 11be
000001e0: b993 c73d 7df4 f33d e61e 1fbb 1948 b0bb
000001f0: ca58 fb3d dc68 70bd d28b 40bd 36cf 2d3e
00000200: 065e 19bd a878 df3d f9ef ea3d 25ba ebbd
00000210: 4a59 50be 2d59 8bbd f518 dabc 630b a63c
00000220: e61e 683d 1bfa f7bd 52e8 f0bd 3d49 b3bd
00000230: e7cf d0bd f9ae 193d cddd 0abe e1a3 563d
00000240: a065 3ebe 1b4d 853d 5ddc 253e 71ac 1dbe
00000250: 1944 bc3d 6588 293e f838 4dbb 3727 4fbc
00000260: 2ce6 38bd c9a7 b73d 1bc0 f73d 8d1c f4bc
00000270: ae1c 2a3e ce83 38bd 58b8 16bd a0bb ae3d
00000280: ad98 693d e1dd 0b3e b1b5 13be a8af 863d
00000290: e8a8 133d b8d2 383e bf01 ce3d ba06 dc3d
000002a0: 808c a1bc 8054 eebd 42ac 7c3e ae8b b6bd
000002b0: bd6b 943e f902 603e 39ef 1c3e 7471 353d
000002c0: e4c0 4c3e 244b 4f3e cdec 6a3e 5aa0 6e3e
000002d0: f722 0b3e fcd6 493e 3723 863d e0f8 f53d
000002e0: 69d0 b5bd 6090 6e3c 2f1c 833d 24c1 e9bd
000002f0: 9369 b8bd b0fd d13d efb0 d53d be34 133e
00000300: 3a9e ee3d d9e4 4b3e f835 cf3e 3c2b f33d
00000310: 6edd ef3d 7399 a03d e651 953d 576c 37be
00000320: 9681 293e f6d2 473e 85ec de3d dc14 e33b
00000330: 7844 af3b 181b 13be 4f6a 173e 07be 2f3e
00000340: 65d9 9b3d 3424 d43b 57e6 da3b de4a f1bd
00000350: d585 bcbd d968 e63d 1ec5 ba3d bd30 97bd
00000360: a001 4e3e a578 533e a3d6 c63d 4c94 20be
00000370: b805 113e c4f2 eabd cb18 9fbb 266c 09bc
00000380: 8f30 413e a46a 24be 8198 fe3d 89fb 683e
00000390: 5a2d d03d fe6b 6a3e c812 aebd 7ac4 2a3e
000003a0: fc22 c0bd 4323 3cbc 3ab5 4a3e 6596 b2bd
000003b0: d27e 213d a4d4 7dbd e32c 17be 9349 9cbd
000003c0: 08d4 e9bd 7f02 77bd 87fe ec3b 695f 6fbd
000003d0: a460 1abe c5e1 613e 576a 4b3d cd9b 243d
000003e0: 3ea2 ecbd d6f2 f6bd 54a0 16bc c3e1 353e
000003f0: 4955 9dbd b673 283e b420 b8bd 4968 94bd
-0.055626445 0.0152573455 -0.07732851 -0.05616855 0.11448834 0.17796487 0.18936245 -0.08718733
0.13066176 -0.053958703 -0.021344481 0.1744857 -0.13243333 -0.07045311 -0.1848862 0.04226095
0.07453157 -0.11662409 -0.0019340063 0.20844573 0.11458109 -0.024131672 -0.020760199 0.24480541
-0.05274682 -0.07579942 0.15484448 0.15028061 0.109329514 -0.12179221 -0.09984782 0.12723842
0.034132488 0.015989218 0.1233899 0.12295243 -0.00928217 -0.17466247 0.16226165 0.21054342
0.12983511 0.0075007305 0.075803444 -0.03316561 0.036984283 -0.017361827 0.11456977 0.22382724
-0.123512514 0.19593193 0.036703765 0.07713682 0.11922408 -0.114634246 -0.04553984 -0.16570069
0.09677204 0.13082147 0.08290195 -0.09062273 -0.01093803 0.0090181315 0.14800996 0.05790554
0.04265222 0.20797239 0.08521923 -0.05897502 0.118041895 0.01260117 0.0618436 -0.06845064
0.23163238 0.17026152 -0.13581207 0.017950898 0.16489351 9.950206e-06 0.040464792 0.28121975
0.035783112 0.02212236 0.13073446 -0.08575207 0.43376487 0.055666268 0.2313545 0.03206507
0.13417774 -0.081878826 -0.09607749 0.1311828 0.124587305 0.26806864 -0.06199264 0.1847051
-0.1323884 -0.017848494 -0.03842003 0.26419166 -0.08298573 0.31752014 0.22840694 -0.010537666
0.27300236 0.15911293 -0.13040398 -0.098330215 -0.13025697 -0.16450736 -0.016275426 -0.13993956
0.040222302 0.1237691 0.14184149 0.026601601 -0.054157864 -0.11318866 -0.07652961 -0.14166483
0.09744973 0.11911867 -0.0024279892 -0.0053796885 0.122727945 -0.05869375 -0.047008343 0.16973576
-0.037443183 0.10911685 0.114715524 -0.115101136 -0.20346561 -0.06804118 -0.026623229 0.020269101
0.056670092 -0.12108251 -0.117630616 -0.087542035 -0.10195904 0.037520383 -0.13561173 0.05240238
-0.18593454 0.06508847 0.16197343 -0.15397812 0.09192676 0.16555937 -0.0031314474 -0.012643627
-0.045141384 0.08967549 0.12097188 -0.02979877 0.16612503 -0.045047574 -0.036796898 0.085318804
0.05703037 0.13658859 -0.14424779 0.065764725 0.036049753 0.18049133 0.10058927 0.107434705
-0.019720316 -0.11637211 0.24675086 -0.089133605 0.28988448 0.21876134 0.15325631 0.04429765
0.19995457 0.20243508 0.22941895 0.23303357 0.13587557 0.19710916 0.065496854 0.1201036
-0.08877642 0.014560789 0.0640186 -0.11413792 -0.09004512 0.10253465 0.10434138 0.14375588
0.11651273 0.19911517 0.40470862 0.11873481 0.11712156 0.07841768 0.072910115 -0.17912422
0.1655334 0.19514069 0.10884956 0.006929977 0.0053487383 -0.14365804 0.14786647 0.17162333
0.07609824 0.0064740423 0.0066802907 -0.11781858 -0.09205214 0.11250467 0.09119628 -0.07382343
0.20117807 0.20651491 0.097089075 -0.15681571 0.14162338 -0.11472085 -0.0048552505 -0.008387601
0.1886618 -0.16056305 0.124314316 0.22752203 0.101649 0.22892758 -0.08499676 0.16676512
-0.09381673 -0.011483016 0.19795695 -0.08720092 0.039427586 -0.061970368 -0.14763217 -0.07631221
-0.11417395 -0.060305115 0.0072324905 -0.0584406 -0.15075928 0.2205878 0.04966196 0.040187646
-0.11554383 -0.12058036 -0.009193499 0.17761903 -0.076822825 0.1645039 -0.089906126 -0.07246453

bias.0 f4 [200]
00000000: efa1 5cbe ebe7 503d 7b1f 5e3e 3660 14bd
00000010: 9427 25be 5c46 c0be ebc7 b83e 573a f1bc
00000020: 220e 78bd fd9f f33d 868a abbe c91c d73e
00000030: 81e9 943e f22f a63e 9a45 92be 936f 09bf
00000040: 1b37 dbbe 7d99 8f3e edb3 b3be 0255 933d
00000050: 73fd debe 7111 d5be 20f4 9fbe 5988 d7be
00000060: 094a d13e c27f 0c3e 2bd6 87be 092e 52be
00000070: 4b1c c9be 88e0 d93e 94f4 98be cc44 883e
00000080: b69b f63d 4b19 cd3e f8e3 183e 186d 09be
00000090: 39b2 90be d5a7 ecbd 5c74 debe 7b95 233d
000000a0: 3212 b7be 46d3 a1be 1de3 ed3e cf86 babe
000000b0: 21d5 c0be 9014 92be 4a01 9f3e a774 57bd
000000c0: e229 d83d 6c96 95be 4dff 573e 71a1 36be
000000d0: 7711 d03e 72f5 123e f739 c1be e3dd 743e
000000e0: fac4 e0be 75c3 c53e f7cc a23e 878b 89be
000000f0: 97bc debc ee47 2f3e e37e 38be 8f30 29be
00000100: 8ed3 1cbe ace0 2abd 97ba 963e ad49 3b3e
00000110: 61a5 b83e 9915 eebd 808d 9d3e 4913 433e
00000120: 7ef0 ca3c a719 673e 3f43 8c3c 08f6 30be
00000130: daa0 433d 2b6b 8c3b 68fa 6d3e 9de7 9d3d
00000140: 3879 92be b06c 933e 2d9d d9bd ad7e 90be
00000150: 3119 883e bf9b 13be f865 1f3e d1b8 b0be
00000160: 2a41 8fbe 4216 c8bd 8ddb 223d 0b01 913e
00000170: b4f0 e8be 9e7b 2fbe f2df 7ebe 7efc bf3e
00000180: 82d6 b1be 636e 38bd b43d 413e e008 69bd
00000190: 36b4 8ebe 12d2 413e 3859 75bc 0134 193e
000001a0: 8a05 963e 6194 7c3e 8232 be3e c8b9 83be
000001b0: 7f74 a43e fa34 7f3e 03b8 16be 7b0b 823e
000001c0: 7661 de3e 65eb a1be 472e b83e 04f2 e83d
000001d0: 71cc a2be ae1c 49be 689f cebd 65c0 a0be
000001e0: 20fc 4dbd 4731 5fbd 97a7 d9bd 4da8 9a3e
000001f0: 3bb9 8dbe ac38 c1be 283e 0a3e 391d 10be
00000200: 9d82 803d 47a3 aa3e 1c4b 903e eea5 8f3e
00000210: 61d2 2cbe b472 583e 37a7 67be ba8d a33e
00000220: a03e 39bc f986 90be 7cc0 ba3e c86d 00be
00000230: be81 1bbd 6ffc a7be 56ac 7fbe 4985 983e
00000240: 2e51 d3be cca2 7ebe 2c30 1c3e 2d08 babe
00000250: 450d b8bd e654 d1bd 41fc a23e 02b5 3a3e
00000260: 00a0 cdbe c1cb 923d e0da 213e e657 08be
00000270: 48c3 1abe 38e3 7ebd 61e5 97be 1139 56be
00000280: 49d1 093e fcac 513e b67e 64be 45c9 c43c
00000290: 3f46 2d3e 629f e93d 697a 8fbd f6c2 98be
000002a0: ee5e 0f3e 03bd 84bd 1fd8 c03e 4275 bf3d
000002b0: 89ca ce3e f872 473e e2f9 57be 57ba b73e
000002c0: 25d1 203d fc75 923e 2ec7 2f3e 2bb1 dfbd
000002d0: fccf 403d 08a1 e2bc 088a 93be 37f2 ccbd
000002e0: b883 be3d 58bd 323e 3fa7 16bc fc94 293e
000002f0: e18b c33e cc0b 803c 2b80 8cbd fa43 c53e
00000300: 1317 69bd ea6b 433d 9a79 493e ed66 2dbb
00000310: 43f4 a33e 480d 8f3d 0b72 f53e d697 7abb
-0.21546148 0.051002424 0.21691696 -0.036224566 -0.16128379 -0.3755368 0.36090025 -0.029446764
-0.060560353 0.1189575 -0.33504122 0.4201415 0.290844 0.32458454 -0.28568727 -0.53685874
-0.4281548 0.2804679 -0.3509821 0.07193948 -0.4355274 -0.4161487 -0.3124094 -0.42096213
0.40876797 0.1372061 -0.26530585 -0.20525374 -0.39279398 0.42554116 -0.29874098 0.26614988
0.12041418 0.4005836 0.14930713 -0.13420522 -0.28260973 -0.11555449 -0.4344815 0.039937478
-0.3575607 -0.316065 0.46462336 -0.36430976 -0.37662604 -0.28531313 0.3105567 -0.052601483
0.105548635 -0.29216325 0.21093483 -0.17835023 0.40638325 0.14351442 -0.37739536 0.23912768
-0.4390028 0.38625684 0.31797 -0.26864263 -0.027189536 0.17117283 -0.18017153 -0.1652243
-0.15315077 -0.04171817 0.29439232 0.18289824 0.36063674 -0.11625213 0.30772018 0.19050325
0.024772879 0.2256838 0.01712191 -0.17281353 0.047760822 0.0042852364 0.23240054 0.07710192
-0.28608108 0.2879386 -0.10625682 -0.28221646 0.2658172 -0.14414881 0.15566242 -0.34516004
-0.27979404 -0.0976987 0.03976016 0.28321108 -0.45496142 -0.17137 -0.24890116 0.37497324
-0.3473397 -0.045027148 0.18871194 -0.05689323 -0.27871865 0.18927792 -0.014974885 0.14961244
0.293011 0.24665977 0.3714791 -0.25727677 0.3212013 0.24922553 -0.14718632 0.25399384
0.43433732 -0.31624904 0.35972807 0.11374286 -0.317966 -0.19639847 -0.10088998 -0.31396785
-0.050289273 -0.054490354 -0.10627668 0.30206528 -0.27680382 -0.3773855 0.13500273 -0.14073648
0.062749125 0.33327696 0.28182304 0.28056282 -0.16877128 0.21137506 -0.22622381 0.31944066
-0.011306435 -0.28227976 0.3647498 -0.12541878 -0.03796553 -0.3280978 -0.24968085 0.29789189
-0.41272873 -0.2486679 0.15252751 -0.36334363 -0.08986906 -0.10221271 0.3183308 0.18233112
-0.40161133 0.07167769 0.1580615 -0.1331478 -0.15113556 -0.06222841 -0.2966719 -0.20920207
0.13458742 0.20476145 -0.22313961 0.024021754 0.16921328 0.11407353 -0.0700577 -0.29836243
0.14001057 -0.064813636 0.37664887 0.09348537 0.40388897 0.19477451 -0.21091416 0.35884354
0.039261956 0.2860564 0.17165825 -0.10922464 0.04707335 -0.027664676 -0.28816247 -0.10007136
0.09302467 0.17455041 -0.009195148 0.1656074 0.38192657 0.015630625 -0.068603836 0.38528425
-0.05690677 0.047710337 0.19675294 -0.0026459054 0.32022294 0.06984955 0.4793857 -0.0038237474

bias.1 f4 [500]
00000000: 832f c1be c4af a3be 5887 93bd 4764 a13d
00000010: cbe3 b2be 4262 2ebe d89c b7be dabe 41bd
00000020: 9fb5 6d3e 5f44 b53e c0df 253e 9909 c3be
00000030: 0396 f13d 2a50 7cbd dc2f 71be 949b a9be
00000040: 63dd cb3a 88df 92be 5de2 f4bd 2dbe 80be
00000050: 8c87 043e ea3b bc3e 5b02 1e3e 5d93 4dbe
00000060: 3c2e 9fbe eadd 663e 22c7 1bbe 97be 9abc
00000070: 5cd6 2fbe fc44 d2be ccb9 303d 283a 25be
00000080: 8079 84be e1cf 1f3e da68 9fbe 4624 bf3e
00000090: 298e 893e 5cd1 c2bd fc79 b2bc 39e0 afbe
000000a0: 9f34 3e3e c251 c53d b27e 543e 9e5a c53e
000000b0: 8c89 89be 4c61 b63e 64ac ac3d 7c6b 9dbe
000000c0: 52d2 513e 32bd a6bb 36cc a0be 0416 cfbe
000000d0: b8ad 86be 6cac adbd 5b08 d5bd 3d72 f3bd
000000e0: bbe9 88bd c4e1 c73a 61fe 66bc 16cc d0bd
000000f0: 4c5b 4ebd f8e9 88be ec15 57bd 4b41 4ebe
00000100: f88d 3ebe 47c8 73be 42bf c3bd 41fa 093e
00000110: 1ba1 963e 6661 2fbe 3b62 963e 6831 49bd
00000120: 9f6a 42bc a4e4 a63e 27cb a93e 306b ff3e
00000130: f597 e53d 3129 d73e d14a 00be f780 fa3d
00000140: 91aa 503e 0b91 41be 90e2 b0be e9e0 113e
00000150: 7e37 3cbe 1c96 37bd 5cce ab3d eddc e23e
00000160: ccde 043d c3c9 e5be 77a1 c7bc fd37 db3e
00000170: f904 603e d8de 80be 23db d53e e584 cabe
00000180: 1089 94be ffe6 93bd f3b4 e03e e82f 58be
00000190: d460 c83e 3477 133c 0cae 07be 7400 13be
000001a0: b346 5dbe 57c6 11bd 7324 63be b13d 593c
000001b0: 43c7 7bbe 321f 893e 5372 8abd 79dd 97bd
000001c0: 3cd9 afbe faa8 7ebd 2611 3a3d 598a 9abe
000001d0: 962f 473e 0b0b d2be 3aff 623d bfca 41be
000001e0: 4f7a 5dbd f151 9e3e 6967 803e 232f 323e
000001f0: 3c93 a23e 42f3 bbbe eccf ef3e ed74 06be
00000200: bda2 f1bd b492 81be ad9b da3c 9de7 ed3e
00000210: 10db d23d c4d8 c5bd e0d6 493d 8084 97be
00000220: 3050 c23e b270 a8bd 8c6e b53e 4f0f a0be
00000230: 0c49 c1be 6c9a c93e bf1a ac3e 233e a2be
00000240: b0cd a0be 00df 813e 8629 3b3d 8b40 cbbe
00000250: a52e cfbe 120f 2dbe e782 963e e56e 6d3e
00000260: a5fc c63e 7cb9 1a3d ad12 40be fa50 9f3c
00000270: dcb5 1fbd d580 a83c aebe 753e 047e 2b3d
00000280: 049d 6cbe 2bfe c5be d4a6 7abd 5f0f a3be
00000290: 3848 853e c888 ce3d f580 d6be 802b 19be
000002a0: d565 853e 2f77 14be b71a 1fbd 45d6 84be
000002b0: 7556 4a3d b7cb 08be 5390 66bd 054d 64be
000002c0: 482d 85bc 6a68 8dbe f891 d5bc 0027 c139
000002d0: 725e 2bbd 609f bcbe 21c7 e9bd 1ebb 8e3e
000002e0: ccd3 c2be 22c2 33be bdff b13e fb4f f93d
000002f0: 95b9 5cbe 1504 c53e 1bbf 863e 74ef 82bd
00000300: e175 ee3d a6c6 9e3d e839 81be 82d6 853e
00000310: a161 c0be 5328 68be 0470 643e 2436 46be
00000320: f8cf c0be 6e0f e4bd 33ee b3bd b36d a5be
00000330: 2932 883e bfc0 da3e 2fb5 dfbd 9a55 d4bd
00000340: dda9 5bbe 2ee5 a23e 2e98 9f3e d657 9e3d
00000350: 8c30 9e3e 740f a4be 6a1c 333d b592 99bd
00000360: 3c54 553d bb16 68be 0ed6 443e 51c3 ae3e
00000370: 472c bb3d 451f 6bbe 7b5f 38be e142 a73c
00000380: 9900 5dbd 555c 533e 219f 86be 5a0d a0be
00000390: aaa6 23be 3432 a13e 2aa1 ccbe a793 833e
000003a0: 381f b63e b09f 5dbe 8826 b9be 2c05 3bbe
000003b0: 0042 74bd fe15 76be 4d28 ac3e cb55 52be
000003c0: ae59 d4be 8080 9d3e 7384 e5be 36cf 9cbd
000003d0: fd44 b6be 6be2 ddbd 1aa9 133e e940 16be
000003e0: 4f73 ff3d a3d7 713e 1526 c23d 8eaf b33d
000003f0: dcfb 7cbe 96d1 e93e a7c7 783d 1878 943e
-0.3773156 -0.31970036 -0.07203549 0.078804545 -0.34939417 -0.1702967 -0.3586185 -0.04730115
0.23213814 0.35403726 0.16198635 -0.3809326 0.117961906 -0.061599888 -0.23553413 -0.3312651
0.0015553649 -0.28686166 -0.11957238 -0.25145093 0.12942332 0.3676446 0.15430586 -0.20075746
-0.31089962 0.22545591 -0.15212682 -0.018889708 -0.17171615 -0.41068256 0.04314594 -0.16135466
-0.25873947 0.15606643 -0.31134683 0.37332362 0.26866272 -0.095125884 -0.021786682 -0.34350756
0.18574761 0.09634735 0.20751455 0.38545698 -0.26862752 0.35621107 0.084313184 -0.30746067
0.20490387 -0.005088472 -0.314058 -0.40446484 -0.26304412 -0.084801525 -0.10401984 -0.118870236
-0.066852055 0.0015249779 -0.014098735 -0.10195176 -0.050380036 -0.26741004 -0.05251114 -0.20142095
-0.18608844 -0.23806868 -0.09557964 0.1347437 0.2941979 -0.17126998 0.2937182 -0.049119383
-0.011866241 0.32596314 0.33162805 0.49886465 0.11210624 0.42023614 -0.1252854 0.12231629
0.20377566 -0.18902986 -0.34547853 0.14245953 -0.18380544 -0.04482089 0.08388969 0.44309178
0.03243904 -0.44880494 -0.024368985 0.42816153 0.21876897 -0.25170016 0.4176875 -0.39554515
-0.2901082 -0.072217934 0.43888053 -0.21112025 0.39136374 0.009000588 -0.13249987 -0.14355642
-0.21609001 -0.035589542 -0.22181873 0.013259337 -0.24587731 0.26781613 -0.06760087 -0.074152894
-0.34345424 -0.062172867 0.04542651 -0.30183676 0.19451746 -0.4102405 0.055419184 -0.18924998
-0.05407172 0.3092189 0.25078896 0.17400794 0.31752956 -0.36709028 0.4683832 -0.13130541
-0.11798618 -0.25307238 0.02668556 0.4646577 0.10295689 -0.096604854 0.049277186 -0.29593277
0.37951803 -0.0822462 0.35435903 -0.3126168 -0.37751043 0.39375627 0.33614156 -0.31688032
-0.31406927 0.25365448 0.045693897 -0.3969768 -0.40465274 -0.1690028 0.29396746 0.23186834
0.38864627 0.037774548 -0.18757124 0.019447792 -0.038991794 0.020569244 0.2399852 0.041868225
-0.23106772 -0.38670477 -0.061194256 -0.31847665 0.2603166 0.10084683 -0.4189526 -0.14958
0.26054254 -0.1449859 -0.038843837 -0.25944725 0.049398858 -0.13358961 -0.056289982 -0.22295006
-0.016256943 -0.27618724 -0.02607058 0.00036840886 -0.041838117 -0.36840343 -0.11414934 0.27877134
-0.38052213 -0.17554525 0.34765425 0.12173458 -0.21555169 0.38479677 0.26317677 -0.06393328
0.11643577 0.07752733 -0.2523949 0.2614022 -0.37574485 -0.22671632 0.22308356 -0.1935659
-0.37658668 -0.111357555 -0.08785667 -0.32310256 0.2660077 0.4272518 -0.1092323 -0.1036789
-0.21451516 0.31815475 0.3117079 0.07731597 0.30896413 -0.3204304 0.04372827 -0.07498685
0.052082285 -0.22664921 0.1922228 0.3413339 0.091393046 -0.22961147 -0.18005173 0.020417633
-0.053955648 0.2064069 -0.2629328 -0.31260186 -0.15981546 0.31483614 -0.39966708 0.25698587
0.35570693 -0.21642947 -0.3616221 -0.18263692 -0.059633255 -0.24031827 0.33624497 -0.2054054
-0.4147467 0.307621 -0.44827613 -0.0765671 -0.3559951 -0.108342014 0.14419976 -0.14673199
0.12473165 0.23617415 0.0947992 0.08773719 -0.24705452 0.45667714 0.06073728 0.28997874
