LYAP_CP_m-fwd_d-20_s-0.005_seed4.pt (torch, 421641 bytes, 7 tensors)

W.0 f4 [200, 5]
0.3223374 -0.19938308 -0.31530184 -0.34571624 -0.85832506 -0.48993188 0.78032535 0.1600223
0.3178109 -0.07377495 -0.27182746 -0.5340232 0.43691617 -0.19508538 -0.3333582 0.5927006
0.0755142 -0.39444548 0.00044408618 -0.89229053 -0.16891475 -0.52704436 0.2258872 -0.15719208
-0.09623196 -0.012977188 0.47614235 0.104554184 0.5711441 -0.5802613 0.11306383 0.58034986
-0.20104906 0.448073 -0.05749695 -0.31381917 0.03609925 0.48951724 0.2299592 -0.3032779
0.15120323 0.12643693 0.14159904 -0.046434842 -0.591962 0.51377946 0.08269741 -0.35248154
0.017718721 -0.074652806 -0.44115323 0.08020233 0.01765361 -0.17839555 -0.7404392 -0.35972545
0.071050934 0.17363776 0.26299956 -0.22368906 -0.07272405 0.5075636 -0.28325367 0.41938457
-0.34328285 0.36469772 0.450189 -0.2691219 0.15677688 -0.43805668 0.2367484 -0.7293567
-0.028595055 -0.41323638 -0.64238757 0.2683837 0.05540413 -0.04920445 0.08826153 -0.73779625
0.12388656 0.21225797 -0.037098404 -0.12661934 -0.40175578 -0.07618709 0.07744533 -0.0484219
-0.07570638 -0.71580297 -0.24051793 0.480843 0.12857302 0.49811545 -0.07432671 -0.26312757
-0.2467825 0.423809 0.21469893 -0.67656285 -0.39777735 0.21910219 0.123392746 0.17897822
-0.70613945 0.26004836 -0.8525146 0.02480808 -0.26632816 -0.5885695 0.44132763 0.23884152
-0.17862739 -0.12134217 -0.44661406 0.2850939 0.25589007 0.022284834 0.17961171 -0.25211316
-0.18951316 -0.559406 0.261833 -0.115822315 -0.24164534 -0.21837245 -0.28755918 0.091771185
-0.07942566 -0.20871308 0.045545414 0.30600703 -0.19391194 0.11565518 -0.26890242 0.025944468
0.6277036 -0.14567547 0.48648098 -0.6113669 0.22870517 0.38786137 -0.23847035 0.17786813
-0.17096196 0.14980234 0.24686453 0.100904755 0.1711361 -0.3447554 0.11833401 0.43476954
-0.2590383 0.14926925 -0.6209167 -0.25546095 -0.70191944 0.4849735 -0.1525689 -0.44358778
0.21063995 0.006525325 -0.11343285 -0.12846993 -0.76161516 -0.3743154 0.019358277 0.13229242
0.091647856 -0.76701224 0.4147266 0.04013627 0.08000587 0.1368834 -0.60695106 0.07378204
-0.11319889 -0.20069905 -0.0753394 -0.04499432 0.4010458 -0.3199126 -0.21990018 -0.40203762
-0.5990223 0.04242129 0.37662816 0.002577976 0.30428854 -0.7509487 -0.22322322 -0.0074813613
0.18103643 -0.121812 -0.27678567 0.17913568 0.17794634 0.29777554 0.249859 -0.85627246
0.36855516 -0.2308781 0.28080973 0.058739405 -0.69028246 0.035578653 -0.25990587 0.18519181
0.03318189 -0.2664633 0.21577728 0.18123455 0.047148664 0.26853696 -0.23781183 0.22394921
0.54027003 -0.22793058 0.13994479 -0.0723543 0.49237132 -0.8623145 -0.16820598 -0.3386479
-0.3701121 0.1792801 0.5110139 -0.37789744 0.10375797 -0.17671432 -0.07208881 0.10075239
0.30206323 0.22133869 -0.31000823 0.3251487 -0.34645382 -0.2317135 -0.3013155 -0.0027128865
-0.058678612 0.47225463 -0.12720028 0.31957147 -0.26496297 0.15542364 -0.54607415 0.055899885
-0.48822358 -0.28708476 0.2725505 0.31173483 -0.20355985 -0.12866928 -0.8281709 -0.33253822
00000000: 6809 a53e 142b 4cbe 3e6f a1be b801 b1be
00000010: 31bb 5bbf 5ad8 fabe 67c3 473f e3dc 233e
00000020: 1cb8 a23e 5217 97bd f82c 8bbe bfb5 08bf
00000030: 7ab3 df3e 76c4 47be edad aabe 3abb 173f
00000040: 30a7 9a3d c2f4 c9be 3dd4 e839 276d 64bf
00000050: fdf7 2cbe 61ec 06bf f94e 673e f6f6 20be
00000060: 4315 c5bd 469e 54bc eec8 f33e 8120 d63d
00000070: 8036 123f 018c 14bf 028e e73d cf91 143f
00000080: cedf 4dbe d369 e53e ec81 6bbd e8ac a0be
00000090: cfdc 133d 01a2 fa3e 6d7a 6b3e 3e47 9bbe
000000a0: 05d5 1a3e af78 013e 57ff 103e 7632 3ebd
000000b0: d28a 17bf 0d87 033f 425d a93d 7678 b4be
000000c0: da26 913c 92e3 98bd d6de e1be 1f41 a43d
000000d0: 4e9e 903c 53ad 36be 6c8d 3dbf ef2d b8be
000000e0: 2783 913d 19ce 313e e1a7 863e bf0e 65be
000000f0: 59f0 94bd b0ef 013f a006 91be 93b9 d63e
00000100: c5c2 afbe a9b9 ba3e 2c7f e63e 58ca 89be
00000110: 1e8a 203e f748 e0be 2c6e 723e 1fb7 3abf
00000120: 2d40 eabc b893 d3be 8373 24bf 9769 893e
00000130: 71ef 623d 9b8a 49bd 76c2 b43d 37e0 3cbf
00000140: 3db8 fd3d 275a 593e 7ff4 17bd 80a8 01be
00000150: efb2 cdbe fa07 9cbd a89b 9e3d 0b56 46bd
00000160: f20b 9bbd dd3e 37bf 554a 76be 0e31 f63e
00000170: a5a8 033e fd08 ff3e 9a38 98bd a8b8 86be
00000180: 8db4 7cbe 7efd d83e 09da 5b3e 3933 2dbf
00000190: 79a9 cbbe 535c 603e 56b5 fc3d 1146 373e
000001a0: 8ec5 34bf 0f25 853e 663e 5abf 513a cb3c
000001b0: 2a5c 88be 7eac 16bf b2f5 e13e df92 743e
000001c0: 19ea 36be 3e82 f8bd 99aa e4be d4f7 913e
000001d0: 0604 833e af8e b63c 22ec 373e fa14 81be
000001e0: bd0f 42be 3b35 0fbf fa0e 863e 4034 edbd
000001f0: e071 77be 079d 5fbe f53a 93be 88f2 bb3d
00000200: eca9 a2bd e2b8 55be d48d 3a3d f4ac 9c3e
00000210: da90 46be 9fdc ec3d 94ad 89be 7e89 d43c
00000220: 2fb1 203f f32b 15be 0914 f93e 8b82 1cbf
00000230: b031 6a3e c495 c63e 9231 74be 1023 363e
00000240: a710 2fbe c965 193e 0eca 7c3e 27a7 ce3d
00000250: 4d3e 2f3e c883 b0be 1a59 f23d 1d9a de3e
00000260: aba0 84be 0ada 183e 66f4 1ebf c7cb 82be
00000270: feb0 33bf 724e f83e 063b 1cbe f01d e3be
00000280: 00b2 573e 65d2 d53b 7b4f e8bd 9f8d 03be
00000290: 36f9 42bf 45a6 bfbe 4095 9e3c aa77 073e
000002a0: dfb1 bb3d ea5a 44bf 0b57 d43e ee65 243d
000002b0: 1eda a33d 292b 0c3e 2561 1bbf 0a1b 973d
000002c0: d2d4 e7bd 0d84 4dbe 8b4b 9abd f74b 38bd
000002d0: e055 cd3e 96cb a3be 832d 61be e0d7 cdbe
000002e0: 8759 19bf f2c1 2d3d 68d5 c03e 43f3 283b
000002f0: b5cb 9b3e 2d3e 40bf a194 64be 3526 f5bb
00000300: 9d61 393e 9278 f9bd dab6 8dbe 586f 373e
00000310: 9137 363e 0976 983e 0adb 7f3e ac34 5bbf
00000320: 43b3 bc3e 4f6b 6cbe 4bc6 8f3e bb98 703d
00000330: 5ab6 30bf ecba 113d 6212 85be eca2 3d3e
00000340: bce9 073d e16d 88be b8f4 5c3e 8d95 393e
00000350: f51e 413d ad7d 893e f284 73be f152 653e
00000360: 234f 0a3f a266 69be b04d 0f3e 7e2e 94bd
00000370: 1818 fc3e a5c0 5cbf 303e 2cbe 4263 adbe
00000380: 557f bdbe 3495 373e cfd1 023f c67b c1be
00000390: 0f7f d43d 99f4 34be 4ca3 93bd 4557 ce3d
000003a0: 08a8 9a3e 9ca6 623e 66b9 9ebe e479 a63e
000003b0: 6562 b1be 4e46 6dbe 0646 9abe afca 31bb
000003c0: fc58 70bd 5ccb f13e ca40 02be df9e a33e
000003d0: 3aa9 87be 6027 1f3e 84cb 0bbf 47f7 643d
000003e0: 71f8 f9be c6fc 92be bd8b 8b3e b59b 9f3e
000003f0: fe71 50be e1c1 03be 0203 54bf 7342 aabe

W.1 f4 [500, 5]
-0.1875348 0.31560254 0.28567868 0.5078043 -0.23136391 -0.21337058 -0.20131472 -0.02085927
-0.28103814 -0.50675994 -0.23700924 -0.33949602 0.08156651 -0.2917566 -0.14565349 0.29128036
0.343877 -0.18073453 0.056605663 -0.49659526 -0.04793929 -0.7182272 0.194812 -0.50739056
-0.009461404 0.09270774 -0.41387647 -0.19994292 -0.54146713 -0.24054514 0.11173927 0.21379827
-0.108701035 0.0947778 -0.8421399 0.10808832 -0.381279 -0.17070477 -0.5889284 -0.22082627
-0.42276427 -0.035481326 0.017190082 0.07001115 -0.077371605 -0.24543278 0.5299563 0.087051116
0.38173696 -0.7043841 -0.30314404 -0.43217245 0.31254262 -0.24400072 -0.5664147 0.4247862
0.01970988 -0.091041334 -0.18740359 -0.34460285 -0.3662258 -0.19628549 -0.081966095 -0.24445008
-0.16146605 0.012309405 -0.6015032 0.3280889 -0.42978734 0.0013048443 0.25883937 0.6022764
-0.40106285 0.14472288 -0.6718619 0.2691006 -0.5561796 -0.19713695 -0.5735984 -0.34954724
0.2072951 0.80899817 -0.37725958 0.092044935 -0.9503383 -0.19659887 0.1094302 -0.39117
-0.051388964 -0.61521393 -0.18222815 0.2685237 0.24368942 0.2276037 -0.69534653 0.016213473
0.68723625 -0.22599272 0.373774 -0.3875573 0.02973194 0.6545973 -0.08056429 0.5828204
-0.44644776 0.010304161 -0.3130013 -0.04388446 -0.3169204 -0.760469 0.12323108 -0.03707809
0.5389584 0.1218566 -0.5350139 -0.13506207 -0.24687561 0.1974524 -0.069194846 -0.29731148
-0.18647532 -0.045802724 -0.4892626 -0.28073046 -0.7821534 0.37035954 0.27989167 -0.14812453
0.07607344 -0.29660484 -0.13493155 -0.56826675 0.25517178 -0.5827996 -0.44736794 0.42920065
-0.06484284 0.16941987 0.11154972 -0.248773 0.068790786 -0.5213683 0.16868629 -0.49565765
-0.7045855 -0.051089734 0.09556126 -0.14275919 0.09604122 -0.8557203 -0.24398036 -0.3116933
-0.1336769 -0.5218339 -0.07663198 0.20788181 0.04373959 -0.30754322 -0.117957324 -0.5643528
0.39787242 0.110668845 -0.28071785 0.027791817 -0.5508994 0.20024167 -0.18951453 -0.071423315
-0.12568164 -0.38841766 0.17165597 -0.4711798 -0.027830135 -0.535287 -0.16598628 0.14260143
-0.11793667 0.465362 0.2126963 -0.19920106 -0.20209697 -0.60548896 0.17661968 -0.43378875
-0.096474275 -0.5149127 0.017330172 -0.27425888 -0.14624576 -0.1608699 -0.06315617 0.6018495
-0.1125853 0.28600374 -0.72807 -0.05794602 -0.53687406 0.03830352 -0.28320155 -0.4263706
-0.41682306 0.11939198 0.5038174 0.28678855 -0.31520095 -0.27347225 0.15658964 0.004783533
0.03786336 -0.43420526 0.070789956 -0.41493854 0.25943106 -0.43808213 -0.20398442 -0.013087349
0.5810461 -0.16839537 0.40041614 -0.44508263 0.0036904297 -0.05062957 -0.13719356 -0.24220352
-0.703666 0.16865909 -0.22682868 -0.254342 -0.41591522 -0.56025183 -0.19015932 -0.78869027
0.32416883 -0.3009319 -0.51670724 -0.1878944 0.08919944 0.05364705 0.08756811 -0.5404888
0.02728915 0.38410202 0.05280045 0.34994712 -0.42838445 -0.023069145 0.18711913 -0.42462716
-0.08903598 -0.26907077 -0.25340986 0.18560374 0.54864657 0.47237116 -0.8764898 0.00084347586
00000000: 1f09 40be a896 a13e 7a44 923e 76ff 013f
00000010: a9ea 6cbe d17d 5abe 7225 4ebe 0fe1 aabc
00000020: 3be4 8fbe 05bb 01bf 8db2 72be 6cd2 adbe
00000030: 580c a73d 1f61 95be 3026 15be b322 953e
00000040: a510 b03e 7912 39be 57db 673d bc41 febe
00000050: fd5b 44bd bddd 37bf cc7c 473e 59e4 01bf
00000060: 0104 1bbc 8edd bd3d 9ee7 d3be d6bd 4cbe
00000070: 979d 0abf 7751 76be 8fd7 e43d efed 5a3e
00000080: a69e debd dd1a c23d 7b96 57bf 695d dd3d
00000090: 0037 c3be 3bcd 2ebe 03c4 16bf 4820 62be
000000a0: 8f74 d8be de54 11bd 37d2 8c3c 0162 8f3d
000000b0: 0175 9ebd bb52 7bbe 37ab 073f db47 b23d
000000c0: 0773 c33e 8452 34bf b235 9bbe b545 ddbe
000000d0: 9605 a03e 53db 79be 8e00 11bf 947d d93e
000000e0: 9d76 a13c e173 babd bae6 3fbe c96f b0be
000000f0: f381 bbbe 10ff 48be d7dd a7bd 1f51 7abe
00000100: 5b57 25be 63ad 493c 1dfc 19bf 45fb a73e
00000110: 160d dcbe 4f07 ab3a 9886 843e c92e 1a3f
00000120: 1c58 cdbe 3c32 143e 24ff 2bbf 8ec7 893e
00000130: c961 0ebf 45de 49be 58d7 12bf dbf7 b2be
00000140: 2b45 543e 811a 4f3f 2b28 c1be 0e82 bc3d
00000150: 5f49 73bf 3751 49be f11c e03d 6f47 c8be
00000160: 3c7d 52bd a97e 1dbf 049a 3abe f07b 893e
00000170: b889 793e f210 693e 3b02 32bf 1ed2 843c
00000180: b7ee 2f3f a36a 67be 4e5f bf3e e96d c6be
00000190: 6690 f33c b093 273f e4fe a4bd b833 153f
000001a0: cd94 e4be c9d2 283c b541 a0be 31c0 33bd
000001b0: 6443 a2be 19ae 42bf 9460 fc3d 32df 17bd
000001c0: 2df9 093f f48f f93d acf6 08bf b64d 0abe
000001d0: f6cc 7cbe f630 4a3e 07b6 8dbd 3639 98be
000001e0: 63f3 3ebe a39b 3bbd a180 fabe e7bb 8fbe
000001f0: 353b 48bf c49f bd3e f64d 8f3e f5ad 17be
00000200: 64cc 9b3d 97dc 97be 7f2b 0abe ee79 11bf
00000210: e0a5 823e 5b32 15bf 690d e5be 30c0 db3e
00000220: 53cc 84bd 677c 2d3e 2e74 e43d 59be 7ebe
00000230: 2fe2 8c3d 6578 05bf 19bc 2c3e d7c6 fdbe
00000240: b75f 34bf 7843 51bd 9fb5 c33d 772f 12be
00000250: 42b1 c43d 7c10 5bbf fdd5 79be 4496 9fbe
00000260: 99e2 08be e896 05bf 3af1 9cbd f8de 543e
00000270: 4928 333d 4e76 9dbe 9c93 f1bd 6d79 10bf
00000280: efb5 cb3e 59a6 e23d 40ba 8fbe aaab e33c
00000290: be07 0dbf 270c 4d3e 1910 42be 6346 92bd
000002a0: b0b2 00be aede c6be 95c6 2f3e 7b3e f1be
000002b0: 06fc e3bc 9208 09bf 4ff8 29be 1c06 123e
000002c0: c888 f1bd ee43 ee3e 0fcd 593e 5dfb 4bbe
000002d0: 82f2 4ebe 5301 1bbf cadb 343e 8f19 debe
000002e0: 4e94 c5bd 52d1 03bf 01f8 8d3c a96b 8cbe
000002f0: 73c1 15be 14bb 24be 0658 81bd cf12 1a3f
00000300: 1f93 e6bd 156f 923e cc62 3abf ce58 6dbd
00000310: 9470 09bf 27e4 1c3d cbff 90be 3f4d dabe
00000320: d569 d5be c883 f43d 2dfa 003f f3d5 923e
00000330: 0562 a1be 8e04 8cbe 0959 203e 2fbf 9c3b
00000340: 9c16 1b3d 2750 debe 53fa 903d d372 d4be
00000350: 26d4 843e 4d4c e0be 4be1 50be 526c 56bc
00000360: 70bf 143f d66f 2cbe 5803 cd3e dfe1 e3be
00000370: 23db 713b f460 4fbd 787c 0cbe 3304 78be
00000380: 7423 34bf f8b4 2c3e c745 68be 1d39 82be
00000390: d7f2 d4be aa6c 0fbf 20b9 42be 9be7 49bf
000003a0: 75f9 a53e bf13 9abe ed46 04bf 6467 40be
000003b0: 32ae b63d 02bd 5b3d e956 b33d 795d 0abf
000003c0: 7f8d df3c 05a9 c43e 4945 583d 452c b33e
000003d0: 3555 dbbe 81fb bcbc 289c 3f3e bb68 d9be
000003e0: 7f58 b6bd a5c3 89be f0be 81be e80e 3e3e
000003f0: 1a74 0c3f a2da f13e a361 60bf b51c 5d3a

W.2 f4 [1, 5]
0.07472915 -0.55849576 -0.062306557 -0.044823233 -0.11813995
00000000: 990b 993d 94f9 0ebf 2935 7fbd 9198 37bd
00000010: 5cf3 f1bd

U.0 f4 [500, 200]
-0.22323368 0.2948031 -0.17349933 0.1904046 -0.28100124 0.22517239 0.2025709 -0.010250638
-0.031161917 0.20038141 -0.18749529 0.29358283 0.13871619 0.19729665 -0.1785635 0.30421627
-0.062751636 -0.12972704 0.2935511 -0.24380836 0.29440585 -0.28299764 0.05371709 0.12006267
-0.22735617 -0.15436943 0.31144857 0.2720789 0.12956427 0.17146909 0.17522958 -0.15570942
-0.2437018 0.1603158 0.26004544 -0.08229601 -0.23852108 0.16274594 -0.09101368 0.21091053
-0.2604673 -0.22222723 0.07773822 0.20134157 -0.20738831 0.24537772 0.016637728 -0.17565733
0.2870602 -0.26761216 0.12796797 0.28221583 0.22796285 -0.15928473 0.19620782 0.19435193
0.24997114 -0.14582397 0.23220961 -0.18022484 0.18481337 0.11390445 -0.26636544 -0.2397845
-0.15790612 0.23427753 0.17804235 -0.15296932 -0.16835985 -0.16028535 -0.19590245 0.1777066
-0.2577532 -0.15319993 0.2514139 -0.070293985 -0.16722901 -0.18879695 0.14433986 -0.22429122
-0.22216214 0.22618768 -0.1527692 -0.161598 0.24067341 -0.2693179 -0.1399992 -0.22874339
0.30985594 -0.18888324 0.13911404 -0.18675019 0.21368156 -0.19350274 -0.2022759 0.28251928
-0.2451205 -0.18014427 0.16930988 -0.14198953 0.25946033 -0.013364992 -0.22286834 0.13652408
-0.18486495 -0.07358331 -0.13869056 0.25347897 0.18250552 -0.07309297 -0.1988763 -0.24280983
-0.16308723 0.18701199 0.2098053 -0.09357783 -0.22618562 0.13749893 0.27215725 0.17164838
0.02982201 -0.014436203 0.22285213 0.20114979 0.18123275 0.15888754 -0.21075352 -0.15562294
-0.18781738 -0.17123276 -0.22923516 0.21202205 -0.06599496 -0.15581435 0.27535814 0.21775071
-0.17160767 -0.11664022 -0.14570901 0.20588629 -0.14640208 0.2318196 -0.14225282 -0.19314729
0.28847814 0.19917509 0.260312 0.2191475 0.22443323 0.31272438 0.18612093 -0.18244302
0.27401733 -0.22297393 -0.041436717 0.19792464 -0.1978994 0.15998366 0.20158744 -0.007447558
0.25521195 -0.21807154 -0.23618424 0.27115712 -0.15285143 -0.14700708 0.24303292 0.0730874
0.203752 -0.12343029 -0.26406565 0.2083161 0.15463811 0.20242041 -0.28874403 -0.26601058
0.20274295 0.20529152 0.26283556 0.23496553 0.11413696 0.05422613 -0.023181068 -0.11115392
-0.25773498 0.24177961 0.16045783 -0.16745368 0.28573868 0.14954679 -0.096943036 -0.16936451
0.093897924 -0.17921951 -0.24735142 0.22385639 0.23917407 -0.18310617 0.28234565 0.29287168
0.1619039 -0.1414292 0.2731244 -0.19085194 0.1744051 0.23915827 0.07799468 0.25401294
-0.21798505 -0.1646213 -0.2190409 -0.1966843 0.2959974 -0.102050915 0.19620097 -0.21074136
-0.14769933 -0.24949637 -0.16453183 0.28517666 -0.15271659 0.19998415 0.1353703 0.21432397
0.28438824 0.029503101 -0.18047011 0.11658292 0.07483366 0.19818392 -0.056561343 0.16413039
0.2076759 -0.16631204 -0.1494647 -0.16078742 0.18554868 -0.033094704 -0.17717007 0.34217384
0.19703585 0.26516345 0.16311422 -0.1869901 0.23261952 -0.18107936 0.28733578 0.18056972
-0.04305932 0.22015513 0.048771493 -0.20094049 0.19584706 -0.20639157 0.21386932 -0.078564376
00000000: 5f97 64be 6ff0 963e cfa9 31be 6cf9 423e
00000010: 65df 8fbe 9793 663e bf6e 4f3e 4bf2 27bc
00000020: 4747 ffbc c930 4d3e c4fe 3fbe 7d50 963e
00000030: 9e0b 0e3e 2208 4a3e 5ad9 36be 3cc2 9b3e
00000040: ee83 80bd 2ad7 04be 544c 963e e6a8 79be
00000050: 5dbc 963e 11e5 90be 7406 5c3d 6be3 f53d
00000060: 0ed0 68be 0513 1ebe 3076 9f3e ed4d 8b3e
00000070: 7fac 043e 9895 2f3e 626f 333e 4a72 1fbe
00000080: f78c 79be d329 243e ad24 853e cf8a a8bd
00000090: df3e 74be dfa6 263e 6165 babd eef8 573e
000000a0: f85b 85be 898f 63be 3735 9f3d 7c2c 4e3e
000000b0: 9a5d 54be 4c44 7b3e d84b 883c 84df 33be
000000c0: 8ef9 923e 7604 89be 090a 033e 987e 903e
000000d0: 186f 693e 891b 23be b4ea 483e 3104 473e
000000e0: 6ff8 7f3e e152 15be 5bc8 6d3e dc8c 38be
000000f0: b73f 3d3e bc46 e93d 0d61 88be 118a 75be
00000100: 24b2 21be 73e6 6f3e bc50 363e fda3 1cbe
00000110: 8666 2cbe d821 24be a79a 48be b8f8 353e
00000120: 3af8 83be 71e0 1cbe 53b9 803e 4bf6 8fbd
00000130: 153e 2bbe fd53 41be d4cd 133e 99ac 65be
00000140: 797e 63be be9d 673e 876f 1cbe f279 25be
00000150: 1773 763e 09e4 89be f35b 0fbe b53b 6abe
00000160: 70a5 9e3e 9c6a 41be e973 0e3e 713b 3fbe
00000170: 57cf 5a3e 9525 46be 6a21 4fbe 5ea6 903e
00000180: de00 7bbe bd77 38be 925f 2d3e b465 11be
00000190: fcd7 843e d7f8 5abc 9937 64be f8cc 0b3e
000001a0: 3d4d 3dbe d9b2 96bd e604 0ebe ffc7 813e
000001b0: bae2 3a3e c4b1 95bd 3ba6 4bbe 24a3 78be
000001c0: 5700 27be 1280 3f3e 33d7 563e bca5 bfbd
000001d0: 349d 67be 85cc 0c3e 3258 8b3e 98c4 2f3e
000001e0: 4a4d f43c d385 6cbc 5933 643e 36fa 4d3e
000001f0: 1495 393e 6ab3 223e c5cf 57be 9f5b 1fbe
00000200: 3353 40be a457 2fbe 9fbc 6abe 4f1c 593e
00000210: 5e28 87bd cc8d 1fbe befb 8c3e 0bfa 5e3e
00000220: ecb9 2fbe 11e1 eebd be34 15be dbd3 523e
00000230: 6dea 15be 1e62 6d3e b9aa 11be 67c8 45be
00000240: 68b3 933e 8ef4 4b3e 9d47 853e 3468 603e
00000250: d3d1 653e 691d a03e 7c96 3e3e 58d2 3abe
00000260: 004c 8c3e 4753 64be 8cb9 29bd c2ac 4a3e
00000270: 24a6 4abe c2d2 233e f06c 4e3e a50a f4bb
00000280: 24ab 823e 254e 5fbe 48da 71be 1bd5 8a3e
00000290: 1685 1cbe 0689 16be 9fdd 783e d9ae 953d
000002a0: 5da4 503e 05c9 fcbd 9d33 87be d150 553e
000002b0: 7459 1e3e 4c47 4f3e 42d6 93be 8a32 88be
000002c0: d99b 4f3e f137 523e 6292 863e ce9a 703e
000002d0: a3c0 e93d 381c 5e3d 39e6 bdbc aba4 e3bd
000002e0: d7f5 83be 1395 773e 0f4f 243e fa78 2bbe
000002f0: 574c 923e cb22 193e 128a c6bd e46d 2dbe
00000300: 8e4d c03d 5285 37be b149 7dbe 9c3a 653e
00000310: 0cea 743e 2f80 3bbe 9c8f 903e 47f3 953e
00000320: 23ca 253e d1d2 10be f6d6 8b3e b16e 43be
00000330: 4097 323e e8e5 743e adbb 9f3d fc0d 823e
00000340: 7937 5fbe 7c92 28be 424c 60be 9c67 49be
00000350: f98c 973e 1200 d1bd e8e8 483e 95cc 57be
00000360: 7e3e 17be fa7b 7fbe 087b 28be ad02 923e
00000370: bd61 1cbe a5c8 4c3e 839e 0a3e be77 5b3e
00000380: 569b 913e 7db0 f13c 28cd 38be 07c3 ee3d
00000390: 6442 993d baf0 4a3e deac 67bd cc11 283e
000003a0: fea8 543e b44d 2abe 460d 19be 75a5 24be
000003b0: 7900 3e3e 508e 07bd 126c 35be 6931 af3e
000003c0: c4c3 493e 81c3 873e 6a07 273e 557a 3fbe
000003d0: d033 6e3e de6c 39be ad1d 933e 45e7 383e
000003e0: f85e 30bd 5970 613e 9ec4 473d 58c3 4dbe
000003f0: 228c 483e 5058 53be 8f00 5b3e 5ce6 a0bd

U.1 f4 [1, 500]
0.2247138 -0.031973265 0.19614145 0.07683245 0.2539671 0.23232569 -0.11319999 0.22841263
-0.15444085 0.26300904 0.2039466 -0.19609319 -0.009190133 0.16963367 0.23123935 0.20958501
0.25154996 -0.1649942 0.21689521 0.27511007 0.26207298 0.19697797 -0.1617395 -0.13046095
-0.12189696 -0.051227663 0.24154522 -0.17389241 0.2347132 0.03378409 0.123229146 -0.17805369
-0.18593396 0.0021176115 0.1831115 -0.16027184 0.2632753 -0.16623813 0.28338322 0.2470669
0.027488612 -0.18385085 0.18702854 0.24803135 -0.18613495 0.10978726 0.23991476 -0.20402808
0.21063341 -0.18435933 0.16531578 0.34107414 0.19980262 0.3191444 -0.18691196 -0.14799859
-0.15163924 0.03267016 -0.19152924 0.23400173 0.039148815 -0.14412893 -0.22450718 -0.1758907
-0.23387 0.22482458 -0.1042706 0.12751488 0.24144834 0.23250954 0.18617353 0.22428231
0.0019245812 0.2258761 0.04250237 0.14691438 0.071090385 0.26339367 -0.19907995 0.42691222
-0.22912057 0.118072234 -0.17456299 0.31243154 0.2655878 -0.131659 0.3205949 -0.18985055
0.26186684 -0.1682704 -0.20145848 -0.20637098 -0.104108095 -0.11972988 0.059186462 -0.21117055
-0.018961154 -0.20772384 -0.14770775 0.3213258 -0.21679755 0.21325459 -0.18531895 0.16653813
0.10578689 -0.091257535 0.21629299 -0.16422449 0.17455944 0.20776798 0.14928289 0.24877094
0.030129932 0.29357907 0.21460883 0.24970509 -0.041006643 -0.17395616 0.18227695 0.15411258
0.300714 0.11884007 -0.17153606 0.2605735 -0.16802956 0.22253984 0.21039711 -0.11119832
-0.21103325 -0.11533886 0.19348086 0.27527347 -0.1457646 0.19691053 0.06493053 -0.16170432
-0.08355947 0.22135568 0.108896405 0.10005155 0.1924321 0.038548633 0.21623732 0.19742715
-0.20726514 0.2334484 0.22536877 -0.14942455 0.30070516 -0.03193002 -0.003372597 -0.20877542
-0.18489353 -0.19467317 -0.06415669 -0.18597196 0.25801334 -0.1953247 -0.23462701 -0.15045488
-0.11491281 0.14314823 0.005728031 0.09618317 0.23290493 0.25776455 0.36694205 0.15528373
0.20544015 -0.025498835 -0.07683958 0.31796613 0.020831294 0.23554498 0.037504718 0.20974629
0.3447195 0.11217843 0.04051076 0.29198533 0.18624854 0.14798655 0.2763796 -0.1085266
-0.0060128383 0.2382235 -0.1760275 0.26048884 0.23081513 -0.2318912 0.26431042 0.19692479
0.26800895 -0.12495598 0.2753191 0.28349295 -0.116268374 -0.17056713 0.23117943 0.23978016
0.3058161 0.35813475 0.18963577 -0.09371692 0.23185612 -0.1806227 0.20706719 0.19264333
-0.104248434 0.36659232 0.19118057 -0.2165524 0.263926 0.25516605 -0.03635819 0.061530314
-0.084612116 -0.08438861 -0.15872592 0.22201769 -0.21304132 0.19601886 -0.07166607 0.063257955
-0.14089118 0.12201072 0.24594696 0.25827083 0.26668015 0.09972606 0.29228222 0.3323261
0.08376793 0.004411901 -0.17964472 0.23263013 0.15198386 -0.15899096 0.06951878 0.15322708
-0.031143624 0.04930817 0.25854436 -0.16500175 0.043108046 -0.21445107 -0.2367514 -0.10252358
-0.008224578 -0.13703024 0.39494145 -0.18454048 -0.20572391 0.1339295 0.057683162 0.24504477
00000000: 601b 663e 66f6 02bd 4ed9 483e 555a 9d3d
00000010: fa07 823e c9e6 6d3e 65d5 e7bd 00e5 693e
00000020: be25 1ebe 1fa9 863e 61d7 503e a7cc 48be
00000030: 3692 16bc 73b4 2d3e 02ca 6c3e 749d 563e
00000040: 28cb 803e 3df4 28be c719 5e3e 3adb 8c3e
00000050: 6e2e 863e 98b4 493e 0a9f 25be 8e97 05be
00000060: 1da5 f9bd 19d4 51bd a157 773e da10 32be
00000070: a858 703e 3061 0a3d 905f fc3d b553 36be
00000080: 7965 3ebe a0c7 0a3b 9581 3b3e 4d1e 24be
00000090: 05cc 863e 543a 2abe 9b17 913e 1bff 7c3e
000000a0: cc2f e13c 6643 3cbe 6984 3f3e eefb 7d3e
000000b0: 299a 3ebe 25d8 e03d 37ac 753e bdec 50be
000000c0: 49b0 573e b1c8 3cbe 8a48 293e 45a1 ae3e
000000d0: 0f99 4c3e e566 a33e d965 3fbe f18c 17be
000000e0: 5147 1bbe 25d1 053d 3e20 44be 269e 6f3e
000000f0: 825a 203d 8996 13be 36e5 65be b11c 34be
00000100: 9e7b 6fbe 6a38 663e d38b d5bd 4393 023e
00000110: 3c3e 773e fb16 6e3e 46a4 3e3e 43aa 653e
00000120: 3b42 fc3a 104c 673e f716 2e3d b970 163e
00000130: d697 913d 89db 863e 9ddb 4bbe 3d94 da3e
00000140: 959e 6abe dbcf f13d a4c0 32be 07f7 9f3e
00000150: 20fb 873e 9ed1 06be 0425 a43e 2f68 42be
00000160: 6913 863e 134f 2cbe 224b 4ebe ea52 53be
00000170: a036 d5bd f034 f5bd 816d 723d 183d 58be
00000180: 6c54 9bbc 8fb5 54be b340 17be d184 a43e
00000190: 2d00 5ebe 695f 5a3e 40c4 3dbe f988 2a3e
000001a0: cca6 d83d 3be5 babd e97b 5d3e 772a 28be
000001b0: b6bf 323e 21c1 543e 9ddd 183e cfbd 7e3e
000001c0: 0cd3 f63c ff4f 963e 6bc2 5b3e b1b2 7f3e
000001d0: 95f6 27bd 9021 32be cfa6 3a3e b0cf 1d3e
000001e0: 2ff7 993e 6c62 f33d 26a7 2fbe e469 853e
000001f0: f10f 2cbe 7ce1 633e 5772 573e f2bb e3bd
00000200: 1a19 58be c836 ecbd d91f 463e a5f0 8c3e
00000210: 5143 15be eaa2 493e 4cfa 843d d195 25be
00000220: 3a21 abbd 10ab 623e 1405 df3d d4e7 cc3d
00000230: ec0c 453e 2ce5 1d3d 516d 5d3e 582a 4a3e
00000240: 503d 54be 190d 6f3e 12c7 663e c002 19be
00000250: 07f6 993e 0dc9 02bd ca06 5dbb 39c9 55be
00000260: bb54 3dbe 6758 47be 9564 83bd 6f6f 3ebe
00000270: 531a 843e 3303 48be 1042 70be d810 1abe
00000280: 6857 ebbd 7395 123e 35b2 bb3b affb c43d
00000290: a17e 6e3e b7f9 833e d4df bb3e b302 1f3e
000002a0: e75e 523e efe2 d0bc 125e 9dbd 75cc a23e
000002b0: 64a6 aa3c b432 713e 8c9e 193d bbc7 563e
000002c0: 137f b03e cebd e53d 9cee 253d 1a7f 953e
000002d0: f0b7 3e3e c989 173e a081 8d3e 3243 debd
000002e0: 5807 c5bb dcf0 733e 8e40 34be cb5e 853e
000002f0: cd5a 6c3e e374 6dbe b253 873e a7a6 493e
00000300: 7838 893e ece8 ffbd a0f6 8c3e fd25 913e
00000310: 1d1e eebd 26a9 2ebe 4dba 6c3e ee88 753e
00000320: ee93 9c3e 705d b73e e12f 423e a8ee bfbd
00000330: b16b 6d3e 28f5 38be 6c09 543e 4b44 453e
00000340: 3480 d5bd fdb1 bb3e d7c4 433e eabf 5dbe
00000350: 4f21 873e 20a5 823e 53ec 14bd 3607 7c3d
00000360: 1e49 adbd f0d3 acbd 0c89 22be 9b58 633e
00000370: 8127 5abe 2bb9 483e a9c5 92bd 638d 813d
00000380: c745 10be c2e0 f93d 85d9 7b3e 133c 843e
00000390: 4d8a 883e 2d3d cc3d 04a6 953e a626 aa3e
000003a0: 858e ab3d b591 903b c9f4 37be 9836 6e3e
000003b0: a8a1 1b3e 87ce 22be dd5f 8e3d 8fe7 1c3e
000003c0: ea20 ffbc 5df7 493d ed5f 843e 38f6 28be
000003d0: 1092 303d 1099 5bbe f66e 72be e2f7 d1bd
000003e0: 61c0 06bc a851 0cbe c435 ca3e 2ef8 3cbe
000003f0: 4aa9 52be d124 093e 2e45 6c3d 04ed 7a3e

bias.0 f4 [200]
0.03563721 0.32627943 -0.13025716 0.12101758 0.073451266 0.05982482 0.026787372 0.466576
0.3718854 0.36561367 -0.058861334 0.5888287 0.21645105 -0.028497195 0.08319541 -0.44190207
-0.04177047 -0.388701 0.19457261 0.51626295 0.35726798 0.10560354 0.13493036 0.010955924
0.3512653 0.21892196 -0.4407244 0.17228746 -0.25193006 0.089015424 -0.035986636 -0.10756436
-0.23180616 -0.26153103 0.5122127 0.3733198 -0.28437263 -0.011447667 0.3473172 -0.28725964
0.5472939 -0.076033555 0.31807017 0.10497124 0.00090585975 0.17496249 0.43715099 0.24537928
-0.18435006 -0.11761176 0.1284669 0.32064098 -0.08616972 -0.31539273 -0.10888208 0.1610858
-0.1584375 0.12683105 -0.18505882 0.018989138 0.17458567 0.3487268 0.39192754 0.09752696
0.16624531 -0.22222984 0.19540475 0.19517088 -0.41966796 -0.046482414 -0.10075443 0.31983128
0.13968638 -0.38045445 0.28227106 -0.2541522 -0.39219904 0.098863035 -0.09381392 0.3466106
0.06334666 0.1806813 0.33138293 0.08384472 0.06634199 -0.058415055 -0.47826678 0.1821762
0.4770285 0.006298407 -0.18547225 -0.34787393 0.3265663 -0.1483999 -0.08095376 0.1324959
0.035203937 -0.27099216 -0.07013328 -0.23481257 0.1263001 0.15695088 0.012242633 0.42422956
0.09698428 0.47063693 -0.050973963 -0.15690696 0.008661558 0.21106736 -0.5440108 0.06413297
-0.084459126 -0.022850374 -0.16338469 -0.122180074 0.17249997 -0.23714407 -0.062198833 0.12037706
-0.20452692 0.3259319 0.29756555 0.39040762 0.1542611 0.2324503 0.2686567 -0.04904722
0.14897846 -0.022340402 0.16406973 0.31036875 -0.48702002 -0.18404058 0.0845636 -0.09126053
-0.3818701 0.24882546 -0.029773138 0.38726038 -0.056210015 -0.13524853 0.11971047 -0.07977356
0.10775011 0.2957576 -0.14831023 -0.22409926 -0.14955027 -0.2069391 -0.12851378 -0.08371378
0.1132684 0.296943 0.38767877 0.04325411 -0.16997468 0.08898373 0.07619473 -0.6109606
0.024421047 0.22816063 0.112273775 -0.22684011 0.35484704 -0.03207632 0.26633796 0.07825143
-0.26368326 -0.19091325 0.40548027 -0.14869606 -0.0148614645 -0.023873068 -0.11503813 -0.3057264
0.048720073 -0.012470695 0.019218085 0.12962145 -0.083972625 -0.32280442 0.12839137 -0.4788845
-0.2005136 -0.31700388 0.51010627 -0.049850937 -0.14181861 -0.11599509 0.13034098 -0.18286039
0.10817381 0.51943827 -0.21578631 0.22295624 0.019844491 -0.25116724 0.05186065 0.13977207
00000000: 53f8 113d 190e a73e 2262 05be 11d8 f73d
00000010: 9e6d 963d df0a 753d 3171 db3c 0de3 ee3e
00000020: c367 be3e b731 bb3e 9518 71bd 7abd 163f
00000030: 58a5 5d3e f372 e9bc 5b62 aa3d fd40 e2be
00000040: 8317 2bbd d103 c7be 0b3e 473e cf29 043f
00000050: d4eb b63e ab46 d83d 2f2b 0a3e 7a80 333c
00000060: 0cd9 b33e 142d 603e a1a6 e1be 206c 303e
00000070: fafc 80be b84d b63d b966 13bd b44a dcbd
00000080: 985e 6dbe 65e7 85be 5f20 033f c623 bf3e
00000090: 4a99 91be ff8e 3bbc 8fd3 b13e b213 93be
000000a0: 741b 0c3f 7bb7 9bbd 18da a23e 29fb d63d
000000b0: 3877 6d3a 5e29 333e 41d2 df3e b544 7b3e
000000c0: 43c6 3cbe 6fde f0bd d48c 033e 0e2b a43e
000000d0: c079 b0bd 287b a1be 91fd debd adf3 243e
000000e0: 713d 22be 00e0 013e 0f80 3dbe 1c8f 9b3c
000000f0: 96c6 323e 528c b23e baaa c83e 37bc c73d
00000100: 363c 2a3e 3890 63be 2f18 483e e0da 473e
00000110: b8de d6be 5864 3ebd 5758 cebd edc0 a33e
00000120: f209 0f3e edca c2be d585 903e 3d20 82be
00000130: 50ce c8be b478 ca3d 8321 c0bd f276 b13e
00000140: e5bb 813d 8504 393e 06ab a93e c8b6 ab3d
00000150: 4fde 873d a044 6fbd 62df f4be 668c 3a3e
00000160: 143d f43e de62 ce3b 70ec 3dbe 881c b2be
00000170: b333 a73e 25f6 17be 16cb a5bd 01ad 073e
00000180: 0132 103d 7cbf 8abe 09a2 8fbd b572 70be
00000190: d054 013e bbb7 203e 5395 483c 9e34 d93e
000001a0: b29f c63d 53f7 f03e 13ca 50bd 38ac 20be
000001b0: 35e9 0d3c 0b22 583e 4b44 0bbf 2658 833d
000001c0: e8f8 acbd b530 bbbc 514e 27be 8c39 fabd
000001d0: d5a3 303e e5d5 72be 34c4 7ebd 3f88 f63d
000001e0: 816f 51be 8ce0 a63e 835a 983e 82e3 c73e
000001f0: 9ff6 1d3e 7407 6e3e 5f8d 893e bde5 48bd
00000200: cf8d 183e 3803 b7bc e501 283e a7e8 9e3e
00000210: b05a f9be 2275 3cbe ae2f ad3d cde6 babd
00000220: 7a84 c3be 1acc 7e3e cce6 f3bc fe46 c63e
00000230: 793c 66bd 977e 0abe c32a f53d 5260 a3bd
00000240: 17ac dc3d 8a6d 973e a3de 17be 477a 65be
00000250: b523 19be d8e7 53be 1e99 03be 2172 abbd
00000260: 43f9 e73d ea08 983e d57d c63e 392b 313d
00000270: d80d 2ebe 1a3d b63d fc0b 9c3d ea67 1cbf
00000280: a60e c83c f1a2 693e cbef e53d c648 68be
00000290: 83ae b53e 7662 03bd 735d 883e 4942 a03d
000002a0: 7e01 87be c37e 43be 1c9b cf3e c843 18be
000002b0: 807d 73bc 7491 c3bc 1c99 ebbd 2c88 9cbe
000002c0: b38e 473d e351 4cbc 3f6f 9d3c 7cbb 043e
000002d0: d7f9 abbd 9f46 a5be 0779 033e 5930 f5be
000002e0: 7053 4dbe 554e a2be 5396 023f 7f30 4cbd
000002f0: e638 11be d58e edbd 1b78 053e c13f 3bbe
00000300: 3b8a dd3d e8f9 043f 16f7 5cbe a44e 643e
00000310: ea90 a23c fe98 80be d56b 543d 6920 0f3e

bias.1 f4 [500]
-0.35389152 0.37291458 -0.039091107 -0.0727304 -0.13173662 0.14000091 -0.05643551 0.106423855
-0.03965553 0.12539163 0.06716386 -0.4812067 -0.19865474 -0.021105994 -0.1938837 -0.4303498
-0.226248 -0.28462458 0.07899439 -0.11027779 0.04238305 0.0030338392 0.5683685 0.50757056
0.49965566 0.025830774 -0.0036061888 0.16252404 -0.21674803 -0.2841068 0.13752979 0.19364661
-0.44215202 0.48037744 -0.30017817 0.38782558 0.15030801 -0.041789412 -0.18119015 0.033534132
-0.400087 0.52874106 0.10680043 -0.23282716 -0.33348152 -0.1345897 0.1070112 0.08260315
-0.31945875 0.306044 0.29782557 -0.014946264 0.20364943 0.018181326 0.13068789 0.58080906
-0.0063497485 0.29335538 0.50585955 -0.13571787 0.15676625 0.49238098 0.44037443 0.020148145
0.39616075 -0.21518576 -0.11368522 -0.08258378 0.15965271 -0.06097078 -0.29533896 -0.28114575
-0.28282422 0.0018229198 0.11445874 0.010211897 0.24624735 0.2852488 0.5801888 0.01032096
-0.49703705 0.1821664 0.13909663 0.18035318 0.24684593 0.03610716 0.03520619 0.19615315
0.16693231 0.0072387275 0.29267308 -0.11185993 -0.25696468 -0.09033804 -0.15485871 0.20226824
-0.09892685 0.17434938 0.545878 -0.15139373 0.5827899 -0.02897844 -0.34997395 -0.24427004
0.12679705 0.41529244 0.10131573 0.12017257 -0.11777466 0.107967086 -0.15063624 0.11191593
-0.023637958 0.113804534 -0.15437686 -0.016623683 -0.12450404 0.33495733 0.0075058485 0.30725121
0.21167488 -0.34346113 0.30108935 0.019337965 -0.41952276 -0.26918653 0.14155409 -0.18784717
-0.6144228 0.34020266 0.14231479 -0.10564197 -0.37414634 -0.24706623 0.1881266 -0.26734403
-0.36213538 0.025349699 -0.22348148 0.12991947 0.019116038 0.114477836 -0.08281888 -0.4435699
-0.39412647 -0.22424656 -0.10042987 -0.44171506 0.039522476 0.22081056 -0.16958104 0.16658461
-0.44384226 -0.5352745 0.35333815 0.19825833 -0.26866132 -0.276528 -0.4498412 -0.19089618
-0.29721692 -0.3169579 -0.16854437 -0.04093245 -0.2406553 -0.42261702 0.23287794 -0.14065972
0.21055332 -0.4511016 0.39715075 -0.35725114 0.17468278 0.011918169 -0.11615319 -0.11219866
0.104680434 0.18389271 0.31058538 -0.09081977 -0.072538294 -0.09227399 0.31556046 -0.25214565
0.38653097 -0.18350539 0.6250122 -0.28894958 0.15117349 0.47451225 0.019682128 0.008925909
-0.09281857 -0.12729622 0.28806975 0.2696002 0.22781125 -0.32782423 0.028097674 -0.42975074
0.10567628 -0.10829884 -0.19019005 -0.30930826 -0.22307436 -0.43317968 0.09792863 -0.12962179
0.4509121 -0.029965686 -0.25234857 0.5467476 -0.37406722 0.15889286 0.50945836 0.12252382
-0.13722762 0.37856323 0.47328535 -0.13820544 -0.57734644 -0.1299662 0.47843185 0.22631647
-0.44461352 -0.024565352 -0.13911699 -0.073745325 0.20283787 -0.008945153 0.14599523 0.1423267
0.68365735 -0.26414815 0.58171046 -0.04927036 -0.35430038 -0.13231282 0.4797641 -0.23982939
0.04335782 0.08019277 -0.3913513 0.18384123 0.14880261 0.5010858 0.38542536 0.5606359
-0.12982826 0.26527005 -0.20024268 -0.50387985 0.2377995 0.0120298695 -0.14446893 -0.092293285
00000000: 4531 b5be a9ee be3e ff1d 20bd adf3 94bd
00000010: f7e5 06be 665c 0f3e ec28 67bd c0f4 d93d
00000020: d66d 22bd aa66 003e 358d 893d b960 f6be
00000030: 266c 4bbe 7ae6 acbc 7389 46be cf56 dcbe
00000040: 8ead 67be 50ba 91be d0c7 a13d 52d9 e1bd
00000050: d999 2d3d 60d3 463b 9980 113f 25f0 013f
00000060: ded2 ff3e 0f9b d33c cf55 6cbb b46c 263e
00000070: 32f3 5dbe 7276 91be 9cd4 0c3e 4c4b 463e
00000080: c061 e2be 08f4 f53e f4b0 99be 1391 c63e
00000090: 58ea 193e 602b 2bbd e989 39be 165b 093d
000000a0: 34d8 ccbe 935b 073f 2fba da3d 3e6a 6ebe
000000b0: 17be aabe e2d1 09be b028 db3d d72b a93d
000000c0: 1990 a3be cdb1 9c3e 987c 983e 2de1 74bc
000000d0: 7a89 503e 01f1 943c 0cd3 053e e7af 143f
000000e0: 8d11 d0bb ad32 963e 0380 013f a0f9 0abe
000000f0: 5587 203e 5c19 fc3e c278 e13e b90d a53c
00000100: 95d5 ca3e a859 5cbe ccd3 e8bd af21 a9bd
00000110: 007c 233e 7fbc 79bd ab36 97be 56f2 8fbe
00000120: 56ce 90be 0aef ee3a 5869 ea3d cd4f 273c
00000130: 4428 7c3e 210c 923e 4187 143f 3e19 293c
00000140: a47b febe d489 3a3e 596f 0e3e 81ae 383e
00000150: 2ec5 7c3e 1ae5 133d 5e34 103d 5fdc 483e
00000160: 4ef0 2a3e d932 ed3b 3fd9 953e d216 e5bd
00000170: e090 83be 2603 b9bd 4893 1ebe 681f 4f3e
00000180: 299a cabd a588 323e a9be 0b3f f506 1bbe
00000190: b831 153f 3264 edbc c92f b3be ed21 7abe
000001a0: 16d7 013e 36a1 d43e 9f7e cf3d 091d f63d
000001b0: d733 f1bd d91d dd3d 6340 1abe 2e34 e53d
000001c0: 64a4 c1bc 5a12 e93d f814 1ebe 642e 88bc
000001d0: f9fb febd 877f ab3e 9ff3 f53b 0850 9d3e
000001e0: 4dc1 583e 23da afbe 6228 9a3e a76a 9e3c
000001f0: b0cb d6be d1d2 89be 8ef3 103e 025b 40be
00000200: d04a 1dbf 0b2f ae3e f8ba 113e d15a d8bd
00000210: 1c90 bfbe eefe 7cbe 42a4 403e 51e1 88be
00000220: cf69 b9be 2caa cf3c 54d8 64be 9c09 053e
00000230: 3d99 9c3c 5b73 ea3d f29c a9bd 981b e3be
00000240: f2ca c9be e4a0 65be 2dae cdbd 7a28 e2be
00000250: 52e2 213d 2a1c 623e a7a6 2dbe 2895 2a3e
00000260: 4b3f e3be c007 09bf bde8 b43e 3b04 4b3e
00000270: fa8d 89be 1495 8dbe 9651 e6be 4a7a 43be
00000280: d12c 98be 4e48 a2be e596 2cbe c9a8 27bd
00000290: 586e 76be 4261 d8be 8e77 6e3e 1a09 10be
000002a0: 4a9b 573e caf6 e6be 5857 cb3e 9fe9 b6be
000002b0: 0be0 323e 6d44 433c b9e1 edbd 69c8 e5bd
000002c0: b262 d63d 5f4e 3c3e 0c05 9f3e b7ff b9bd
000002d0: f58e 94bd 25fa bcbd 2491 a13e 3c19 81be
000002e0: 63e7 c53e d6e8 3bbe cd00 203f 33f1 93be
000002f0: 39cd 1a3e 45f3 f23e 6a3c a13c fa3d 123c
00000300: aa17 bebd f159 02be e17d 933e 0a09 8a3e
00000310: 5a47 693e 94d8 a7be 182d e63c 4a08 dcbe
00000320: ce6c d83d c8cb ddbd 2ec1 42be a75d 9ebe
00000330: 9b6d 64be bac9 ddbe ce8e c83d 93bb 04be
00000340: f3dd e63e 997a f5bc d533 81be a7f7 0b3f
00000350: bd85 bfbe cfb4 223e dd6b 023f c5ed fa3d
00000360: 6685 0cbe 0ad3 c13e 7552 f23e ba85 0dbe
00000370: facc 13bf dc15 05be 05f5 f43e 81bf 673e
00000380: 62a4 e3be 473d c9bc af74 0ebe ca07 97bd
00000390: bbb4 4f3e b18e 12bc c67f 153e 17be 113e
000003a0: 2b04 2f3f 6d3e 87be faea 143f b8cf 49bd
000003b0: dc66 b5be 037d 07be a4a3 f53e d695 75be
000003c0: f897 313d 1b3c a43d 335f c8be e040 3c3e
000003d0: b65f 183e 2947 003f 7956 c53e d685 0f3f
000003e0: b3f1 04be 7ad1 873e 6b0c 4dbe 45fe 00bf
000003f0: b681 733e ee18 453c aaef 13be 4304 bdbd
