LYAP_CP_m-fwd_d-20_s-0.005_seed3.pt (torch, 421641 bytes, 7 tensors)

W.0 f4 [200, 5]
000000 a4 cf 17 be 13 6f 24 bf 18 16 ad bd bc 3a 21 bf
       -0.14825302 -0.64231986 -0.0845148 -0.62980247
000010 9d a9 15 be b7 e8 07 bf a1 00 0d 3f a3 ff 34 3d
       -0.14615484 -0.5308947 0.55079085 0.044189107
000020 09 2d 90 3e 8b 0f 32 be 55 8d b9 bd 18 aa 18 3f
       0.2815936 -0.17388742 -0.0906016 0.5963454
000030 fb b9 9d be 67 f1 26 3d de 87 6a bf 54 08 13 be
       -0.30805954 0.040757563 -0.91613567 -0.14358646
000040 11 af 89 bd 35 3e 04 3f 38 82 82 3e 91 33 1e be
       -0.067228444 0.5165742 0.25489974 -0.15449359
000050 9a 1d 2b 3e 2a ff 05 bf ab 20 c0 3d 3a 9e 15 bf
       0.16710511 -0.52342474 0.09381231 -0.5844456
000060 dd 6c e6 be d5 eb ab bc a2 17 ec be 2a 13 d4 bd
       -0.4500493 -0.020986477 -0.4611178 -0.10355218
000070 e9 b6 03 bf 38 db d5 be 51 9f 23 be f2 9e 1b 3d
       -0.51450974 -0.41768813 -0.15978743 0.03799338
000080 cb 38 f7 be 78 21 a6 be e7 a1 3f bf 75 67 11 3e
       -0.48285517 -0.3244741 -0.7485642 0.14199622
000090 fb 2d ef be 91 15 66 be e9 cd d4 be a0 04 fc be
       -0.46714768 -0.22469164 -0.41563347 -0.4922228
0000a0 dc 0f ef 3d dd ec ac be ca 4c 45 be f1 5c e4 be
       0.11672947 -0.33774462 -0.19267574 -0.4460216
0000b0 49 43 16 be 64 ed 30 3e d0 32 39 bf a3 42 9b 3d
       -0.14674105 0.17278057 -0.7234316 0.07581069
0000c0 c1 b6 8a be 2f df cd bd d0 66 78 3e e5 00 81 3d
       -0.27092555 -0.100523345 0.2425797 0.06298999
0000d0 d3 c6 31 3e 0d 49 9e 3e 04 83 47 bd a1 0d f6 bc
       0.17361002 0.30915108 -0.04870893 -0.030035796
0000e0 0f f5 8e 3d b2 0d b0 3e 70 71 67 3e 21 2f 3a bf
       0.06980335 0.3438545 0.22601867 -0.72728163
0000f0 60 28 04 3f e3 65 8f be 65 51 7d be 4f b1 93 be
       0.5162411 -0.2800742 -0.24738081 -0.28846213
000100 bf 5d 55 bf e2 7d be be 3c 4d 8a 3e 2d 37 cc bd
       -0.8334617 -0.37205416 0.2701205 -0.099714614
000110 76 6e 66 3e 7f ae 30 be 3b 6e 53 bd 61 1a 3a 3f
       0.22503075 -0.17254065 -0.051618796 0.726965
000120 99 3a 95 be 16 bb 50 3e d9 8b 7e be b9 33 4b be
       -0.2914627 0.20383868 -0.24858035 -0.1984395
000130 ff 37 a8 3d b5 b3 42 3e ee d5 83 3e ac b3 57 be
       0.082138054 0.19013865 0.25749153 -0.21064633
000140 80 26 e5 be 48 f2 40 be cd 56 16 be c0 60 55 be
       -0.44755936 -0.18842423 -0.1468155 -0.20837688
000150 12 0d 98 bc 9f 78 6a be cd 70 7a bd 93 43 cf be
       -0.01856092 -0.22897576 -0.06114273 -0.40481243
000160 a3 2f a4 be 2f 94 15 bf aa a2 e5 bd f8 bc c8 3e
       -0.32067594 -0.58429235 -0.11212666 0.39206672
000170 df f3 02 be 9f 28 03 3f cd c6 3c be 4d 6a 1b 3e
       -0.12788342 0.5123386 -0.18435211 0.1517727
000180 8c 58 1c bf fb fa 5b 3e 2c dc 8f be 2e c6 29 bf
       -0.6107261 0.2148246 -0.28097665 -0.66318023
000190 13 ca cb bc 99 0e 0c bd 7a b9 10 be 1b 39 b3 bb
       -0.02487663 -0.03419361 -0.14133254 -0.005469454
0001a0 76 17 ae be 35 e1 6b be 10 b5 c0 3d de a4 aa 3d
       -0.34002274 -0.23035128 0.09409535 0.08332227
0001b0 29 f0 19 3e c9 1b 1c bf 41 d7 85 3e c5 9d f4 bb
       0.1503302 -0.60979897 0.26140788 -0.0074650967
0001c0 e5 51 e4 be 05 94 90 be 21 1b 2e bf 20 9e 1f bf
       -0.4459373 -0.2823793 -0.68010145 -0.62350655
0001d0 13 33 3c 3e 42 cf 10 3e 5d 50 32 3e 40 79 58 3d
       0.18378858 0.14141563 0.17413469 0.052850008
0001e0 85 5e 8b 3e d8 96 53 bf 41 05 2b be a6 ec e1 be
       0.2722055 -0.82652044 -0.16701223 -0.4412586
0001f0 77 76 6a bf 72 cc 84 bd 20 e2 9c bd c3 2b ae bd
       -0.91587013 -0.06484307 -0.076603174 -0.08504441
000200 3c bc 30 bc 0f 8a f0 be 01 27 dd 3e 64 9c 86 be
       -0.010787066 -0.4698033 0.4319382 -0.26291192
000210 5f a8 27 3c 9d 89 a5 bd f3 8c 4d bf 6f 44 7f bb
       0.010233014 -0.08082888 -0.80293196 -0.0038950702
000220 76 c4 0f bd 24 a4 89 bc 3c 3e 4d be b6 84 a7 be
       -0.03509947 -0.016801901 -0.20043272 -0.32718438
000230 33 72 ae be 07 19 93 3e 32 88 09 3e 07 84 76 3e
       -0.34071502 0.28730032 0.1343086 0.24073802
000240 da fb 22 bf 9b de b4 bd 25 1f be 3e c0 c2 68 be
       -0.63665545 -0.08831521 0.37133136 -0.22730541
000250 f3 c7 7c 3e fa 7c 94 bb c4 9d 18 be 67 96 3a 3f
       0.2468565 -0.0045315 -0.14903933 0.72885746
000260 1c 3c 77 3c 47 48 24 3f 50 be 94 3d 3c ca a4 be
       0.015090015 0.64172786 0.07262862 -0.32185543
000270 23 eb 2d 3f d2 e6 d6 bd 70 29 a2 3e d0 a8 2f bf
       0.67936915 -0.10493244 0.3167224 -0.6861696
000280 f9 1c 97 be b8 70 a5 3e 5d 21 3e 3e 0f bf bb 3e
       -0.29514292 0.3231256 0.18567415 0.36669204
000290 7a 9d 5b bf 99 25 e2 be 5f b4 09 3f aa 9e 05 be
       -0.85787165 -0.4416931 0.5379085 -0.13048807
0002a0 67 df 0d 3e 61 05 22 bf 4c d5 66 3c 37 00 ab 3e
       0.13854752 -0.6328946 0.01408894 0.333986
0002b0 09 59 4b be de e9 2e 3e 6b 5f be be 66 f4 23 3e
       -0.19858183 0.17081401 -0.37182173 0.160112
0002c0 dd 7c 70 3a 32 28 d9 3e 7f 03 89 3e 54 c3 2b bf
       0.00091738795 0.4241348 0.2676048 -0.6709492
0002d0 6f ab 36 3e 6b 30 a7 3e 68 a7 b5 3e 53 cd 15 3f
       0.17838834 0.32654127 0.35479283 0.58516425
0002e0 e1 c7 b6 be d1 8e 71 3c 55 61 d7 bd a2 6d 9c 3b
       -0.3569937 0.014743523 -0.105166115 0.0047738114
0002f0 9c a8 75 be e2 46 88 be dc 0c 14 3f 74 c5 3f be
       -0.239901 -0.2661658 0.5783212 -0.18727666
000300 e9 63 1c bd a9 b9 29 be c1 a3 b9 be 07 95 47 3e
       -0.03818122 -0.1657473 -0.36257747 0.19490443
000310 db 0b 72 be 82 3e b4 bd e6 6a 57 be 67 4d e4 bc
       -0.23637335 -0.08800985 -0.21036872 -0.02786894
000320 9b 06 20 be 2e 01 15 3f 1f 07 12 3e 7e f6 17 3f
       -0.1562752 0.58204925 0.14260529 0.5936049
000330 2a 8d f8 3c 2f 2c 1b bb 1d da 18 3f 2a b7 1c be
       0.03034075 -0.0023677459 0.59707814 -0.15304247
000340 5b 72 ef 3e 88 38 0a bf 95 e0 67 3b 60 61 49 bf
       0.46766934 -0.5399251 0.0035381664 -0.7866421
000350 92 80 e9 3e dd a1 8b 3c e2 45 5f bf 40 1c 9b be
       0.45605904 0.017044956 -0.8721601 -0.3029499
000360 21 58 a7 3e 20 59 2b 3d 9e bc 4e 3e 95 8d 47 be
       0.32684425 0.041833043 0.20189139 -0.19487603
000370 70 f4 ef be df 1d 3a be 03 e8 8a 3e 28 a4 9d 3d
       -0.4686618 -0.18175457 0.27130136 0.07697326
000380 a8 c0 cc bd e7 46 07 bd dc b5 07 3e 8c 60 99 3e
       -0.09997684 -0.033026602 0.13252968 0.29956472
000390 16 cb ab 3e 5a dc 40 bf 14 63 a0 be 97 ea 21 3f
       0.3355338 -0.7533623 -0.3132559 0.6324858
0003a0 f9 f9 43 3e a2 8d 1e 3f 8d cd 91 be 76 dd 00 3f
       0.19138326 0.61934865 -0.28477135 0.5033792
0003b0 7a 23 52 bf 87 a1 71 3e 7a c0 0b be 83 91 6e be
       -0.8208538 0.23596774 -0.13647643 -0.23297696
0003c0 e2 84 b1 bd 20 9c 1d 3f 5f bd b0 be 9d 19 b6 3d
       -0.086679235 0.6156635 -0.3451948 0.08891604
0003d0 c0 ff a4 be f2 0d 72 3e 1a 73 0c be 6c 90 16 3d
       -0.32226372 0.23638132 -0.13715783 0.036758825
0003e0 3e c7 6a 3c 9f 0f ef be d3 7e 18 3f 31 9b 62 3d
       0.01432973 -0.46691605 0.5956852 0.055323783
0003f0 c6 d2 19 3d 6d 62 30 be f1 96 98 be ab 78 75 be
       0.037554525 -0.17225046 -0.2980266 -0.23971812

W.1 f4 [500, 5]
000000 b5 89 f1 be 75 71 2e 3d 66 62 36 3d 2a 15 bb 3c
       -0.47175375 0.04258867 0.044527434 0.02283724
000010 f7 f7 3d bf 8a b1 c5 3c a2 91 70 3e 09 f9 84 3d
       -0.7420649 0.024132509 0.23493055 0.06492812
000020 73 2f fc 3d 13 14 85 be 7a 98 0f bf 02 7f 32 be
       0.12313738 -0.25991878 -0.56092036 -0.17431262
000030 cd 4f ae 3e 3e b1 42 3d a7 72 70 be 99 0e 40 be
       0.34045258 0.047532313 -0.23481236 -0.18755569
000040 6c ce 98 3d 4d 78 3b 3e 09 79 b8 3e e1 96 00 bf
       0.07461247 0.1830761 0.36029842 -0.5023022
000050 2d 00 12 3e b8 0a c4 be be 81 41 bd eb a8 a6 be
       0.1425788 -0.38289428 -0.047242872 -0.3255075
000060 ea 00 f8 be 24 43 70 3e 4e 44 ed be cb f7 92 bd
       -0.48438197 0.23463112 -0.46341175 -0.07176169
000070 7d 93 df be 5e ee 4e bf fc 14 a4 be ec 4b 2f 3f
       -0.43667212 -0.8083247 -0.3204726 0.6847522
000080 00 56 13 3e ac 41 b9 3e 8e e4 9d be 1c be 91 3e
       0.14388275 0.36182916 -0.30838436 0.28465354
000090 d1 f0 67 be c9 86 62 3e a7 4c ab bc 02 16 4f bf
       -0.22650458 0.22121729 -0.020910574 -0.80892956
0000a0 4b a8 84 3d 6e 2a 49 be 5b 99 a4 3d a5 97 09 be
       0.06477412 -0.19645092 0.08037063 -0.13436754
0000b0 2b 8e 60 bf 10 f9 13 3e 5f fc 2f be d1 b6 93 3d
       -0.8771693 0.14450479 -0.17186116 0.07212604
0000c0 d4 d6 10 be cc dd eb be a4 68 ce 3e a5 bf ef 3d
       -0.1414445 -0.46067655 0.4031421 0.11706475
0000d0 43 e9 98 be 40 be 0b bd c3 ef 5b bf ef 53 df bd
       -0.29865465 -0.034116983 -0.8591272 -0.10904681
0000e0 db da 32 3f 80 a6 ab be 43 ce 30 3e 93 dc 93 bd
       0.69865197 -0.33525467 0.17266183 -0.072198056
0000f0 2e d8 ce 3e 8f 64 55 be 93 0a 04 3f 08 92 4e 3e
       0.40399307 -0.20839141 0.51578635 0.20172894
000100 8f cb e5 bd bd d1 53 be 27 95 9f bd 83 bd 2e bd
       -0.11220466 -0.20685478 -0.077921204 -0.0426612
000110 d6 56 93 bc 6e 03 b9 be 54 15 32 3e af d0 b1 3d
       -0.017985743 -0.3613543 0.17390949 0.08682381
000120 ad 87 f4 3d c6 c5 b5 3b a2 0c e5 be 14 9c 92 3d
       0.119399406 0.005547258 -0.447362 0.07158676
000130 99 ef ad 3e 34 94 d6 3c ac d0 b8 3e 84 51 33 bf
       0.3397186 0.026193716 0.36096704 -0.7004626
000140 cd af b1 be 7b 51 50 3e 3c 4d a5 3e 2d f1 c6 3e
       -0.34704438 0.20343582 0.32285488 0.38855878
000150 49 0f 15 bf 6d 6c f1 3e a2 0b 07 be df 3b 06 be
       -0.5822645 0.47153035 -0.13188031 -0.13108777
000160 33 aa 0c be 1b cf a9 be 96 50 44 3d 7b b4 9f be
       -0.13736801 -0.3316582 0.047928415 -0.31192383
000170 ed 9e 63 3d ac 17 fa be 40 f4 09 be a6 ce 6a 3d
       0.055571485 -0.48846185 -0.1347208 0.05732598
000180 a7 f4 f1 3e 2e f7 8d be 42 10 e1 bd a1 84 62 bf
       0.47256967 -0.27727646 -0.10989429 -0.88483626
000190 81 e9 a2 bd ee 4e d4 3e bd 67 40 3e 05 93 0c 3f
       -0.079546936 0.4146647 0.18789573 0.54911834
0001a0 48 90 66 bc 39 0e c9 be d3 d7 33 3a 8b 84 61 3e
       -0.014072485 -0.39268664 0.00068604684 0.22023217
0001b0 a3 2b d5 3c 6d c8 11 bf dc ea 9c bd 4b 22 d3 3e
       0.026021784 -0.5694645 -0.07661983 0.412371
0001c0 d2 ad 2a 3e 95 bd 96 3e f4 a9 ab be 23 a2 74 be
       0.1666787 0.29441515 -0.335281 -0.23889975
0001d0 86 25 15 3f cd fa 02 3d e0 17 d4 3e e5 52 ee be
       0.5826038 0.031977464 0.41424465 -0.46547619
0001e0 dd 62 ed be c5 c7 02 3d c7 34 0e 3e 66 44 69 3e
       -0.4636449 0.031928796 0.1388732 0.22779998
0001f0 4e 62 05 bf ee a1 19 bf 35 d7 d2 3d 06 24 3a be
       -0.52103126 -0.6001271 0.10294954 -0.18177804
000200 dd 07 42 be a1 dc 27 bf 9d c1 94 be e4 cf 20 3f
       -0.18948312 -0.6557103 -0.29053965 0.62817216
000210 da 5f 96 be 1f cf a7 bc 34 5b 5f bf 82 71 28 be
       -0.29370004 -0.020484505 -0.8724854 -0.1644955
000220 d8 e3 38 3f df be 48 be 07 ff fc 3e 07 f3 9c be
       0.7222266 -0.19604062 0.4941332 -0.30654165
000230 a6 bb bd 3d 7b 58 e9 be 76 73 6e 3d 62 30 49 be
       0.09264307 -0.45575318 0.05821558 -0.19647363
000240 7e b6 ce be 72 08 37 be 47 e0 50 3e 4d e6 03 bf
       -0.40373605 -0.17874315 0.20398055 -0.51523286
000250 52 81 78 be ce c4 32 be ef dd 14 be f5 1d 0e 3e
       -0.24268082 -0.17457888 -0.14537786 0.13878615
000260 49 94 f2 bd b6 08 52 3d 37 bc 0c bf cb 49 e3 3d
       -0.118446894 0.05127784 -0.54974693 0.11098059
000270 1f a5 be 3e e0 ae e3 3d a1 24 f6 3e 35 9a 87 bc
       0.37235352 0.11117339 0.4807482 -0.016553024
000280 4d bf d8 3d 16 3b 8c 3e 86 f3 d6 bd 5e 14 2e 3e
       0.10583363 0.2738883 -0.10495667 0.16999957
000290 4b 4d 05 bf 67 76 f6 be 1a a9 30 3d 9a 72 99 3e
       -0.52071065 -0.4813721 0.043130018 0.29970247
0002a0 ae 22 94 3e d3 86 1e bf 5a fc 36 3e da da 10 bf
       0.28932709 -0.61924475 0.17869702 -0.5658394
0002b0 47 85 b1 3c 87 d4 15 bf b9 37 88 3d 67 c6 b9 3c
       0.021669997 -0.58527416 0.06651253 0.022677613
0002c0 02 bc 0e 3f 11 b8 7d be d6 d5 bd 3e 40 56 3c bf
       0.5575563 -0.24777247 0.37077206 -0.7356911
0002d0 02 ce 87 3e ad 4f 98 be 79 e2 b2 3d 0b ac 39 be
       0.2652436 -0.29748288 0.087346025 -0.18132035
0002e0 58 b0 ca be 80 90 ed 3e 4d 68 03 3e 35 fa e4 3c
       -0.39587665 0.46399307 0.12832756 0.02795134
0002f0 6d 82 c7 bc b6 6a 17 bf 01 1b 52 be c4 3b e8 3e
       -0.024354184 -0.591472 -0.20518114 0.45358098
000300 58 ba 5c 3e 3f 91 fc 3e a2 81 b4 be 83 1e 18 3e
       0.2155546 0.49329564 -0.35255152 0.1485539
000310 d6 b0 1d bf d9 e7 0c 3e cf 17 9a be 01 50 89 be
       -0.61597955 0.13760318 -0.3009629 -0.2681885
000320 3e 9c 1e be 24 68 15 bf f4 b0 72 3e b8 5a 8b be
       -0.15489289 -0.5836203 0.23700315 -0.2721765
000330 4c bd cd be 8b 57 bb bb 35 a6 bd be 57 7f 6d 3d
       -0.40183485 -0.005717223 -0.37040868 0.05798277
000340 a1 d7 06 bf 35 6f 81 3d 56 b5 e4 bd 93 e3 03 3f
       -0.52672774 0.06320039 -0.111673996 0.51519126
000350 dc 13 64 be 56 df 89 3e df 4f 9b be 58 7b d4 3c
       -0.22273201 0.26928204 -0.30334374 0.025937721
000360 d4 e6 94 bc e5 38 b9 be 51 6f 8d be 3e a4 10 bf
       -0.018176474 -0.3617622 -0.2762399 -0.56500614
000370 0d 8d 12 be fa 13 a8 be 8e 63 d7 bc 7d 3b 5f be
       -0.14311619 -0.3282774 -0.026292589 -0.21800037
000380 5e 0b 85 be af b7 83 3e 12 b6 08 3e de f4 9d 3d
       -0.25985235 0.25726077 0.13350704 0.0771272
000390 d2 98 ba 3d d9 5a 5f bf 64 15 44 be ac 4c 02 3f
       0.091111794 -0.87248 -0.19148785 0.5089824
0003a0 16 7e 36 be 50 d0 ca 3d 5e 00 bc be 10 42 0e 3e
       -0.17821535 0.09903014 -0.3671903 0.13892388
0003b0 ed 55 2d bf 26 fc bd 3c 0c 95 21 bf e4 c2 aa be
       -0.6770924 0.023191523 -0.6311805 -0.33351815
0003c0 52 0d bd 3e 8c 2f 4c 3d e6 bc 2a 3d 18 82 4b 3d
       0.36924225 0.04985003 0.041684054 0.049684614
0003d0 8b fc 64 bf 25 15 90 be 98 92 1e 3f 2e df 3b 3e
       -0.8944785 -0.28141132 0.61942434 0.18346855
0003e0 71 b8 23 3f d0 f5 a3 be a5 3f 6e 3e 08 a8 9d 3e
       0.6395331 -0.32023478 0.23266466 0.3079226
0003f0 eb cb 02 be d4 b6 0e 3e 6c ce 4d bf 04 56 7c bd
       -0.12773101 0.13936931 -0.803931 -0.06160547

W.2 f4 [1, 5]
000000 0c 1d 19 be 0c c9 08 bf 4d 28 96 3d 7e f0 83 be
       -0.14952487 -0.53431773 0.073319055 -0.25769418
000010 07 54 18 bf
       -0.59503216

U.0 f4 [500, 200]
000000 7e cb 57 3e 13 91 3e 3e b1 f5 45 3e af eb 24 be
       0.2107372 0.18610029 0.19332005 -0.16105531
000010 15 28 66 3e bd d8 8a 3e 35 ae 7e 3e ee 22 e2 bd
       0.22476228 0.27118483 0.24871142 -0.110418186
000020 13 50 53 3e c6 f1 6b be 96 b5 15 be 89 3d 73 bd
       0.20636015 -0.23041448 -0.14620051 -0.059384856
000030 90 66 20 be c3 6e c3 bd 4c 70 82 3e 0c d5 57 3e
       -0.15664124 -0.095426105 0.254763 0.21077365
000040 21 be 78 be 0d e0 03 3e be 2f 0a be 70 ab a6 3e
       -0.24291278 0.12878437 -0.13494775 0.3255267
000050 e5 d9 5d 3e 24 ab 2e be 55 18 80 3e 64 ae 67 3e
       0.21665151 -0.17057472 0.25018564 0.22625118
000060 43 29 4c be d4 76 b6 3d 1b eb a7 3e 89 f6 3f 3e
       -0.19937615 0.089093834 0.3279656 0.1874639
000070 70 3c 49 bd 7f 27 e5 bd 02 7e 59 3e 45 8b 6a 3e
       -0.049129903 -0.11189174 0.21239474 0.2290469
000080 93 01 b8 3c cf 8a e2 3d 46 05 13 be 7d 15 34 be
       0.022461688 0.11061632 -0.1435748 -0.17586322
000090 f4 8d 49 3e 2e 4b 63 3e d2 28 8c be 33 08 90 3e
       0.19683057 0.22196648 -0.27374893 0.28131256
0000a0 8a 5e 8d 3e ce 00 b3 3d 7c 80 da bd a0 d0 79 bd
       0.2761119 0.08740388 -0.10669038 -0.060989976
0000b0 91 52 28 be 97 21 0e be 28 48 2a 3e 7a 91 5e be
       -0.16437747 -0.13880001 0.16629088 -0.21735182
0000c0 3c 61 c0 3d 2b a9 aa 3e 00 56 ea 3d a7 c3 56 3e
       0.09393546 0.3333219 0.114421844 0.20973073
0000d0 83 34 02 be be ab 27 be 99 62 f5 bd ba 3b 82 be
       -0.12715344 -0.16374108 -0.11981697 -0.25436193
0000e0 13 c0 83 3e e1 e7 ed bc 3b 38 ed bc ae 7b 0f be
       0.25732478 -0.029041233 -0.028957477 -0.14012024
0000f0 5d 7e 8d bc fb 10 41 be 0a 4f 96 3e 65 4a 82 3d
       -0.017272169 -0.18854134 0.29357177 0.06361846
000100 2c dc 80 3e b3 69 48 3e cd 9e 29 bd b3 7a ed bd
       0.25167978 0.19571571 -0.04141121 -0.11595669
000110 8f 60 91 3e 63 5a 83 3e ff ca 8c bd d3 ee 70 3e
       0.2839398 0.25654897 -0.06874656 0.23528604
000120 5c b4 2b be 06 c5 e9 3d 13 7d 13 3e 19 df 71 be
       -0.1676802 0.11414532 0.14403181 -0.23620261
000130 2c ce 75 3d a4 a2 82 3e ef e1 eb bc c1 89 83 3e
       0.060011074 0.2551471 -0.028794257 0.25691035
000140 55 1d c6 3d f5 f4 99 3e fe e8 79 3e d8 fe 33 3e
       0.096735634 0.300697 0.24405286 0.17577684
000150 00 3c f9 3d 38 05 a4 3e fa 39 85 3e 89 56 76 be
       0.12169647 0.32035232 0.26020795 -0.24056448
000160 dd 04 90 3e da f8 86 3e 83 e4 f9 3d 52 50 aa 3e
       0.2812871 0.26361734 0.12201788 0.33264405
000170 31 f0 5a 3e 4c ef 54 3e b2 a1 48 3e 70 8a 15 be
       0.21380688 0.2079441 0.19592932 -0.14603591
000180 dd eb 0b be 29 42 5c 3e b4 05 76 3e a8 94 35 bd
       -0.13664193 0.21509613 0.24025613 -0.044331223
000190 64 ea 3f 3e fb 60 54 3e d4 3b 81 3e d3 3a 40 3d
       0.18741757 0.2074012 0.25240958 0.0469311
0001a0 11 eb 11 3d 27 49 22 3e 94 14 09 3e ef 2e 8c bd
       0.035624567 0.15848218 0.13386756 -0.068448894
0001b0 20 94 9d 3d 0b a9 24 3e 70 8b 63 be 3c 64 3b be
       0.07694268 0.1608011 -0.2222116 -0.18299955
0001c0 a2 a8 9e 3d fe 52 4d 3e 8b b2 36 be c6 f8 57 3e
       0.07747008 0.2005119 -0.17841546 0.21090993
0001d0 6b ec 07 3e 4d b6 92 3d c9 49 15 be 91 6b 8a 3e
       0.1327378 0.07163677 -0.14578928 0.27035192
0001e0 f1 39 69 3e 2b 24 af 3d de 35 ce 3e 71 19 06 3e
       0.22776009 0.0855182 0.40275472 0.13095643
0001f0 00 c8 68 bd b9 34 91 3e 7d 46 4e 3e 36 05 95 be
       -0.05683136 0.28360537 0.20144077 -0.29105538
000200 be 4b 94 bd df 47 86 be 9a 95 0e 3e 28 f1 88 3e
       -0.07241009 -0.26226708 0.13924256 0.26746488
000210 b2 fd 71 3e 61 6b e9 bd 96 c9 50 3e c5 e5 a3 3e
       0.23631933 -0.11397434 0.20389399 0.32011238
000220 c8 7c 79 3e 53 d0 42 be 16 d9 93 3e 39 f7 21 be
       0.24364007 -0.19024782 0.2887656 -0.15816964
000230 ae 01 83 3e d8 6c 95 3e b5 21 34 be 2c 2b 10 be
       0.2558722 0.29184604 -0.17590983 -0.14078969
000240 46 a1 61 3e 97 40 3c 3e 54 3e 91 3e 41 5d 41 3e
       0.22034177 0.18384014 0.28367865 0.1888323
000250 95 b4 1c be 43 c7 4c 3c 4c bc 37 3e 34 fd 67 3e
       -0.15303262 0.01249868 0.17942923 0.22655183
000260 d8 4e c7 bd a3 5e 2b 3e 5f cc 83 3e b9 fa ae bd
       -0.09731835 0.1673532 0.2574186 -0.08543915
000270 c9 27 5c 3e aa 43 ac 3e 4e 31 3f 3d e0 51 a6 3d
       0.21499552 0.33645374 0.04667788 0.08121085
000280 46 67 af bd 33 84 43 3e 3c 58 77 3e 7c fe a4 3e
       -0.0856462 0.19093399 0.24154752 0.32225406
000290 cf e5 50 3e 8a 7e 8c 3e 12 21 1c 3d c2 79 95 3e
       0.20400165 0.27440292 0.038117476 0.29194456
0002a0 2f 2d 99 3e d1 2c c6 3e 54 8e 66 3d ee 04 f2 bd
       0.29917285 0.38706067 0.05628808 -0.118173465
0002b0 88 f2 8c bb 19 14 93 3e 0f b8 54 be e4 2a 56 3e
       -0.004301373 0.2872627 -0.20773338 0.20914799
0002c0 0e 7b 4b be 86 b7 9f 3e 89 9a 8f 3e 2c fb 80 3c
       -0.1987116 0.31194705 0.28047588 0.015744768
0002d0 be cb 32 3e e0 df 28 3e 8a a9 5d be 4a 21 ef 3d
       0.17460534 0.16491652 -0.21646705 0.11676271
0002e0 70 ec 1f 3d c7 30 bd 3b 2e 58 95 3e 35 c5 13 3c
       0.039043844 0.005773637 0.29168838 0.009019186
0002f0 b3 7c 30 3e 86 db 34 3e 55 71 49 be 1d 75 89 be
       0.17235069 0.17661867 -0.19672139 -0.26847163
000300 92 60 5f be dc 56 05 be 3c 80 1f 3e 50 54 3f 3e
       -0.21814182 -0.13021415 0.15576261 0.18684506
000310 4f 15 1d be 68 1b 89 3d f0 0b 84 be db 17 09 be
       -0.1534016 0.066946805 -0.25790358 -0.13388006
000320 bf 22 93 3e 4c 27 b5 3e 66 ca 6a 3e 88 0e 19 be
       0.28737447 0.35381544 0.22928771 -0.1494695
000330 00 54 18 3e 65 fc 3c 3e 97 17 18 be 41 ed 92 bd
       0.14875793 0.18455656 -0.14852749 -0.07174159
000340 af 03 9f 3d 23 df 74 be 03 d3 03 be 8c 95 75 3d
       0.077643745 -0.23913245 -0.12873463 0.059957072
000350 16 68 ce bd fa 86 9d 3c 8f c2 77 3e 1c f5 f9 3d
       -0.100784466 0.0192294 0.24195312 0.12204954
000360 19 74 23 be 7c 3d 65 bd fa fa f5 3d b5 bb 0b 3e
       -0.15962256 -0.05596684 0.120107606 0.13645823
000370 dd 79 2e bd 31 c0 af bd cc ba a1 bd 20 0e fe bd
       -0.042596687 -0.085815795 -0.07896957 -0.12405038
000380 f0 3d 10 be 0b da a4 3c 53 26 0f 3d 87 68 4f be
       -0.14086127 0.020123502 0.03494866 -0.20254718
000390 56 ef c4 3d c9 16 e8 3c 7e 9a 8c 3e 84 40 a4 3e
       0.09615962 0.028331177 0.27461618 0.32080472
0003a0 0d 59 3a 3e 3c 83 67 3e 8d b6 80 3d c4 6a 64 bc
       0.18198033 0.22608656 0.06284819 -0.0139414705
0003b0 fe 4e 5c 3e bd 5e de bd 6a f5 4b be a0 3d 14 be
       0.21514508 -0.10857914 -0.19917837 -0.14476633
0003c0 62 75 8b 3e 1c 85 23 3e 33 9d 21 be 55 f5 f3 3d
       0.27237993 0.15968746 -0.15782623 0.11912028
0003d0 c0 71 1d be ba 58 05 bd 46 f8 6a 3e c3 c4 70 be
       -0.15375423 -0.03255532 0.22946271 -0.23512559
0003e0 d8 d3 37 3e 87 07 ee bd 09 44 82 be c0 73 ad 3e
       0.17951906 -0.116225295 -0.25442532 0.33877373
0003f0 4b 19 2e be c9 2e cd bd e4 df 07 be ab 31 81 be
       -0.17001836 -0.10018689 -0.13269001 -0.25233206

U.1 f4 [1, 500]
000000 d5 0c c3 bd 1d 55 4a 3c ad d2 19 be 16 9c d8 bd
       -0.09523932 0.012349394 -0.15021773 -0.10576646
000010 0d 73 2c 3e 64 02 84 3e 68 92 40 3e 51 2d ff bd
       0.16840763 0.25783074 0.1880585 -0.12459815
000020 f6 1c 52 3e 0e a9 c4 bd cc 78 3f bd b5 82 59 3e
       0.2051886 -0.09602557 -0.04674606 0.21241267
000030 d5 0f 1e be b1 ab 02 be 1e 6b 67 be de 5a a4 3d
       -0.15435727 -0.12760808 -0.22599456 0.08025144
000040 46 45 19 3e a6 c5 2b be 2d bb 2d 3c eb c0 b2 3e
       0.14967832 -0.16774616 0.010603708 0.3491281
000050 54 5f 2f 3e 1c e9 af 3c c7 27 2e bc 3e 66 9b 3e
       0.17126209 0.02147346 -0.010629601 0.30351442
000060 26 86 a8 bd 73 e9 22 be 06 54 c4 3e 9c d8 3d 3e
       -0.08228712 -0.15909366 0.38345355 0.18539661
000070 d4 22 4d 3e 5c 6d 2f be 9d af 0f be 6d 3e 28 3e
       0.20032817 -0.17131561 -0.14031835 0.16430064
000080 2f 0a ff 3a 70 7a cf bc 0c e6 40 3e 47 a2 23 3e
       0.0019457991 -0.025326937 0.18837756 0.15979873
000090 40 41 8e 3b 94 cc 57 be 26 60 70 3e ec 24 91 3e
       0.0043412745 -0.21074134 0.23474178 0.28348482
0000a0 66 ea 62 3e ac 8d 92 3c 06 cb f0 3d b7 39 7d bd
       0.22159728 0.01788982 0.11757474 -0.06182262
0000b0 b0 33 f0 3d 58 8a 40 bc f8 fa 34 3e c7 3f 88 3e
       0.117286086 -0.011751734 0.17673862 0.26611158
0000c0 74 9a 22 be e5 65 79 3e 3b 9e cb 3c e8 60 11 3e
       -0.15879232 0.24355276 0.024855724 0.14197123
0000d0 cb 2f 4a 3e 7f 52 18 be 9c a1 c9 bd b8 1f 50 be
       0.19744794 -0.1487522 -0.09845278 -0.203246
0000e0 d2 83 bd 3d fd c0 5e 3e 8e 55 14 3e ab ff 28 be
       0.09253658 0.21753307 0.14485762 -0.1650378
0000f0 d6 dc a0 bc 00 58 0a 3d 4a 32 48 3e 31 5d 22 3e
       -0.019636553 0.03377533 0.19550434 0.15855862
000100 32 9c d7 3d 31 d0 88 3e 0a 1b 14 3e f0 65 9c bd
       0.10527839 0.26721337 0.1446344 -0.076366305
000110 88 c2 2b 3e 2f e5 0b bb a2 2f 08 3e c9 23 f4 bd
       0.16773427 -0.002134632 0.1329942 -0.11920888
000120 c7 bb 89 3e 25 98 65 3e 6b c9 42 be f4 77 c0 3e
       0.26901075 0.2242132 -0.19022147 0.37591517
000130 7f 12 75 3e 01 0c 6b 3d 19 33 a1 3d fd f8 b8 3e
       0.23932837 0.057384495 0.07871074 0.36127463
000140 23 37 36 3d 5e 6d 08 bd ce e1 4b 3e 11 ff f4 bd
       0.044486176 -0.033307426 0.19910356 -0.119627126
000150 e1 ff e0 3e f4 f7 ce 3d 7f 8f 90 3e a5 3c ea 3b
       0.4394522 0.10105887 0.2823448 0.0071483427
000160 45 71 40 3e 95 54 16 be 08 85 e2 bd 97 a1 86 3e
       0.18793209 -0.14680703 -0.1106053 0.26295158
000170 84 11 46 3e dd cb 9c 3e b9 99 11 be 69 57 7a 3e
       0.19342619 0.30624285 -0.14218797 0.24447407
000180 2d 38 37 be 98 8f 8b bd 88 59 39 bd aa 14 a1 3e
       -0.17892523 -0.06814498 -0.0452514 0.31461078
000190 f0 c2 d0 bd 32 eb b3 3e 00 a9 a1 3e 31 24 54 bd
       -0.101934314 0.35140377 0.3157425 -0.051792327
0001a0 f7 ca a2 3e 86 f8 5f 3e 53 8f 12 be d1 f3 1f be
       0.31795475 0.21872148 -0.14312486 -0.15620352
0001b0 5e cc 39 be 74 6c 2a be a1 39 2c 3c de 12 36 be
       -0.18144366 -0.16642934 0.010511787 -0.17780635
0001c0 2c 4d 62 3d ec 34 34 3e 41 c7 43 3e 08 f2 23 3c
       0.055249378 0.17598313 0.19118978 0.010006435
0001d0 47 34 bf bd a9 09 3c be 0c 0b f8 bd fa b1 49 be
       -0.09336143 -0.1836306 -0.12111482 -0.19696799
0001e0 8b 4f 23 3e a6 01 3d 3e 01 5d 65 3b 65 de 19 bc
       0.15948312 0.1845766 0.0034998062 -0.009391402
0001f0 70 b5 53 3e 25 3b d0 bd 14 5b db bd b4 68 a3 3d
       0.20674682 -0.10167531 -0.10710731 0.07978955
000200 44 f6 6b bd c1 14 5b 3e 56 1e 2b 3e 45 b2 2b be
       -0.057607904 0.21394636 0.16710791 -0.16767223
000210 4b c6 75 be 62 42 09 be 4e 4a 9e 3d 46 a9 49 3d
       -0.24001424 -0.1340423 0.07729016 0.049233697
000220 00 04 bf 3d 2f a5 1f be 45 61 2c be 10 df 1e be
       0.09326935 -0.15590356 -0.1683398 -0.15514779
000230 a1 8e 0f be b1 aa d8 3c 11 6b 34 be c1 de 00 3e
       -0.14019252 0.02644858 -0.17618968 0.12584974
000240 69 2d 5e be 47 aa d7 3d db 01 84 3e bf d8 53 be
       -0.2169701 0.10530525 0.25782666 -0.20688151
000250 26 19 07 3e 69 d4 83 3e 89 2e fe bc 83 bf 34 bd
       0.13193187 0.25747994 -0.031028049 -0.044127952
000260 6a 1f a5 bd 48 a4 25 3e 96 1e 57 3e 29 2c 1c 3e
       -0.080626324 0.1617595 0.21007761 0.15251221
000270 ce e5 81 3e 6c 50 09 bd f0 2a b1 bd b3 2c 34 3e
       0.2537064 -0.033523962 -0.08650768 0.17595176
000280 17 18 02 3e 44 41 5e 3e 93 e4 39 be 92 f9 37 3d
       0.12704502 0.21704584 -0.181536 0.044915743
000290 80 f2 a0 3d cd 94 77 3e b3 2e 4f 3e 7f d4 3b 3e
       0.07858753 0.24177857 0.20232658 0.1834278
0002a0 a8 aa 02 3d de 97 27 be f2 f8 8c 3e eb e7 93 bd
       0.03190103 -0.16366526 0.2753368 -0.07221969
0002b0 c9 ed a0 3e 6a 6c 85 3e 48 72 77 3e 54 b7 fa 3d
       0.31431416 0.26059276 0.24164689 0.12241998
0002c0 e7 5b 8d 3e d9 5a 82 3e 4c 2d 9a 3e 30 39 94 3e
       0.27609178 0.25459936 0.30112684 0.2894988
0002d0 87 fc 3c 3e 16 4f 86 3e 4e 61 c4 3d f0 db 51 3e
       0.18455707 0.26232213 0.09588872 0.20494056
0002e0 53 86 0f be 63 c9 0e 3b a6 0c f2 3d dc c0 3b be
       -0.14016084 0.0021787516 0.11818819 -0.18335289
0002f0 c3 94 e1 bd c8 8b 29 3e 35 1e 6b 3e 27 f7 4d 3e
       -0.11014702 0.16557229 0.22960742 0.20113812
000300 c2 57 44 3e 12 87 8c 3e c9 00 cd 3e b9 0c 3c 3e
       0.19174102 0.274468 0.40039662 0.18364228
000310 82 22 2e 3e 52 9b 95 bb 97 ff e2 3d 1a 65 7f be
       0.17005351 -0.0045656348 0.11083906 -0.24940911
000320 8b d3 5c 3e b5 93 7a 3e 1b c1 39 3e 0c 55 2a bd
       0.21565072 0.24470408 0.1814007 -0.041585013
000330 4f dd 43 3d e6 a1 2d be bb 41 5c 3e 05 a1 83 3e
       0.04781848 -0.1695629 0.21509449 0.25708786
000340 7c e9 e4 3d 73 3c 25 3d 79 82 aa 3c cb 2c 45 be
       0.11177346 0.040340852 0.020814167 -0.19255368
000350 d8 c0 f3 bd e4 aa 1c 3e b5 dd 34 3e d0 b6 bf bd
       -0.119020164 0.15299565 0.176627 -0.093610406
000360 71 45 7a 3e a8 34 67 3e 37 e2 41 3e fe 06 49 be
       0.24440552 0.2257868 0.1893395 -0.19631574
000370 7b 3c 1f 3e f7 94 d8 bd bd ca 96 3c 3c 3e d3 bc
       0.15550415 -0.10575288 0.01840722 -0.025786512
000380 55 5e 7e 3e c7 44 72 be 53 2f 35 3e b6 74 76 3e
       0.24840672 -0.23659049 0.17693834 0.24067959
000390 d4 fe 38 3e 30 e4 a0 3e aa f4 f2 bd 64 11 6e 3e
       0.18065959 0.31424093 -0.11863072 0.23248821
0003a0 6f 47 09 be a7 33 ef bb 61 7b 93 3e 28 fd 00 be
       -0.13406156 -0.0072998586 0.28805068 -0.12596571
0003b0 c2 46 ed 3c ed ba d7 bd 15 a2 42 be ab 1b 03 be
       0.028964404 -0.105337 -0.19007142 -0.12803523
0003c0 9d 11 1e be dd 47 01 be 2f 3a 59 bc a8 e8 ba bd
       -0.15436406 -0.1262507 -0.013258501 -0.09126407
0003d0 11 25 3e be f0 a7 8b 3e 6a 56 c6 3d c6 20 42 3c
       -0.18568827 0.27276564 0.09684451 0.011848634
0003e0 6b 8c 42 be bc d0 0d be 5a 95 1f bd ee 35 67 3e
       -0.18998878 -0.13849157 -0.038960792 0.22579166
0003f0 71 ae 0d be 97 07 0a 3e b0 11 d6 bd a4 c4 08 be
       -0.13836075 0.13479458 -0.104525924 -0.13356262

bias.0 f4 [200]
000000 a5 09 0c bd b1 30 e9 3d 4f c8 88 3e 7c 6e 73 bb
       -0.034188885 0.1138624 0.26715323 -0.0037144711
000010 f0 12 dd bd 25 fe 86 be da 1f c2 3e b5 51 b7 3d
       -0.10794628 -0.26365772 0.37914926 0.08951131
000020 16 80 19 bd 10 81 67 3e 53 e0 a1 be cb 62 09 3f
       -0.037475668 0.22607827 -0.31616458 0.5366637
000030 75 77 a8 3e 0c aa ad 3e de f0 90 be aa be e1 be
       0.32903638 0.33918798 -0.28308767 -0.44090778
000040 7b 11 ff be 33 93 9b 3e f4 2a aa be b5 0d e8 3d
       -0.49818024 0.30385742 -0.33235896 0.113307394
000050 0c 52 e3 be c8 79 e1 be 57 9d 98 be bc 1c 03 bf
       -0.44398534 -0.44038224 -0.2980754 -0.5121572
000060 b9 e0 c7 3e 31 eb 44 3e 6f 2a 5f be 36 e7 64 be
       0.39038637 0.19230343 -0.21793531 -0.22353825
000070 20 66 9b be 0b 54 da 3e 4b 7b 3b be e3 fa ae 3e
       -0.30351353 0.42642245 -0.18308751 0.34175786
000080 fe ff 4e 3e 0f ce ea 3e e3 86 27 3e 62 19 9f bd
       0.20214841 0.45860335 0.16360049 -0.07768513
000090 9a a4 95 be 95 f6 f2 bd f9 95 97 be 13 a8 54 3d
       -0.29227144 -0.11863438 -0.29606608 0.0519181
0000a0 c5 1a 7c be 54 19 7d be 5a 64 49 3f 8b dd a4 be
       -0.24619587 -0.24716693 0.7866875 -0.32200274
0000b0 43 24 e3 be 2b 54 83 be a2 03 81 3e 4a 53 83 3d
       -0.44363603 -0.25650153 0.25198084 0.064123705
0000c0 df 60 af 3d ad a7 89 be db a8 9f 3e 7e 2a f2 bc
       0.085633986 -0.2688574 0.31183514 -0.029561277
0000d0 e2 a5 e8 3e b7 73 91 3e b2 a3 9d be 1c e5 91 3e
       0.4543906 0.28408596 -0.30788952 0.2849511
0000e0 6a 50 de be fb 70 d4 3e 0a 4f 9d 3e 56 60 59 bd
       -0.43420726 0.41492447 0.30724365 -0.05307039
0000f0 f7 25 8f 3d ba 8d 8c 3e 1b ce e5 bd ae cb bf bb
       0.06989663 0.2745188 -0.11220952 -0.005853138
000100 f9 c0 42 be ab de 9c 3d d8 83 9a 3e 91 97 56 3e
       -0.19018926 0.07659658 0.30178714 0.20956255
000110 cf 3a d1 3e cf a1 02 bd e1 ff 96 3e 61 3e 65 3e
       0.4086518 -0.031892594 0.29492095 0.22387077
000120 66 34 c0 3c 7b 67 51 3e 0a c9 e7 3d 6b a0 97 bd
       0.023462486 0.20449631 0.11317642 -0.07403644
000130 97 5b 11 3e 64 6d 2f 3c ef 43 53 3e 9c f0 fb 3d
       0.14195095 0.010707233 0.20631383 0.12301752
000140 e7 13 76 be 6e bf 8d 3e a0 15 de bd 6f a0 82 be
       -0.2403103 0.27685112 -0.108439684 -0.25513026
000150 de 30 76 3e 0c 1b c6 bd 2b 7b 2d 3e 8b 2b ca be
       0.24042079 -0.096731275 0.16941516 -0.39486346
000160 6f 26 a9 be 7d 53 89 bd 5a 12 83 bd c5 d0 a3 3e
       -0.33037135 -0.06705377 -0.06399985 0.31995216
000170 80 a3 eb be fa b5 be bd 91 68 a0 be 0a a7 dc 3e
       -0.46023178 -0.09312053 -0.31329778 0.4309619
000180 b0 d7 ab be 53 43 4b bd 36 b5 50 3e 1a 04 e8 bb
       -0.33562994 -0.049624752 0.20381626 -0.007080567
000190 e6 bb 78 be f1 85 26 3e c4 c7 1c 3d e6 17 47 3e
       -0.24290428 0.16262032 0.03827645 0.1944271
0001a0 4e 4a ae 3e f1 71 75 3e 7f d1 d7 3e 75 05 70 be
       0.34041065 0.23969246 0.4215202 -0.23439582
0001b0 8d ee 8b 3e 87 c7 87 3e 9b bf 43 be 75 58 b6 3e
       0.27330437 0.26519415 -0.1911606 0.35614362
0001c0 7a 58 e5 3e c8 d8 ba be 39 b3 ff 3e 05 10 3b 3e
       0.44794065 -0.36493516 0.49941424 0.1826783
0001d0 1e 54 80 be f1 60 1f be 62 58 68 bd 20 7a b7 be
       -0.25064176 -0.15564324 -0.056724913 -0.3583536
0001e0 3b 3e 4f bd 41 50 c5 bd 3f f9 76 3c 0c a3 b3 3e
       -0.050596457 -0.09634448 0.015074073 0.35085332
0001f0 4d 36 63 be 09 b5 a5 be e9 d5 11 3e cb 94 47 be
       -0.22188683 -0.3236468 0.14241756 -0.19490354
000200 71 a4 b4 3d 71 c1 f7 3e 3a bf cb 3e 45 78 6e 3e
       0.08820427 0.48389772 0.39794332 0.23288067
000210 25 79 1a be 7c 16 77 3e 6b cf 21 be 9a 92 b3 3e
       -0.15085275 0.24129671 -0.1580178 0.35072786
000220 f0 a8 d1 bc a1 e8 5b be 47 7d d8 3e b1 3b 9d bd
       -0.025593251 -0.2147546 0.4228308 -0.07677401
000230 7f 9c af bb 3e fc d8 be 89 8b 37 be 14 5a a3 3e
       -0.005359232 -0.42379946 -0.17924322 0.31904662
000240 11 dc c9 be e4 1e 3a be 5f 27 1b 3e 63 9c 9f be
       -0.3942571 -0.18175846 0.15151738 -0.31174
000250 0b 27 6a bd b1 7a be bd b8 92 8c 3e b0 34 71 3e
       -0.05716614 -0.09300745 0.27455688 0.23555255
000260 b6 44 be be 30 55 03 3e 61 40 36 3e 2b 89 85 bc
       -0.37161797 0.12825465 0.17797996 -0.016300758
000270 2e 05 de bd bb 48 26 bc 1a 14 67 be 52 d5 2a be
       -0.10840832 -0.010149176 -0.22566262 -0.16682938
000280 0b 55 19 3e c4 14 2e 3e ec 98 4a be 8a f4 19 3d
       0.14973848 0.17000109 -0.19784898 0.037586726
000290 b9 fe 7f 3e 18 27 36 3e b6 07 02 be 9e f5 b0 be
       0.24999513 0.1778835 -0.12698254 -0.3456239
0002a0 27 0d 08 3e 66 3a 73 bd e3 8e c0 3e 4a df ce 3d
       0.13286267 -0.059381865 0.37609014 0.10101183
0002b0 d2 45 1c 3f 37 00 5b 3e 50 90 f7 bd 11 b6 de 3e
       0.6104404 0.213868 -0.12088072 0.4349828
0002c0 4b de cc 3d e7 6a 82 3e 96 02 d6 3d 61 b6 05 be
       0.100033365 0.25472185 0.10449712 -0.13057853
0002d0 2d 89 45 bd 2b 8b 8c bd 13 22 b0 bd 78 a7 2b bd
       -0.048226524 -0.06862482 -0.08600249 -0.041907758
0002e0 84 0c e9 3d 35 26 d2 3d fe d2 dc 3d f5 a6 66 3e
       0.1137934 0.10261194 0.10782431 0.22524627
0002f0 b7 b3 dc 3e 8d 94 39 3d f7 18 a0 bd 41 23 01 3f
       0.43105862 0.045307685 -0.07817262 0.5044442
000300 5b 6c 99 3c ae 45 5c 3d 53 eb 25 3e 85 a2 f8 bd
       0.018728426 0.05377739 0.1620305 -0.12140373
000310 a2 f7 df 3e 3e 90 48 3d 46 30 0c 3f 33 05 5e 3d
       0.43743616 0.048965685 0.5476116 0.054204177

bias.1 f4 [500]
000000 d4 cd d4 be 85 42 a2 be 3f 5e a2 bd 24 1e cd 3d
       -0.41563284 -0.31691375 -0.07928132 0.100155145
000010 43 d5 a1 be 02 eb 2e be 67 7e a3 be 8a 07 86 3d
       -0.31608018 -0.17081836 -0.31932375 0.06544407
000020 c3 d1 ac 3e 2d 8d ce 3e 3f d6 85 3e b8 08 c8 be
       0.33753785 0.40342084 0.2614002 -0.39069152
000030 78 71 63 3e 49 33 76 bd 29 6c 53 be 3f 1e a3 be
       0.22211254 -0.060107503 -0.20646729 -0.31859013
000040 7f 48 36 3d 69 6d 37 be dd 1e e3 bd 76 85 a5 bd
       0.04450273 -0.1791283 -0.11089871 -0.08082096
000050 ad 41 33 3d ee 59 03 3f d4 d1 f2 3d b4 58 f1 bd
       0.043763805 0.51309097 0.11856428 -0.11784497
000060 28 b4 a7 be f5 05 2f 3e 62 08 18 bd e1 0e 0d bd
       -0.32754636 0.17092116 -0.03711737 -0.034438018
000070 b6 4a ef bd 2c bf eb be 08 1a a4 3d 20 2b 62 be
       -0.11684172 -0.4604429 0.080127776 -0.22086763
000080 c5 f3 7c be 6c 6f 35 3e 16 1a bd be d2 fd 97 3e
       -0.24702366 0.17718285 -0.36933964 0.29685837
000090 a0 75 8c 3e f9 74 c5 bb ca 68 54 bd 6b b8 91 be
       0.2743349 -0.006025907 -0.051857747 -0.28461012
0000a0 7a c7 56 3e 20 e0 b8 3d 96 76 1e 3e 3a 14 d6 3e
       0.20974532 0.090271235 0.15474924 0.41812307
0000b0 53 8f 65 be 67 8e e4 3e 3a 51 19 3d 5a a8 a2 be
       -0.22417955 0.44639894 0.03743098 -0.31769067
0000c0 69 e4 9a 3e d9 82 3a 3d d6 24 96 be be 27 a3 be
       0.30252388 0.045534942 -0.2932498 -0.31866258
0000d0 b1 10 16 be 4b 42 a6 bd da 74 91 bd 1f ca 2e bd
       -0.14654805 -0.08118113 -0.07102366 -0.042673226
0000e0 0f 88 ab bd 4a a8 0f bb ab 90 05 bd 2c 8a 8f bd
       -0.083755605 -0.0021920376 -0.03260867 -0.07008776
0000f0 68 d9 91 bb 3d 79 84 be 5c 09 be bd 60 ca 2a be
       -0.0044509657 -0.25873747 -0.09279129 -0.16678762
000100 b0 7e 27 be ee a8 6e be 27 99 0c bd 77 2e 78 3e
       -0.16356921 -0.23306629 -0.034325745 0.24236475
000110 ad 57 47 3e 3f b3 25 be 49 98 ad 3e 23 1c 37 bc
       0.1946704 -0.16181658 0.33905247 -0.011176142
000120 1c 53 ab bd 01 81 84 3e 6f 8d da 3e f3 d7 45 3f
       -0.08365461 0.25879672 0.4268603 0.7728264
000130 3d ad d7 3d b2 ee c0 3e f2 1e dc bd df b3 58 3e
       0.105310895 0.3768211 -0.1074809 0.21162365
000140 77 db 63 3e 3f 9d 20 be ea cf bf be 95 50 81 3e
       0.22251688 -0.15684985 -0.37463313 0.25256792
000150 99 2a d1 bd 79 e9 f9 bc 26 d0 aa 3d 31 8d 04 3f
       -0.10213203 -0.030506836 0.083404824 0.5177794
000160 3c 00 d3 bc a5 b5 ee be 71 66 b8 3d b3 9f ed 3e
       -0.025756948 -0.4662296 0.09003914 0.46410903
000170 da 6f 03 3e 3b 7c 61 be 0d 66 d0 3e 8e b3 8c be
       0.12835637 -0.22020046 0.4070286 -0.2748074
000180 7c 0e 7b be 11 4d 88 bd f9 6d ef 3e 08 4a 57 be
       -0.24517244 -0.06655324 0.4676359 -0.21024334
000190 dc ee f4 3e d8 56 a0 3d 14 d8 6c 3b 50 b9 bb bd
       0.47838485 0.07829064 0.0036139535 -0.09166205
0001a0 ec 6e 66 be 22 79 10 bc 3d 2c 1e be 01 74 21 bd
       -0.22503251 -0.008817943 -0.15446563 -0.03941727
0001b0 87 3e 59 be cb 8d c7 3e ce ef 97 3d 3e 9f 00 3d
       -0.21215259 0.38975367 0.07418786 0.031401865
0001c0 c6 52 ab be bb b0 d9 bd 37 19 26 3d 8a 53 97 be
       -0.3346159 -0.10629412 0.04055139 -0.29555923
0001d0 53 83 83 3e 60 9f fa be 01 3d 8b 3d 19 52 26 be
       0.2568613 -0.48949718 0.06798745 -0.16242255
0001e0 67 0c cd bd 0b 6c 96 3e e5 a4 8b 3e 34 4d 5d 3e
       -0.10012131 0.29379305 0.27274242 0.21611482
0001f0 53 92 8f 3e f9 53 b2 be 3a 8d 13 3f 5f 4c 1d be
       0.28041324 -0.3482969 0.5763737 -0.15361165
000200 b6 1d bf bd df f1 3a be 0c 6d b3 3c 04 01 15 3f
       -0.09331839 -0.18256329 0.021902584 0.58204675
000210 7b 10 59 3e e2 69 38 bd fe 6a 08 3e 83 06 87 be
       0.21197693 -0.045022853 0.13322064 -0.26372156
000220 bb ba b9 3e f6 c2 e1 bd 0c 86 d9 3e 2f db 59 be
       0.36275277 -0.11023514 0.42485082 -0.21275018
000230 1a a9 d4 be 45 44 c5 3e 54 d4 dd 3e f9 65 92 be
       -0.41535264 0.38528648 0.43326056 -0.28593424
000240 5b d7 b4 be 90 3a 80 3e 2f 24 13 3d 61 d9 91 be
       -0.35320553 0.2504468 0.03592318 -0.2848616
000250 aa 61 be be 47 fe dd bd 21 c9 9e 3e 11 93 88 3e
       -0.37183887 -0.10839515 0.31012824 0.26674703
000260 20 fe cc 3e 6c aa dd 3b e3 02 8a bd 53 70 ce 3d
       0.40037632 0.0067647006 -0.06738832 0.10080018
000270 8f ed 02 3c 1f 33 48 3c 3f a2 97 3e 07 39 e6 3d
       0.007991209 0.0122192195 0.2961597 0.11241346
000280 36 06 73 be c6 28 92 be d8 10 4c 3d 6c 16 bf be
       -0.23732838 -0.28546733 0.04982075 -0.37321794
000290 1e 4a 8a 3e 38 47 13 3d 83 6a b2 be 59 8f 2f be
       0.27009672 0.03595659 -0.34846887 -0.17144527
0002a0 b5 b8 85 3e b1 db b9 bd 72 45 2a be 31 69 8b be
       0.26117483 -0.09075106 -0.16628054 -0.27228692
0002b0 d1 e0 9f 3d 31 ee 46 be 3d 29 42 3c 62 89 59 be
       0.07806552 -0.194268 0.011850652 -0.21243814
0002c0 75 d6 51 3d 1d f0 2d be 5c 9f 6d 3c 13 a1 cc 3b
       0.051229913 -0.16986127 0.014503326 0.0062447875
0002d0 b2 07 c2 bd 5b 2c b2 be bd 2a 28 be fa 9a 6d 3e
       -0.09474124 -0.34799466 -0.16422553 0.2320365
0002e0 4a 14 d4 be 96 9c 51 be ab ac e6 3e a7 a1 2a 3e
       -0.4142173 -0.20469889 0.4505361 0.16663228
0002f0 a8 07 42 be e6 0b a4 3e 4c f7 85 3e fa 21 07 be
       -0.18948233 0.32040328 0.26165235 -0.13196555
000300 55 9c c5 3d 16 2b 3b 3d c6 38 66 be 9f 36 55 3e
       0.096489586 0.045695387 -0.22482595 0.20821618
000310 76 05 c9 be 48 e6 63 be c4 1d 37 3e f0 55 8f be
       -0.3926198 -0.22255814 0.17882448 -0.27995253
000320 b1 70 ce be 64 3b 5e be 3c 65 55 bd a1 c3 a9 be
       -0.40320352 -0.21702343 -0.052098498 -0.33157066
000330 d8 47 8e 3e 9f 01 0f 3f 30 9e 80 bc 59 b4 74 3c
       0.27789187 0.5586185 -0.01570043 0.014935576
000340 cf 02 43 be ca 3b 9f 3e 94 8d a0 3e 13 7d e3 3d
       -0.1904404 0.31100303 0.31358016 0.111078404
000350 e5 9e d2 3e 29 1e 97 be ae 8c 5e 3d bb 43 e6 bd
       0.41136852 -0.29515198 0.05433338 -0.11243387
000360 75 76 c1 3d f1 ad b5 be 16 ea 21 3e d2 cd dd 3e
       0.09446422 -0.3548427 0.15811953 0.4332109
000370 2d 2a 07 bc 43 88 11 be d2 ce d5 bd c3 c7 01 3c
       -0.008249802 -0.14212136 -0.104398385 0.007921162
000380 bf b3 de bd c7 ff 8c 3e a3 57 a1 be dd e0 93 be
       -0.108741276 0.27538893 -0.31512174 -0.28882495
000390 c2 35 09 be 9b 50 9c 3e 9c 3e f1 be d9 3f 63 3e
       -0.13399413 0.30530247 -0.4711808 0.22192325
0003a0 5d 40 df 3e bc bb 4d be 8f 11 6d be e1 6a 10 be
       0.43603793 -0.20091146 -0.2315123 -0.14103271
0003b0 a3 ee 8a bd 00 51 4e be 1d 18 db 3e 48 65 c9 bd
       -0.067837976 -0.20148087 0.42791834 -0.09833771
0003c0 59 79 de be 53 28 c4 3e 2a 8c e6 be e8 13 bb 3c
       -0.43451956 0.38312015 -0.45028812 0.02283664
0003d0 57 53 cb be db 70 1d be 28 97 09 3e 5e 73 01 be
       -0.3971202 -0.15375082 0.13436568 -0.12641665
0003e0 c7 00 22 3e 9b 25 a9 3e 99 58 d4 3d 7f d2 57 3d
       0.15820609 0.33036503 0.10368461 0.05269098
0003f0 89 59 28 be e7 7c 01 3f 01 83 be 3c 2e b7 a9 3e
       -0.16440405 0.5058121 0.023255827 0.33147568
