LYAP_CP_m-fwd_d-20_s-0.005_seed4.pt (torch, 421641 bytes, 7 tensors)

W.0 f4 [200, 5]
0.1863095 -0.3067048 -0.30472997 -0.32402143 -0.86077464 -0.45033714 0.7984388 0.19851898
0.27548066 -0.20661746 -0.14950597 -0.643269 0.36651623 -0.116482526 -0.30298755 0.36174756
-0.028592259 -0.28414926 -0.14020526 -0.93594503 -0.016990406 -0.41543883 0.13781714 -0.03867048
-0.18499543 -0.035063542 0.5722413 0.109969795 0.548866 -0.35475567 0.19938514 0.66537374
-0.17466888 0.40727627 0.1385831 -0.31142554 0.11822872 0.36531207 0.36796793 -0.1934834
0.13817218 0.041785095 0.16754816 -0.16707964 -0.3769254 0.39623433 -0.008073939 -0.24433343
-0.11708925 -0.14996122 -0.30616343 -0.005582059 0.033324577 -0.32898295 -0.6077062 -0.13638295
0.0016702393 0.26373437 0.14781083 -0.29465416 -0.21709928 0.59733486 -0.2916616 0.3918352
-0.1508903 0.2048627 0.53058094 -0.2821577 0.069346726 -0.41948816 0.16871554 -0.8499521
-0.073251136 -0.36435717 -0.7408655 0.3555275 -0.020624142 0.007525645 -0.035559874 -0.69852674
0.11080045 0.12762803 -0.026166143 -0.22368887 -0.24272078 0.022538966 -0.0035762247 -0.0291188
-0.20700482 -0.62614155 -0.008676861 0.5676328 0.16973495 0.44167447 -0.01774562 -0.24865158
-0.16111797 0.3771458 0.33359563 -0.51991403 -0.3208994 0.14932662 0.17028217 0.10582437
-0.6982191 0.21866472 -0.82742864 0.0039023196 -0.24290296 -0.65055746 0.25038806 0.29762444
-0.27217898 -0.060067866 -0.49632972 0.20523408 0.3357904 -0.078532964 0.19995677 -0.1062608
-0.025148893 -0.23411572 0.16990817 0.003653819 -0.32343814 -0.11196013 -0.37079084 0.18197499
-0.07420152 -0.22569434 -0.015461311 0.29154623 -0.13884239 0.05683438 -0.350821 -0.044824533
0.7237385 -0.09727046 0.4657657 -0.33413398 0.06590198 0.47149393 -0.2985502 0.14183554
-0.028634787 0.09840825 0.3244317 -0.0072574895 0.171319 -0.25634724 -0.089364246 0.5212502
-0.30411434 0.085339956 -0.51574105 -0.14114209 -0.83367914 0.4077944 -0.087260626 -0.45312634
-0.014076541 0.083348095 -0.16301195 -0.011819164 -0.635884 -0.24211179 -0.05845928 0.17363785
-0.027888177 -0.7058965 0.41800416 -0.04507259 0.1652621 -0.0013696924 -0.5015624 0.07605624
-0.20585637 -0.06221492 -0.22737838 0.01704562 0.32315525 -0.4605646 -0.2680141 -0.32765183
-0.6408377 -0.07527765 0.46843538 -0.049352325 0.24692014 -0.5735881 -0.10731996 -0.09389942
0.21476068 -0.3057977 -0.114335425 0.14045894 0.262387 0.16886604 0.31791657 -0.6441826
0.2589806 -0.14438762 0.21518676 0.16942163 -0.507145 -0.008758097 -0.17622545 0.17565472
0.11713829 -0.060980707 0.08892467 0.2642846 -0.035721384 0.37342227 -0.061535113 0.10072962
0.5492156 -0.16715392 0.037193168 -0.18291062 0.5092194 -0.67869467 -0.21490234 -0.2819062
-0.45826182 -0.035055272 0.5877582 -0.36858594 0.0122446 -0.2554344 -0.15207382 0.18270563
0.19082956 0.350238 -0.16545554 0.22933547 -0.31533808 -0.29747164 -0.23260532 -0.132899
-0.19730982 0.57210636 -0.12293263 0.2796244 -0.07448697 0.2470942 -0.65610504 -0.0008083018
-0.4348526 -0.23450424 0.12793519 0.32247967 -0.29844698 -0.10616578 -0.94859976 -0.2833908
00000000: ebc7 3e3e 6908 9dbe 9105 9cbe 23e6 a5be
00000010: ba5b 5cbf 9792 e6be 7c66 4c3f 8f48 4b3e
00000020: cd0b 8d3e 8793 53be 1818 19be 47ad 24bf
00000030: 04a8 bb3e 648e eebd 2f21 9bbe fa36 b93e
00000040: 503a eabc 037c 91be f891 0fbe 189a 6fbf
00000050: 772f 8bbc 66b4 d4be f01f 0d3e f064 1ebd
00000060: 716f 3dbe ca9e 0fbd 687e 123f d837 e13d
00000070: 7b82 0c3f 89a2 b5be 9e2b 4c3e ef55 2a3f
00000080: 66dc 32be 8486 d03e bae8 0d3e 2b73 9fbe
00000090: e621 f23d 2f0a bb3e 4b66 bc3e 8320 46be
000000a0: 027d 0d3e d926 2b3d bf91 2b3e ed16 2bbe
000000b0: 5efc c0be 3adf ca3e 8e48 04bc 8b32 7abe
000000c0: 7dcc efbd 6f8f 19be 74c1 9cbe b4e9 b6bb
000000d0: 5a7f 083d 7470 a8be a292 1bbf f9a7 0bbe
000000e0: eeeb da3a 3108 873e b95b 173e e9dc 96be
000000f0: 464f 5ebe f0ea 183f ab54 95be a09e c83e
00000100: fd82 1abe 87c7 513e 27d4 073f f976 90be
00000110: a805 8e3d 27c7 d6be c4c3 2c3e 7696 59bf
00000120: b104 96bd 068d babe 5da9 3dbf b307 b63e
00000130: f6f3 a8bc b099 f63b 3ba7 11bd a6d2 32bf
00000140: 59eb e23d ecb0 023e 615a d6bc b20e 65be
00000150: cc8b 78be a3a3 b83c 185f 6abb 8d8a eebc
00000160: 12f9 53be d04a 20bf 6529 0ebc 6250 113f
00000170: 00cf 2d3e 2823 e23e 435f 91bc 859e 7ebe
00000180: 1cfc 24be 4119 c13e 0ccd aa3e 1619 05bf
00000190: ed4c a4be 14e9 183e 735e 2e3e 73ba d83d
000001a0: 7dbe 32bf a5e9 5f3e 5dd2 53bf 0fbe 7f3b
000001b0: 8ebb 78be ef8a 26bf dd32 803e 3b62 983e
000001c0: 0b5b 8bbe b909 76bd ee1e febe e228 523e
000001d0: b8ec ab3e e4d5 a0bd 78c1 4c3e 439f d9bd
000001e0: 0d05 cebc 08bc 6fbe 68fc 2d3e e974 6f3b
000001f0: af99 a5be 5a4b e5bd 4cd8 bdbe a757 3a3e
00000200: f7f6 97bd 6b1c 67be 7051 7dbc 8c45 953e
00000210: b32c 0ebe 2bcb 683d cf9e b3be ee99 37bd
00000220: ed46 393f bc35 c7bd d878 ee3e 9c13 abbe
00000230: 9ef7 863d a767 f13e 92db 98be 563d 113e
00000240: 8093 eabc 448a c93d e91b a63e 3cd0 edbb
00000250: 3f6e 2f3e f23f 83be 9a04 b7bd a770 053f
00000260: e0b4 9bbe b7c6 ae3d 9b07 04bf 8d87 10be
00000270: ff6b 55bf 6dca d03e b3b5 b2bd 2d00 e8be
00000280: 4ba1 66bc 68b2 aa3d 9bec 26be 2ba5 41bc
00000290: 4bc9 22bf 27ec 77be ff72 6fbd 1fce 313e
000002a0: bf75 e4bc a2b5 34bf a404 d63e 099e 38bd
000002b0: 783a 293e 4087 b3ba 6566 00bf 60c3 9b3d
000002c0: 03cc 52be 12d5 7ebd e1d5 68be 42a3 8b3c
000002d0: 9b74 a53e 20cf ebbe 2539 89be fbc1 a7be
000002e0: f10d 24bf 2b2b 9abd c3d6 ef3e aa25 4abd
000002f0: a2d8 7c3e abd6 12bf 91ca dbbd 574e c0bd
00000300: 39ea 5b3e 8491 9cbe b128 eabd 78d4 0f3e
00000310: 9757 863e 38eb 2c3e f6c5 a23e 27e9 24bf
00000320: 1b99 843e 59da 13be eb59 5c3e dd7c 2d3e
00000330: 41d4 01bf 1f7e 0fbc 7274 34be d5de 333e
00000340: 33e6 ef3d e8c6 79bd 231e b63d 5050 873e
00000350: 9650 12bd 3431 bf3e 3e0c 7cbd 554b ce3d
00000360: 6599 0c3f 662a 2bbe dd57 183d ec4c 3bbe
00000370: 345c 023f efbe 2dbf 5c0f 5cbe 0256 90be
00000380: 4ba1 eabe 1e96 0fbd 5277 163f 4cb7 bcbe
00000390: 939d 483c 4cc8 82be 3db9 1bbe 2f17 3b3e
000003a0: d368 433e 6552 b33e 2d6d 29be ebd6 6a3e
000003b0: fe73 a1be 344e 98be 1730 6ebe ad16 08be
000003c0: 960b 4abe 9075 123f 1ac4 fbbd ee2a 8f3e
000003d0: a08c 98bd 4306 7d3e 80f6 27bf 37e4 53ba
000003e0: 00a5 debe e121 70be 7101 033e 0e1c a53e
000003f0: 0bce 98be 726d d9bd 6fd7 72bf 9918 91be

W.1 f4 [500, 5]
-0.27087155 0.41172463 0.19644532 0.49414316 -0.04467872 -0.14944741 -0.28675163 0.10284137
-0.37508702 -0.41906336 -0.24410051 -0.42818254 0.10989384 -0.22046052 -0.14347802 0.13338277
0.42467454 -0.27496642 0.024184398 -0.46994194 -0.044919048 -0.81150293 0.1158472 -0.4836312
-0.044922817 0.15390739 -0.51359385 -0.28325242 -0.46232018 -0.324865 0.087012306 0.14094928
-0.055878367 0.010164467 -0.8257003 0.21020764 -0.4753885 -0.2056683 -0.5194235 -0.24566671
-0.2956552 -0.12039187 0.10519177 -0.08446683 -0.011761624 -0.2770793 0.6466372 0.14194694
0.31828812 -0.72730047 -0.19225217 -0.5223737 0.30129847 -0.16372168 -0.54082966 0.3570641
-0.06706805 -0.07171153 -0.38141456 -0.20510292 -0.29081517 -0.2828764 0.03929198 -0.33824345
-0.07521287 0.16183649 -0.69603163 0.26103067 -0.3590518 -0.018356832 0.027543051 0.7147428
-0.34618673 0.077752285 -0.65500605 0.3016754 -0.6750986 -0.246133 -0.5283424 -0.31322703
-0.013383732 0.9663712 -0.32065848 0.05032388 -1.0804929 -0.1640841 0.030472264 -0.29621503
-0.18464026 -0.6073387 -0.107932076 0.1415626 0.26492617 0.14151108 -0.7615361 0.09723753
0.7819606 -0.17484792 0.34155667 -0.21598493 0.1600397 0.73876834 -0.049272966 0.552723
-0.293552 -0.07258948 -0.42675486 -0.08652042 -0.23517029 -0.82268864 0.07267982 0.05597105
0.4131901 0.26581106 -0.5159255 -0.2119932 -0.1448781 0.12281695 0.041490298 -0.32420707
-0.26992664 -0.13864665 -0.35681412 -0.4121432 -0.7134482 0.23951074 0.36164254 -0.2414972
0.10713811 -0.18962327 -0.035504214 -0.6570515 0.21877299 -0.5308251 -0.41188458 0.27696204
0.016767684 0.10509129 0.25741097 -0.08749509 0.17802729 -0.62164354 0.12715338 -0.44352934
-0.59301424 -0.10975233 -0.023551945 -0.072036184 -0.014554357 -0.9943995 -0.26206356 -0.39643785
-0.07460246 -0.46920586 -0.04739219 0.106875114 -0.0425151 -0.21353523 -0.29363477 -0.42744145
0.30502173 0.03219421 -0.19776283 -0.097324595 -0.54342526 0.224543 -0.28435522 0.068201505
-0.19474658 -0.3365726 0.2689712 -0.57574606 -0.07704801 -0.4752381 -0.12683012 0.00085961795
-0.036241304 0.38000894 0.36991513 -0.10245592 -0.2385922 -0.69094276 0.092677705 -0.35553637
-0.18083955 -0.38523856 -0.0693003 -0.18545479 -0.32908863 -0.057746142 -0.21426441 0.74232846
-0.063201346 0.24579133 -0.6405244 -0.08528923 -0.62714386 -0.045031108 -0.17882742 -0.6011068
-0.3713269 0.21185577 0.35935655 0.39395759 -0.18003793 -0.1946969 0.075875804 0.06695713
-0.0790035 -0.2892199 0.20033133 -0.5029663 0.30360663 -0.39459994 -0.1434285 -0.14830598
0.68674827 -0.12572718 0.37836415 -0.20239106 -0.17012607 0.049623743 -0.19977568 -0.13535298
-0.74604124 0.17724517 -0.31772712 -0.09756699 -0.40152562 -0.45804527 -0.17813805 -0.87987906
0.2527697 -0.23258214 -0.64223343 -0.101187214 0.010130992 0.10828028 -0.025405837 -0.43521506
0.1279137 0.47748312 0.026082596 0.28048673 -0.25674433 -0.070590794 0.10666601 -0.33232394
-0.22135507 -0.1979709 -0.21600367 0.27077866 0.41755685 0.46350253 -0.74167377 -0.13502127
00000000: adaf 8abe 92cd d23e f628 493e 5500 fd3e
00000010: 0901 37bd be08 19be 1cd1 92be 7f9e d23d
00000020: 680b c0be 798f d6be 7cf5 79be be3a dbbe
00000030: 0610 e13d 67c0 61be e7eb 12be 7e95 083e
00000040: f16e d93e 66c8 8cbe 5c1e c63c 3b9c f0be
00000050: 09fd 37bd a8be 4fbf 4c41 ed3d 829e f7be
00000060: fd00 38bd e699 1d3e e37a 03bf 7606 91be
00000070: 3bb5 ecbe b554 a6be 8233 b23d 0255 103e
00000080: b7e0 64bd dd88 263c 1861 53bf ac40 573e
00000090: 1f66 f3be b69a 52be f0f8 04bf 0e90 7bbe
000000a0: 1e60 97be 0390 f6bd c86e d73d f2fc acbd
000000b0: d4b3 40bc 57dd 8dbe 048a 253f 8a5a 113e
000000c0: a9f6 a23e 5d30 3abf c1dd 44be 48ba 05bf
000000d0: cb43 9a3e a8a6 27be d073 0abf 1bd1 b63e
000000e0: f95a 89bd 7fdd 92bd c548 c3be 8006 52be
000000f0: bae5 94be 2dd5 90be a1f0 203d 3f2e adbe
00000100: 3509 9abd 77b8 253e 212f 32bf d0a5 853e
00000110: a3d5 b7be 1161 96bc f7a1 e13c 62f9 363f
00000120: 633f b1be 973c 9f3d 7aae 27bf 3375 9a3e
00000130: 43d3 2cbf 4a0a 7cbe 7341 07bf 4b5f a0be
00000140: 7147 5bbc 1a64 773f 592d a4be 6a20 4e3d
00000150: 974d 8abf aa05 28be f8a0 f93c 7fa9 97be
00000160: 5612 3dbe 8d7a 1bbf 7e0b ddbd c9f5 103e
00000170: 67a4 873e 48e8 103e 08f4 42bf 7824 c73d
00000180: 922e 483f 550b 33be 84e0 ae3e 272b 5dbe
00000190: 72e1 233e ec1f 3d3f 73d2 49bd 417f 0d3f
000001a0: 734c 96be cba9 94bd 9d7f dabe 9e31 b1bd
000001b0: 7bd0 70be b99b 52bf 28d9 943d e641 653d
000001c0: a78d d33e 6318 883e b213 04bf bf14 59be
000001d0: ed5a 14be 7487 fb3d bbf1 293d 78fe a5be
000001e0: d333 8abe 63f9 0dbe 57b0 b6be 6f04 d3be
000001f0: 8ba4 36bf 4e42 753e 3629 b93e 0b4b 77be
00000200: 3a6b db3d 9a2c 42be de6c 11bd 8734 28bf
00000210: 0706 603e 27e4 07bf 89e2 d2be f8cd 8d3e
00000220: 625c 893c 1a3a d73d 5fcb 833e a030 b3bd
00000230: c94c 363e 0824 1fbf 7f34 023e 4716 e3be
00000240: c8cf 17bf d4c5 e0bd 02f0 c0bc b587 93bd
00000250: 6675 6ebc f790 7ebf 322d 86be e7f9 cabe
00000260: 2dc9 98bd c03b f0be 501e 42bd 57e1 da3d
00000270: 5024 2ebd fba8 5abe 4c57 96be 9bd9 dabe
00000280: cf2b 9c3e 13de 033d 5782 4abe 1e52 c7bd
00000290: eb1d 0bbf 9aee 653e 0297 91be 3bad 8b3d
000002a0: a66b 47be 3e53 acbe 98b6 893e 1864 13bf
000002b0: 59cb 9dbd 6952 f3be c1df 01be fc57 613a
000002c0: c371 14bd 8890 c23e 8465 bd3e 69d4 d1bd
000002d0: 8451 74be a0e1 30bf cfcd bd3d dd08 b6be
000002e0: 012e 39be fd3d c5be 51ed 8dbd dce7 3dbe
000002f0: 4e7e a8be 3887 6cbd 2168 5bbe 3d09 3e3f
00000300: b56f 81bd b9b0 7b3e 68f9 23bf 1fac aebd
00000310: 808c 20bf 8a72 38bd 891e 37be 23e2 19bf
00000320: 8f1e bebe b8f0 583e 95fd b73e cfb4 c93e
00000330: dd5b 38be a05e 47be c664 9b3d d220 893d
00000340: 96cc a1bd a114 94be a823 4d3e 66c2 00bf
00000350: 5472 9b3e 0109 cabe ecde 12be 86dd 17be
00000360: bcce 2f3f a0be 00be f2b8 c13e 9a3f 4fbe
00000370: 8735 2ebe 4442 4b3d ff91 4cbe f999 0abe
00000380: 8ffc 3ebf c27f 353e 21ad a2be 34d1 c7bd
00000390: c494 cdbe e984 eabe d269 36be c13f 61bf
000003a0: 086b 813e 032a 6ebe 6969 24bf 3e3b cfbd
000003b0: 76fc 253c 0dc2 dd3d e71f d0bc 82d4 debe
000003c0: cffb 023e ab78 f43e 2bab d53c f59b 8f3e
000003d0: fe73 83be e891 90bd b673 da3d 5d26 aabe
000003e0: e7aa 62be e2b8 4abe 1130 5dbe 80a3 8a3e
000003f0: 03ca d53e 3450 ed3e 55de 3dbf 0443 0abe

W.2 f4 [1, 5]
-0.09854606 -0.32883167 -0.13851508 -0.025171785 -0.3119395
00000000: 84d2 c9bd a05c a8be e6d6 0dbe 0f35 cebc
00000010: 89b6 9fbe

U.0 f4 [500, 200]
-0.1950001 0.30773014 -0.20793957 0.011330759 -0.1611411 0.22662804 0.19057867 0.087630674
-0.18889037 0.0339907 -0.21244693 0.2103647 0.112513445 0.11493919 -0.2097199 0.027349975
-0.17579708 -0.20953938 0.27723777 -0.10077123 0.28143984 -0.2844752 0.0027231765 0.044144608
-0.09712426 -0.121476255 0.28360355 0.28058484 0.06273297 0.07995185 0.09908926 -0.15740633
-0.114678174 -0.07954124 0.09212337 -0.2835611 -0.19915706 0.11002639 -0.12831445 0.15072829
-0.13402587 -0.13114198 0.07676656 0.109951384 -0.20462663 0.1587014 0.058409277 -0.08398332
0.26045588 -0.3582937 0.015335958 -0.04940674 0.19448973 -0.2746261 0.15959351 0.16194357
0.2364408 -0.1461725 0.2426954 -0.016211541 0.19862758 0.0417861 -0.15813605 -0.13479257
-0.26173875 0.089393064 0.18012188 -0.17573054 -0.23346621 -0.07654999 -0.15620841 0.15111929
-0.34319896 -0.20992684 0.17039235 -0.16734606 -0.27872026 -0.0961862 0.040673975 -0.32459095
-0.31302944 0.2164749 -0.09532986 -0.24606739 0.18893708 -0.27396056 -0.31141943 -0.06897079
-0.05937369 -0.32284486 0.1327862 -0.07074896 0.111725405 -0.12810472 -0.3007576 0.30251992
-0.28168207 -0.2684166 0.109304175 -0.21381772 0.26743323 0.052348398 -0.32821733 -0.22560845
-0.12275685 -0.026782004 0.028117625 0.2593938 0.20785119 -0.2615185 -0.28518453 -0.20344277
-0.11933504 0.056368344 0.17534679 -0.030180678 -0.30091923 0.084451914 0.30152804 0.11467235
-0.18949348 -0.32844988 0.17476822 0.1593135 0.10327703 0.1407432 -0.07336349 -0.21982701
-0.2640356 -0.17363867 -0.34061784 0.15334737 0.027418403 -0.07259706 0.25859448 0.17638734
-0.013401642 -0.04254366 -0.25931376 0.21493131 -0.18619618 0.23006335 -0.22994591 -0.043072116
0.2362761 0.12042604 0.21700007 0.13310926 0.19267705 0.29033923 0.09148403 -0.20775881
0.22796579 -0.07186342 0.03920954 0.10938143 -0.19405559 0.05083232 0.20709953 -0.105904445
0.21880218 -0.11594595 -0.08743509 0.23302683 0.0016222141 -0.21534498 0.20613648 0.10602284
0.17270815 -0.20098191 -0.17165448 0.2193724 0.14531471 0.14259644 -0.31103966 -0.22085379
0.2197292 0.15580013 0.28559816 0.22848506 0.08568398 -0.23543106 -0.23163442 0.055064924
-0.17334943 0.08982027 0.06158403 -0.08612091 0.3070888 0.11132489 0.030186875 -0.23007274
-0.010607936 -0.057473175 -0.30744508 0.20163262 0.24062987 -0.012451996 0.28190863 0.2958912
0.12740125 -0.159091 0.18707158 -0.07816424 0.025659837 0.033103097 -0.05465235 -0.11804546
-0.15272282 -0.06029359 -0.12584963 -0.1489684 0.057446375 -0.087122396 0.20531441 -0.13047273
-0.099035434 -0.16869876 -0.25667793 0.05981956 -0.12990169 0.19997829 0.00100004 -0.10486754
0.14163794 -0.041106198 -0.1593186 -0.0015015873 -0.16146985 -0.031423233 -0.14387107 0.11856307
0.08625422 -0.09792598 -0.065848425 -0.0296175 0.10711022 -0.17849424 -0.057334255 -0.022785025
0.15469202 0.14657451 -0.082746506 -0.13897815 0.22401096 -0.17729698 -0.03871621 0.051713493
-0.19767599 0.16989717 -0.020792171 -0.09381933 -0.054751478 -0.08270508 -0.07305672 -0.16536236
00000000: 1bae 47be ce8e 9d3e 1cee 54be a6a4 393c
00000010: 2c02 25be 2e11 683e 0e27 433e b677 b33d
00000020: 7a6c 41be d539 0b3d b08b 59be d869 573e
00000030: 736d e63d 3d65 eb3d d0c0 56be 0e0d e03c
00000040: 2604 34be 7e91 56be 1cf2 8d3e 2661 cebd
00000050: e218 903e bca6 91be 5277 323b fad0 343d
00000060: 16e9 c6bd 8bc8 f8bd 7c34 913e d1a8 8f3e
00000070: 257a 803d ccbd a33d 4fef ca3d 202f 21be
00000080: 64dc eabd 85e6 a2bd 2dab bc3d ec2e 91be
00000090: d4ef 4bbe 8455 e13d dd64 03be 8458 1a3e
000000a0: 143e 09be 154a 06be c937 9d3d 312e e13d
000000b0: a589 51be 9f82 223e 913e 6f3d 72ff abbd
000000c0: 795a 853e 4672 b7be ac43 7b3c b95e 4abd
000000d0: 5128 473e cb9b 8cbe 7b6c 233e 89d4 253e
000000e0: 891d 723e 3eae 15be 2585 783e 11ce 84bc
000000f0: 0765 4b3e e727 2b3d 6bee 21be 1007 0abe
00000100: 9f02 86be b613 b73d df71 383e b5f2 33be
00000110: c411 6fbe 3ec6 9cbd 19f5 1fbe 04bf 1a3e
00000120: c6b7 afbe 10f7 56be 557b 2e3e c45c 2bbe
00000130: 6cb4 8ebe 45fd c4bd c199 263d c930 a6be
00000140: 6545 a0be 99ab 5d3e 4d3c c3bd 17f9 7bbe
00000150: b978 413e 8f44 8cbe 5e72 9fbe 8f40 8dbd
00000160: d431 73bd ec4b a5be 1bf9 073e d5e4 90bd
00000170: 4ad0 e43d e22d 03be e6fc 99be e4e3 9a3e
00000180: a238 90be e76d 89be deda df3d 08f3 5abe
00000190: 02ed 883e 466b 563d 1a0c a8be e705 67be
000001a0: f267 fbbd ef65 dbbc ef56 e63c 44cf 843e
000001b0: f1d6 543e c1e5 85be b503 92be 4d53 50be
000001c0: ee65 f4bd 7ee2 663d 1c8e 333e 783d f7bc
000001d0: 1612 9abe 20f5 ac3d e261 9a3e 56d9 ea3d
000001e0: 940a 42be 952a a8be 71f6 323e 1423 233e
000001f0: e882 d33d fc1e 103e 993f 96bd 551a 61be
00000200: ad2f 87be 56ce 31be 7665 aebe 1807 1d3e
00000210: 8f9c e03c c4ad 94bd 7f66 843e e29e 343e
00000220: 9092 5bbc 4342 2ebd c6c4 84be f416 5c3e
00000230: 36aa 3ebe ba95 6b3e f176 6bbe 636c 30bd
00000240: 5df2 713e eda1 f63d 4435 5e3e cb4d 083e
00000250: 224d 453e 58a7 943e fb5b bb3d babe 54be
00000260: dd6f 693e 212d 93bd 2f9a 203d 5f03 e03d
00000270: 82b6 46be 8d35 503d e611 543e 6ee4 d8bd
00000280: ae0d 603e 1275 edbd 2b11 b3bd 969e 6e3e
00000290: 79a0 d43a 6583 5cbe 7115 533e 8122 d93d
000002a0: 68da 303e 34ce 4dbe 31c6 2fbe 29a3 603e
000002b0: 61cd 143e cd04 123e 9740 9fbe 7f27 62be
000002c0: b100 613e 128a 1f3e ec39 923e fdf7 693e
000002d0: 157b af3d d714 71be 9331 6dbe c28b 613d
000002e0: 8382 31be b1f3 b73d 893f 7c3d 2960 b0bd
000002f0: be3a 9d3e 4efe e33d 774a f73c 3098 6bbe
00000300: e9cc 2dbc fe68 6bbd 7169 9dbe c878 4e3e
00000310: ad67 763e 7503 4cbc 5456 903e 0d7f 973e
00000320: 7975 023e c0e8 22be b18f 3f3e 9314 a0bd
00000330: 9434 d23c 1d97 073d 24db 5fbd d1c1 f1bd
00000340: 5f63 1cbe 69f6 76bd bade 00be 2c8b 18be
00000350: e44c 6b3d 3a6d b2bd f13d 523e a59a 05be
00000360: 17d3 cabd 5ebf 2cbe 4a6b 83be 5b05 753d
00000370: f304 05be 1cc7 4c3e c613 833a cbc4 d6bd
00000380: 8909 113e f95e 28bd 6a24 23be e9d0 c4ba
00000390: 5a58 25be a6b5 00bd f052 13be 32d1 f23d
000003a0: 0da6 b03d 6b8d c8bd 8adb 86bd 66a0 f2bc
000003b0: 9a5c db3d 32c7 36be 53d7 6abd a9a7 babc
000003c0: 9667 1e3e a117 163e 0077 a9bd 4a50 0ebe
000003d0: 2163 653e 578d 35be e394 1ebd 87d1 533d
000003e0: 936b 4abe 86f9 2d3e 5854 aabc 5924 c0bd
000003f0: 1643 60bd 4861 a9bd c39e 95bd c054 29be

U.1 f4 [1, 500]
0.15061003 0.006521955 0.07167028 -0.00870501 0.1816121 0.12486636 -0.05600631 0.12687594
-0.06193849 0.17344539 0.07856958 -0.058759045 0.034420706 0.06783341 0.12052065 0.15192924
0.25636005 -0.07516287 -0.06356776 0.22108689 0.2043514 0.080873884 -0.07230432 -0.06975818
-0.008352478 -0.045102805 0.1585038 -0.059997596 0.15782553 0.048724942 0.024307596 -0.050398484
-0.108498804 0.005535272 0.096073575 -0.035581257 0.1568827 -0.038150184 0.22281897 0.075641155
0.074722745 -0.10477012 0.08243146 0.2008667 -0.15105967 0.06742597 0.16328305 -0.13067691
0.08544902 -0.09594783 0.083612055 0.28447512 0.14362824 0.20837589 -0.09537144 -0.030058749
-0.02205722 0.027678924 -0.10279114 0.12647738 0.060263176 -0.039547473 -0.14872585 -0.101249345
-0.15220504 0.108727224 -0.03407225 0.0806637 0.18498 0.19703111 0.08014113 0.11704392
-0.0071113193 0.118982434 -0.026878212 0.01443184 0.022282345 0.14162445 -0.07524332 -0.04419498
-0.16883017 0.044305056 -0.031166986 0.103085876 0.11996393 -0.042394694 0.15224381 -0.079518564
0.1869745 -0.08129809 -0.12394581 -0.16841222 -0.012209702 -0.022354076 0.013337696 -0.115338586
-0.037015554 -0.14258346 -0.036164094 0.16469857 -0.113920406 0.13092336 -0.11784856 -0.0043052854
0.056153562 0.015241598 0.110449575 -0.1099125 0.13071592 0.102979735 -0.16246097 0.18581714
-0.06923538 0.19953907 0.12652448 0.13555491 -0.063524984 -0.093720704 0.04576397 0.04327741
0.28021675 0.036422744 -0.09883317 0.13515612 -0.062890306 0.12255358 0.075705566 -0.004875151
-0.12736401 -0.12602428 0.066731945 0.20063727 -0.06515975 0.083321236 -0.13007815 -0.10740368
-0.009160949 0.17305396 0.07488041 0.06549572 0.13311364 0.008319391 0.17076786 0.1389956
-0.086628586 0.12244748 0.1674703 -0.080854386 0.16750132 0.046158664 -0.123179 -0.09877741
-0.04388328 -0.11291874 0.00021419309 -0.10266259 0.17215025 -0.08471412 -0.18431838 -0.060731933
0.0063692294 0.05282465 -0.0021395434 0.02023741 0.16403545 0.2301886 0.10017038 -0.057349373
0.124025926 0.037840404 -0.023057295 0.27080104 0.03433237 0.14107196 0.008924205 0.114511445
0.23386788 -0.107389264 0.04377232 0.20595868 -0.18788393 0.047129933 0.12266795 0.029025456
0.010309972 0.15460835 -0.0974202 0.13645737 0.14147669 -0.09674657 0.15450424 0.08412072
0.1957397 -0.033505574 0.1640206 0.12587278 -0.13862945 -0.08163598 0.08683778 0.1767654
0.24123505 0.26449287 0.11651403 -0.024093011 0.1373004 -0.063820496 0.12546448 0.088309266
-0.08199507 0.1264968 0.070496805 -0.11723253 0.18994188 0.20435227 -0.029849188 0.007884353
-0.0491971 0.003511293 -0.024531553 0.12002986 -0.14097936 0.08291686 -0.06486223 0.022133496
-0.03896373 0.024636742 0.1381008 0.13533817 -0.018013787 0.0056934254 0.09296704 0.24688986
0.0071341177 -0.072441176 -0.07290587 0.13979664 0.073350444 -0.034237694 -0.00020815426 0.053196095
0.020160133 -0.017231887 0.2341224 -0.07000613 0.023992645 -0.07462297 -0.12520881 -0.065976925
0.016897595 -0.044444125 0.31848568 -0.07427252 -0.104778714 0.021969274 0.084255494 0.1030339
00000000: 8439 1a3e 20b6 d53b dec7 923d 759f 0ebc
00000010: 86f8 393e efb9 ff3d df66 65bd c4eb 013e
00000020: 37b3 7dbd ab9b 313e 17e9 a03d 53ad 70bd
00000030: bafc 0c3d 3eec 8a3d 88d3 f63d 5793 1b3e
00000040: a041 833e feee 99bd d02f 82bd 9a64 623e
00000050: 7e41 513e 35a1 a53d 4a14 94bd 60dd 8ebd
00000060: d5d8 08bc b8bd 38bd d24e 223e 0ac0 75bd
00000070: 049d 213e ce93 473d b920 c73c a46e 4ebd
00000080: 9f34 debd 3a61 b53b 39c2 c43d a7bd 11bd
00000090: dca5 203e 5e43 1cbd a82a 643e c0e9 9a3d
000000a0: 3d08 993d b791 d6bd d3d1 a83d 00b0 4d3e
000000b0: 63af 1abe a116 8a3d ac33 273e 2bd0 05be
000000c0: e5ff ae3d 4c80 c4bd cc3c ab3d b9a6 913e
000000d0: 4813 133e 7d60 553e 1a52 c3bd c43d f6bc
000000e0: 58b1 b4bc e9be e23c 2984 d2bd 4983 013e
000000f0: 85d6 763d 88fc 21bd 974b 18be d15b cfbd
00000100: a3db 1bbe 61ac de3d 588f 0bbd 0333 a53d
00000110: 666b 3d3e 86c2 493e 0821 a43d b9b4 ef3d
00000120: 1206 e9bb 10ad f33d b22f dcbc 8673 6c3c
00000130: 7789 b63c 0006 113e 2b19 9abd cc05 35bd
00000140: d1e1 2cbe 3879 353d e851 ffbc b01e d33d
00000150: a6af f53d 0fa6 2dbd cde5 1b3e a1da a2bd
00000160: 3e76 3f3e 9d7f a6bd 4dd7 fdbd 4174 2cbe
00000170: 340b 48bc e51f b7bc 5a86 5a3c a336 ecbd
00000180: 9f9d 17bd 6601 12be cd20 14bd bea6 283e
00000190: 1a4f e9bd c610 063e 965a f1bd 5a13 8dbb
000001a0: 4701 663d e5b7 793c 6333 e23d ce19 e1bd
000001b0: 65da 053e 0ae7 d23d 2b5c 26be d946 3e3e
000001c0: 47cb 8dbd f853 4c3e a28f 013e e8ce 0a3e
000001d0: 6319 82bd a4f0 bfbd 0073 3b3d a743 313d
000001e0: 9278 8f3e 0430 153d 0c69 cabd 5e66 0a3e
000001f0: a2cc 80bd 5ffd fa3d 850b 9b3d bbbf 9fbb
00000200: b66b 02be 820c 01be c2aa 883d db73 4d3e
00000210: 7a72 85bd 53a4 aa3d 3533 05be 76f6 dbbd
00000220: ce17 16bc 0f35 313e e75a 993d 9f22 863d
00000230: f14e 083e 0e4e 083c c5dd 2e3e dd54 0e3e
00000240: 546a b1bd bfc5 fa3d 567d 2b3e fc96 a5bd
00000250: 7785 2b3e de10 3d3d 4645 fcbd d04b cabd
00000260: f4be 33bd f141 e7bd 0599 6039 c440 d2bd
00000270: 2848 303e 997e adbd f5bd 3cbe 0cc2 78bd
00000280: f8b4 d03b a95e 583d 9537 0cbb edc8 a53c
00000290: e9f8 273e 8fb6 6b3e 2126 cd3d 2de7 6abd
000002a0: 4e01 fe3d 8afe 1a3d a7e2 bcbc 6fa6 8a3e
000002b0: 19a0 0c3d 2b75 103e d436 123c fa84 ea3d
000002c0: 107b 6f3e e7ee dbbd 9b4a 333d d5e6 523e
000002d0: a564 40be 510b 413d 5639 fb3d cbc6 ed3c
000002e0: 28eb 283c a751 1e3e 3e84 c7bd 7bbb 0b3e
000002f0: 44df 103e 1123 c6bd 5c36 1e3e 7c47 ac3d
00000300: fd6f 483e 243d 09bd 04f5 273e cbe4 003e
00000310: e1f4 0dbe c430 a7bd 02d8 b13d fd01 353e
00000320: 5206 773e 9c6b 873e e89e ee3d b55e c5bc
00000330: 7a98 0c3e 52b4 82bd c379 003e 7ddb b43d
00000340: 08ed a7bd 6188 013e a160 903d 9c17 f0bd
00000350: 2080 423e b941 513e 4986 f4bc 602d 013c
00000360: e682 49bd b91d 663b 65f6 c8bc 37d2 f53d
00000370: e55c 10be 51d0 a93d 7dd6 84bd 4e51 b53c
00000380: 6f98 1fbd fed2 c93c 4c6a 0d3e 1796 0a3e
00000390: a691 93bc ea8f ba3b 8165 be3d b2d0 7c3e
000003a0: 51c5 e93b 0a5c 94bd ac4f 95bd da26 0f3e
000003b0: c238 963d d33c 0cbd fc43 5ab9 26e4 593d
000003c0: dd26 a53c e329 8dbc c8bd 6f3e 605f 8fbd
000003d0: 398c c43c edd3 98bd bd36 00be e91e 87bd
000003e0: d36c 8a3c 0b0b 36bd 8e10 a33e 311c 98bd
000003f0: 3996 d6bd e8f8 b33c 258e ac3d 7003 d33d

bias.0 f4 [200]
-0.0025047103 0.24878372 -0.25738832 0.09100501 -0.22885467 -0.06686066 0.034784317 0.32805774
0.36332437 0.3134074 0.081023015 0.40306532 0.23968779 0.0010350383 0.20201385 -0.35916355
0.10370994 -0.24680889 0.23235172 0.3185307 0.3414871 -0.041430317 0.14779815 0.018275887
0.09251502 0.12386285 -0.3922965 0.0447636 -0.2734372 0.079803266 -0.07654819 -0.30738744
-0.26134345 -0.14590606 0.3983709 0.29297605 -0.3832622 -0.09028616 0.31204212 -0.32948837
0.33615196 -0.27273586 0.26634786 0.113234684 -0.028931906 0.25168383 0.33192852 0.25381088
-0.32939577 -0.08868846 0.12426211 0.25389856 -0.084846154 -0.21119899 -0.13005793 0.20392407
-0.31764328 -0.077156864 -0.36030257 -0.32400647 0.06188457 0.27347237 0.15512794 -0.14917292
0.18213943 -0.20851576 0.08662856 0.29271996 -0.39482036 -0.37971017 -0.27342427 0.39621344
0.26986697 -0.28571427 0.28160125 -0.087992616 -0.31174427 -0.025680633 -0.09587919 0.34527987
0.12036578 0.19156955 0.29323304 0.17623489 0.036909305 -0.14248994 -0.4196967 0.04553825
0.3941454 -0.049871556 -0.26255348 -0.42657223 0.20124914 -0.2378355 0.021881057 -0.037741344
0.023913011 -0.35453546 -0.14417072 -0.3245612 0.025536465 0.08492545 0.07779438 0.33988652
-0.18061616 0.31920218 -0.098433405 -0.3025552 -0.17737286 0.15303412 -0.4503997 -0.04915439
-0.25087726 -0.008748582 -0.2105442 -0.17715041 0.14249465 -0.23502071 -0.31378472 -0.010572649
-0.10722687 0.2372576 0.3286452 0.40698108 0.116512716 0.3176619 0.07480495 -0.068823546
0.22414939 -0.061748154 0.16772589 0.34150365 -0.4442227 -0.46795613 0.0926554 -0.18572527
-0.39934942 0.053403568 0.026607478 0.27327463 -0.1362155 -0.25946414 0.124552585 -0.29108137
0.024138935 0.32775122 -0.1390269 -0.333249 -0.27200168 -0.25763342 -0.37370536 -0.06784759
0.123924874 0.16119069 0.25238657 0.1147172 -0.34423494 0.079656295 -0.10162791 -0.47288868
-0.09359611 0.017111314 -0.04278368 -0.42587647 0.22947292 0.08585663 0.32588533 0.06734026
-0.35774997 -0.19096284 0.18904305 -0.30448523 -0.108643435 -0.06468607 -0.105112016 -0.52005726
0.035392765 -0.17348212 -0.17089033 0.1443173 -0.083455525 -0.27261755 0.18183474 -0.42314145
-0.2791347 -0.18731466 0.24925935 -0.21132685 -0.2854285 -0.117749006 0.037319575 -0.23025575
-0.091526456 0.29917532 -0.31092253 0.24581346 0.061833825 -0.42011926 0.019206772 -0.015726412
00000000: 1126 24bb 29c1 7e3e 67c8 83be d660 ba3d
00000010: e158 6abe 3eee 88bd 007a 0e3d 2ff7 a73e
00000020: a705 ba3e ef76 a03e 65ef a53d 945e ce3e
00000030: b770 753e 1faa 873a b8dc 4e3e 49e4 b7be
00000040: e165 d43d 78bb 7cbe 9ced 6d3e 7516 a33e
00000050: 66d7 ae3e d6b2 29bd 6658 173e 50b7 953c
00000060: 8478 bd3d ceab fd3d 16db c8be 095a 373d
00000070: f6ff 8bbe e56f a33d 4cc5 9cbd e361 9dbe
00000080: cfce 85be 6668 15be 45f7 cb3e f500 963e
00000090: f13a c4be f3e7 b8bd fcc3 9f3e b3b2 a8be
000000a0: 1c1c ac3e 09a4 8bbe bf5e 883e 96e7 e73d
000000b0: 9b02 edbc b4dc 803e 89f2 a93e 80f3 813e
000000c0: 90a6 a8be 4ca2 b5bd 227d fe3d fefe 813e
000000d0: d2c3 adbd 8c44 58be e82d 05be 79d1 503e
000000e0: 24a2 a2be 6b04 9ebd 9479 b8be 2de4 a5be
000000f0: ad7a 7d3d 9204 8c3e dcd9 1e3e c9c0 18be
00000100: c282 3a3e 2885 55be 516a b13d 64df 953e
00000110: e525 cabe 5f69 c2be 44fe 8bbe 7ddc ca3e
00000120: 012c 8a3e 2449 92be 0a2e 903e 7935 b4bd
00000130: f29c 9fbe 3160 d2bc 4f5c c4bd 86c8 b03e
00000140: 5682 f63d cf2a 443e a422 963e eb76 343e
00000150: 362e 173d e2e8 11be 7ce2 d6be 5186 3a3d
00000160: 6dcd c93e 1e46 4cbd 696d 86be ad67 dabe
00000170: 4114 4e3e 268b 73be e73f b33c ab96 1abd
00000180: 38e5 c33c ac85 b5be 7da1 13be e32c a6be
00000190: d931 d13c 65ed ad3d a952 9f3d 9b05 ae3e
000001a0: 71f3 38be 786e a33e 7497 c9bd 84e8 9abe
000001b0: 3ba1 35be fab4 1c3e ca9a e6be 1d56 49bd
000001c0: fc72 80be 3656 0fbc e698 57be eb66 35be
000001d0: 1eea 113e 45a9 70be 64a8 a0be e738 2dbc
000001e0: c399 dbbd a8f3 723e 2f44 a83e d35f d03e
000001f0: 389e ee3d 95a4 a23e 5633 993d 5cf3 8cbd
00000200: 6b87 653e a2eb 7cbd 56c0 2b3e 91d9 ae3e
00000210: 2871 e3be f297 efbe 1dc2 bd3d c42e 3ebe
00000220: 8777 ccbe b3bd 5a3d edf7 d93c a7ea 8b3e
00000230: 137c 0bbe 7cd8 84be 6d15 ff3d 9e08 95be
00000240: 04bf c53c 02cf a73e 115d 0ebe 9d9f aabe
00000250: ce43 8bbe 87e8 83be 4f56 bfbe adf3 8abd
00000260: 53cc fd3d 2c0f 253e d038 813e daf0 ea3d
00000270: 903f b0be d722 a33d 4b22 d0bd 771e f2be
00000280: 51af bfbd 072d 8c3c f13d 2fbd 7b0c dabe
00000290: f3fa 6a3e 9ad5 af3d 71da a63e b1e9 893d
000002a0: 012b b7be c38b 43be 8094 413e 7de5 9bbe
000002b0: 7380 debd 217a 84bd f844 d7bd 7922 05bf
000002c0: 01f8 103d 4ca5 31be e0fd 2ebe eac7 133e
000002d0: bbea aabd 8794 8bbe e332 3a3e ffa5 d8be
000002e0: beea 8ebe 6acf 3fbe d83d 7f3e 1166 58be
000002f0: af23 92be 6426 f1bd 69dc 183d 2ac8 6bbe
00000300: 3972 bbbd 822d 993e 3d31 9fbe 86b6 7b3e
00000310: 7745 7d3d df19 d7be 8557 9d3c add4 80bc

bias.1 f4 [500]
-0.42515808 0.2976842 -0.08735481 -0.008624025 0.0012166707 0.2625029 -0.029290412 0.21059057
-0.07599806 0.10441816 0.034745816 -0.3944323 -0.22957678 0.09697801 -0.2792759 -0.368942
-0.28897664 -0.1959303 -0.13560028 -0.18791309 0.10257235 -0.05699451 0.37855238 0.37817442
0.40727824 0.07254373 0.094163455 -0.015220701 -0.2043177 -0.32791966 0.15900025 0.12135528
-0.36997005 0.38601437 -0.21782169 0.21009631 0.2628674 -0.037883256 -0.36015025 0.08703456
-0.42274007 0.42709926 0.13684307 -0.37860566 -0.3855853 -0.17648329 0.22712278 0.04743013
-0.37172362 0.24499395 0.2578461 -0.14206457 0.30123436 0.0044844802 0.061282355 0.40927678
-0.04933323 0.33037183 0.39856935 -0.11307717 0.10388962 0.36007658 0.28092173 -0.10263571
0.23959693 -0.26109117 -0.10965491 -0.06778912 0.18910319 -0.21291213 -0.3466642 -0.3798776
-0.3475544 0.07481111 0.026429709 0.12017868 0.115179405 0.33797085 0.45854884 -0.38768283
-0.31529534 0.16896962 0.011417015 0.28056222 0.27205113 -0.01921881 0.17803673 0.05405484
0.25932294 -0.16983354 0.25497317 0.036292285 -0.25100523 -0.0991486 -0.18499418 0.071286045
-0.22251399 0.123262875 0.41599733 -0.39229098 0.4671648 0.013338805 -0.21782595 -0.38098815
0.12406296 0.3252371 0.14684689 -0.09080777 -0.2531058 0.16601042 -0.30168927 0.16228744
-0.31377697 0.2311482 -0.060354482 -0.12689103 -0.4011004 0.17391011 -0.09939629 0.33201468
0.098081395 -0.32783964 0.12864299 0.077627525 -0.44983345 -0.3086136 0.16467702 -0.21132864
-0.44519147 0.2512983 0.25248006 -0.27542594 -0.26602745 -0.24564458 0.12791915 -0.15989204
-0.35033098 -0.09461671 -0.24626055 0.17296533 0.064704634 0.19808841 -0.14133766 -0.37463844
-0.4278505 -0.18407081 -0.10384372 -0.34920558 0.0388816 0.1902195 -0.44197702 -0.030248608
-0.42639846 -0.3871998 0.3123664 0.044273034 -0.36294568 -0.20929335 -0.28143057 -0.34083316
-0.31209254 -0.31138957 -0.174844 0.0035322718 -0.2061693 -0.39518446 -0.019569665 -0.40874413
0.30210978 -0.4227152 0.31589136 -0.21653597 0.08852321 0.073618166 -0.08140903 -0.062410463
-0.02785776 0.27847376 0.24761516 -0.013886723 -0.27742067 -0.13439012 0.33437836 -0.23237774
0.30273104 -0.10550912 0.49910468 -0.2774955 0.24998026 0.3129706 0.13347943 -0.022638222
-0.19855645 -0.14255457 0.14100629 0.24741116 0.3456167 -0.4605701 0.12310851 -0.34896344
0.150846 -0.2522 -0.18425043 -0.3451356 -0.2859254 -0.4497706 0.192654 -0.13557716
0.3403661 -0.22487201 -0.2837811 0.39464793 -0.29911017 0.10831341 0.48737836 0.19354333
-0.24997954 0.30809227 0.368998 -0.17939076 -0.44080368 -0.07737628 0.39823338 0.06911084
-0.40922752 0.06325036 -0.09545569 0.026637075 0.031784993 0.00825403 -0.054391894 0.020734994
0.5168971 -0.40324563 0.46912935 0.0793818 -0.41026568 -0.24548472 0.34630913 -0.28409752
-0.0014072738 0.03608142 -0.2676458 0.1484287 0.08938924 0.3407936 0.2198332 0.4572182
-0.1307883 0.13978021 -0.32422522 -0.39759907 0.17500563 -0.031056868 -0.15574561 -0.24124682
00000000: 52ae d9be 106a 983e 14e7 b2bd c84b 0dbc
00000010: b278 9f3a c866 863e 72f2 efbc 0ea5 573e
00000020: dfa4 9bbd 30d9 d53d a151 0e3d 08f3 c9be
00000030: 2d16 6bbe 689c c63d 40fd 8ebe f7e5 bcbe
00000040: bff4 93be f4a1 48be cdda 0abe 4a6c 40be
00000050: 7411 d23d 1373 69bd 9ed1 c13e 14a0 c13e
00000060: c686 d03e cf91 943d c5d8 c03d 3f60 79bc
00000070: a938 51be 16e5 a7be f6d0 223e 1e89 f83d
00000080: b76c bdbe ada3 c53e a60c 5fbe 7d23 573e
00000090: 8e96 863e 792b 1bbd 9d65 b8be 2d3f b23d
000000a0: 6371 d8be c1ac da3e 9720 0c3e 9ad8 c1be
000000b0: 706b c5be 09b8 34be e092 683e 1946 423d
000000c0: 8f52 bebe b2df 7a3e 6704 843e 6079 11be
000000d0: 643b 9a3e 8cf2 923b 3503 7b3d ba8c d13e
000000e0: a411 4abd 7f26 a93e 4811 cc3e 0195 e7bd
000000f0: 15c4 d43d f55b b83e f9d4 8f3e ac32 d2bd
00000100: e658 753e bead 85be c192 e0bd 06d5 8abd
00000110: 44a4 413e a305 5abe f87d b1be 517f c2be
00000120: a6f2 b1be 9136 993d 1e83 d83c 3d20 f63d
00000130: 2ee3 eb3d 840a ad3e eac6 ea3e 5d7e c6be
00000140: 646e a1be 5f06 2d3e 6f0e 3b3c daa5 8f3e
00000150: 494a 8b3e c470 9dbc 434f 363e 9c68 5d3d
00000160: fac5 843e d8e8 2dbe d88b 823e 38a7 143d
00000170: c283 80be 6c0e cbbd 1d6f 3dbe 6bfe 913d
00000180: b5da 63be 3f71 fc3d 9afd d43e 5dda c8be
00000190: 3a30 ef3e 018b 5a3c c40d 5fbe e110 c3be
000001a0: b914 fe3d 7a85 a63e 085f 163e 6df9 b9bd
000001b0: 1597 81be a3fe 293e 0477 9abe ae2e 263e
000001c0: 60a7 a0be 1db2 6c3e 4336 77bd b9ef 01be
000001d0: 085d cdbe 7e15 323e 4890 cbbd d4fd a93e
000001e0: e6de c83d 99da a7be fdba 033e 2efb 9e3d
000001f0: 9250 e6be 9a02 9ebe 18a1 283e 8966 58be
00000200: 23f0 e3be 2caa 803e 1145 813e a104 8dbe
00000210: c034 88be 418a 7bbe 3dfd 023e bdba 23be
00000220: 955e b3be 68c6 c1bd ba2b 7cbe d31d 313e
00000230: dd83 843d b0d7 4a3e d2ba 10be 9cd0 bfbe
00000240: 390f dbbe 0f7d 3cbe 04ac d4bd 13cb b2be
00000250: 5042 1f3d e7c8 423e d04a e2be eecb f7bc
00000260: e650 dabe 0d3f c6be 7dee 9f3e a457 353d
00000270: 04d4 b9be ff50 56be ab17 90be af81 aebe
00000280: 98ca 9fbe 746e 9fbe 4e0a 33be b07d 673b
00000290: 0c1e 53be 9e55 cabe 9050 a0bc e946 d1be
000002a0: 22ae 9a3e 206e d8be 83bc a13e 9bbb 5dbe
000002b0: a84b b53d 1fc5 963d c7b9 a6bd 1da2 7fbd
000002c0: f535 e4bc 1d94 8e3e d48e 7d3e 2385 63bc
000002d0: 150a 8ebe 909d 09be a433 ab3e 6ef4 6dbe
000002e0: 90ff 9a3e 2a15 d8bd a68a ff3e e413 8ebe
000002f0: d3fa 7f3e af3d a03e d5ae 083e cb73 b9bc
00000300: 6252 4bbe d3f9 11be f463 103e 5a59 7d3e
00000310: acf4 b03e d8cf ebbe 5120 fc3d 56ab b2be
00000320: 6077 1a3e 5c20 81be 25ac 3cbe 9db5 b0be
00000330: d064 92be 5548 e6be 1747 453e bdd4 0abe
00000340: 7744 ae3e d944 66be c24b 91be 4b0f ca3e
00000350: f824 99be 6cd3 dd3d a889 f93e 3930 463e
00000360: a3fa 7fbe 45be 9d3e 4eed bc3e 36b2 37be
00000370: 05b1 e1be 7577 9ebd 3fe5 cb3e fc89 8d3d
00000380: 4586 d1be 6889 813d 467e c3bd ff35 da3c
00000390: fb30 023d e93b 073c 09ca 5ebd 6fdc a93c
000003a0: 5e53 043f 3676 cebe b931 f03e ed92 a23d
000003b0: 580e d2be 5960 7bbe 6e4f b13e 3b75 91be
000003c0: 4674 b8ba 1cca 133d df08 89be b1fd 173e
000003d0: b511 b73d 807c ae3e f41b 613e 8118 ea3e
000003e0: 5eed 05be 8b22 0f3e d900 a6be 1b92 cbbe
000003f0: ad34 333e f96a febc c77b 1fbe 6809 77be
