LYAP_CP_m-fwd_d-20_s-0.005_seed0.pt (torch, 421641 bytes, 7 tensors)

W.0 f4 [200, 5]
0	0x3d4e5812	0.05037696
1	0x3d29941b	0.04140101
2	0xbf02ede1	-0.51144224
3	0xbe354686	-0.17702684
4	0xbf034abf	-0.5128593
5	0xbdc2d805	-0.09513859
6	0xbe674720	-0.22585726
7	0x3e3ce1a6	0.18445453
8	0x3d08116a	0.033219732
9	0xbe8b368f	-0.27190062
10	0x3cab89b0	0.020939678
11	0xbeacbdee	-0.33738655
12	0xbe9a4d3e	-0.30137056
13	0xbeeb33de	-0.4593801
14	0xbf0d40e7	-0.5517716
15	0xbdba27e6	-0.09089641
16	0xbcd3f1b8	-0.025872096
17	0x3d89899b	0.06715699
18	0xbdef73f2	-0.11692037
19	0xbecff3bf	-0.4061565
20	0x3d883196	0.06650083
21	0x3f1f455f	0.62215227
22	0xbe2918df	-0.16513394
23	0x3efe28a4	0.4964038
24	0xbeb0e311	-0.34548238
25	0x3e9ee860	0.31036663
26	0x3e73becc	0.23803252
27	0xbf112e35	-0.5671113
28	0xbdd0713a	-0.10177846
29	0xbf0c8556	-0.54890954
30	0x3d473487	0.04863408
31	0x3e6ec3b2	0.2331684
32	0xbee32a6f	-0.44368312
33	0xbcb5d8af	-0.02219805
34	0xbf3f5070	-0.7473211
35	0xbf02de14	-0.51120114
36	0xbe4f2b8c	-0.20231456
37	0x3efe5fb3	0.49682388
38	0x3da672b8	0.081273496
39	0xbee52cdf	-0.44760796
40	0xbbe01b7c	-0.006839214
41	0xbeea9b30	-0.45821524
42	0xbc825b53	-0.015912687
43	0xbf0ddcf7	-0.5541529
44	0xbef5f2c0	-0.48036766
45	0xbeb379db	-0.35053906
46	0x3da9a4dd	0.08283398
47	0x3d806b15	0.06270424
48	0x3b3242e9	0.0027200526
49	0xbe9aaf17	-0.30211708
50	0x3d43cfba	0.047805525
51	0x3f5a2813	0.852174
52	0xbad72c82	-0.0016416463
53	0x3e7b3539	0.24532022
54	0xbe695907	-0.22787867
55	0xbe2fb459	-0.17158641
56	0xbe0aa601	-0.13539888
57	0xbeead0c4	-0.458624
58	0xbea89d95	-0.32932726
59	0xbf05b1f7	-0.5222468
60	0x3e72f421	0.2372594
61	0x3ed64174	0.41846812
62	0xbe60c38e	-0.21949598
63	0x3e85de21	0.26146033
64	0x3c4413ce	0.011967612
65	0x3c86679d	0.016406829
66	0x3e75c662	0.24001458
67	0x3e4cbfa0	0.19994974
68	0x3eab6ae7	0.33479998
69	0x3da82978	0.082110345
70	0xbea1f33f	-0.31630895
71	0x3d1e6503	0.03867055
72	0x3ec1dbbf	0.37862965
73	0x3e721a67	0.23642884
74	0x3e1b1c18	0.15147436
75	0x3ef75f3e	0.48314852
76	0x3ea593fa	0.3233946
77	0xbe906150	-0.28199244
78	0x3d91b8d3	0.071153305
79	0xbf2af5a0	-0.66781044
80	0xbf0b331d	-0.5437487
81	0x3e49c09d	0.19702382
82	0x3e085592	0.13313892
83	0xbe707950	-0.23483777
84	0xbd753ab6	-0.059870444
85	0x3db7b5a7	0.08970194
86	0x3e063f72	0.1311014
87	0x3c916364	0.017747588
88	0x3ccc0435	0.02490435
89	0xbf08ee6e	-0.53488815
90	0xbcded897	-0.027202887
91	0x3f0e172c	0.5550411
92	0x3e160cfc	0.1465339
93	0x3eb159f4	0.3463894
94	0xbf409de2	-0.7524091
95	0xbed26427	-0.41092035
96	0x3c9d3ee2	0.019195024
97	0xbdcff295	-0.10153691
98	0xbe1b603d	-0.1517343
99	0xbeef654f	-0.4675698
100	0x3ed54908	0.4165728
101	0x3e932422	0.28738505
102	0xbea93b6b	-0.33053145
103	0x3d285c55	0.04110368
104	0xbf81e467	-1.0147828
105	0x3e83faeb	0.25777373
106	0xbe948584	-0.29008114
107	0xbe0abfb7	-0.13549696
108	0xbe65ae9e	-0.22429892
109	0xbf0e96d8	-0.5569892
110	0xbd2af995	-0.041741926
111	0x3efc2b32	0.49251705
112	0xbe05c949	-0.13065065
113	0x3f08e78a	0.534783
114	0x3d907322	0.0705321
115	0xbd7eff12	-0.062254973
116	0x3c9b473a	0.018954862
117	0x3e0f2881	0.13980295
118	0xbcfda1a2	-0.030960862
119	0xbf04ed9c	-0.51925063
120	0x3e8f871b	0.28032765
121	0x3e7a613e	0.24451157
122	0x3bfa5521	0.0076395427
123	0x3e5a6f7f	0.21331595
124	0xbf192c4b	-0.5983321
125	0xbdd2ee6c	-0.102993816
126	0xbeca4264	-0.39503777
127	0xbda0a1ee	-0.07843386
128	0xbea5bfd6	-0.32372922
129	0xbf25136b	-0.64482754
130	0x3e38aead	0.18035384
131	0x3ebff07b	0.3748816
132	0xbe851fa1	-0.26000693
133	0x3cf63fa5	0.030059645
134	0xbe78e110	-0.24304605
135	0x3d79dd03	0.06100179
136	0x3e81eb1b	0.25374684
137	0x3cd9641b	0.026536992
138	0x3e05c6cb	0.13064115
139	0xbe32ad53	-0.1744893
140	0x3eba1063	0.36340627
141	0x3de4ba3c	0.11168334
142	0x3e65ae75	0.22429831
143	0x3e17bcb5	0.1481808
144	0xbf5dd06a	-0.8664614
145	0xbe9165a7	-0.28397867
146	0x3ddedc9d	0.108819224
147	0xbe3eac2f	-0.1862037
148	0xbcdbef72	-0.026847575
149	0xbf211407	-0.62921184
150	0xbf01c0bc	-0.50684714
151	0xbe4e8147	-0.20166503
152	0x3dff9ae8	0.12480718
153	0x3d547b5d	0.05187546
154	0x3d752f74	0.059859708
155	0xbcc6d410	-0.024271041
156	0x3f2513da	0.64483416
157	0xbedb2b8e	-0.42806667
158	0x3d80adf5	0.0628318
159	0xbf2f59a6	-0.6849617
160	0x3babae3a	0.0052392753
161	0xbea480e6	-0.32129592
162	0xbeb7b0d7	-0.35877106
163	0xbf0a4e3a	-0.54025614
164	0xbeaa7ab4	-0.3329674
165	0xbd223a3b	-0.039606314
166	0xbedad89f	-0.42743394
167	0x3d2dccdb	0.042431694
168	0xbf03c893	-0.51477927
169	0xbe576932	-0.21036223
170	0xbe950482	-0.29105002
171	0xbef9ad71	-0.48765138
172	0x3ec8c341	0.39211467
173	0x3df306b1	0.11866511
174	0xbf83a943	-1.028603
175	0x3ed18fbb	0.4092997
176	0x3e219920	0.15781069
177	0x3d1e56df	0.038657065
178	0x3e666c80	0.22502327
179	0xbf024e95	-0.50901157
180	0xbee70b3f	-0.45125768
181	0xbea8c982	-0.32966238
182	0x3e939f98	0.28832698
183	0x3e0afebb	0.13573734
184	0xbebf044a	-0.3730796
185	0x3d908595	0.07056729
186	0xbea9d499	-0.33170012
187	0xbe47e830	-0.19522166
188	0xbef749a4	-0.4829837
189	0x3d19e627	0.037573006
190	0x3ea1afcd	0.31579438
191	0x3f16f11f	0.5896167
192	0xbed0d77f	-0.4078941
193	0x3e395d92	0.181021
194	0xbf12c04d	-0.5732468
195	0xbe2ac617	-0.16677128
196	0xbeffbef7	-0.49950382
197	0x3e0aa182	0.13538173
198	0xbed2fd74	-0.41208994
199	0xbe9dd1bc	-0.30824077
200	0x3dd1b8b2	0.10240306
201	0x3dc17067	0.09445267
202	0xbef8ed9b	-0.4861878
203	0xbe1351de	-0.14386699
204	0xbf21fde6	-0.63278043
205	0xbeb75dcb	-0.35813746
206	0xbe60d2e9	-0.21955456
207	0x3ebd6052	0.3698755
208	0x3e07b19a	0.13251343
209	0xbf0bb628	-0.54574823
210	0xbd9c1c6d	-0.07622609
211	0xbeab0a3d	-0.3340625
212	0x3c7b7649	0.015348026
213	0xbe4b65a9	-0.19862999
214	0xbeaf3f6f	-0.34228083
215	0x3d8ad024	0.06777981
216	0xbe1ed72c	-0.15511769
217	0xbc22cd45	-0.009936635
218	0x3e1274bf	0.14302348
219	0xbf01d8ca	-0.5072142
220	0xbd45d47a	-0.048298337
221	0x3f0e1cdf	0.55512804
222	0xbc8a41b1	-0.016877027
223	0x3e4d70c0	0.20062542
224	0xbf51b8fd	-0.81922895
225	0x3dfd8af1	0.123800166
226	0xbf200b1f	-0.6251697
227	0x3d1ea016	0.03872689
228	0xbeaf4f93	-0.34240398
229	0xbeb9f1a7	-0.3631718
230	0xbd601991	-0.054711882
231	0x3f1e0432	0.6172515
232	0xbd32d2c5	-0.043658037
233	0x3f120685	0.570412
234	0x3e123b5c	0.14280456
235	0x3d399450	0.045307457
236	0x3cf0dc92	0.029402051
237	0xbed21eb6	-0.41039056
238	0xbd71d9c7	-0.05904558
239	0xbed70b77	-0.42000934
240	0x3e22186c	0.15829629
241	0x3f354665	0.7081054
242	0xbe908f14	-0.2823416
243	0x3e341fd7	0.17590271
244	0xbe75624b	-0.23963277
245	0xbe197b3f	-0.14988421
246	0x3f174731	0.59093004
247	0xbed69984	-0.41913998
248	0x3e2c8f74	0.16851598
249	0xbed253c7	-0.41079542
250	0xbec26873	-0.37970313
251	0xbe1b2b75	-0.15153296
252	0x3e33ad4f	0.1754658
253	0x3905cb0b	0.00012759508
254	0xbf03d8fe	-0.5150298
255	0xbdbfc7e6	-0.093642995

W.1 f4 [500, 5]
0	0x3cd94cf5	0.026525954
1	0xbf18bfe6	-0.59667814
2	0x3d8192cd	0.06326828
3	0xbf0ab253	-0.5417835
4	0xbed278f0	-0.41107893
5	0x3e75fdfb	0.24022667
6	0xbf5408ea	-0.828261
7	0xbdd7cb00	-0.10536766
8	0xbe9d80e5	-0.307624
9	0xbf3bda5e	-0.73380077
10	0xbd40f256	-0.04710611
11	0xbe08c336	-0.13355717
12	0x3cfddb5b	0.030988386
13	0xbe46425e	-0.19361255
14	0xbe681983	-0.22665982
15	0x3ec3e0d1	0.3825746
16	0x3e4caf2f	0.19988702
17	0xbe61ae0b	-0.22039048
18	0xbd91a52c	-0.07111582
19	0xbe9756bf	-0.2955837
20	0x3ec629da	0.38703805
21	0xbdad0c03	-0.08449557
22	0xbd279f77	-0.040923562
23	0xbc5869c1	-0.013208807
24	0xbea716f3	-0.32634696
25	0xbe9487ef	-0.2900996
26	0xbf046c1b	-0.51727456
27	0x3e6a0f8b	0.22857492
28	0xbe9b2b25	-0.30306354
29	0xbd61c1c2	-0.055116422
30	0x3e614fa8	0.22003043
31	0xbe1a3c0e	-0.15061972
32	0xbe2e26f1	-0.17007042
33	0xbdb1503a	-0.0865788
34	0xbefa5cea	-0.48899013
35	0x3dd4b46a	0.10385974
36	0xbf16df67	-0.58934635
37	0xbc5bc52c	-0.013413709
38	0xbf0bd3b2	-0.54619896
39	0xbd947c6a	-0.072502926
40	0xbeac13f9	-0.33608988
41	0x3e5d01cc	0.21582717
42	0xbe94a5b7	-0.2903268
43	0xbd839982	-0.06425764
44	0xbe1d566f	-0.15365003
45	0x3de03ced	0.10949121
46	0x3de22926	0.11043005
47	0xbc921067	-0.017830087
48	0xbe6d587e	-0.23178288
49	0x3da85611	0.08219541
50	0xbda6ae52	-0.08138718
51	0xb95299e8	-0.00020084495
52	0x3eea705a	0.45788842
53	0x3e4cfcba	0.20018283
54	0xbf2d174c	-0.67613673
55	0xbdd367c6	-0.103225276
56	0x3f1ea859	0.6197563
57	0x3d201b94	0.0390888
58	0x3f0d3c02	0.5516969
59	0xbe92db24	-0.28682816
60	0xbe2fde9c	-0.17174762
61	0x3f21fd75	0.6327737
62	0x3d7c3ea6	0.061583184
63	0x3f1ac7a2	0.60460865
64	0xbe9f6928	-0.31134915
65	0xbdfbf2e8	-0.1230219
66	0x3e17a3c5	0.14808567
67	0xbe3c43df	-0.18385266
68	0x3d06afa4	0.032882348
69	0x3e359a17	0.17734562
70	0xbca8cb4a	-0.020604748
71	0xbe847116	-0.25867528
72	0x3d2339c8	0.039850026
73	0xbe888710	-0.26665545
74	0x3e3f3032	0.18670729
75	0xbf1ae048	-0.60498476
76	0xbe7a5153	-0.24445085
77	0x3de9700a	0.11398323
78	0x3e262a7b	0.16227143
79	0xbd0b5e10	-0.034025252
80	0xbc8fe6ff	-0.017566202
81	0xbf237111	-0.638444
82	0x3e8ca0a7	0.27466318
83	0xbe6d346f	-0.23164533
84	0xbe6661f1	-0.22498299
85	0x3e89032a	0.26760226
86	0x3efd2328	0.49440885
87	0xbe22872b	-0.15871875
88	0x3de21b9e	0.11040424
89	0xbf692831	-0.9107695
90	0xbcd5b508	-0.026087299
91	0x3f06e128	0.5268731
92	0xbe244d3f	-0.16045092
93	0x3eda9841	0.42694286
94	0xbed1512e	-0.40882248
95	0x3e4665be	0.19374749
96	0x3e5d5295	0.21613534
97	0xbe4e844a	-0.20167652
98	0xbdd50e78	-0.1040315
99	0xbefe7090	-0.49695253
100	0xbd119b69	-0.0355486
101	0x3df6f315	0.12058083
102	0x3ef01bbd	0.46896163
103	0x3eaf7816	0.34271306
104	0xbf16a169	-0.5884004
105	0x3ea97a58	0.33101153
106	0xbe2915a2	-0.16512159
107	0xbe22f49c	-0.15913624
108	0xbd9291bf	-0.07156705
109	0xbe49180a	-0.19638076
110	0xbe889db8	-0.2668283
111	0xbe8d6aec	-0.27620637
112	0x3d22c030	0.039734066
113	0xbd4fbaf4	-0.0507154
114	0xbf5a501e	-0.852785
115	0xbee4ba40	-0.44673347
116	0xbe294910	-0.16531777
117	0xbed0f393	-0.40810832
118	0xbed7536c	-0.42055833
119	0xbee274a9	-0.4422963
120	0x3db4acbb	0.08822008
121	0xbe966e90	-0.29381227
122	0xbdb2fa46	-0.08739142
123	0xbe2fe1c5	-0.17175968
124	0xbf8293a1	-1.0201303
125	0xbc4621ae	-0.012092991
126	0xbdcf473d	-0.101210095
127	0xbdb1b93c	-0.08677909
128	0xbcf5ee7d	-0.030020947
129	0xbf1e7044	-0.61890054
130	0xbe51f8b3	-0.20505027
131	0x3ef8ee1f	0.48619172
132	0x3da1e8f6	0.07905762
133	0x3f10dd77	0.5658793
134	0xbe835c7a	-0.25656492
135	0xbdd416f6	-0.10355942
136	0x3e2a550a	0.16634002
137	0x3e5b329e	0.21406028
138	0x3e985aca	0.29756767
139	0xbf1e6961	-0.61879545
140	0x3bbe9f47	0.005817327
141	0x3accd2dc	0.0015626806
142	0xbec08aa7	-0.37605783
143	0xbdb7b868	-0.089707196
144	0xbe73bfdb	-0.23803656
145	0xbe685908	-0.22690213
146	0x3ea39ef3	0.31957206
147	0xbdefcd39	-0.11709065
148	0x3e77e74d	0.24209328
149	0xbf167c2c	-0.5878322
150	0x3ecf6ff4	0.405151
151	0xbe9675d3	-0.29386768
152	0xbe271f89	-0.16320623
153	0xbe4beb87	-0.19914065
154	0xbe91de37	-0.2848985
155	0xbec055ae	-0.37565368
156	0xbee3e101	-0.44507602
157	0x3ea0f855	0.31439462
158	0xbe3b7e2e	-0.18309852
159	0xbdbb38be	-0.09141682
160	0xbeafb5d6	-0.34318417
161	0x3d6d7693	0.05797441
162	0x3bbb651e	0.005718841
163	0x3e56648a	0.2093679
164	0x3dfa0b40	0.12209177
165	0xbec7bc86	-0.3901102
166	0xbe16ce09	-0.14727034
167	0xbe10388d	-0.14084072
168	0xbe004aaa	-0.12528482
169	0xbf17f6f1	-0.5936118
170	0xbe18a248	-0.14905655
171	0x3e216351	0.15760542
172	0xbef839f1	-0.48481706
173	0xbe084178	-0.13306224
174	0xbf00bb41	-0.50285727
175	0xbd951eb2	-0.07281245
176	0xbd9e2207	-0.07721334
177	0xbdf40d9e	-0.1191666
178	0x3c9dffa2	0.019286934
179	0xbf4c57b7	-0.7982134
180	0xbe0e948b	-0.13923852
181	0xbecbbc59	-0.39792135
182	0x3e4e3071	0.20135666
183	0xbefbdf6e	-0.491939
184	0xbee5f90b	-0.44916567
185	0xbe8f82d9	-0.28029516
186	0x3e017f98	0.1264633
187	0x3efc3319	0.49257734
188	0x3ecaf533	0.39640197
189	0xbf30a834	-0.6900666
190	0xbc37a738	-0.011209302
191	0x3f012805	0.5045169
192	0x3dccaff8	0.09994501
193	0x3f065993	0.5248043
194	0xbeabae3a	-0.33531362
195	0xbdfeeecd	-0.124478914
196	0x3f091588	0.5354848
197	0xbe257649	-0.16158403
198	0x3ec6818d	0.38770714
199	0xbebb5b17	-0.36592934
200	0x3ebf47ab	0.37359366
201	0x3e56c353	0.20972948
202	0x3e4d63de	0.20057628
203	0xbe5260e6	-0.20544776
204	0xbf0fc37b	-0.56157655
205	0xbe7db6e7	-0.24776803
206	0xbf0bb75e	-0.5457667
207	0x3ed4db51	0.41573575
208	0xbe3c8b6a	-0.18412557
209	0xbf15299a	-0.58266604
210	0xbe190c95	-0.14946206
211	0xbef58f09	-0.4796069
212	0x3dac2800	0.08406067
213	0xbf05f843	-0.5233194
214	0xbf0d12ca	-0.55106795
215	0xbf14450e	-0.5791787
216	0xbc55447b	-0.013016815
217	0x3cce7a67	0.02520485
218	0xbdb3484c	-0.08754024
219	0xbdb961a6	-0.09051828
220	0x3e97a7d1	0.2962022
221	0x3eaa9d04	0.33322918
222	0xbde972c4	-0.11398843
223	0x3db05961	0.08610798
224	0xbf24fd9e	-0.6444949
225	0x3e7d848e	0.24757597
226	0xbdf0f1e2	-0.117648855
227	0x3ecbb218	0.39784312
228	0x3da65113	0.081209324
229	0xbf30b398	-0.6902404
230	0x3ecee8ec	0.4041208
231	0x3edfd3f9	0.4371641
232	0xbeab8765	-0.33501735
233	0x3d41ee1d	0.047346223
234	0xbee44281	-0.44581988
235	0xbe56480c	-0.20925921
236	0x3ed1b7e3	0.40960607
237	0x3dbeaa07	0.09309774
238	0x3ede92d2	0.4347139
239	0xbf1309e2	-0.57436955
240	0xbf00e8c5	-0.5035518
241	0xbb94a28f	-0.00453598
242	0xbd0dd043	-0.034622442
243	0xbe70a3bd	-0.23499961
244	0xbeabaaf7	-0.33528873
245	0xbf0b8f52	-0.54515564
246	0xbe0564f5	-0.13026793
247	0x3ccb9a36	0.024853807
248	0x3e2aa51c	0.16664547
249	0xbe108e9c	-0.14116901
250	0x3ee2d8f8	0.4430616
251	0x3e6ca65a	0.23110333
252	0xbb407083	-0.0029363937
253	0xbe4f28c3	-0.20230393
254	0xbdae8140	-0.08520746
255	0x3e2f247b	0.1710376

W.2 f4 [1, 5]
0	0x3ec5a01a	0.3859871
1	0xbf3c4eaa	-0.7355753
2	0xbde5abb3	-0.1121439
3	0xbe9335fa	-0.28752118
4	0xbf8abb75	-1.0838457

U.0 f4 [500, 200]
0	0xbdbdc902	-0.09266855
1	0x3cc79671	0.024363728
2	0x3e8795f0	0.2648158
3	0xbdcce29e	-0.10004161
4	0xbe67a307	-0.22620784
5	0xbe85c7d2	-0.26129013
6	0xbe514cf0	-0.20439506
7	0xbe017271	-0.12641312
8	0x3e30fdc0	0.17284298
9	0xbe60f0f1	-0.21966912
10	0xbe4e9a49	-0.20176043
11	0x3dbd4b3e	0.09242867
12	0xbe5f1384	-0.21784788
13	0xbe2b668d	-0.16738339
14	0xbe36c372	-0.17847994
15	0xbe0cf3f5	-0.13764937
16	0xbe3e2897	-0.18570171
17	0xbe73b6c9	-0.23800196
18	0xbe7603ed	-0.24024935
19	0xbe3bd25c	-0.18341964
20	0xbe286a07	-0.16446696
21	0x3e36215a	0.1778616
22	0xbe2d1c7c	-0.16905397
23	0xbe10974c	-0.14120215
24	0xbe80433d	-0.250513
25	0x3e52707b	0.2055072
26	0xbe8c1ec3	-0.2736722
27	0xbe6eb054	-0.23309451
28	0xbe2388e6	-0.15970191
29	0xbe4ba469	-0.19886936
30	0xbe5643bc	-0.20924276
31	0xbe93b676	-0.28850144
32	0x3e73c492	0.23805454
33	0x3e126bf4	0.14298993
34	0xbd0e8882	-0.034798153
35	0xbe78dbaa	-0.24302545
36	0xbd431586	-0.04762795
37	0x3e41409f	0.18872307
38	0xbe7d2b84	-0.24723631
39	0x3e2e679d	0.17031713
40	0xbdf599a0	-0.11992192
41	0xbe032082	-0.1280537
42	0x3e6ac08a	0.2292501
43	0xbe1b78f5	-0.1518286
44	0xbe3afb16	-0.18259844
45	0x3e9fddec	0.31224
46	0xbe675c13	-0.22593717
47	0xbe35bb29	-0.17747177
48	0xbe5f9a19	-0.21836127
49	0xbe9355c7	-0.2877638
50	0xbd118f66	-0.035537146
51	0x3e9b2ac5	0.30306068
52	0xbe8b4dd5	-0.2720782
53	0xbe733963	-0.2375236
54	0xbe65c24d	-0.22437401
55	0xbe605447	-0.2190715
56	0xbe77f5f2	-0.24214914
57	0x3e5257e7	0.20541345
58	0xbe002a46	-0.12516126
59	0xbe4ccdfe	-0.20000455
60	0xbe3d626d	-0.18494578
61	0xbe565887	-0.20932208
62	0x3deaed68	0.11471063
63	0xbe358caa	-0.1772944
64	0xbe88a942	-0.26691633
65	0xbe872616	-0.26396245
66	0xbd742ea0	-0.059614778
67	0xbe786e0a	-0.24260727
68	0xbe004397	-0.12525783
69	0xbe59970c	-0.21249026
70	0xbe8fc01d	-0.28076258
71	0x3e898253	0.26857242
72	0xbe680393	-0.22657613
73	0xbde5aa08	-0.112140715
74	0xbe3b4c36	-0.18290791
75	0xbe8fae0e	-0.2806248
76	0xbe183284	-0.1486302
77	0xbe4f82d2	-0.20264748
78	0x3e4ea985	0.20181854
79	0xbe73cd86	-0.2380887
80	0xbe8dd8f0	-0.27704573
81	0xbe4d7fbd	-0.2006826
82	0x3d3196b5	0.043356616
83	0xbdc48ca1	-0.09597135
84	0xbe223c03	-0.15843205
85	0x3e6b7d57	0.22997032
86	0xbe549b5d	-0.20762391
87	0xbe42d0ec	-0.1902501
88	0xbe14238c	-0.14466685
89	0x3e9e13eb	0.3087457
90	0xbe7a66f6	-0.24453339
91	0x3d755f24	0.059905186
92	0x3e532d9a	0.20622864
93	0x3e05e624	0.13076073
94	0xbe7d3ac8	-0.24729455
95	0x3e1f83dc	0.15577644
96	0xbe4ca175	-0.19983466
97	0xbe789a61	-0.24277641
98	0x3de23ebe	0.110471234
99	0xbe021dd4	-0.12706691
100	0xbe505570	-0.20345092
101	0xbd6cd82b	-0.05782334
102	0xbe277d95	-0.163565
103	0xbe6f597e	-0.23373982
104	0x3e43f373	0.19135837
105	0xbe653240	-0.2238245
106	0xbe64989b	-0.2232384
107	0x3e855899	0.26044157
108	0x3c84696d	0.016163552
109	0x3e5ed82d	0.21762152
110	0x3e5a4bf6	0.2131804
111	0xbe726a54	-0.23673373
112	0xbddad92b	-0.10685953
113	0xbe1d57e1	-0.15365554
114	0xbda51602	-0.08060838
115	0xbe415b06	-0.18882379
116	0xbdd00a51	-0.10158218
117	0xbe66a22f	-0.22522806
118	0xbe6e050c	-0.23244113
119	0xbe0c5ac4	-0.137065
120	0xbe75fa5d	-0.24021287
121	0xbe562706	-0.20913324
122	0x3e431c99	0.19053878
123	0xbe9d94a7	-0.30777475
124	0xbe568c90	-0.20952058
125	0xbe492257	-0.19642006
126	0xbe560fa3	-0.20904402
127	0x3e8dff26	0.27733725
128	0xbe3f47bf	-0.18679713
129	0x3e45bcc7	0.19310294
130	0x3e22b72c	0.15890187
131	0xbda8d6b4	-0.08244076
132	0x3e26158b	0.16219155
133	0x3db40b58	0.08791226
134	0xbe79a16f	-0.24377988
135	0xbe582afc	-0.21110147
136	0x3e98e88c	0.2986492
137	0xbe6e00b8	-0.23242462
138	0xbe103aaa	-0.14084879
139	0xbe30be1d	-0.17260022
140	0xbe8b183b	-0.27166924
141	0x3d040cf6	0.032238923
142	0x3e41875d	0.18899293
143	0xbe63c932	-0.22244719
144	0x3e9fa116	0.31177586
145	0xbe665df4	-0.22496778
146	0xbe8f2960	-0.27961254
147	0xbdef49e7	-0.11684018
148	0x3cd883bd	0.026430005
149	0xbe771900	-0.2413063
150	0xbe817cd4	-0.2529055
151	0x3e8a0ea3	0.26964292
152	0xbe6d3ebe	-0.23168465
153	0x3e4dc299	0.20093764
154	0xbd3533d8	-0.044238895
155	0xbe8358b8	-0.25653625
156	0xbe5558d9	-0.20834674
157	0xbe42a567	-0.19008408
158	0xbe153da7	-0.145743
159	0x3e79866c	0.24367684
160	0x3e78e38e	0.24305555
161	0xbe4b8500	-0.19874954
162	0x3e7968f2	0.2435644
163	0x3e314048	0.17309678
164	0x3e53d2a5	0.20685823
165	0xbe2aecbd	-0.16691871
166	0x3e6700e5	0.22558935
167	0x3db39b29	0.08769829
168	0xbe3fa54d	-0.18715401
169	0xbe7cb0cd	-0.24676819
170	0xbe52c778	-0.20583904
171	0xbe2f4e65	-0.17119749
172	0xbe2e6491	-0.1703055
173	0x3d96d829	0.07365448
174	0xbe29529a	-0.16535416
175	0xbe4165bc	-0.18886465
176	0xbe574482	-0.21022227
177	0xbe7a2f78	-0.2443217
178	0xbe8092fb	-0.25112137
179	0x3c8f5230	0.017495245
180	0xbe5c95cd	-0.2154152
181	0x3ead8fd9	0.3389881
182	0xbe3a423a	-0.18189326
183	0xbe0496c9	-0.12948145
184	0xbe1171b1	-0.14203526
185	0xbe683170	-0.22675109
186	0xbe690ce5	-0.22758825
187	0xbe69c3bb	-0.22828571
188	0xbd60dd0a	-0.0548983
189	0xbe49b628	-0.19698393
190	0x3e912609	0.2834933
191	0xbe5eb11b	-0.21747248
192	0xbd3cf0a3	-0.046127927
193	0xbe980dc4	-0.29698002
194	0xbe948622	-0.29008585
195	0xbdceefc8	-0.101043284
196	0x3e534b3e	0.20634171
197	0x3e5f73a0	0.21821451
198	0xbe773989	-0.24143042
199	0xbe178593	-0.14797048
200	0x3e0efd2d	0.13963766
201	0x3e93a5f4	0.2883755
202	0x3e98b37c	0.29824436
203	0x3db30427	0.08741026
204	0xbe13619b	-0.14392702
205	0xbe212cc9	-0.1573974
206	0xbe1d0355	-0.15333302
207	0xbd57bb73	-0.052669
208	0x3e242f26	0.1603361
209	0xbd30ab47	-0.043132093
210	0xbea3fd05	-0.32028976
211	0x3e33069c	0.1748299
212	0xbe5c56fe	-0.2151756
213	0xbe91e173	-0.28492317
214	0xbe5eceed	-0.21758623
215	0xbe358337	-0.17725836
216	0xbd5933d9	-0.05302796
217	0xbe264df8	-0.1624068
218	0xbeb21304	-0.34780133
219	0x3d865b5f	0.065603964
220	0xbe7dd5b2	-0.2478855
221	0xbdb33eeb	-0.08752235
222	0xbe5074d4	-0.20357066
223	0xbdef8193	-0.11694636
224	0xbe6e7140	-0.23285389
225	0x3ea9b2ed	0.33144322
226	0xbe747787	-0.23873721
227	0xbe8c8bd9	-0.27450445
228	0xbe169f1c	-0.14709133
229	0xbd479f4e	-0.04873591
230	0xbe23288a	-0.15933433
231	0xbece63cb	-0.4031051
232	0x3e82f5f3	0.2557827
233	0x3e8a6cbc	0.27036083
234	0x3e90f30d	0.28310433
235	0xbe3c4b67	-0.18388139
236	0x3e51ae74	0.20476705
237	0x3e81c40c	0.25344884
238	0xbe8a3dbb	-0.27000222
239	0x3e60ee24	0.21965843
240	0x3dc589d6	0.09645431
241	0x3ba0d1f6	0.004907842
242	0x3e640557	0.22267662
243	0xbe1c67ac	-0.15273923
244	0xbea45d90	-0.32102633
245	0x3eb3aa48	0.35090852
246	0x3c620739	0.013795667
247	0x3d0924f1	0.033482496
248	0xbea840d4	-0.3286196
249	0xbeadff9b	-0.33984074
250	0x3e674dc2	0.22588256
251	0x3e8d4aee	0.2759623
252	0xbe322a04	-0.1739884
253	0xbe3f66e4	-0.18691593
254	0xbe3c880c	-0.18411273
255	0xbed49523	-0.41520032

U.1 f4 [1, 500]
0	0x3e2ff2b5	0.17182429
1	0x3ea17df1	0.31541398
2	0xbda0415c	-0.07824966
3	0xbe5c49e8	-0.21512568
4	0xbe60fadc	-0.21970695
5	0x3e421390	0.18952775
6	0xbd5c4d76	-0.05378481
7	0x3e505f59	0.20348872
8	0xbe5c9aba	-0.21543398
9	0xbe3ee362	-0.18641427
10	0xbd8f7aea	-0.07005866
11	0x3e2a83f1	0.16651894
12	0x3e450f1f	0.1924405
13	0xbe2daa51	-0.16959502
14	0xbcf3e18d	-0.029770637
15	0xbe3a16e1	-0.1817279
16	0x3e95ec5e	0.29281896
17	0x3d9bc27a	0.07605453
18	0x3e1158ba	0.14194003
19	0xbd6ee5ea	-0.058324732
20	0x3d597f09	0.053099666
21	0xbe17e17e	-0.14832112
22	0xbe123d2e	-0.1428115
23	0x3d2b3288	0.041796237
24	0xbe366368	-0.17811358
25	0xbe4b570b	-0.19857423
26	0x3e1cbd03	0.15306477
27	0xbca1e9f7	-0.019764883
28	0xbe191d2e	-0.14952537
29	0xbc42396a	-0.011854509
30	0xbe022860	-0.12710714
31	0x3e006334	0.12537843
32	0xbe1cd3a1	-0.15315105
33	0xbdb24f7d	-0.087065674
34	0xbe1d4223	-0.1535726
35	0xbdce581f	-0.100754015
36	0x3dcbd7f1	0.09953297
37	0x3c9ad24d	0.018899107
38	0x3e5ffdd8	0.21874177
39	0x3e333570	0.17500854
40	0xbe52273c	-0.20522779
41	0x3e6d22f5	0.23157866
42	0x3e5017f2	0.20321634
43	0xbe1e5866	-0.15463409
44	0x3d016792	0.031592913
45	0xbe267bd5	-0.16258176
46	0xbdea19f8	-0.114307344
47	0x3e5da1e1	0.21643783
48	0xbe4f7492	-0.20259312
49	0xbe2ca342	-0.16859153
50	0xbe22f560	-0.15913916
51	0x3e5511c5	0.2080756
52	0xbdbb12d0	-0.091344476
53	0x3e24ca47	0.16092788
54	0xbe3043ce	-0.17213365
55	0x3e32aec9	0.17449488
56	0xbd88c46d	-0.0667809
57	0x3dba0161	0.09082294
58	0xbda17141	-0.078829296
59	0x3e0fbe03	0.14037327
60	0x3dbcec21	0.092247255
61	0x3e66b789	0.2253095
62	0x3ddb92dc	0.107213706
63	0xbe38d400	-0.18049622
64	0xbdc48943	-0.09596493
65	0x3e5aebfa	0.2137908
66	0xbda05abd	-0.07829807
67	0x3e253fa0	0.16137552
68	0x3de1cc26	0.11025266
69	0x3e07e528	0.1327101
70	0x3e347464	0.17622524
71	0xbe1d6042	-0.1536875
72	0x3e34655c	0.1761679
73	0xbe1162f0	-0.14197898
74	0x3e24169e	0.16024253
75	0xbd1eb38c	-0.038745448
76	0x3e66093a	0.22464457
77	0x3c1da31f	0.009621411
78	0x3e518d13	0.20463972
79	0x3dfc10eb	0.12307914
80	0xbe1be678	-0.15224636
81	0x3e5658cd	0.20932312
82	0xbceda46d	-0.029009068
83	0xbe536ff6	-0.20648178
84	0x3e64e4fe	0.22352979
85	0xbe3eb6d2	-0.18624428
86	0xbd96e0e0	-0.0736711
87	0x3ddaef06	0.10690121
88	0x3e06f029	0.13177551
89	0x3e987df7	0.29783604
90	0xbe307d47	-0.1723529
91	0x3e533888	0.20627034
92	0x3d74b50c	0.059742972
93	0x3e24cd64	0.16093975
94	0x3e28f99c	0.16501468
95	0xbe339e23	-0.17540793
96	0xbe4ad345	-0.19807155
97	0x3e2ed84d	0.170747
98	0xbe5e8776	-0.21731362
99	0xbe3ebad9	-0.18625964
100	0x3e85b8ed	0.2611765
101	0x3e3cb6b5	0.18429072
102	0x3e1a9496	0.15095744
103	0x3e20f776	0.15719399
104	0xbe528b8d	-0.20561047
105	0x3ed83f71	0.42235902
106	0xbd84e89d	-0.0648968
107	0xbdc1ead9	-0.09468622
108	0xbe113dae	-0.14183685
109	0x3dcf0806	0.10108952
110	0x3de5c20f	0.11218654
111	0x3e5010cc	0.20318907
112	0xbd25dd67	-0.04049435
113	0x3e222332	0.15833738
114	0x3e5d83cd	0.2163231
115	0x3e125160	0.14288855
116	0x3d81bd94	0.06334987
117	0xbde8d86e	-0.11369406
118	0x3d4e87ad	0.05042236
119	0xbe18749e	-0.14888236
120	0xbe2eaf1f	-0.17058991
121	0xbd99ab38	-0.075033605
122	0x3baff507	0.0053697857
123	0xbe3c6f17	-0.18401752
124	0xbe537c7b	-0.20652954
125	0x3e2fef7a	0.17181197
126	0x3d5a99d0	0.053369343
127	0x3e553bc2	0.20823577
128	0x3e489243	0.19587044
129	0x3e2f6afa	0.17130652
130	0x3b3548cd	0.00276618
131	0x3d113429	0.035450134
132	0xbe41d90d	-0.18930455
133	0xbe3bb9aa	-0.18332544
134	0x3e24fb79	0.16111554
135	0xbe111724	-0.14168984
136	0xbe6ef6bb	-0.23336308
137	0x3e1fde35	0.15612109
138	0xbc386e0b	-0.011256705
139	0xbe3c1da0	-0.18370676
140	0x3e4ddc7f	0.20103644
141	0x3d1809a2	0.03711856
142	0xbd693cfc	-0.056942925
143	0x3e4221ca	0.18958202
144	0xbbeacf0c	-0.007165795
145	0x3e3d82bb	0.18506901
146	0x3e24793b	0.16061871
147	0x3d0940ef	0.03350919
148	0x3e169ec8	0.14709008
149	0x3c7376cb	0.014859865
150	0xbe4c7cc0	-0.19969463
151	0x3e3e260a	0.18569198
152	0xbd55f5c3	-0.05223633
153	0xbb62891e	-0.0034566591
154	0xbe0d4a2b	-0.13797824
155	0xbe36b9da	-0.17844334
156	0xbd493487	-0.04912236
157	0x3e541802	0.20712283
158	0x3e7e5edb	0.24840872
159	0x3e58ab15	0.21159013
160	0xbdb2896a	-0.08717616
161	0x3e638d41	0.22221853
162	0x3e537d21	0.20653202
163	0x3e5efee3	0.21776919
164	0xbd306596	-0.04306563
165	0xbe1fe8e8	-0.1561619
166	0x3d3d1a32	0.04616756
167	0xbe04d904	-0.1297341
168	0xbdd12f5d	-0.10214112
169	0x3e5e0ef2	0.21685389
170	0x3e1ca809	0.15298475
171	0xbe1ef08a	-0.15521446
172	0x3e55783c	0.20846647
173	0x3da09fbd	0.07842968
174	0xbdd0bece	-0.10192643
175	0x3d28296b	0.041055124
176	0x3e4f4d81	0.20244409
177	0xbdd5d517	-0.10441034
178	0xbe31bbd6	-0.1735681
179	0xbe222a25	-0.1583639
180	0x3d45e4b7	0.048313823
181	0x3d03b721	0.032157067
182	0x3e6b0b34	0.22953492
183	0x3d9c56a9	0.076337166
184	0xbe396e19	-0.18108405
185	0x3d2f3d23	0.042782914
186	0xbe048985	-0.12943085
187	0xbe28677b	-0.16445725
188	0x3ddf0c06	0.10890965
189	0x3dffdbbd	0.124930836
190	0xbe36f049	-0.17865099
191	0xbe4b7dc5	-0.19872196
192	0xbda203e7	-0.079109006
193	0x3e4d0536	0.20021519
194	0x3dcb4703	0.09925654
195	0xbe1224be	-0.14271829
196	0xbdb3dbff	-0.08782195
197	0x3e38bdb2	0.18041113
198	0x3e52fb6b	0.20603721
199	0xbcf4855d	-0.029848749
200	0x3e23601b	0.1595463
201	0x3c824c70	0.015905589
202	0x3dfac1e8	0.12244016
203	0x3c8086a9	0.015689211
204	0x3e74f9fd	0.23923488
205	0xbe1ccc21	-0.15312244
206	0x3e67aecc	0.22625273
207	0x3dfe44b8	0.12415451
208	0x3db48972	0.08815278
209	0xbe2ba52b	-0.16762225
210	0xbe416383	-0.18885617
211	0xbe295838	-0.16537559
212	0x3e34a66c	0.1764161
213	0x3e84a2ac	0.2590536
214	0x3e049dfc	0.12950891
215	0x3dba1a81	0.090870865
216	0xbe40c818	-0.1882633
217	0x3e534399	0.20631255
218	0x3e272ac7	0.16324912
219	0xbdf39e7f	-0.11895465
220	0xbd9d3b3b	-0.07677313
221	0x3c5e59ff	0.013571261
222	0xbdfba8f3	-0.12288084
223	0xbe2d3f56	-0.16918692
224	0x3e1777db	0.14791815
225	0x3e37540a	0.17903152
226	0x3c8dd380	0.017312765
227	0x3e08d5f6	0.1336287
228	0xbe755062	-0.23956445
229	0xbdaf9d71	-0.085749514
230	0x3e62f89d	0.22165151
231	0xbea5378f	-0.3226895
232	0xbc82b6c0	-0.015956283
233	0xbe10e0b9	-0.14148225
234	0x3e90e1ae	0.2829718
235	0xbe0df305	-0.13862236
236	0x3cd5b5af	0.02608761
237	0x3df440c9	0.11926419
238	0xbe13ca99	-0.14432754
239	0x3d23773c	0.039908633
240	0xbd810601	-0.06299973
241	0x3e68fee5	0.22753485
242	0x3e0bc775	0.13650306
243	0xbe5191a3	-0.20465712
244	0x3e818260	0.2529478
245	0x3e1e8034	0.15478593
246	0x3dd91908	0.106004775
247	0x3e249c71	0.16075303
248	0x3e5aa262	0.21351007
249	0x3e6ed5b4	0.23323709
250	0x3e638fb6	0.2222279
251	0xbe532084	-0.20617872
252	0x3e9ca539	0.30594805
253	0xbe0d5eef	-0.13805746
254	0x3e544e28	0.20732939
255	0xbdbc2b1e	-0.091879115

bias.0 f4 [200]
0	0x3db2a7f3	0.0872344
1	0x3e833134	0.25623477
2	0x3db68f09	0.089140005
3	0x3e514900	0.20438004
4	0x3e075ac8	0.13218224
5	0xbead33c6	-0.33828562
6	0xbf01bb7d	-0.5067671
7	0x3f0cf751	0.55064875
8	0x3dddae18	0.108242214
9	0xbed53a44	-0.41646016
10	0xbe8907ad	-0.2676367
11	0xbeca3cb0	-0.39499426
12	0xbde119fa	-0.10991283
13	0x3ea38c78	0.31943107
14	0x3d01452e	0.031560116
15	0x3eb7455c	0.35795105
16	0x3e47a66d	0.1949708
17	0xbddfe7a1	-0.109328516
18	0xbe8a415d	-0.27002993
19	0xbe13df3e	-0.14440629
20	0x3e8c38a0	0.2738695
21	0xbd735d5c	-0.059415206
22	0x3e9096ba	0.28239995
23	0x3d37c5f2	0.04486651
24	0xbe29e39a	-0.1659073
25	0xbe9c3b7b	-0.3051413
26	0x3e8579ee	0.26069587
27	0xbe80a678	-0.25127006
28	0x3e1faadb	0.1559252
29	0xbf166a60	-0.58756065
30	0x3f15fd4a	0.58589613
31	0x3dd7cf44	0.1053758
32	0xbccfff64	-0.025390334
33	0x3dd2c13f	0.10290765
34	0x3e837ca5	0.25681034
35	0xbebe973d	-0.3722476
36	0x3e60840c	0.21925372
37	0xbdfc1a01	-0.12309647
38	0xbe303c45	-0.17210491
39	0x3ea2966e	0.31755394
40	0x3ea40c50	0.32040644
41	0xbe01727d	-0.1264133
42	0xbdceddff	-0.10100936
43	0x3e95163f	0.29118535
44	0xbeae95d4	-0.34098685
45	0xbdd7b95b	-0.105334006
46	0xbe613a09	-0.21994795
47	0xbe79556e	-0.24348995
48	0xbe0528fe	-0.13003919
49	0xbd1eed9c	-0.03880082
50	0x3dd16cfc	0.10225865
51	0xbe3e739c	-0.18598789
52	0xbe43b5ff	-0.19112395
53	0xbe4e8b84	-0.20170408
54	0xbec2f859	-0.380801
55	0xbdc0fbb1	-0.09423006
56	0x3eaf14b0	0.3419547
57	0xbe3ec29e	-0.18628928
58	0xbc9bb39a	-0.01900654
59	0x3e0fb15b	0.140325
60	0xbe8a13d3	-0.2696825
61	0x3e45ee6f	0.19329236
62	0xbc9506a9	-0.018191652
63	0x3d514d84	0.051099315
64	0x3e5541bd	0.20825858
65	0x3dbcfccb	0.09227904
66	0xbd245da3	-0.04012836
67	0xbd5bb0ff	-0.053635594
68	0x3db38204	0.08765033
69	0xbe128cf4	-0.14311582
70	0xbd9cd3b6	-0.07657568
71	0x3deee0ba	0.11663957
72	0x3f1551b9	0.58327824
73	0x3edad91d	0.4274377
74	0x3de52913	0.11189475
75	0xbe37ecff	-0.179615
76	0xbe9ba04d	-0.30395737
77	0xbf110960	-0.5665493
78	0x3dbb2827	0.09138518
79	0xbe33d02e	-0.17559883
80	0xbd78a7d0	-0.060706913
81	0x3eaf5d03	0.3425065
82	0x3eaf0b50	0.34188318
83	0xbe0b9fc1	-0.1363516
84	0x3eff8575	0.49906507
85	0x3e0d55f8	0.13802326
86	0xbe20db00	-0.15708542
87	0x3dcae1f1	0.09906376
88	0x3f0af851	0.5428515
89	0x3e98e106	0.2985918
90	0x3d5e25c3	0.05423523
91	0xbedbf247	-0.4295828
92	0xbda3e193	-0.08002009
93	0x3e8e4a16	0.27790898
94	0x3d89ae62	0.06722714
95	0xbdf5b891	-0.11998094
96	0x3ed96175	0.42457166
97	0xbe4d08b0	-0.20022845
98	0xbed44332	-0.41457516
99	0xbe49ff77	-0.19726358
100	0xbea2b908	-0.31781793
101	0x3ec6ddf8	0.38841224
102	0xbda66df9	-0.08126444
103	0xbe01a9b4	-0.12662393
104	0xbd99bca2	-0.07506682
105	0x3e116548	0.14198792
106	0x3ecc973e	0.3995914
107	0x3c22172c	0.00989322
108	0xbeb1ac66	-0.34701842
109	0xbdf6fcba	-0.120599225
110	0xbe58f591	-0.21187426
111	0xbe5914d7	-0.21199356
112	0x3e02cdc3	0.12773804
113	0x3eb74009	0.35791042
114	0x3e5b30f3	0.21405391
115	0xbd37e5d4	-0.044896916
116	0xbe70935f	-0.23493718
117	0xbe681ddf	-0.22667645
118	0x3f1677c7	0.58776516
119	0x3db0d2c7	0.086339526
120	0x3e05622d	0.13025732
121	0xbed4c590	-0.41556978
122	0xbe437a3f	-0.19089602
123	0xbea9e41a	-0.3318184
124	0xbf141d2e	-0.57857025
125	0x3e579c6f	0.21055768
126	0xbee9eaf3	-0.45687065
127	0xbe6d3771	-0.2316568
128	0x3dd702f4	0.1049861
129	0x3e457119	0.19281425
130	0x3c684ee9	0.01417897
131	0xbe5b6c43	-0.21428017
132	0x3c9ca46b	0.01912137
133	0x3ea42e37	0.3206651
134	0xbecd7ff1	-0.40136674
135	0x3df7ffb1	0.12109316
136	0x3e79157c	0.24324602
137	0xbdb53f6d	-0.08849988
138	0xbee97917	-0.45600197
139	0x3e4ff21c	0.20307201
140	0xbe97d37d	-0.2965354
141	0x3da0da60	0.07854152
142	0xbe95fd3e	-0.2929477
143	0x3eb05724	0.34441483
144	0x3e011b4e	0.12608072
145	0xbda53abf	-0.080678456
146	0xbce60ede	-0.028083261
147	0xbe882844	-0.2659322
148	0x3e94b757	0.29046127
149	0xbe6aefff	-0.22943114
150	0xbeca7947	-0.39545652
151	0x3ec3d586	0.38248843
152	0xbddb4f8a	-0.1070853
153	0xbecf3c7d	-0.40475836
154	0xbf0a74ac	-0.5408428
155	0xbe2066e2	-0.15664247
156	0xbea6615b	-0.3249615
157	0xbec588fe	-0.3858108
158	0xbea45ee2	-0.3210364
159	0xbe839e4d	-0.2570671
160	0xbe37b204	-0.17939001
161	0xbe849157	-0.25892136
162	0x3e770fca	0.24127117
163	0xbea312db	-0.31850323
164	0x3ea50cc1	0.32236293
165	0x3de12309	0.109930106
166	0xbe12f76b	-0.14352195
167	0xbeb2518f	-0.3482785
168	0x3e789dd4	0.24278957
169	0xbd425e2d	-0.047453094
170	0xbe79517b	-0.24347489
171	0x3d403545	0.0469258
172	0xbe41276d	-0.18862696
173	0x3d297f1d	0.04138099
174	0x3e85a2b2	0.2610069
175	0xbedce7b1	-0.43145517
176	0x3e8a7000	0.27038574
177	0xbeb00450	-0.3437829
178	0xbe4d6a08	-0.20059979
179	0xbe7c467f	-0.24636267
180	0xbe5e4deb	-0.21709411
181	0x3d464d22	0.048413403
182	0x3e4ad41c	0.19807476
183	0xbe56b81c	-0.2096867
184	0x3f0d3a05	0.55166656
185	0xbe6e9bbb	-0.23301594
186	0xbeb5bade	-0.3549413
187	0xbe4f058b	-0.20216958
188	0xbebeb95f	-0.37250802
189	0xbd72ee39	-0.059309218
190	0xbe87a61f	-0.26493928
191	0x3eafcc16	0.34335393
192	0x3dc264a4	0.09491852
193	0xbe8c1648	-0.2736075
194	0xbe29765a	-0.16549054
195	0x3f0fd6b1	0.5618697
196	0xbd851055	-0.06497256
197	0xbe419738	-0.18905342
198	0xbe3c4f24	-0.18389565
199	0x3e0ea789	0.13931097

bias.1 f4 [500]
0	0x3e1179ad	0.14206572
1	0xbd32e856	-0.043678604
2	0x3e16bdbf	0.1472082
3	0xbea02fab	-0.31286368
4	0xbd62b91c	-0.055352315
5	0xbc1ece27	-0.009692705
6	0x3d98fe99	0.07470436
7	0x3e3e3003	0.18573003
8	0xbbce73f1	-0.0063004424
9	0xbe1e3156	-0.15448508
10	0x3e433ea7	0.19066869
11	0xbea34aed	-0.318931
12	0xbea1e25d	-0.31618014
13	0x3eaf95b0	0.3429389
14	0x3d719e47	0.058988836
15	0x3e941e6d	0.28929463
16	0xbe94e1b6	-0.29078454
17	0x3e01106a	0.12603918
18	0xbda2406d	-0.079224445
19	0xbea0dcd5	-0.3141848
20	0xbdaaa4c4	-0.08332208
21	0x3ec98744	0.39361012
22	0x3e6dab43	0.23209862
23	0x3e7aa649	0.24477495
24	0xbd90e0b2	-0.07074107
25	0x3dd8b538	0.1058144
26	0xbe9954c1	-0.29947475
27	0x3e475660	0.19466543
28	0x3d41622a	0.047212757
29	0x3ec57c63	0.38571462
30	0x3e240731	0.16018368
31	0xbeaa4c0c	-0.33261144
32	0x3f0582db	0.52152795
33	0x3e5db7d0	0.2165215
34	0xbf00b765	-0.5027984
35	0x3e898393	0.26858196
36	0x3e1e9085	0.15484817
37	0x3edb333e	0.42812532
38	0x3da72641	0.08161593
39	0xbdde632c	-0.10858759
40	0xbe9ed315	-0.31020418
41	0xbde4fd3f	-0.11181115
42	0xbe0d22de	-0.13782832
43	0xbd7802d4	-0.060549572
44	0x3e970f47	0.29503843
45	0x3ea0f835	0.31439367
46	0x3c709306	0.014683491
47	0xbe26330d	-0.16230412
48	0x3ef7f4cb	0.4842895
49	0x3e7c0bb1	0.24613835
50	0xbe91a1ff	-0.28443906
51	0xbed8ab5c	-0.42318237
52	0x3e9f22c6	0.31081218
53	0x3d5b3dba	0.053525664
54	0x3ed9f1c5	0.42567268
55	0xbc13e008	-0.009025581
56	0xbe197f9c	-0.14990085
57	0xbeb7b180	-0.3587761
58	0x3dcc485a	0.099747375
59	0x3e942fc5	0.28942695
60	0xbd9efd10	-0.077631116
61	0xbd854183	-0.06506636
62	0xbdbca39e	-0.09210895
63	0x3efd8ccd	0.49521485
64	0x3e80e62b	0.25175604
65	0xbb0e7e4c	-0.002174276
66	0x3f19e451	0.6011401
67	0xbedaa277	-0.42702076
68	0xbda3771d	-0.079817034
69	0xbd839895	-0.06425587
70	0x3d13a5a0	0.036046624
71	0x3e10ce05	0.1414109
72	0xbe16ea4a	-0.14737812
73	0xbe0f04bb	-0.13966648
74	0x3db57c8a	0.088616446
75	0x3ddf6661	0.10908199
76	0xbeb201cb	-0.34766993
77	0x3eace77a	0.33770353
78	0xbec59fcc	-0.38598478
79	0x3c9335c0	0.017969966
80	0xbc324821	-0.010881455
81	0x3e812705	0.25225082
82	0xbde33427	-0.11093932
83	0xbebc3b00	-0.36763763
84	0xbdd75400	-0.105140686
85	0xbf0ab8dd	-0.5418833
86	0xbecdfc34	-0.40231478
87	0x3e5ba059	0.21447887
88	0xbea64491	-0.32474187
89	0xbe8eca03	-0.27888498
90	0x3f04aa42	0.5182229
91	0xbea97f9c	-0.3310517
92	0x3e46ca1a	0.19413033
93	0xbe94d1f0	-0.2906642
94	0xbd24616c	-0.04013197
95	0xbea79631	-0.32731774
96	0xbdab825e	-0.08374475
97	0xbed3dc68	-0.41379094
98	0xbea36f4e	-0.31920856
99	0x3f0577cf	0.5213594
100	0x3c7b7e46	0.01534993
101	0xbe8658df	-0.26239678
102	0xbe8701ea	-0.26368648
103	0x3ea44379	0.32082728
104	0xbd8404db	-0.064462386
105	0xbdef60f5	-0.11688415
106	0xbda419a1	-0.08012701
107	0xbe8edeac	-0.2790426
108	0x3d451e25	0.04812445
109	0x3e9e9322	0.30971628
110	0x3e14f380	0.14546013
111	0x3e0444c0	0.12916851
112	0x3ec0d969	0.3766587
113	0xbe85f7c8	-0.26165605
114	0x3e015dd3	0.12633447
115	0xbd514368	-0.051089674
116	0xbd20363f	-0.039114233
117	0x3f10eeb7	0.5661425
118	0x3d844c9a	0.06459923
119	0xbe87c217	-0.26515266
120	0xbd5c6ac4	-0.053812757
121	0x3c2d2731	0.010568426
122	0x3de59285	0.11209587
123	0xbe8fdd11	-0.28098348
124	0x3e99f051	0.3006616
125	0x3bfb7b57	0.0076746154
126	0xbe9d8410	-0.30764818
127	0xbe8e2e46	-0.2776968
128	0xbdfb2562	-0.122629896
129	0x3e5b624a	0.21424213
130	0x3ea24a00	0.31697083
131	0xbe84ce5b	-0.25938687
132	0xbc3892c6	-0.011265462
133	0x3dc5f413	0.09665694
134	0xbed3035d	-0.41213503
135	0x3f049880	0.51795197
136	0x3e986c38	0.29770064
137	0x3d3035f3	0.0430202
138	0x3daf229d	0.08551524
139	0x3f0ba02d	0.54541284
140	0x3dbee924	0.09321812
141	0xbe828f24	-0.25499833
142	0xbe5a660b	-0.21327989
143	0xbde6d6bf	-0.11271428
144	0xbe0f9057	-0.14019905
145	0xbeab3305	-0.33437362
146	0xbe7761b1	-0.2415836
147	0x3e8897fe	0.2667846
148	0x3e003236	0.12519154
149	0x3e84eb56	0.25960797
150	0xbed4356e	-0.41447014
151	0x3dba8bef	0.091087215
152	0xbeb7005c	-0.35742462
153	0x3d509833	0.0509264
154	0x3ec70d62	0.38877398
155	0x3e8cf5ad	0.27531186
156	0xbe8b11a6	-0.27161902
157	0xbe842337	-0.25808117
158	0xbe57ad4e	-0.21062204
159	0xbdecb614	-0.11558166
160	0x3d863474	0.065529734
161	0xbd877241	-0.06613589
162	0x3c5212db	0.012821878
163	0xbda7a3ea	-0.08185561
164	0xbe864b0a	-0.26229125
165	0x3ed5121f	0.41615388
166	0x3d923d04	0.07140544
167	0x3ee88278	0.4541204
168	0xbcb8d246	-0.022561204
169	0xbe9ceffc	-0.30651844
170	0xbc95f297	-0.018304152
171	0xbef96851	-0.487124
172	0xbd565348	-0.052325517
173	0x3eaa8b30	0.33309317
174	0x3d4f9fcc	0.050689504
175	0x3ed8d65d	0.42351046
176	0x3c70c104	0.014694456
177	0x3e6716ce	0.22567293
178	0x3d9ee046	0.077576205
179	0xbe14aa93	-0.14518194
180	0x3e15e0ce	0.14636537
181	0x3eb9f24a	0.36317664
182	0x3d62f324	0.05540766
183	0x3e504db3	0.2034214
184	0x3f0fd704	0.5618746
185	0x3ee28327	0.44240686
186	0xbe63b7ab	-0.22238033
187	0xbe92e247	-0.2868826
188	0xbd12b464	-0.035816565
189	0xbc7e0120	-0.015503198
190	0xbdbf5842	-0.09343006
191	0xbed2fb02	-0.4120713
192	0x3ebbf2e9	0.36708763
193	0x3e2e525a	0.17023602
194	0xbdb7be18	-0.089718044
195	0x3f0c298f	0.54750913
196	0xbd508832	-0.050911136
197	0xbe88e4c4	-0.26737034
198	0x3e212e7d	0.1574039
199	0x3ec3452a	0.38138705
200	0xbe94b132	-0.2904144
201	0xbd4c5055	-0.049881298
202	0x3e4aba78	0.19797695
203	0xbe22517e	-0.158514
204	0x3e19ce61	0.15020134
205	0xbf173ec1	-0.5908013
206	0x3d5560b0	0.05209416
207	0xbdd0981d	-0.10185263
208	0xbed93232	-0.42421108
209	0x3e84b615	0.25920168
210	0x3d8b17be	0.06791638
211	0xbed6a9c9	-0.4192641
212	0x3e1989e5	0.14994009
213	0xbe17bf6a	-0.14819112
214	0xbdf04f9c	-0.11733934
215	0xbd584e18	-0.05280885
216	0xbd50fb20	-0.05102074
217	0xbe86b7f0	-0.26312208
218	0x3e649669	0.22323002
219	0x3f0d00d6	0.550794
220	0xbdc312f1	-0.09525097
221	0x3e980801	0.29693606
222	0x3ebf78f3	0.37396964
223	0x3edc4e34	0.43028414
224	0xbcde1408	-0.027109161
225	0x3dad203f	0.08453416
226	0x3ed6cebf	0.4195461
227	0x3e588362	0.21143869
228	0xbeb053d1	-0.34438947
229	0x3e286165	0.16443403
230	0xbea2d7b4	-0.31805193
231	0x3c82654c	0.015917443
232	0xbc83d97f	-0.016094921
233	0x3edbca53	0.429278
234	0x3e4b151b	0.1983227
235	0x3eebeceb	0.46079192
236	0x3e3b9811	0.18319727
237	0x3e48cd6e	0.19609615
238	0xbebb78bc	-0.3661555
239	0x3ee0347e	0.43790048
240	0x3f10667d	0.56406385
241	0xbd9c555c	-0.076334685
242	0xbd579e26	-0.052641056
243	0x3e7cfd38	0.2470597
244	0x3e2fed21	0.17180301
245	0x3e09cc78	0.13456905
246	0x3dc10b50	0.09425986
247	0xbda90715	-0.08253304
248	0xbe958602	-0.29203802
249	0x3e8a5dbb	0.27024636
250	0xbe3fdf8d	-0.18737622
251	0xbeb1e8a7	-0.34747812
252	0xbe992f7d	-0.29919043
253	0xbec5def7	-0.3864667
254	0x3a48e903	0.0007664116
255	0x3e8620ce	0.26196903
