TWOLINK_TO_m-fwd_d-1.0_s-15_seed3.pt (torch, 5499 bytes, 3 tensors)

nn.0.weight f4 [128, 5]
000000 66 11 3f 3d 07 74 b1 3d 24 3b f6 3c 69 df bd 3d
       0.04664745 0.086647086 0.030057497 0.09271128
000010 35 83 5b 3e 83 ba cd bd c0 02 be 3d 1b ee 88 3d
       0.2143677 -0.1004534 0.09277868 0.0668604
000020 9e b4 72 3d 05 79 84 3d 5d de 89 3c c2 bf ba 3d
       0.05925428 0.06468395 0.016829664 0.09118606
000030 8c 67 f8 3d 8f 9c 09 3d f6 a4 57 be ba 01 9e 3e
       0.12129125 0.03359657 -0.21059021 0.30860692
000040 4c a9 6b 3d da 04 2a 3e ea b7 df 3c 9a 40 94 bd
       0.0575345 0.16603413 0.027309377 -0.07238884
000050 bb 63 d1 3d 84 74 2d bd a9 3e 02 3e 44 c4 c3 bc
       0.102241 -0.042347446 0.12719215 -0.023897298
000060 d8 58 cb 3d d8 b6 97 be ce 1a 5d 3d 95 80 49 be
       0.09929055 -0.29631686 0.05398064 -0.19677956
000070 7c e9 25 3e 51 af df 3d 8c 43 8e bd a8 22 65 3e
       0.16202348 0.10922111 -0.06946477 0.22376502
000080 51 90 4a bc 2d d2 67 be 6b 59 c1 bd dc 19 ef bb
       -0.012363509 -0.2263877 -0.09440883 -0.007296784
000090 81 08 80 be 59 e2 03 bd a4 9f df bd 26 f3 d4 bc
       -0.25006488 -0.032198284 -0.10919121 -0.025994848
0000a0 24 56 07 bd d0 7d 42 3c a0 5a 0a be 7b a7 9e bd
       -0.033041134 0.011870816 -0.13511133 -0.07746788
0000b0 14 bc b0 3d ef 47 78 3e 8f 7f 46 bd a1 53 0b 3e
       0.08629623 0.2424619 -0.048461493 0.1360612
0000c0 42 8f 95 bd ef 82 b4 3c 38 30 9f 3e 25 ee 7c 3e
       -0.07302715 0.02203509 0.31091475 0.2470022
0000d0 f1 12 8c 3e 7e 86 4a 3e a8 50 00 be c9 ba 65 3e
       0.273582 0.19777867 -0.12530768 0.22434534
0000e0 e4 bb e2 3d 0e 8e 7e 3e 3e 97 ed 3d 2f cb cb bd
       0.110709935 0.24858877 0.11601113 -0.099508636
0000f0 8a 7c 20 be 71 16 5e 3e 9e 4c ee bd b6 e9 07 3e
       -0.15672508 0.21688248 -0.11635707 0.13272747
000100 4f 24 eb bd f6 c5 a3 3c d6 fe 6b 3e aa f2 40 bd
       -0.11481535 0.019991856 0.23046431 -0.047106422
000110 e9 5e 82 be bd f9 c7 bc a7 b4 a7 bd 54 5e 41 bc
       -0.25463036 -0.024411077 -0.081887536 -0.011802275
000120 1a 0b 2f bb 68 69 35 3e ff e6 bd 3d d7 62 91 bd
       -0.0026709498 0.1771599 0.09272575 -0.0709893
000130 f2 a0 e5 3d c5 6b 0d be 01 d6 2d 3e 56 27 23 3e
       0.112123385 -0.13810642 0.16976167 0.15932974
000140 c5 db e9 3d 71 5b 0b 3e d0 33 48 3e e2 99 08 be
       0.11418871 0.13609101 0.19551015 -0.13339952
000150 03 ae 46 be e0 17 7d be 41 98 d8 bc 8d bc 52 3e
       -0.19402318 -0.24716139 -0.026439788 0.20579739
000160 8f e8 b7 bd f6 95 0b 3e ee 47 dc bd 7a c7 28 be
       -0.08979904 0.13631424 -0.10755907 -0.16482344
000170 c5 59 89 3d d1 8b e3 bd f9 86 3b be 30 64 97 3d
       0.06706575 -0.11110652 -0.18313207 0.07392156
000180 f0 9c de 3d 11 f3 1a be 4e 33 8a 3d 97 64 5a bd
       0.10869777 -0.15131785 0.06748067 -0.053318586
000190 97 c6 a5 bc 14 57 0d 3e 7a a1 0e 3c f6 4e 85 be
       -0.020236297 0.13802749 0.008705491 -0.26036805
0001a0 fc 06 83 bd c9 cf 55 be e3 3d f7 3d 7c 9f 69 be
       -0.063978165 -0.20880045 0.12072351 -0.22814745
0001b0 eb e4 fc 3d 5e 4d 08 bb 5c 61 55 3d 52 e6 89 bc
       0.1234835 -0.0020798068 0.052094802 -0.016833458
0001c0 b2 fd b8 3d cf af 11 be 9f e5 66 be 2f 38 6b bc
       0.090327635 -0.14227222 -0.22548531 -0.014356657
0001d0 8c 90 35 3e 40 6f c7 3d 0e 04 2b be 4c e9 72 bd
       0.17730922 0.09738016 -0.16700765 -0.05930452
0001e0 ae 5c 14 be 6e 0a 84 3e f7 c8 b9 bd 8e b9 e5 3d
       -0.1448848 0.25789207 -0.09071534 0.112170324
0001f0 fe 72 ab bc 69 17 c2 3d 1d ed 3c be 3c b5 80 bd
       -0.020928856 0.094771214 -0.18449827 -0.06284568
000200 97 f8 5e 3e cf 25 86 bd 3b 82 aa 3d 9a 24 bb bd
       0.21774517 -0.0655018 0.08325621 -0.091378406
000210 33 4c 65 be 73 4e 5b 3d 94 77 0c 3e 8a c8 ab 3d
       -0.22392349 0.053541612 0.1371749 0.08387859
000220 3b 8c 85 bc 1c 59 5a 3d df 55 44 3d a6 ff 82 be
       -0.016302219 0.053307638 0.047933456 -0.2558567
000230 99 af a8 bd 95 5a 6e 3c 95 8e 0b be cb d0 53 bd
       -0.082366176 0.014547964 -0.1362861 -0.051712792
000240 39 7f 01 be 44 e9 53 3d aa 65 1e bd d1 e5 28 be
       -0.12646188 0.05173613 -0.038671173 -0.16493918
000250 8f 93 9f 3d f3 ab c5 3c e6 ac 57 3e 60 93 41 bd
       0.077918164 0.024129843 0.2106205 -0.04725969
000260 1c e6 08 3d d4 91 ea 3d 83 a8 2c 3e 9c 2f 97 3c
       0.033422574 0.11453596 0.16861157 0.01845532
000270 5c f2 a2 bd cc a3 0c be 7b 86 b4 3c 7c f7 31 3e
       -0.07956383 -0.13734359 0.022036782 0.17379564
000280 f4 eb 98 bd 63 17 83 3d dc cb 0e 3e 68 60 23 3e
       -0.074668795 0.06400945 0.13944954 0.15954745
000290 25 c5 6d be b2 bf be 3d 89 17 5b 3e e8 d9 06 3e
       -0.23219736 0.09313907 0.21395697 0.13169062
0002a0 87 66 f6 bd 54 d3 a4 3d 0e f1 1e 3e 40 15 ab bb
       -0.12031274 0.0804812 0.15521643 -0.005221039
0002b0 16 a4 99 3d 1d 0f 8c 3d 3e 9d 29 3e f7 dd 50 3e
       0.07502 0.0683882 0.1656389 0.20397173
0002c0 27 7b 67 bd 75 33 85 3b 73 d1 37 3c 60 6d 03 3d
       -0.05651393 0.004064972 0.01121937 0.03208673
0002d0 9e b3 2b be ab d1 4f 3d 50 23 42 be c3 c9 ba bd
       -0.16767737 0.050737064 -0.18958783 -0.09120514
0002e0 97 63 02 bd d6 ac 52 3d f8 ce 67 3e af fe e7 3c
       -0.031833258 0.05143436 0.22637546 0.028319685
0002f0 a5 e9 38 3e 67 94 10 be a2 06 8a be c1 11 de bc
       0.18057878 -0.14119111 -0.26958185 -0.027108075
000300 62 2a 23 3e b4 c1 d6 3c f2 01 01 bc 83 74 aa 3e
       0.15934137 0.026215412 -0.007873999 0.33292016
000310 73 d0 95 bd 49 7c 17 3e 60 cf 99 bc 0f ca 57 3c
       -0.07315149 0.14793505 -0.018775642 0.013170733
000320 9a c5 b8 bd 49 62 03 be ac ff c7 bd 66 a0 09 3e
       -0.090220645 -0.12830462 -0.097655624 0.13440093
000330 e1 b1 78 3d 93 fd 0f 3e f9 4c 02 3e 07 43 52 3e
       0.060716514 0.14061575 0.12724675 0.20533381
000340 68 f9 cb bd c0 9e e2 bd f2 c2 d4 3d 77 0e d5 bc
       -0.0995968 -0.110654354 0.10388745 -0.026007874
000350 b3 8b 83 bd 55 37 22 3e 9d 12 db 3d 1d 0d 86 3e
       -0.0642313 0.1584142 0.106969096 0.2618188
000360 6b 16 4c bc 26 44 25 3e 29 07 c5 bd 93 a7 c4 3d
       -0.012456517 0.16139278 -0.09620506 0.09602275
000370 db 34 1b 3e 39 da 07 3d 4d 8d 93 3d 4b 98 62 bd
       0.15156882 0.033167098 0.07204685 -0.05532102
000380 fd 60 af 3d ad 78 21 3e e9 36 a6 3d d4 e1 c5 bd
       0.08563421 0.1576869 0.08115942 -0.09662214
000390 71 39 82 be 97 1d 1d 3e b2 d6 fd 3d 24 ba d6 bd
       -0.2543445 0.15343319 0.123944655 -0.10484722
0003a0 e8 a0 5a be 49 f7 10 be 87 97 f2 3d 7a 0a 94 be
       -0.21350443 -0.14156832 0.11845308 -0.28914243
0003b0 16 8d 13 be d3 d1 72 be a1 95 d9 bd e5 50 0e 3e
       -0.14409289 -0.23712854 -0.106242426 0.13898046
0003c0 23 eb 63 be 7f b1 4f 3e df 61 07 3e b8 02 18 be
       -0.22257666 0.20282553 0.13220929 -0.14844787
0003d0 3c 55 a5 bc 6d 02 d0 3d ba 6f 40 bd b7 46 64 3d
       -0.020182244 0.10156713 -0.04698155 0.0557315
0003e0 3d ef bc bc 8e 94 31 3e b9 82 93 bd 44 80 8a be
       -0.023063296 0.17341825 -0.07202668 -0.27050984
0003f0 73 7c 6a 3c 2b 52 52 bd 33 4f 25 3e cb be 81 3d
       0.014311898 -0.051347893 0.16143493 0.06335219

nn.0.bias f4 [128]
000000 58 48 3b 3d bc da 41 3c 05 4a 27 bd 2c c9 15 3c
       0.04572329 0.0118319355 -0.040842075 0.009142201
000010 f8 9d 0f bc c8 2a b8 b9 6d 9b bf 3c de 91 b9 bb
       -0.00876569 -0.0003512709 0.023389542 -0.0056631407
000020 40 f6 8f 3c e8 ea d5 bc 6c 0c 6f 3d 92 5c c3 3b
       0.017573476 -0.026112989 0.058361456 0.005961963
000030 be 20 44 3d 84 aa 8a 3c b2 0e ec ba 44 b4 54 3b
       0.047882788 0.016927011 -0.0018009751 0.003245608
000040 4c 6d ad bc f7 7d 5a bc 69 ca e3 bc 53 eb 03 bb
       -0.02117028 -0.013335696 -0.027806478 -0.0020129278
000050 d9 5e af 3c c8 68 22 3c 92 ca 12 bd cd f2 85 3c
       0.021407532 0.009912677 -0.035837717 0.016351128
000060 84 c3 aa 3c d8 0d 3c 3c 73 4c 8b bc e4 52 54 bd
       0.020845182 0.01147791 -0.017004227 -0.051836863
000070 95 35 6b bc e6 08 26 bc 99 37 2c 3c dd 75 4d 3a
       -0.014356037 -0.0101339575 0.010511302 0.00078376924
000080 36 11 0e bd f6 37 15 3c b0 6b f2 3b b2 f6 a2 bb
       -0.034684382 0.00910758 0.0073980913 -0.004973256
000090 c0 96 17 bb a5 40 62 3c 3f 1b 83 3c 38 de 2f bd
       -0.0023130625 0.013809358 0.016004203 -0.042936534
0000a0 14 9d 17 bc 70 9e 4e bc eb 6c 89 bc 6a de e5 bc
       -0.009253759 -0.012611017 -0.016775569 -0.028060157
0000b0 48 42 79 bb d1 3a 87 bb 29 65 af 3b 94 3d 4e bd
       -0.0038033891 -0.0041268845 0.0053526354 -0.050351694
0000c0 17 e8 b3 3c 69 f2 bf bc 90 f2 a3 ba 18 ee 8f bc
       0.021961255 -0.02343102 -0.0012508202 -0.017569587
0000d0 64 6e 62 b9 75 d3 16 3c 84 ad 86 3c 76 e5 96 bc
       -0.00021594163 0.009205689 0.01644016 -0.018419962
0000e0 2c ea bf bb 78 41 6c b8 ce b3 f1 bc c2 59 c7 3b
       -0.005856773 -5.6327757e-05 -0.029504683 0.006083698
0000f0 f8 bc 43 bb 27 e4 df bb a4 9f 30 bc ac a0 f5 3b
       -0.0029867273 -0.006832618 -0.010780249 0.00749596
000100 8f 70 d2 ba f8 a2 f2 bb 44 01 58 b9 3f ce 33 bc
       -0.0016055274 -0.0074046813 -0.00020599837 -0.010974466
000110 86 e1 53 bd f1 ac bb bc 25 ad 86 bc 7c f4 08 bc
       -0.051728748 -0.022909613 -0.016439984 -0.008359071
000120 b7 fe 7e 3c fb 47 43 bc 1d 4e df 3c 02 a4 c0 bc
       0.015563658 -0.011919017 0.027258927 -0.023515705
000130 1a 21 b1 bc b1 51 ed 3c 06 22 49 bc f7 ea e3 bc
       -0.02162223 0.028969618 -0.012276178 -0.027822
000140 46 8a 97 bc 3e 15 45 3b 65 2e 49 bd 2f d7 e3 b9
       -0.018498551 0.0030072476 -0.04911651 -0.00043457138
000150 0a e8 48 bc 33 64 96 bc ad cb 35 3c 5f c0 6a 3c
       -0.012262354 -0.018358326 0.011095923 0.014328091
000160 fb 37 a6 3c 78 fd 0a bd 53 e5 58 bc dd 28 57 bc
       0.020290365 -0.033933133 -0.013238269 -0.013132301
000170 30 60 79 bd 70 6f 87 bc 68 f5 cd bc 33 99 57 bc
       -0.060882747 -0.01653263 -0.025141433 -0.013159084
000180 38 71 b9 bc ef ca 2b 39 0e bb 66 3b 64 47 4e 3d
       -0.022636995 0.0001638343 0.0035206708 0.050361052
000190 2c f1 f1 3c 56 16 66 bc fa d7 9f bc ae 2d 5b 3c
       0.029533945 -0.014043411 -0.019512165 0.01337759
0001a0 ed d1 68 3d f3 bf fa bc 16 aa 89 3d 54 ba a8 bb
       0.056840826 -0.030609107 0.067218944 -0.005149165
0001b0 d1 ab 57 bc b0 ec 9e bc 5e 9d e3 3c 2c 38 de 39
       -0.013163523 -0.01939997 0.027785 0.0004238499
0001c0 3e d0 3e 3c 05 43 25 bd 1f 39 5d bc 7a 48 3f 3d
       0.0116463285 -0.040347118 -0.013502388 0.04669998
0001d0 d7 b9 fd bb 64 38 5a bd b4 66 0e 3c a6 86 54 3d
       -0.007743101 -0.053276435 0.0086914785 0.051886223
0001e0 32 10 4b bc b0 14 40 bd c0 47 b1 3c 4a 3e 33 bc
       -0.012393998 -0.04689473 0.021640658 -0.010940144
0001f0 71 9d b7 3c 06 39 72 3c 69 1d 04 bd 0b 62 98 3b
       0.022413941 0.014784103 -0.03225461 0.0046503595

nn.2.weight f4 [1, 128]
000000 d5 3b 21 bd bd 9a 08 be 85 7f 0d bd d7 f7 54 3e
       -0.0393637 -0.13340278 -0.03454544 0.20797668
000010 05 8c d8 3d f1 9b 66 3e 39 24 2f be 67 45 bc 3d
       0.105735816 0.22520424 -0.17103662 0.09192925
000020 20 2b 1f 3e 3a 8c 5b 3e 78 40 70 3e 8b de 86 3d
       0.15543795 0.21440211 0.23462093 0.065854155
000030 b7 f0 84 3e 93 de 88 be 37 0c da bd 4a df b2 3d
       0.259649 -0.2673231 -0.10646861 0.08733995
000040 80 2a 40 3c 99 ab 6d be 43 ac 49 3d 99 44 f1 bd
       0.011728883 -0.2320999 0.049236547 -0.11780662
000050 fc e1 52 be bb 8c 3c 3e 5c bc 20 3e d1 93 70 be
       -0.20594019 0.1841306 0.15696853 -0.23493887
000060 24 da af 3d 85 ed b6 bd b1 43 68 be 9f 32 11 be
       0.08586529 -0.08932022 -0.22682072 -0.14179467
000070 a7 ce e8 3d da 4b d5 bd 6c 6a a3 3d 9d ba 64 bd
       0.11367541 -0.10414858 0.07979283 -0.05584203
000080 f1 90 16 3d eb a5 b3 bd 54 02 0d 3e e5 61 ac bc
       0.03675932 -0.08771881 0.1377042 -0.021042774
000090 fe 11 36 3e 70 ee 76 3d 97 63 88 be cb 26 45 3d
       0.17780301 0.060285985 -0.2663848 0.0481327
0000a0 2e 76 cc bd 8e fc 20 3e 4b 15 39 be b7 2c 48 3e
       -0.099834785 0.15721342 -0.18074529 0.19548307
0000b0 2f ee c4 3d 09 2c b5 bd a0 24 e9 bd f2 81 27 3e
       0.096157424 -0.0884629 -0.11383939 0.16358164
0000c0 de 1d 13 be 61 2d 15 3e 1c bd a0 3d 30 f6 86 be
       -0.14366862 0.14568092 0.0784857 -0.263597
0000d0 9a 11 72 bd f6 6f a2 bd a4 1c 21 3e 5c 56 16 be
       -0.059098817 -0.07931511 0.15733582 -0.14681381
0000e0 86 39 31 bd bb e7 7d 3d 54 67 29 be 4c fc 37 be
       -0.04326775 0.061988574 -0.16543323 -0.17967337
0000f0 40 25 69 3d a3 fb 2b 3e d5 b6 0e bc 50 94 03 bd
       0.05692029 0.1679521 -0.008710583 -0.032123864
000100 8a 71 01 3e e6 98 26 3d f4 eb 5e 3e 17 06 19 3e
       0.12640968 0.04067316 0.21769696 0.1494373
000110 ee cf 50 be a2 38 f8 bd ce 88 23 bd 48 b8 35 be
       -0.20391819 -0.12120177 -0.03992539 -0.17746079
000120 aa 8c e4 3d 71 45 63 3d cf 64 c0 bd 84 bd 49 3e
       0.11159642 0.055486146 -0.09394228 0.197012
000130 d9 08 75 be bc 15 8e be a9 2b 55 3d cd bf 1d 3d
       -0.23929156 -0.27750957 0.05204359 0.038512994
000140 f5 08 d8 bd bf 5e 82 3d e5 f4 10 be f8 58 59 be
       -0.105485834 0.06365728 -0.1415592 -0.21225345
000150 01 20 7f 3d 77 71 2d 3e c7 cf 51 3e 65 91 51 3d
       0.06228638 0.16937815 0.20489417 0.05116405
000160 f3 5f ff 3d f6 ab 03 3d e5 5d e9 3d ee 6a 27 be
       0.12469473 0.032146417 0.11394862 -0.16349384
000170 24 ff 1f 3e 0d 8e d9 3d 00 a6 58 bd 45 fa ef bd
       0.15624672 0.10622797 -0.052892685 -0.11717657
000180 63 70 74 3e 7d 29 01 3e 5a 38 a5 bd 73 ee 90 3e
       0.23870997 0.12613483 -0.08067389 0.28306922
000190 23 d6 da bd 9f 94 82 bd b3 fb 01 3c 56 84 88 be
       -0.106853746 -0.063760035 0.007933545 -0.26663464
0001a0 f0 0d 24 be b7 92 ba 3b b6 83 01 3d 85 bb 3f bd
       -0.16020942 0.0056937593 0.03161975 -0.046809692
0001b0 c9 22 6a be c4 85 61 3d 6e 49 50 3e de a9 cd 3d
       -0.22864832 0.05505921 0.20340511 0.10042165
0001c0 c4 32 27 3e 64 87 13 3e f4 39 e3 3b 11 4e 11 3e
       0.1632796 0.14407116 0.006934399 0.14189936
0001d0 ad 76 12 3e bc b6 46 be 66 ef 2f 3e dd 6a 8e be
       0.14303084 -0.19405645 0.17181167 -0.27815905
0001e0 5b 79 5e be c0 53 12 3e 6e 65 4e be 9c 74 e1 3d
       -0.21725981 0.1428976 -0.2015588 0.110085696
0001f0 24 26 7b 3e 06 9e 5e 3e 6e f3 51 be 25 31 15 3e
       0.24526268 0.21739969 -0.20503017 0.14569528
