TWOLINK_TO_m-fwd_d-1.0_s-15_seed4.pt (torch, 5499 bytes, 3 tensors)

nn.0.weight f4 [128, 5]
00000000: affa 16be 4e43 c73e 5aa3 dabd 1571 8d3e
00000010: b426 97bb fb3e c1be e2a7 103e 7b54 4cbe
00000020: 82e0 013e 2d21 99bd f670 8f3d 0c70 1abe
00000030: 1468 3abe 9830 adbc f053 163e 67f8 b7bd
00000040: d693 96bd ec3b 513e c51b e9bd f4e9 dabd
00000050: 35c6 8fbc d545 843e 9e40 93bd 583c 0fbe
00000060: c994 063d 849c 9fbd 3bb3 65bd d4a3 01be
00000070: 6786 42bd 86ab 5b3e 22f6 b63e df1b 033d
00000080: 7eb0 2f3e 1aee ee3c ddcf b43c 4a8a 933e
00000090: ce6b 053e 3906 47be 1ea3 44be fde5 70be
000000a0: 210f 6abd 871f 10bd ed2e 26be 898f cd3d
000000b0: a1be 6c3e 7d2c 49be 0941 2c3e 5ae9 02be
000000c0: 5ef0 99bc cd66 fa3d 66ce 99be dad9 d73d
000000d0: aae3 05be b28f d93d 0b85 cfbd b38b bfbd
000000e0: 1a3b 10bd 0408 5dbd ec31 c63d 1cfa 48be
000000f0: 330e 0c3e 30e6 3bbe 4745 203e cce9 ce3d
00000100: cf17 f6bc 9847 2cba a195 773c 5cba 6a3d
00000110: b92c 293e 15dc 02be 443c 0a3e 6105 123e
00000120: 62c5 40bd 84a1 67be 232d 32be ec62 38be
00000130: e0fe 7fbd 7d3f 6c3e 6637 2cbe 1a94 ef3d
00000140: 2575 4bbe 7a19 103e 47c4 2d3e 9955 29be
00000150: 704a 7c3d 0821 8c3d 98ab 403d 7ffa 1f3e
00000160: 2cc5 a63d 6e97 0fbe 2239 363e 1370 023e
00000170: 741e 403d fedb 043e 2d64 d83d 7620 4f3d
00000180: 5e46 fd3d 4742 fa3c dbb4 45bd 99f7 293e
00000190: 9fc4 6b3e 98d6 8e3d 2210 63be b157 80bd
000001a0: 8d17 23bd a213 0a3e 0b76 e83d 56cd 033d
000001b0: 433f 00be f3af 003e bcac 6c3e 79b6 89bd
000001c0: 017b 24be 1480 29be aa24 08be 93ae 5e3e
000001d0: 6b13 0cbe 1cdf 243e 8c9b eb3c dda7 703c
000001e0: f408 36be 36c7 c03d 60c2 e53d 26ce f1bd
000001f0: aa4d 8abe a74d 203e df6a 63be 56a5 373e
00000200: 1697 b43d 0c08 d7bd 950e 7bbd 5506 85be
00000210: e610 a23b d11f 873c 03e1 143e bcb9 1a3e
00000220: 8a72 c4bd dfa4 7fbe d4b8 b93d 5fc9 5ebd
00000230: 32d4 f43b 66d9 d5be 8ad1 683a de57 81be
00000240: 83b8 253d 28bc 873e 5444 0abe e904 4e3e
00000250: ba1b bfbd 9b6a c13d b88e 883e 3912 943d
00000260: 9b5e 3cbe 298b 0abe 9d0a 26be 3dda 0c3e
00000270: 2467 dc3c 6a79 22bd 8893 0e3e b9e3 893d
00000280: 9b8a 253b a1ef e1be 4833 d43a 0f69 92be
00000290: 3d8f 333c 27e1 9d3d a9f4 8ebe a9d9 ef3d
000002a0: 8992 483e 81a8 98be 18df 87bc c6cd c0bc
000002b0: 00ff 183e c44b a0bd 05f9 143e 8126 8dbe
000002c0: 7077 b03d 3330 35be b74f 0c3e 2225 09be
000002d0: 8edc 45be 27d8 03be 83bf b73d 6b23 13be
000002e0: 3c01 4a3e 4e79 c63b ff9a 9ebd 75da 46be
000002f0: fe60 1ebe f09a 233e 02ff 2cbe 402d 1ebe
00000300: c0ee 01be 7882 5a3e d354 21be 4b8f 1f3e
00000310: c09d 323e aaee 94bb 13a8 0d3e ea28 ee3d
00000320: f806 9d3c 333f c23d 5216 45b9 ff03 cb3d
00000330: c177 e63d a891 113d 7450 9f3e 8648 7dbd
00000340: 8481 77be 68b9 5d3e 5d3f 32be 7b54 0abe
00000350: bce6 efbd 67cc 423e 87fe 53be 3f88 9f3e
00000360: 54aa 0b3e 312b fdbd da69 3ebe 28d9 59be
00000370: 3847 89bd 143c 873d aad9 023e f1f2 65be
00000380: 685c efbc 0cb2 7cbe d0fc b0bd f647 67be
00000390: 8bde 0b3e 22e4 cbbc d53d 8bbd f4e8 2abd
000003a0: ccd5 95bb ee83 50bc a669 58be c0c7 833e
000003b0: 0b40 53be ca54 37be 70a2 273e 9ac6 5c3d
000003c0: f405 4fbe bf2f d93c 901b 4c3e 74ae 493d
000003d0: 40f4 6abd ba57 6c3e c831 01be 4495 6bbe
000003e0: 33e6 07be af54 64bc 2d8c 083e c022 56bd
000003f0: a013 5cbe 6d32 37be df37 d3bd 7ea6 063e
-0.14744066 0.38918537 -0.10675688 0.27625337 -0.004612768 -0.37743363 0.14126542 -0.19954102
0.12683299 -0.07477031 0.070039675 -0.15081805 -0.18203765 -0.021141335 0.14680457 -0.08982926
-0.07352416 0.20433015 -0.1138225 -0.10689154 -0.017550567 0.25834528 -0.07190059 -0.13987863
0.032856736 -0.07793525 -0.05607913 -0.12660152 -0.047491457 0.2145215 0.3573466 0.032009
0.1715717 0.02916627 0.022071773 0.28816444 0.13029405 -0.19435968 -0.1920285 -0.23525234
-0.057143334 -0.035186317 -0.16228838 0.10037143 0.23119594 -0.19645877 0.16821684 -0.12784329
-0.018791374 0.12226639 -0.30040282 0.10539599 -0.13075128 0.10623111 -0.10132798 -0.093528174
-0.035212614 -0.053962722 0.096774906 -0.19626659 0.13677292 -0.18349528 0.15651427 0.10103187
-0.03004065 -0.00065719476 0.015111358 0.057306632 0.16520967 -0.12779267 0.13499552 0.14259864
-0.04706324 -0.22620207 -0.17400031 -0.18006486 -0.062498927 0.23071094 -0.16818008 0.1169817
-0.19868906 0.14072219 0.16969405 -0.16536559 0.061594427 0.06842238 0.047038645 0.156229
0.08143076 -0.1402261 0.17795232 0.12738065 0.046904042 0.12974545 0.10565982 0.050568067
0.12366937 0.030549182 -0.04826818 0.16598357 0.23024224 0.06974524 -0.22174123 -0.06266726
-0.03981738 0.13484052 0.1135064 0.032178245 -0.12524132 0.1256712 0.23112768 -0.06724257
-0.16062547 -0.16552764 -0.13295236 0.21746282 -0.13679282 0.16100734 0.028760694 0.014688459
-0.17776853 0.094129965 0.11218715 -0.11806898 -0.27012378 0.15654622 -0.22208737 0.17934164
0.0881788 -0.10499582 -0.061293203 -0.25981393 0.004945862 0.016494663 0.1453896 0.15109915
-0.09592159 -0.24965237 0.09068456 -0.05439126 0.0074715847 -0.41767424 0.00088813214 -0.2526235
0.040459167 0.2651074 -0.13502628 0.2011906 -0.0933146 0.094441615 0.26671386 0.07230038
-0.18395464 -0.13529648 -0.16214986 0.13755126 0.02690465 -0.03966657 0.13923466 0.06732888
0.0025259617 -0.44128135 0.0016189599 -0.28595778 0.010959444 0.0770896 -0.27921036 0.11711437
0.19587149 -0.29816058 -0.016585872 -0.02353562 0.14941025 -0.07826951 0.14548118 -0.2756844
0.08616531 -0.17694168 0.13702284 -0.13393071 -0.19322416 -0.12875424 0.08972075 -0.1436898
0.19727033 0.006056941 -0.07744407 -0.19419272 -0.15466687 0.15977073 -0.16894153 -0.15446949
-0.12688732 0.21338832 -0.15755014 0.15582006 0.1744299 -0.0045450525 0.13833646 0.116288975
0.019168362 0.094847105 -0.00018795699 0.099128716 0.1125331 0.0355393 0.31116068 -0.061836742
-0.241705 0.21652758 -0.17406984 -0.13508789 -0.11713931 0.19023286 -0.20702563 0.31158635
0.13639194 -0.12361754 -0.18595067 -0.21274245 -0.06703037 0.06603256 0.12778345 -0.22455956
-0.029218867 -0.24677294 -0.0864197 -0.22586045 0.13659112 -0.024889056 -0.06798903 -0.041726068
-0.0045726057 -0.012726767 -0.21134052 0.25738335 -0.20629899 -0.17903438 0.16370559 0.05390034
-0.20217115 0.026512025 0.1993239 0.049238637 -0.05736184 0.2308034 -0.12616646 -0.23006159
-0.13271408 -0.013936206 0.13334723 -0.052279234 -0.21491861 -0.1789033 -0.10313391 0.13149449

nn.0.bias f4 [128]
00000000: 93d0 9ebd e969 d43c 4fe0 81bd c9f9 2ebc
00000010: 6890 2c3e 85c1 a73c 0cdc 52bb 40d9 d8bd
00000020: e1d5 08bc 49f0 913d 60c7 423b a07c 11bd
00000030: 1579 45bd a5dc 8bbc 754f 0fbe 67d3 03bd
00000040: 5f1e c5bd 3b34 3cbd 8934 98bd d000 ef3b
00000050: 065d 9bbd af74 b43d 49c2 9dbd 47be 24bd
00000060: 6c3d ffbc 3411 38bd 2d0a 9bbd 5df6 c6bc
00000070: 6c33 833d f997 95bd 7b7e b0bd dede e2bc
00000080: f665 a63d 2957 a7bd 86c7 4d3d 27db 0e3d
00000090: 5563 bdbc 3c59 0abd 303e b0bd 8c48 78bd
000000a0: cd0b 77bd 1feb 553e 3ca3 4bbd d55a cfbd
000000b0: 35aa 30bd 246f 19bd 2d77 85bd d186 a83c
000000c0: 511b b93d 0f90 bebd 0e45 a1bd d8c8 d0bd
000000d0: c1c4 0d3d 1a19 8a3c f24a 54bd 0361 c8bd
000000e0: 3da1 f2bd dd0b 7fbd 3f39 99bd 73a4 7ebd
000000f0: 2528 ce3c 119a 16be 1808 263d 9581 753d
00000100: f4fa 0b3e ef55 a93c 3a39 0d3e 1777 85bd
00000110: 0c13 59bd 0116 403d 30ef d6bc da4d 2d3e
00000120: bb8e e7bc b1c6 d63d 3dc7 40bd f8d8 d93b
00000130: 0a2e 20bd 9824 e6bd d378 5a3d 2576 b2bd
00000140: fd0d b2bd b167 44be 1b6a 8e3c b8bb 1ebd
00000150: 12a1 bcbd 34a5 17bd 3a52 dc3c 86dd 27bd
00000160: 4f49 91bd 68b4 93bd 88b1 3f3c 2ebd 26bd
00000170: 7be7 3abc b26f babd 0c4a edbb a5b1 4cbd
00000180: 95ab 093d d278 e6bd e91c 9fbd 7af1 d7bd
00000190: b1a0 d1bd c736 6c3d 7735 19bc e044 8cbd
000001a0: f1fd 37bd bd2e 22bd 94e2 e5bc b88c 81bd
000001b0: 1347 8dbd aa80 153d b8f4 e1bc 1f51 eabc
000001c0: 5e16 06be 6e5f 84bb ade9 ae3d 216e 463d
000001d0: 60d6 563c bf96 543c dc11 963c 249f 243d
000001e0: 5225 963d 5206 59bd 91f9 273e 1759 73bd
000001f0: f220 10bd 5cc3 2abd d2cb 5cbc b7a5 15bd
-0.07754626 0.025929408 -0.063416116 -0.010679671 0.16851962 0.02047802 -0.0032174615 -0.10588312
-0.008351774 0.07125909 0.0029720888 -0.035519242 -0.048211176 -0.017072985 -0.13995154 -0.03218403
-0.096249335 -0.04594825 -0.07431895 0.007293798 -0.07586102 0.08811318 -0.077030726 -0.040220525
-0.031157218 -0.04493828 -0.075703 -0.024287397 0.06406292 -0.07304377 -0.08617874 -0.027694162
0.08124916 -0.08170921 0.05023911 0.03487697 -0.023118654 -0.033776507 -0.08605611 -0.06061606
-0.06031399 0.20890473 -0.04971622 -0.10124747 -0.043131072 -0.037459508 -0.065168716 0.020572098
0.09038413 -0.09304821 -0.07874499 -0.10194558 0.034611467 0.016857672 -0.051829286 -0.097841285
-0.1184716 -0.062267173 -0.07481622 -0.06216855 0.025165627 -0.14707209 0.040535063 0.059938032
0.1366995 0.02067086 0.13791361 -0.06516855 -0.05299668 0.046895985 -0.0262371 0.1692423
-0.028266301 0.10487116 -0.04706501 0.006648179 -0.039106406 -0.112374485 0.053337883 -0.087139405
-0.08694074 -0.1918018 0.01738458 -0.03875324 -0.09210409 -0.037022784 0.026894677 -0.040982746
-0.07094061 -0.07212144 0.011700042 -0.04070776 -0.011407728 -0.091033354 -0.007241493 -0.049974103
0.0336109 -0.112535134 -0.07769186 -0.10544105 -0.102357276 0.057669427 -0.009351126 -0.06849074
-0.04491991 -0.039595354 -0.028062142 -0.06325668 -0.06898322 0.036499657 -0.027582511 -0.028603135
-0.1309447 -0.0040396964 0.08540664 0.04844487 0.013112634 0.012975394 0.018319063 0.04019083
0.07331337 -0.052984543 0.16403796 -0.059411135 -0.03518767 -0.041690215 -0.013476329 -0.03653499

nn.2.weight f4 [1, 128]
00000000: 0d52 eb3d 7efa 5c3e 0c96 3cbe f492 41be
00000010: 93e0 fc3d 5176 98bc 9558 793e 74ca babd
00000020: f0ae fcbc 733e 0f3e f13c ff3d 2152 e03d
00000030: c9d2 ad3d 75df 3ebe 4cbd 89bd 8ff8 34be
00000040: 52ac 09be fbc9 52bb e3af 083e a711 e63d
00000050: d3a0 90bd aaa8 643d 2f18 70be 7ea1 583e
00000060: c423 49be f221 3c3e dd8a a23c 4c72 78be
00000070: 3216 953d 4870 7b3e 69f8 2dbe 3d44 e2bb
00000080: c785 223e 46de 6d3e f4c8 cabd 16f6 113e
00000090: f7e6 f9bd c570 a8bd 6e7d 453e 9575 423e
000000a0: c6f4 9a3d b5ee 003e 52ad 863d 5e4b 6abe
000000b0: 1425 70be e985 463e 2c0f 02bd 32e3 cdbd
000000c0: f85e 81be 94d1 1abe 8bd9 e0bd 4375 6c3d
000000d0: 7562 56be 1d48 9cbd 1067 e6bc c153 2d3e
000000e0: f1fb 82bd 8a95 0bbe 9420 4fbe 5092 e3bd
000000f0: 0040 7dbc edcb 12be 6aba cdbd 8f44 08be
00000100: 4c03 2d3e d26e 983e 1a5e 563e 63ff 75be
00000110: f225 d43d 852d 973d 1f98 41be fd11 1a3e
00000120: bb1c 793d b4fe 113e 0c3f 40be 81f3 5cbe
00000130: d33c 303e 535c 903d 4f59 9a3d b95e c1bd
00000140: e4f1 003e 3103 4c3d 8a8e bcbb 5e43 3bbe
00000150: 7a67 f4bd eb6b 14bd 47ec 8d3e aa4d 10bd
00000160: f6cd ab3d f3ac 51be c5be 9a3e 2aa8 03bc
00000170: 6592 e73d 223c 83be d0be c2bd f9cb b4bd
00000180: 264c 48be a500 d6bd 824b 4d3e 9cc8 a2bd
00000190: 6436 31bd d316 e13d a86d 24be 8ca5 37be
000001a0: 9546 3b3e cb1c 25be f93a 37be e8cc 12be
000001b0: ed0f 8a3d c7e3 273e 94b9 383e 0034 963d
000001c0: 38a8 bb3d e9a8 56be 7f92 0f3e 7aee ad3c
000001d0: d61b 133e 65e8 333e ae31 87be 8d3b 473e
000001e0: f3e4 18be 7f0e 65bd c699 27be 12d5 0ebe
000001f0: bc0b 483e 18e7 65be c2fa 1cbd c556 d3bd
0.11490259 0.2157993 -0.18416613 -0.18903714 0.12347522 -0.018611105 0.24350198 -0.09120646
-0.030845135 0.13988666 0.124627955 0.10953165 0.0848747 -0.1863993 -0.06725559 -0.17672943
-0.13444641 -0.0032163847 0.13348345 0.11233836 -0.07061925 0.055824913 -0.23446725 0.21155354
-0.1964255 0.18372324 0.019841606 -0.24262351 0.07279624 0.2455455 -0.16989292 -0.0069051073
0.15871345 0.23229322 -0.0990161 0.1425403 -0.12202256 -0.08224634 0.19286129 0.18990166
0.07566218 0.1259106 0.06576027 -0.22880313 -0.23451644 0.1938702 -0.03175275 -0.100531
-0.25267768 -0.1511901 -0.10978993 0.057729017 -0.20935996 -0.07630942 -0.028125316 0.16926481
-0.0639571 -0.13631263 -0.20227271 -0.11111891 -0.015457153 -0.14335604 -0.10045321 -0.13307403
0.16895789 0.2977205 0.20934334 -0.24023204 0.103588 0.07381729 -0.18905686 0.15045924
0.060818415 0.14257318 -0.1877405 -0.21577264 0.17210703 0.070488594 0.075365655 -0.09441895
0.12592274 0.04980773 -0.0057542967 -0.18287417 -0.11933799 -0.03623573 0.27719328 -0.035230316
0.08388893 -0.20476131 0.3022367 -0.008035699 0.113072194 -0.25631815 -0.09509051 -0.08827967
-0.19560298 -0.10449342 0.20048335 -0.079484195 -0.04326476 0.109906815 -0.16057456 -0.17934245
0.18288644 -0.16124265 -0.1789359 -0.14335978 0.06741319 0.16395484 0.18039542 0.07334137
0.091629446 -0.20962872 0.14020728 0.021231879 0.14366087 0.1756912 -0.2640509 0.1945631
-0.14931087 -0.055922028 -0.16367254 -0.13948467 0.19535726 -0.22451437 -0.03832508 -0.10319284
