TWOLINK_TO_m-fwd_d-1.0_s-15_seed2.pt (torch, 5499 bytes, 3 tensors)

nn.0.weight f4 [128, 5]
-0.04299779 0.004447839 -0.05045965 0.039444536 -0.23155971 -0.113683365 -0.18759364 -0.13380165
-0.17818515 -0.07186061 -0.15091327 0.15722267 0.17321424 -0.17938282 -0.032318156 0.18624769
-0.09301346 0.021478109 0.048874225 -0.18113245 -0.19214709 0.0036553184 -0.038227044 0.15472421
0.14019775 0.20878655 -0.22032845 -0.17060004 0.15653615 -0.17177993 -0.043372177 0.09085267
0.06576388 0.06650875 -0.14492367 0.11131576 -0.16205856 0.10210547 -0.047321744 0.11115788
0.010547157 -0.0932835 0.13885523 0.16007406 0.1511456 -0.16133268 -0.02576186 0.027558818
-0.17196691 0.066827804 0.18823336 0.21580368 -0.1711108 -0.2170078 -0.13774112 -0.06906019
0.32388243 -0.030252943 0.23238102 -0.04246568 -0.24525447 -0.04793898 -0.14330605 -0.054981403
0.1559544 -0.22046359 -0.11180332 0.27592444 0.023095911 -0.017471563 -0.079742186 -0.123491466
-0.05729392 -0.035577845 -0.14469567 0.16936147 0.08025261 -0.042191636 -0.16249849 0.024269512
-0.1501421 -0.075590044 -0.13884117 -0.0260895 -0.038081694 0.061012328 -0.123971194 0.09470273
0.19766012 -0.18858516 0.10062245 -0.16530795 0.17297265 -0.14999914 0.026830116 -0.09915852
-0.30327773 0.09593941 -0.27966362 0.036983993 -0.009792607 -0.07179915 -0.051864758 -0.08109776
-0.21266514 -0.044839162 -0.15079746 0.06656269 -0.10253401 -0.023116687 0.013582928 0.026123144
0.13585292 0.0077932766 -0.18476611 -0.26292685 0.002219949 0.27773094 -0.08830627 -0.14607158
-0.11950339 -0.04062065 0.2748097 0.025400538 -0.022255545 -0.162104 -0.08341756 0.044026997
0.0038052457 -0.009701632 0.17860864 0.118246585 0.11814905 0.06879925 0.1775911 0.07583759
0.08995744 -0.2418202 0.028889025 -0.10016663 -0.10297274 -0.039619226 0.020459117 -0.08746589
-0.14701173 0.20367767 0.0447204 -0.30832565 -0.031126263 0.020078717 0.08685387 0.16952574
-0.03024866 -0.0037833943 -0.01366747 -0.26960662 -0.087285824 0.25605118 0.17662707 -0.0142693985
0.17050512 0.1182311 0.15063272 0.070462026 0.11222993 0.073806584 0.05889912 -0.12653044
-0.1465394 0.02693376 -0.04748077 -0.09245403 -0.061517272 -0.028881228 0.23872231 -0.0001105789
0.09865129 -0.12559393 -0.26811534 -0.09150346 -0.11625666 -0.23469862 0.03337352 0.1374072
0.018644514 0.26778036 0.1848068 0.22187936 0.11217259 -0.08549577 0.23217113 -0.0021217845
-0.31206074 0.124681674 -0.17819701 0.03596679 0.2497396 0.015608138 -0.24946392 0.07167339
0.014951413 -0.014910262 0.053290162 -0.1313893 -0.14039946 -0.12962191 0.061089188 0.2726178
-0.08557154 -0.052576553 0.16767515 -0.31781283 0.16146903 -0.20533961 -0.07040298 -0.26773566
0.08172394 0.2907377 0.057475273 -0.091936134 0.09949318 -0.12513192 0.002435387 -0.042716768
0.18494019 -0.1637237 -0.18389781 0.029897852 0.13365386 -0.19664332 -0.13528682 -0.114316255
0.09521669 0.12079238 -0.15710704 -0.019369908 0.081889264 0.08798956 0.014800505 -0.0698261
-0.13463844 0.107070185 -0.14488299 -0.10888 0.14299282 0.11242538 -0.029761294 -0.30748707
-0.02535094 0.059336863 0.055194344 0.13462049 0.12570538 0.22951546 0.06539779 -0.09008565
00000000: 731e 30bd 2ebf 913b c7ae 4ebd 9890 213d
00000010: fd1d 6dbe d3d2 e8bd 8c18 40be 4d03 09be
00000020: 2b76 36be a82b 93bd 0289 1abe fbfe 203e
00000030: 135f 313e 21b0 37be 0b60 04bd b7b7 3e3e
00000040: d77d bebd dcf2 af3c 5730 483d c97a 39be
00000050: 35c2 44be 118e 6f3b f693 1cbd 0670 1e3e
00000060: 0090 0f3e 24cc 553e c89d 61be c7b1 2ebe
00000070: 034b 203e 14e7 2fbe 06a7 31bd f710 ba3d
00000080: 37af 863d bd35 883d df66 14be 84f9 e33d
00000090: aef2 25be ac1c d13d 72d4 41bd bea6 e33d
000000a0: fccd 2c3c 6b0b bfbd 1130 0e3e 74ea 233e
000000b0: eac5 1a3e 6534 25be 890a d3bc 08c3 e13c
000000c0: 1818 30be 04dd 883d 3fc0 403e a4fb 5c3e
000000d0: ab37 2fbe 4b37 5ebe 020c 0dbe 6e6f 8dbd
000000e0: ebd3 a53e 05d5 f7bc 4af5 6d3e 7ef0 2dbd
000000f0: fd23 7bbe aa5b 44bd d2be 12be 2e34 61bd
00000100: 83b2 1f3e 35c1 61be 24f9 e4bd f845 8d3e
00000110: a333 bd3c 8620 8fbc df4f a3bd 18e9 fcbd
00000120: 08ad 6abd 13ba 11bd 1a2b 14be 186d 2d3e
00000130: 7b5b a43d 23d1 2cbd 0166 26be dbd0 c63c
00000140: dabe 19be f4ce 9abd 612c 0ebe a6b9 d5bc
00000150: 8dfb 1bbd 10e8 793d 9ce4 fdbd 81f3 c13d
00000160: 6a67 4a3e 781c 41be 2513 ce3d 7d46 29be
00000170: be1f 313e 6099 19be d5ca db3c 9f13 cbbd
00000180: 3847 9bbe e27b c43d 1230 8fbe 877c 173d
00000190: 2c71 20bc 6f0b 93bd 2470 54bd 9516 a6bd
000001a0: e4c4 59be 45a9 37bd a66a 1abe 0552 883d
000001b0: 5afd d1bd 355f bdbc ee8a 5e3c 3400 d63c
000001c0: 071d 0b3e be5e ff3b 5433 3dbe 599e 86be
000001d0: 907c 113b c032 8e3e ebd9 b4bd ca93 15be
000001e0: 31be f4bd d761 26bd dbb3 8c3e ca14 d03c
000001f0: 4351 b6bc 97fe 25be d3d6 aabd a755 343d
00000200: 6e61 793b 98f3 1ebc 2fe5 363e 442b f23d
00000210: 21f8 f13d 9fe6 8c3d 71da 353e bd50 9b3d
00000220: 9b3b b83d b79f 77be ada8 ec3c 2a24 cdbd
00000230: 5fe3 d2bd c547 22bd e199 a73c 5121 b3bd
00000240: 3e8a 16be e190 503e bd2c 373d dcdc 9dbe
00000250: 81fc febc 1f7c a43c 71e0 b13d 2898 2d3e
00000260: 0acc f7bc d3f2 77bb 86ed 5fbc e109 8abe
00000270: e9c2 b2bd 2419 833e badd 343e 32ca 69bc
00000280: e598 2e3e 2623 f23d 773f 1a3e 654e 903d
00000290: ced8 e53d e827 973d 3440 713d 3291 01be
000002a0: 6d0e 16be 30a4 dc3c 327b 42bd 8a58 bdbd
000002b0: 89f9 7bbd 5398 ecbc 9f73 743e 98e6 e7b8
000002c0: b009 ca3d b29b 00be 6a46 89be 2b66 bbbd
000002d0: f917 eebd d654 70be acb2 083d 79b4 0c3e
000002e0: 61bc 983c 821a 893e fe3d 3d3e 5834 633e
000002f0: beba e53d 6818 afbd 45be 6d3e a30d 0bbb
00000300: 6dc6 9fbe 1b59 ff3d 4779 36be ea51 133d
00000310: bdbb 7f3e 47b9 7f3c 7873 7fbe 80c9 923d
00000320: c5f6 743c 2c4a 74bc c946 5a3d eb8a 06be
00000330: e0c4 0fbe 9bbb 04be a838 7a3d 8f94 8b3e
00000340: 2240 afbd 835a 57bd 09b3 2b3e 5db8 a2be
00000350: 2358 253e 8c44 52be 702f 90bd a614 89be
00000360: e25e a73d 92db 943e 316b 6b3d 0349 bcbd
00000370: 15c3 cb3d 9522 00be 049b 1f3b c7f7 2ebd
00000380: f660 3d3e 30a7 27be b54f 3cbe 57ec f43c
00000390: 8fdc 083e de5c 49be a188 0abe a41e eabd
000003a0: f800 c33d ff61 f73d abe0 20be a4ad 9ebc
000003b0: 8fb5 a73d df33 b43d d17d 723c fc00 8fbd
000003c0: a9de 09be 9d47 db3d 355c 14be 7afc debd
000003d0: b66c 123e 473f e63d f5cd f3bc f26e 9dbe
000003e0: c6ac cfbc 360b 733d 7713 623d f4d9 093e
000003f0: e9b8 003e 1a06 6b3e 47ef 853d d37e b8bd

nn.0.bias f4 [128]
-0.046657242 -0.0029066084 0.038812656 0.029287552 -0.004919397 -0.016334126 -0.047556058 -0.013689518
0.03376828 0.005242306 0.03334028 0.017260937 -0.050415125 0.009139627 -0.04133457 0.015576289
-0.034498855 -0.022555735 -0.008543642 -0.01656467 -0.046412963 -0.032389026 -0.0338721 0.05177707
-0.042332478 -0.06491439 -0.0063251527 -0.018137239 -0.05166234 0.033253603 0.009720304 -0.04979284
-0.005846141 -0.015372635 0.03293222 0.03228894 -0.026579725 0.0075435243 -0.012894314 0.022137724
-0.03639793 0.00798559 0.04186459 -0.042520642 -0.012148367 -0.014486103 -0.054960433 -0.025940815
-0.058573 0.04818905 0.030597964 -0.036844943 -0.026422486 -0.036210377 -0.037252 -0.05330647
-0.02204638 -0.010917033 -0.033119693 0.027755467 -0.03752578 0.046122756 0.0149896955 -0.02515801
0.06908562 0.0132378265 -0.042617343 -0.05741678 0.053105336 -0.025462752 0.02798766 -0.053286254
0.024537373 0.025392303 -0.031819582 -0.024289947 -0.017190045 0.0067207348 -0.057807665 -0.03878333
-0.024862887 0.06684783 -0.0073781563 -0.05109939 -0.041033886 -0.055363145 0.07299736 -0.017141987
-0.032057203 0.009946728 0.026748985 0.05609323 -0.009323052 0.019605555 -0.024053853 -0.07811564
-0.010714512 0.046639916 -6.291689e-05 -0.037128244 0.011854599 0.027221998 -0.030195657 -0.037966765
-0.00905207 -0.017323323 0.025145518 0.030557208 -0.009798582 -0.02139694 -0.06569786 0.004093542
-0.0053465078 0.006771019 -0.031026062 -0.008558724 -0.048299264 0.0033499165 0.036233373 -0.012052168
-0.0040225475 0.06252657 0.01989944 -0.010577943 -0.0040637623 0.001324107 -0.02567012 0.0076177074
00000000: aa1b 3fbd cc7c 3ebb 05fa 1e3d 73ec ef3c
00000010: e532 a1bb 25cf 85bc 24ca 42bd 004a 60bc
00000020: 9c50 0a3d a6c7 ab3b d18f 083d cf66 8d3c
00000030: 1780 4ebd 60be 153c 704e 29bd b133 7f3c
00000040: ac4e 0dbd cec6 b8bc a2fa 0bbc a1b2 87bc
00000050: 851b 3ebd 5baa 04bd 79bd 0abd 3114 543d
00000060: d264 2dbd d6f1 84bd 3a43 cfbb 8c94 94bc
00000070: e49b 53bd ee34 083d e941 1f3c 94f3 4bbd
00000080: fc90 bfbb 81dd 7bbc efe3 063d 6841 043d
00000090: b9bd d9bc ab2f f73b ac42 53bc 2c5a b53c
000000a0: ff15 15bd fed5 023c 347a 2b3d 202a 2ebd
000000b0: f209 47bc 1f57 6dbc 311e 61bd d581 d4bc
000000c0: 3eea 6fbd e261 453d 95a8 fa3c b9ea 16bd
000000d0: f873 d8bc 5551 14bd 8e95 18bd e357 5abd
000000e0: 9c9a b4bc 5bdd 32bc 84a8 07bd 6f5f e33c
000000f0: a2b4 19bd 37eb 3c3d 5797 753c 2c18 cebc
00000100: c37c 8d3d 78e3 583c 868f 2ebd dc2d 6bbd
00000110: fb84 593d 4397 d0bc 6146 e53c b042 5abd
00000120: 9a02 c93c 8503 d03c 4055 02bd b6fb c6bc
00000130: 23d2 8cbc 9c39 dc3b bbc7 6cbd 45db 1ebd
00000140: 41ad cbbc 84e7 883d 76c4 f1bb 984d 51bd
00000150: 2613 28bd 77c4 62bd a47f 953d 5a6d 8cbc
00000160: 6a4e 03bd 9af7 223c b020 db3c 04c2 653d
00000170: b7bf 18bc d49b a03c 960c c5bc 18fb 9fbd
00000180: ec8b 2fbc 7f09 3f3d 40f2 83b8 c913 18bd
00000190: cb39 423c ab00 df3c e25c f7bc 0a83 1bbd
000001a0: 224f 14bc a4e9 8dbc f9fd cd3c 1c53 fa3c
000001b0: 3b8a 20bc a348 afbc 9a8c 86bd 1f23 863b
000001c0: c231 afbb 6ddf dd3b 5e2a febc e439 0cbc
000001d0: 73d5 45bd 468a 5b3b 7269 143d 7576 45bc
000001e0: 93cf 83bb ee0d 803d 2704 a33c 1c4f 2dbc
000001f0: 4f29 85bb a98d ad3a 254a d2bc f69d f93b

nn.2.weight f4 [1, 128]
-0.05465317 0.24710913 -0.18441913 0.0014343512 -0.12941715 -0.22410627 0.020315494 0.16504669
-0.0024078763 -0.15086548 -0.23989809 0.23485693 0.20581107 -0.24609134 0.028899936 -0.10442889
0.050895542 -0.15478256 0.12928388 0.08315102 0.11249684 0.16110939 0.023184586 -0.23617254
-0.26354122 -0.12516153 0.12773022 -0.10274122 0.07238726 -0.11292488 0.108846895 -0.05411313
0.18059316 0.011688366 -0.03523779 -0.15285006 -0.040892478 0.16891848 -0.24041864 -0.18921818
0.053621776 -0.18710579 0.28716725 -0.18146363 0.15443149 0.016951635 -0.020118024 0.11742173
0.102021985 -0.19668393 0.19154908 0.018817702 -0.10975043 0.060367048 0.17298223 -0.022968713
-0.13515519 -0.0044363635 0.14332955 -0.2503648 0.17801064 -0.2555455 -0.057832915 -0.15640171
-0.10012545 -0.060987707 0.22816661 0.05676849 0.17596038 -0.014689592 0.16566373 0.1151652
-0.14761168 -0.04799085 0.2018455 0.02765007 0.05036986 -0.07926797 0.14738646 0.014527108
0.01744843 0.17151885 0.29655412 0.23929092 0.036801096 0.17032501 0.0912023 0.039728846
-0.17397016 -0.0442052 0.110553645 0.022374755 -0.14411387 0.17484656 0.041558392 0.031362325
0.11012499 0.10057623 0.21474417 -0.058609787 -0.09033513 0.21959102 0.10470309 -0.17307828
-0.2697426 0.05724803 0.1283133 0.27857658 0.058857672 -0.19218403 -0.08474248 -0.18986757
-0.08811033 -0.041573126 0.008131075 -0.100714825 -0.08340184 0.048276998 -0.12395947 -0.1390216
-0.20733924 0.24235843 -0.15452887 0.24467224 0.16793758 -0.12711349 -0.03110885 0.04153034
00000000: 01dc 5fbd 2d0a 7d3e 5ed8 3cbe d700 bc3a
00000010: ee85 04be 1d7c 65be ae6c a63c 0002 293e
00000020: 76cd 1dbb 7b7c 1abe d8a7 75be 567e 703e
00000030: 23c0 523e 5eff 7bbe 8fbf ec3c d0de d5bd
00000040: d877 503d 527f 1ebe fe62 043e 154b aa3d
00000050: be64 e63d dcf9 243e 9aed bd3c 37d7 71be
00000060: e0ee 86be 582a 00be b6cb 023e fd69 d2bd
00000070: c63f 943d 2945 e7bd 1feb de3d bba5 5dbd
00000080: 6aed 383e 8f80 3f3c 8055 10bd ba84 1cbe
00000090: df7e 27bd f7f8 2c3e 4e30 76be 69c2 41be
000000a0: 82a2 5b3d a998 3fbe 9607 933e 9ad1 39be
000000b0: 4a23 1e3e 28de 8a3c 8ece a4bc ce7a f03d
000000c0: e7f0 d03d 8367 49be 7125 443e 9527 9a3c
000000d0: d5c4 e0bd 7043 773d 4122 313e e228 bcbc
000000e0: 1f66 0abe ea5e 91bb fbc4 123e d12f 80be
000000f0: 6c48 363e dcd6 82be 35e2 6cbd c527 20be
00000100: 920e cdbd 3fce 79bd 82a4 693e 1386 683d
00000110: f52e 343e 9dac 70bc c1a3 293e bbdb eb3d
00000120: 8427 17be 0e92 44bd 96b0 4e3e 6682 e23c
00000130: a050 4e3d 3f57 a2bd 7aec 163e 1b03 6e3c
00000140: 03f0 8e3c a3a2 2f3e f1d5 973e ae08 753e
00000150: bfbc 163d ae69 2e3e 45c8 ba3d b7ba 223d
00000160: 3c25 32be 8310 35bd f369 e23d 434b b73c
00000170: 9692 13be fa0a 333e 2239 2a3d c875 003d
00000180: 3689 e13d e9fa cd3d e5e5 5b3e d110 70bd
00000190: a001 b9bd 78dc 603e 936e d63d 6f3b 31be
000001a0: b41b 8abe e97c 6a3d 9064 033e 97a1 8e3e
000001b0: be14 713d e4cb 44be 778d adbd a56c 42be
000001c0: 3073 b4bd 9548 2abd 3338 053c 9343 cebd
000001d0: 95ce aabd 1abe 453d 76de fdbd ae5b 0ebe
000001e0: bd50 54be cf2c 783e d13c 1ebe 5c8b 7a3e
000001f0: d4f7 2b3e 0a2a 02be fdd7 febc b81b 2a3d
