TWOLINK_TO_m-fwd_d-1.0_s-15_seed0.pt (torch, 5499 bytes, 3 tensors)

nn.0.weight f4 [128, 5]
000000 ee 45 94 3c 42 3e 1e 3e dc bf 32 3d 09 85 38 3e
       0.018099751 0.15453437 0.043640003 0.18019499
000010 8e b6 37 3e 5e 2e 99 3e 86 3f 52 3d bd 11 73 3e
       0.17940733 0.29918188 0.051330112 0.23737235
000020 ec ea e6 3b 9e 9d fb bd 9c c2 fd bc 34 84 64 bd
       0.007047048 -0.122859225 -0.030976586 -0.05579014
000030 01 28 ba bd 04 c9 94 3d c5 04 da 3c bf 1e 03 3e
       -0.090896614 0.07264903 0.026613602 0.12804697
000040 39 d5 ee 3d 77 5a 47 3e cc d6 c2 3d f8 12 28 be
       0.11661763 0.19468103 0.095136255 -0.16413486
000050 04 b3 66 be 76 83 cb 3c 6a 8a ef 3d 67 2f 99 3d
       -0.22529227 0.024842959 0.11696322 0.074797444
000060 98 12 59 be d3 3e 3c be 30 44 7f 3d ba b9 7f 3d
       -0.21198499 -0.1838334 0.062320888 0.062432982
000070 8d 3a 20 be 5f 48 db 3d 0e 0e d4 bd e5 07 7b 3e
       -0.15647335 0.10707163 -0.10354243 0.2451473
000080 e0 c0 27 bc 31 33 7d 3e 7d 9e 2e be 17 c6 8e be
       -0.010238856 0.24726559 -0.17052646 -0.27885506
000090 a5 70 99 3d 53 12 9a 3e 34 c3 bf 3d 51 0d 04 3e
       0.07492188 0.30092105 0.09363404 0.12895705
0000a0 e2 ad 95 be 46 df 07 3e 6f 04 89 be 94 1e c8 3d
       -0.29234225 0.13268766 -0.26761195 0.09771457
0000b0 39 f7 57 bd 6a a2 76 be 58 bc 6b bc d4 90 3c be
       -0.052726004 -0.24085394 -0.014388166 -0.18414623
0000c0 85 05 cf 3c fd 0b 0f be 60 3f fb bd d9 71 21 3e
       0.025271187 -0.13969417 -0.12267947 0.15766086
0000d0 0c e8 ab bc 77 de 3e be be f0 a2 bd c1 e9 86 be
       -0.020984672 -0.18639551 -0.07956074 -0.26350215
0000e0 29 5e 61 be 8e c7 54 3e be 40 1d 3e 99 fa a2 3c
       -0.22008575 0.20779249 0.15356728 0.019894885
0000f0 8f 87 22 be 2a 1b 8b bb ca ef 81 bd a4 cc ed bd
       -0.15872024 -0.0042451816 -0.06344564 -0.11611298
000100 7f b2 6d 3d 75 14 8f 3e 08 53 05 be fd e6 a0 be
       0.058031555 0.27945295 -0.13019955 -0.3142623
000110 d7 d3 9e 3d 62 3f ce 3d bf d2 76 bd cd e8 e2 3d
       0.07755249 0.10070683 -0.060259577 0.110795595
000120 31 85 ac 3d 63 9d 9a 3d da f7 1e 3d 98 6b 0a 3e
       0.08423842 0.075495504 0.03881059 0.13517606
000130 9f ba 5c 3e 38 42 0a bd c2 f5 12 3d c5 e9 f5 3d
       0.21555565 -0.033754557 0.035878904 0.120074786
000140 9c 3b a0 3e 47 a3 74 be ce 73 4c 3e 7c 4d fb bd
       0.31295478 -0.2389041 0.19966051 -0.12270638
000150 44 3e 18 be e8 d9 9d 3c bd 79 80 bd 2a 5e 82 bc
       -0.14867502 0.019268945 -0.0627322 -0.015914042
000160 dd b7 b4 bd 3e 2d 4e be 45 ca 5d 3d bf 1c 3f bd
       -0.08824132 -0.20134446 0.054147977 -0.046658274
000170 2e 59 cb 3d 09 15 e9 bb 5d 7c 3c 3e 24 f5 19 bd
       0.09929119 -0.0071131033 0.18406816 -0.0375873
000180 7d 47 b0 bd 2c 74 02 3e 3f b4 53 3d dd 03 85 3c
       -0.08607385 0.12739629 0.051685568 0.016237194
000190 cf 6f 4b bc b5 a4 a2 3d 36 a3 60 3c d0 1a 0a bd
       -0.012416794 0.079415716 0.0137107875 -0.033716977
0001a0 5f 25 3d be 25 07 9c 3d 62 a6 81 be dc 53 b1 bd
       -0.18471287 0.0761855 -0.25322253 -0.08658573
0001b0 ee b8 45 3e 2c fd db bd c2 87 81 bd 11 0c 0d be
       0.19308826 -0.10741648 -0.06324722 -0.13774134
0001c0 8d d5 9b 3a d4 2a 83 3d dd 24 12 3d d8 c6 23 3e
       0.0011889205 0.06404653 0.035679687 0.15993822
0001d0 82 c3 aa bd 49 41 54 3d b6 ee 8f 3d 39 b8 4d 3e
       -0.083380714 0.051820073 0.070279524 0.20089807
0001e0 6b ef 13 3d f6 e5 64 bd 47 87 6e 3d 6f f4 8a 3d
       0.036117 -0.05588337 0.05823448 0.06784903
0001f0 a5 fb 2f be 47 c6 97 bd 28 c5 2b 3e 10 72 61 3d
       -0.17185839 -0.07410865 0.16774428 0.05504042
000200 f3 c6 8c be df 15 d3 bd fe ef 8d 3c c2 79 13 be
       -0.27495536 -0.10306906 0.017326351 -0.14401916
000210 4a 3a b9 3d f5 8e 65 3e 77 7f 00 3d cb f2 d2 bd
       0.09044321 0.22417815 0.03137156 -0.10300215
000220 70 d1 bd 3b 03 f3 56 bd 61 fa c2 3a 81 3c 44 be
       0.005792789 -0.052477848 0.0014875644 -0.19163705
000230 99 2e 04 be 9a ff c7 bd 09 0f 4c 3e ce 1c c8 bd
       -0.129084 -0.09765549 0.1992761 -0.09771119
000240 d2 db 4a 3e 05 99 1c be de fb b3 bd 2f 40 41 3e
       0.19810417 -0.15292747 -0.08788274 0.1887214
000250 b6 da 99 3d 74 f0 72 3d 60 10 14 3c f8 08 2e be
       0.07512419 0.059311345 0.009037107 -0.16995609
000260 11 93 a7 3d fa ae a0 3c ce 0e 1c be da b5 62 3e
       0.081823476 0.019614685 -0.15240023 0.22139683
000270 c9 51 91 3d fb 0d 98 be 76 95 16 bd e1 07 03 3e
       0.070956774 -0.29698166 -0.03676363 0.12795974
000280 a7 0c ce 3d 0b 4a c8 3d 8a 21 90 3b e7 86 a5 bd
       0.10061007 0.097797476 0.0043985294 -0.08082371
000290 18 8c 6c 3e 0b c6 00 3e a0 ee 8d 3e e8 aa 28 be
       0.23100317 0.12575547 0.2772112 -0.16471446
0002a0 91 90 4a be ce 28 c7 bc 54 8e 8f be db 91 d2 3c
       -0.1978171 -0.02431145 -0.28038275 0.025704315
0002b0 e9 ff 82 3e db 9f be 3c 5f 39 ec bb 32 a5 59 3e
       0.2558587 0.023269584 -0.0072089876 0.21254423
0002c0 b9 40 6b be fc f6 85 3e ae 44 80 be 66 0e 27 be
       -0.22973908 0.26164997 -0.25052398 -0.16314086
0002d0 30 1a 16 be 73 2f d1 3d ca e4 df 3d 25 d7 19 3d
       -0.14658427 0.10214128 0.1093231 0.037558693
0002e0 fd 1f 38 be 40 23 67 3c 76 73 d0 bd d2 dc b7 3c
       -0.17980953 0.014107525 -0.101782724 0.022444163
0002f0 ec 10 45 3e d3 b5 a6 3d b0 ec 81 3d 24 89 54 3d
       0.19244736 0.08140149 0.06343973 0.0518886
000300 f2 09 35 be ec b1 98 bd c0 0d f2 3d 56 28 3e be
       -0.17679575 -0.07455811 0.11819029 -0.18570074
000310 4c 20 68 3d 8f e0 19 be d6 de 91 ba aa 06 ff 3b
       0.056671426 -0.15027069 -0.0011129032 0.007782777
000320 c1 f6 45 be 86 cb 95 3d 5c ef 6c 3d 88 db 09 bd
       -0.1933241 0.0731421 0.05784546 -0.033656627
000330 f8 78 4b bd b5 4b c4 3d aa 70 6b 3e ae f2 87 bd
       -0.04967591 0.095847525 0.22992197 -0.06638084
000340 bd 93 f2 3d b2 92 40 be c0 b0 78 be 13 ec a6 bb
       0.11844585 -0.1880596 -0.24286175 -0.00509406
000350 01 7e 9b bd 99 33 83 bd c2 d2 59 be 8d e9 05 bc
       -0.07592393 -0.06406326 -0.21271804 -0.008173359
000360 10 99 14 3e ff 19 26 be 3f 7a 8f be 7c b3 13 3c
       0.14511514 -0.16220854 -0.28022954 0.00901496
000370 07 00 89 be db 1e 1c be 79 74 2e be 31 c8 a3 bd
       -0.26757833 -0.15246145 -0.17036618 -0.07997168
000380 05 28 13 be a4 85 6a bd cb ef a6 3d 38 a4 1a be
       -0.14370735 -0.057256356 0.08151206 -0.15101707
000390 50 5c 62 bd f8 63 3d be 39 3e 72 be 55 18 c2 3b
       -0.055263817 -0.18495166 -0.23656549 0.0059233108
0003a0 98 18 6a be a1 15 ef bd f3 d7 01 3e 99 65 5a bd
       -0.22860944 -0.11674047 0.12680034 -0.053319547
0003b0 12 ee f4 3d f7 7f 24 bd ec 2f 64 bd ff 31 b3 bc
       0.11959471 -0.0401611 -0.055709764 -0.021874426
0003c0 db bb cf 3d ef 52 a5 3d b7 7f 99 be 8d 53 90 bd
       0.101432525 0.08072459 -0.2998025 -0.07047186
0003d0 49 7b ab 3d 2c f7 42 be fc 0f ff bc 56 24 48 3e
       0.08373124 -0.19039601 -0.031135552 0.19545111
0003e0 8c 81 46 be ec 1d 1d 3d 3a db 90 be 2e c8 45 3e
       -0.19385356 0.038358614 -0.28292257 0.19314644
0003f0 d5 0c 7f be 7e e6 2e 3e 37 26 f2 bd 5e c3 d3 bd
       -0.24907239 0.17080113 -0.11823695 -0.10339998

nn.0.bias f4 [128]
000000 52 a8 c1 bc e4 88 0a 3d 77 fb 34 bd 77 d8 b7 3c
       -0.023639832 0.033821955 -0.044185128 0.022442086
000010 4f 4c 0d 3b 0d 80 c4 3c fd 2b ce 3c be c0 32 bc
       0.0021560376 0.02398684 0.02516746 -0.010910211
000020 fd 22 4e 3d 39 a1 34 3d 5f fd 3a 3a 61 da 91 bb
       0.050326336 0.044099066 0.0007133092 -0.0044510816
000030 be d1 18 3c 06 ec 14 bd 59 60 9a bb 3a bb 16 3c
       0.00932735 -0.036357902 -0.0047111926 0.009199912
000040 7c a7 57 3d d5 5b 16 bd a9 c2 63 3c 01 76 c5 bc
       0.05264996 -0.03670867 0.013901391 -0.02410412
000050 0e c8 98 bc 47 15 0b 3d d3 72 a3 b9 73 28 fd 3b
       -0.018650081 0.03395584 -0.00031175333 0.007725769
000060 89 df 0c bd 96 0f 06 3c ec e1 8c 3a fe 01 d5 bc
       -0.034392867 0.008182427 0.0010748482 -0.026001927
000070 ed f1 0c ba 6c 24 8f bd b9 52 5c bd 6a 12 f9 bc
       -0.0005376626 -0.06989369 -0.053789828 -0.030404288
000080 6d 32 35 3d 01 fc cd bb 59 08 03 3c ff 55 0e 3d
       0.044237543 -0.0062861447 0.007997596 0.03474998
000090 3a 92 92 bc 66 68 e5 bb 3b eb 78 bc b1 1a 5e ba
       -0.017891992 -0.0070009707 -0.015192802 -0.0008472605
0000a0 48 e2 1e bc 1f b4 94 bc 71 da 86 bb 1c 11 82 bc
       -0.009697504 -0.018152295 -0.0041153957 -0.015877299
0000b0 7a c8 0a 3d 75 db 0a bd 40 a9 01 39 05 4c 89 3a
       0.033882596 -0.033900697 0.00012365449 0.0010474926
0000c0 7f d5 a0 bb 96 26 31 bc f2 40 88 3d 8b 7c 97 bb
       -0.004908263 -0.010812422 0.06653012 -0.004623001
0000d0 ad f4 8d bc 48 06 c9 3c 41 55 06 bd e0 3f 4f bc
       -0.017328585 0.024539128 -0.03279615 -0.012649506
0000e0 1f d6 8f 3b fa 83 0f bb 29 65 dd bb f6 c1 01 bd
       0.004389539 -0.0021898733 -0.006756444 -0.031679116
0000f0 b2 a5 52 3c 0e cc 29 bb b5 1c 2e 3c 59 ab 1d bb
       0.012856888 -0.002590898 0.0106269615 -0.002405843
000100 90 d6 f4 bb 78 da 3f 3a 81 3c 8a bc db a1 b1 bc
       -0.007471867 0.0007318626 -0.016874554 -0.021683624
000110 93 36 fc bc 6f c5 5f 3c 68 cc 18 bd e1 50 f6 bc
       -0.030787742 0.013657912 -0.037304312 -0.030067863
000120 f3 c0 98 3c 78 e9 d7 bc 6f 24 07 bd ce df 8a bb
       0.018646693 -0.026356444 -0.03299373 -0.0042381054
000130 0a 2f 9e b9 47 0d 7d ba 7a 54 4c 3b fd 8c 30 bc
       -0.00030171155 -0.00096531626 0.0031178282 -0.010775802
000140 c2 d3 27 3c 8b 84 5b bd 7c 16 af bc 1d b0 9c 3c
       0.010243358 -0.0535932 -0.021373026 0.019126946
000150 ac 2a 83 bc d5 a5 1f 3c f2 d6 d5 3c 6f 64 06 3d
       -0.016011558 0.009744127 0.02610347 0.032810625
000160 4c e0 84 3c e1 2d f1 3c c4 f9 54 3d 40 81 98 3b
       0.016220234 0.029440822 0.051996008 0.0046540797
000170 e7 84 cd bc c3 12 fd ba 3d 3a 79 bc 71 64 1e bc
       -0.025087787 -0.001930796 -0.015211639 -0.009667502
000180 9a db 8c bd 40 41 f3 3b 46 30 22 bd cb 48 03 3c
       -0.06877823 0.00742355 -0.03959682 0.008012961
000190 3b 5f 52 3d f5 9b 03 bb 3a 6e a7 3c 4c c8 53 bc
       0.05136035 -0.0020081971 0.020438302 -0.012926172
0001a0 a0 22 0f 3d 66 fa 73 bb 94 16 06 bc 1e 74 12 bb
       0.03494513 -0.0037228107 -0.008184094 -0.0022347043
0001b0 cf 38 4c bc 05 0b 6d 3c 66 16 60 bc a6 50 7b bc
       -0.012464716 0.014467959 -0.013677215 -0.015339052
0001c0 d8 26 39 bc a4 1e 49 bd 0f 9e 7e bb 38 28 84 3c
       -0.011300765 -0.049101487 -0.0038851534 0.016132459
0001d0 d4 20 6a 3c 58 19 cc 3b 20 10 68 bc 6f fe 28 bd
       0.014290053 0.006228607 -0.014164001 -0.04125827
0001e0 82 8d 33 bc 99 ec c9 bb e9 4c 9f 3a 55 b2 12 bc
       -0.010959031 -0.006162238 0.0012153658 -0.0089536505
0001f0 5e 35 f8 bb 57 5c 18 bd 62 65 3c bc 23 65 05 bc
       -0.0075747212 -0.037197437 -0.011498781 -0.008141789

nn.2.weight f4 [1, 128]
000000 41 ba aa 3d da 81 44 3e 86 f8 2b bc 85 bc 84 3e
       0.08336306 0.1919016 -0.010496264 0.2592508
000010 89 fc 1d be bb 7f e1 3c c2 d1 77 3e 5a ec c1 bd
       -0.15428366 0.027526727 0.2420111 -0.094689086
000020 2a c2 80 3e e7 a5 a8 3d 8f 1f 44 be cb 4f 46 be
       0.25148135 0.08234768 -0.19152664 -0.19366376
000030 e6 f3 5c 3d 2b a6 40 be 2f 39 14 3b b5 df 0d 3e
       0.053943537 -0.18813388 0.0022617092 0.13854869
000040 d2 85 22 3e 85 8c de 3c 57 7c b9 3c 04 d0 d2 bd
       0.15871361 0.027166614 0.022642298 -0.10293582
000050 75 fc 1c be 78 04 6e be e4 66 26 be 51 98 db ba
       -0.1533068 -0.23243892 -0.16250187 -0.0016753768
000060 52 63 39 bc 4b d6 20 be 17 00 7f be 7b 19 b0 3d
       -0.011315184 -0.15706746 -0.24902378 0.0859861
000070 07 bc c8 bd 15 0b eb bd 9f 04 e9 bd c1 c8 6b be
       -0.09801488 -0.11476723 -0.113778345 -0.230258
000080 71 52 3e 3d dd d0 89 be 8b 07 60 be 46 9c 65 3e
       0.04646534 -0.26917163 -0.21877877 0.22422895
000090 7a 68 a6 bd 75 c2 ed bd 1b 4b 98 bd df 7b f7 3d
       -0.08125396 -0.11609355 -0.074362 0.120841734
0000a0 38 2a 17 be 31 b3 2e 3b 33 e2 95 3d 3c 6a 6c bd
       -0.14762199 0.00266571 0.07318535 -0.0577185
0000b0 18 86 f7 3d 43 98 d9 bd 86 ef e8 3d 5c 75 02 3d
       0.12086123 -0.10624745 0.113738105 0.031850204
0000c0 16 36 ec bd e9 46 44 be f6 5d 21 3e e7 3d b8 3d
       -0.115337536 -0.19167675 0.157585 0.08996182
0000d0 0a 94 cf bb f0 6c 41 3d 8d 1c db 3d 9d 85 44 bd
       -0.0063347863 0.04722303 0.10698805 -0.047978986
0000e0 16 07 a8 bd 2e 17 82 3e f0 fc d3 bd e2 9f 69 be
       -0.082044765 0.2540831 -0.103509784 -0.22814897
0000f0 63 4d 51 3c 1a cb dc 3d b1 aa 22 be a2 d7 d6 bd
       0.012774798 0.10780926 -0.15885426 -0.104903474
000100 e0 37 0c 3e d7 02 0b 3e 01 14 7c bd bb df 9a 3c
       0.1369319 0.13575302 -0.061542515 0.018905511
000110 94 f6 b6 bd ac e8 d7 3d 60 7a 89 3d ee 3b 35 be
       -0.0893375 0.105424255 0.06712794 -0.17698643
000120 01 60 a8 bc 7d 3c d5 3a 7a 76 d6 3d 85 2b 39 bd
       -0.02055359 0.0016268637 0.10471816 -0.04520752
000130 b1 ce 3d 3d 5b 43 66 be 09 44 dd 3b ee 28 15 3e
       0.046339694 -0.22486632 0.006752495 0.14566395
000140 15 b7 45 bc 92 d4 ee bd 6b bf 72 bd 09 be 84 bd
       -0.012067576 -0.11661638 -0.05926458 -0.06481559
000150 65 9b 96 be 44 5c 5e be 15 be 85 3e dd db d9 3d
       -0.29415432 -0.21714884 0.26121584 0.10637639
000160 45 80 b8 3d 2a 1a e7 3d c5 3d d1 3c 6e 67 26 3e
       0.090088405 0.11284287 0.02554215 0.16250393
000170 f8 d0 26 3e b9 78 88 bd da 83 fa bc 48 6b 3e 3e
       0.16290653 -0.06663651 -0.03058045 0.18595612
000180 76 62 d3 bc bb 35 48 be f0 e9 76 be bd e5 e7 3d
       -0.025803786 -0.19551747 -0.24112678 0.11323116
000190 c1 53 90 3e b9 a9 06 3e 81 41 e4 3d 18 6c 7a 3e
       0.281889 0.13150682 0.111453064 0.24455297
0001a0 f6 2d 9d be 34 f1 10 be f6 4f 7a be 3f b3 32 3e
       -0.30699128 -0.14154512 -0.24444565 0.1745119
0001b0 17 53 b4 bd 49 ac 2a be 5e 57 7d 3d 55 9f 24 bd
       -0.08804911 -0.16667284 0.061850898 -0.040191013
0001c0 c1 71 1d be 0f f1 0b 3e bc da 70 3d 69 37 64 be
       -0.15375425 0.13666175 0.05880235 -0.22286762
0001d0 f0 e4 f8 bd f3 92 60 3d 32 1b 5f 3e 89 e9 45 bd
       -0.12153041 0.05482764 0.21787718 -0.04831842
0001e0 2e 0c 91 bd 30 aa da 3d 6b 54 f2 3d 4a 36 12 be
       -0.07082401 0.10676992 0.11832508 -0.14278522
0001f0 ed c9 33 be 9b 87 ba bb 74 07 01 3e 02 ce b7 bd
       -0.17557497 -0.005692435 0.126005 -0.0897484
