TWOLINK_TO_m-fwd_d-1.0_s-15_seed1.pt (torch, 5499 bytes, 3 tensors)

nn.0.weight f4 [128, 5]
0.21911365 -0.1424658 0.09739272 -0.17634742 -0.02378949 0.034116916 -0.22242956 0.1010418
-0.19173189 -0.057118844 0.09917549 -0.274763 0.092457265 -0.12905087 0.045341667 0.10559277
0.28481323 0.084416956 0.21492518 0.17991765 -0.055292334 0.020348366 -0.051730137 0.01531093
0.09361882 -0.15748659 0.23266862 0.09484481 -0.28557238 0.045050845 0.01238016 0.112963594
0.13553828 -0.05368804 -0.20058437 0.08902476 0.076344095 -0.10444274 0.04256898 0.037836425
0.038042534 -0.0782229 0.046585232 -0.101056755 0.11672737 0.021728024 0.17843558 0.1795012
-0.08499509 -0.1526565 -0.047395304 -0.14253125 0.09579561 0.24836697 -0.09099685 -0.1180116
0.1554805 -0.18276386 0.035971493 0.23921394 0.042208645 0.047791187 -0.026625173 0.005604118
-0.22031604 -0.23597077 -0.2415221 0.2739539 0.2254196 0.06970408 -0.13543513 0.2783141
-0.085507475 0.2126759 0.005307795 -0.072827265 0.025059016 0.0066617033 -0.2148149 0.052458037
0.019394662 0.09566739 0.09429552 0.026560722 0.08135693 0.15417469 0.14481537 -0.16930112
-0.08651724 -0.09339086 0.28229088 -0.14440334 -0.18584304 0.07577638 0.12808096 0.1830227
-0.13271232 -0.13047269 0.1576107 0.032870956 -0.09549053 -0.1498056 0.026705895 -0.059487246
-0.24053466 -0.21068688 -0.034169886 -0.068427436 0.04398253 0.11069103 -0.007650276 -0.11421937
-0.124468155 0.19864933 0.15801227 0.3236065 0.06012832 -0.1717815 -0.020723257 0.018303927
-0.10486701 0.090508714 -0.1248806 -0.24657863 -0.029051922 0.030097209 -0.19308233 -0.0035496785
-0.044581138 -0.006662039 -0.041383676 -0.30616978 -0.050930094 -0.14321117 -0.10265949 0.053060576
0.11571893 0.036098562 -0.11717995 -0.1738707 0.05862645 -0.12749888 -0.020172525 -0.12241248
0.16450863 -0.020613708 0.28761083 0.08691925 0.22392112 0.09400486 0.048234466 0.0756599
-0.026039692 -0.13770288 -0.17447057 0.3343944 0.0338444 0.21982965 0.010638002 0.025117869
-0.24641517 -0.16697237 0.23975489 0.12956367 0.09048815 -0.07102365 0.10223985 -0.13877624
-0.049144976 -0.03415325 -0.06182805 -0.29067346 0.05394133 0.26363355 0.10581143 -0.308388
-0.15195245 -0.24806572 -0.122228496 -0.060263004 0.15263718 -0.13893172 -0.0501544 0.2532079
0.041129977 0.33230084 0.107068196 0.33390662 0.092796534 -0.07940203 -0.09881636 -0.04329124
0.107080296 0.08820932 0.03116271 -0.156472 -0.18255012 0.19168718 -0.07573866 -0.23623095
1.855935e-05 -0.14501016 0.040497784 0.13972424 0.03113804 -0.2694179 0.07753862 -0.17102912
0.131953 0.086250916 0.21162634 0.11022846 0.14075153 -0.13199934 0.014125438 -0.17530027
0.11520564 -0.061241467 0.18676922 -0.12921214 -0.23976699 0.01136433 -0.001075662 0.122096606
0.16701119 0.3028832 0.04608655 -0.17631663 -0.022024058 -0.066171065 -0.028190034 -0.22801182
0.09928637 0.20148878 0.12122932 -0.39015478 0.0700924 -0.21798891 0.040593836 0.08388858
0.19954538 -0.15488347 0.16491868 -0.18426512 0.11615435 0.41817394 -0.07937895 0.2311241
-0.075156875 -0.03616852 0.014131292 0.072600506 -0.13587838 -0.21671 0.005221522 -0.09909478
00000000: 545f 603e 8ee2 11be d675 c73d 6b94 34be
00000010: 2de2 c2bc 2ebe 0b3d 93c4 63be 01ef ce3d
00000020: 5d55 44be 73f5 69bd 851c cb3d bcad 8cbe
00000030: 3c5a bd3d e925 04be 2fb8 393d 0641 d83d
00000040: 0ad3 913e cce2 ac3d 5915 5c3e 553c 383e
00000050: 377a 62bd 9eb1 a63c fbe2 53bd b2da 7a3c
00000060: 39bb bf3d 2a44 21be af40 6e3e ff3d c23d
00000070: 8b36 92be 3c87 383d 28d6 4a3c 7559 e73d
00000080: 8cca 0a3e fde7 5bbd fd65 4dbe 9d52 b63d
00000090: 4b5a 9c3d 13e6 d5bd d05c 2e3d 5efa 1a3d
000000a0: 7dd2 1b3d 5433 a0bd 28d0 3e3d d8f6 cebd
000000b0: c20e ef3d f8fe b13c d1b7 363e 2acf 373e
000000c0: e811 aebd fc51 1cbe 9421 42bd b6f3 11be
000000d0: 7d30 c43d e953 7e3e 8e5c babd 11b0 f1bd
000000e0: 4836 1f3e 7326 3bbe d856 133d 80f4 743e
000000f0: f9e2 2c3d b1c0 433d 091d dabc c0a2 b73b
00000100: 879a 61be 52a2 71be 9251 77be b043 8c3e
00000110: 65d4 663e 03c1 8e3d 82af 0abe 307f 8e3e
00000120: 8b1e afbd b6c7 593e 03ed ad3b 7626 95bd
00000130: 9148 cd3c 6b4a da3b 70f8 5bbe 3dde 563d
00000140: 8ee1 9e3c 44ed c33d 021e c13d df95 d93c
00000150: 769e a63d f8df 1d3e 7b4a 143e 465d 2dbe
00000160: f32f b1bd b543 bfbd 6e88 903e 78de 13be
00000170: a34d 3ebe a630 9b3d a827 033e 4d6a 3b3e
00000180: bde5 07be a29a 05be b364 213e b2a3 063d
00000190: 8a90 c3bd a466 19be 52c6 da3c e6a8 73bd
000001a0: b84e 76be 4dbe 57be b9f5 0bbd af23 8cbd
000001b0: 0627 343d fbb1 e23d 2baf fabb d8eb e9bd
000001c0: 29e9 febd bb6a 4b3e f8cd 213e c0af a53e
000001d0: 1d49 763d 7de7 2fbe d2c3 a9bc 1ef2 953c
000001e0: 84c4 d6bd a25c b93d 66c1 ffbd 1c7f 7cbe
000001f0: 4cfe edbc 6c8e f63c 60b7 45be b9a1 68bb
00000200: b69a 36bd 3c4d dabb ee81 29bd 49c2 9cbe
00000210: 139c 50bd f3a5 12be 243f d2bd 0c56 593d
00000220: 0cfe ec3d 16dc 133d 0bfc efbd 290b 32be
00000230: 4a22 703d 118f 02be da40 a5bc 65b3 fabd
00000240: f374 283e 14de a8bc ba41 933e b802 b23d
00000250: 944b 653e 9f85 c03d 8191 453d 94f3 9a3d
00000260: 3151 d5bc fc01 0dbe 6aa8 32be be35 ab3e
00000270: 6da0 0a3d 061b 613e 044b 2e3c fdc3 cd3c
00000280: 4254 7cbe cefa 2abe 4e82 753e 57ac 043e
00000290: da51 b93d d974 91bd 2063 d13d 5c1b 0ebe
000002a0: 3e4c 49bd 47e4 0bbd 693f 7dbd 27d3 94be
000002b0: 96f1 5c3d fafa 863e aab3 d83d 08e5 9dbe
000002c0: 6c99 1bbe f104 7ebe ef52 fabd 57d6 76bd
000002d0: ec4c 1c3e 1e44 0ebe b36e 4dbd 77a4 813e
000002e0: e877 283d 5623 aa3e 9246 db3d cff5 aa3e
000002f0: 1c0c be3d 889d a2bd 3b60 cabd 2852 31bd
00000300: ea4c db3d 17a7 b43d f148 ff3c 323a 20be
00000310: 6bee 3abe a549 443e df1c 9bbd 87e6 71be
00000320: e7af 9b37 8b7d 14be 01e1 253d df13 0f3e
00000330: 3415 ff3c 25f1 89be 91cc 9e3d 4222 2fbe
00000340: b01e 073e 52a4 b03d 93b4 583e 75bf e13d
00000350: 2b21 103e d62a 07be 626e 673c ea81 33be
00000360: eff0 eb3d 55d8 7abd 6e40 3f3e 3050 04be
00000370: 7a85 75be 7431 3a3c 3afd 8cba c90d fa3d
00000380: fb04 2b3e 8213 9b3e 40c5 3c3d 598c 34be
00000390: cc6b b4bc b284 87bd c9ee e6bc ee7b 69be
000003a0: a756 cb3d 1353 4e3e 1447 f83d 5ec2 c7be
000003b0: 9b8c 8f3d 7c38 5fbe b945 263d c7cd ab3d
000003c0: a055 4c3e c699 1ebe 71e0 283e ffaf 3cbe
000003d0: 55e2 ed3d e51a d63e 6e91 a2bd ccab 6c3e
000003e0: d9eb 99bd 7125 14bd ef86 673c 93af 943d
000003f0: b423 0bbe 3ae9 5dbe 4d19 ab3b 34f2 cabd

nn.0.bias f4 [128]
-0.00982931 -0.025362788 -0.04578968 -0.018602582 0.010685845 -0.021573145 -0.00833566 -0.014707095
-0.018988034 0.007300406 0.021919966 0.033003647 -0.008149674 -0.0065735653 0.009577001 -0.015789647
-0.024056092 -0.023307465 -0.04658136 -0.008628785 -0.07487251 0.009519712 -0.04957095 -0.056281198
-0.030118065 -0.03532742 -0.03800114 0.0078307055 0.003012378 -0.03810335 0.010084168 -0.04143854
-0.0053210077 -0.04166031 -0.07819232 0.0028366162 0.010531086 0.040754102 -0.032588866 -0.028104967
-0.04095746 -0.0064898566 -0.03451218 0.006599832 -0.007818208 0.019789962 -0.035187323 -0.05975647
-0.043861892 0.058793128 -0.025005871 -0.0403409 -0.028647926 -0.02823745 -0.034123782 -0.026513437
0.025563061 -0.0049605127 -0.00489292 0.031914163 -0.006777798 -0.03192038 -0.06468948 -0.018398264
-0.018407488 0.048766088 0.0475556 0.0018768044 -0.031019848 -0.030044002 0.01677407 0.025438232
-0.059607092 -0.025044383 -0.017631406 0.0051829857 -0.028761744 -0.037042763 -0.015091103 -0.013659952
0.028073056 -0.0154207675 -0.0075256703 -0.029459054 -0.030521125 0.06673868 0.0083852885 -0.002387694
0.044110764 0.030324413 -0.011709616 -0.06031363 -0.046697084 -0.018657146 0.034790795 -0.025254777
-0.02350056 0.023879852 -0.005902086 0.030735806 -0.032421846 0.009164049 -0.016761879 -0.014606136
0.022642286 -0.008974291 -0.024429355 0.05143836 -0.0069972477 -0.014791096 -0.005798442 0.03606753
0.012407657 -0.023089524 0.010007927 -0.017185347 0.0072006364 0.027059665 -0.03802571 -0.032255065
-0.04029255 -0.031232746 0.03772766 -0.0033267427 0.056497104 0.01336513 -0.02164562 -0.026379079
00000000: 1d0b 21bc 9fc5 cfbc f68d 3bbd 7164 98bc
00000010: af13 2f3c 2aba b0bc 4b92 08bc 07f6 70bc
00000020: cb8c 9bbc 3f38 ef3b 8091 b33c d52e 073d
00000030: 3686 05bc 1067 d7bb dbe8 1c3c 4a59 81bc
00000040: 4811 c5bc 4cef bebc 19cc 3ebd bf5f 0dbc
00000050: c256 99bd 91f8 1b3c e90a 4bbd 1d87 66bd
00000060: 29ba f6bc 7cb3 10bd 15a7 1bbd 5c4c 003c
00000070: 516b 453b 4212 1cbd 1138 253c 75bb 29bd
00000080: d95b aebb 00a4 2abd 4c23 a0bd 86e6 393b
00000090: 938a 2c3c c6ed 263d e77b 05bd 633c e6bc
000000a0: 02c3 27bd dda8 d4bb a55c 0dbd 6743 d83b
000000b0: f117 00bc 8f1e a23c 9520 10bd 33c3 74bd
000000c0: 87a8 33bd 10d1 703d 1dd9 ccbc 803c 25bd
000000d0: 0eaf eabc 3a52 e7bc 61c5 0bbd b532 d9bc
000000e0: a069 d13c cc8b a2bb ca54 a0bb 6db8 023d
000000f0: 4a18 debb f2be 02bd eb7b 84bd f5b7 96bc
00000100: 4dcb 96bc f3be 473d a9c9 423d 1bff f53a
00000110: 561d febc d71e f6bc c669 893c d763 d03c
00000120: 9126 74bd e129 cdbc bd6f 90bc 09d6 a93b
00000130: c09d ebbc 27ba 17bd ac40 77bc fecd 5fbc
00000140: 77f9 e53c 63a7 7cbc e699 f6bb 1d54 f1bc
00000150: 7007 fabc 4aae 883d 7362 093c dc7a 1cbb
00000160: 7dad 343d e76a f83c b0d9 3fbc 6d0b 77bd
00000170: 7145 3fbd dfd6 98bc cb80 0e3d 1be3 cebc
00000180: 3f84 c0bc ae9f c33c 4966 c1bb a8c9 fb3c
00000190: c5cc 04bd cf24 163c 3550 89bc 934e 6fbc
000001a0: 517c b93c e808 13bc 1220 c8bc 08b1 523d
000001b0: 2b49 e5bb 5a56 72bc db00 bebb 8cbb 133d
000001c0: 7c49 4b3c 3e26 bdbc 4af8 233c 49c8 8cbc
000001d0: 51f3 eb3b 3bac dd3c d9c0 1bbd e31d 04bd
000001e0: cd09 25bd d1db ffbc 5288 1a3d 7b05 5abb
000001f0: 8269 673d 6bf9 5a3c 2852 b1bc f018 d8bc

nn.2.weight f4 [1, 128]
0.061486382 0.13917427 0.11269927 0.15680757 0.04282442 -0.2541059 -0.0883473 -0.10843903
0.10118539 -0.1574046 -0.22411942 0.15255469 0.071178064 -0.27750397 0.20925908 -0.0490344
-0.0010471531 -0.18601255 -0.111356206 -0.029176023 0.109072365 0.11909185 -0.10548285 -0.28894264
0.0030280566 0.03628512 0.18534884 -0.1846085 0.020218968 0.02631859 -0.13313335 0.2996972
-0.13394733 -0.14504494 -0.19681045 0.06720465 -0.206485 0.16483538 0.14382984 -0.050725345
-0.09276772 0.25523597 0.0991353 0.15791345 -0.0031173448 -0.082425095 -0.22717695 0.09450504
0.24447314 0.14619541 -0.17910786 0.15375067 0.2344848 0.12373014 0.0095725395 0.06624601
0.0137026105 -0.05899838 0.0020682323 0.1343949 -0.018555703 0.16859154 -0.19673783 -0.09765453
0.042636096 -0.22485566 0.16248529 0.26395294 -0.08436897 0.23496452 0.12663299 -0.18443517
0.03499396 0.17080687 -0.13450775 -0.12142209 -0.09922125 0.17168438 0.030777467 0.08669454
0.15596339 -0.00027515122 -0.19006935 0.076823175 -0.07777915 0.16406345 0.17748809 -0.040085897
-0.057089325 0.20222718 0.057262644 -0.014549895 0.19765846 0.043172356 -0.24157642 -0.03201913
0.036683492 -0.2954799 -0.0150059145 0.06791804 0.18095465 -0.16369034 0.14222527 -0.041541208
0.13011274 0.20998251 0.032232124 -0.08295819 0.021791399 -0.21019582 0.030740362 0.0570893
0.12093758 -0.19890925 0.16649222 0.2757712 -0.06177787 0.17665409 -0.09309604 0.022457842
-0.119510025 -0.25715482 -0.0756387 -0.25943255 0.013256373 0.2553431 -0.10850028 -0.0830577
00000000: 25d9 7b3d b383 0e3e e0ce e63d 2a92 203e
00000010: a968 2f3d 2b1a 82be 6eef b4bd 4815 debd
00000020: 493a cf3d ac2e 21be 907f 65be 4c37 1c3e
00000030: cec5 913d 0015 8ebe 0348 563e 4cd8 48bd
00000040: a140 89ba 137a 3ebe b90e e4bd 8e02 efbc
00000050: 5561 df3d 6ee6 f33d 6407 d8bd 4af0 93be
00000060: 5c72 463b b59f 143d 16cc 3d3e 030a 3dbe
00000070: 40a2 a53c 159a d73c 1c54 08be e971 993e
00000080: 7d29 09be a986 14be ae88 49be 97a2 893d
00000090: ce70 53be 9bca 283e 2148 133e 61c5 4fbd
000000a0: 01fd bdbd 4aae 823e 7307 cb3d 10b4 213e
000000b0: 5e4c 4cbb 7dce a8bd 13a1 68be dc8b c13d
000000c0: 2b57 7a3e 40b4 153e 0d68 37be d170 1d3e
000000d0: c91c 703e 3a66 fd3d 24d6 1c3c fdab 873d
000000e0: ea80 603c 49a8 71bd 2e8b 073b d19e 093e
000000f0: 2102 98bc 43a3 2c3e a475 49be 19ff c7bd
00000100: 30a3 2e3d 9040 66be 8b62 263e d724 873e
00000110: a3c9 acbd 8a9a 703e 14ac 013e 93dc 3cbe
00000120: d455 0f3d ffe7 2e3e 66bc 09be 25ac f8bd
00000130: 8334 cbbd 08ce 2f3e 0721 fc3c e88c b13d
00000140: deb4 1f3e 2c42 90b9 8aa1 42be 7855 9d3d
00000150: ad4a 9fbd 4000 283e 70bf 353e 1c31 24bd
00000160: 7fd6 69bd a414 4f3e 3c8c 6a3d af62 6ebc
00000170: fb66 4a3e 7fd5 303d cf5f 77be 7e26 03bd
00000180: 6e41 163d 2449 97be 5edb 75bc 9d18 8b3d
00000190: 2d4c 393e 719e 27be 80a3 113e 1d27 2abd
000001a0: 463c 053e a805 573e d505 043d fce5 a9bd
000001b0: e083 b23c 933d 57be 36d3 fb3c 78d6 693d
000001c0: 1fae f73d deae 4bbe f07c 2a3e e231 8d3e
000001d0: cb0a 7dbd cfe4 343e 23a9 bebd 82f9 b73c
000001e0: acc1 f4bd cca9 83be 76e8 9abd 58d4 84be
000001f0: 4231 593c 55bc 823e 6535 debd 281a aabd
